Experiments/Experiments-001/checkpoints/model.pt (torch, 111823 bytes, 27 tensors)

cp.convs.0.weight f4 [2, 1, 3, 3]
0	0x3eb55084	0.3541299
1	0x3e954bfd	0.29159537
2	0x3f02e6e6	0.51133573
3	0x3e92f951	0.28705838
4	0xbef8af9d	-0.48571482
5	0x3f18f3d1	0.59747034
6	0xbf27f7b3	-0.65612334
7	0x3e4df529	0.20113052
8	0xbee9790e	-0.4560017
9	0x3e0d8cd5	0.13823254
10	0xbebc6391	-0.36794713
11	0xbe0e2108	-0.13879788
12	0xbe2931d2	-0.16522911
13	0xbd72a05c	-0.059234962
14	0xbe515db5	-0.20445903
15	0xbe472731	-0.19448544
16	0xbea8139c	-0.3282746
17	0xbda99fbd	-0.08282421

cp.convs.1.weight f4 [4, 1, 3, 3]
0	0x3db22316	0.08698098
1	0xbf17c0a5	-0.5927833
2	0x3f0e7c5b	0.556585
3	0xbec40971	-0.38288453
4	0x3f0e393d	0.5555609
5	0xbf37d5e6	-0.7181076
6	0xbdb4e6e4	-0.088331014
7	0x3d681695	0.05666216
8	0x3d2f10c8	0.042740613
9	0xbdbfb1c6	-0.093600795
10	0xbf089049	-0.5334516
11	0xbf0dc14d	-0.5537308
12	0xbd19baec	-0.03753178
13	0xbd6189fa	-0.055063225
14	0xbf0a80d2	-0.54102814
15	0x3ed010c4	0.4063779
16	0x3d05db74	0.03267999
17	0xbd0f850f	-0.035039004
18	0xbdfcba69	-0.123402424
19	0xbeafada1	-0.34312156
20	0x3e550107	0.20801173
21	0xbdfa5108	-0.12222487
22	0xbeae9aa7	-0.34102365
23	0xbe2cab7c	-0.16862291
24	0x3df61d67	0.12017327
25	0xbea50e13	-0.322373
26	0x3e8af9d8	0.2714374
27	0x3f0b22c6	0.54349935
28	0xbe4de795	-0.20107873
29	0xbe629e21	-0.22130634
30	0xbe297704	-0.16549307
31	0xbe50936c	-0.20368737
32	0xbe5fcd8f	-0.21855758
33	0x3d37839b	0.044803243
34	0xbea35c8e	-0.3190655
35	0xbe37b1b1	-0.17938878

cp.convs.2.weight f4 [8, 1, 3, 3]
0	0x3f13ee14	0.57785153
1	0x3ea038bc	0.31293285
2	0x3e298884	0.16555983
3	0x3e7db29b	0.24775164
4	0x3ef55bf8	0.4792173
5	0x3bdfe681	0.006832898
6	0x3f0f6435	0.5601228
7	0x3dd03905	0.101671256
8	0x3eff3422	0.49844462
9	0x3ed699a3	0.4191409
10	0xbf57d93f	-0.84315866
11	0x3f17e464	0.5933287
12	0xbeaf0d69	-0.3418992
13	0x3f47d8fc	0.78065467
14	0xbee3f446	-0.44522303
15	0xbe85381b	-0.26019368
16	0x3eac454d	0.33646622
17	0xbe6a983c	-0.22909635
18	0x3d5ab767	0.053397562
19	0x3e5c0935	0.21487887
20	0x3f0e477c	0.55577826
21	0xbe2e56be	-0.17025277
22	0x3d92f77d	0.07176111
23	0xbe60d275	-0.21955283
24	0x3db85ebb	0.090024434
25	0x3ee73e10	0.45164537
26	0x3eb67299	0.35634306
27	0x3eaa474e	0.33257526
28	0xbe6b572c	-0.22982472
29	0xbf43deac	-0.76511645
30	0x3ef08cf1	0.4698253
31	0x3e8ac08a	0.2710002
32	0x3d0ee467	0.03488579
33	0x3eb1cb24	0.34725296
34	0x3ea836f9	0.3285444
35	0xbb552cb2	-0.0032527861
36	0x3de05afa	0.109548524
37	0xbe9bfe7a	-0.30467588
38	0x3cefd393	0.029275691
39	0xbea1f375	-0.31631055
40	0x3e8dd606	0.2770235
41	0xbe21a55a	-0.15785733
42	0xbea0b107	-0.3138506
43	0xbd612bb4	-0.05497332
44	0xbe8befd1	-0.27331403
45	0x3e51f0ef	0.20502065
46	0xbd836ffa	-0.06417842
47	0xbe87ee7e	-0.26549143
48	0xbebc91cb	-0.3682998
49	0xbd718a76	-0.058969937
50	0xbe2c7e4c	-0.16845053
51	0xbe896572	-0.2683521
52	0x3e5a78f8	0.21335208
53	0xbe1334f9	-0.14375676
54	0xba0937bc	-0.00052344403
55	0xbe81eede	-0.25377554
56	0xbe61b710	-0.22042489
57	0xbdcf67a7	-0.10127192
58	0x3eafd0e2	0.34339052
59	0x3e2d6051	0.16931273
60	0xbe595bbc	-0.212264
61	0xbe7b8ee1	-0.24566223
62	0xbe89e6ae	-0.26933807
63	0xbef654bf	-0.4811153
64	0xbbf2dc39	-0.0074115065
65	0x3f255d73	0.6459572
66	0xbdf7b9bc	-0.12095973
67	0x3e7df4a0	0.24800348
68	0xbd406145	-0.046967763
69	0x3e8f1973	0.27949104
70	0x3ee835ea	0.45353633
71	0x3ebedb46	0.37276667

cp.convs.3.weight f4 [16, 1, 3, 3]
0	0xbec671ab	-0.38758597
1	0xbe384a4a	-0.17997089
2	0xbe9848e2	-0.29743105
3	0xbca871ec	-0.020562135
4	0xbea7c858	-0.32770038
5	0x3e8a17e2	0.26971346
6	0xbe91b9b1	-0.28461984
7	0xbd31a801	-0.04337311
8	0xbeb2fc9b	-0.34958348
9	0xbe56f087	-0.20990191
10	0xbee3ebaa	-0.44515735
11	0xbefd9c4a	-0.49533302
12	0x3e89c016	0.26904362
13	0xbd2bfd9b	-0.041989904
14	0xbe96c60a	-0.29447967
15	0x3e71f162	0.23627236
16	0xbdb82e1b	-0.08993169
17	0xbd30be98	-0.043150514
18	0x3f07f70f	0.53111356
19	0xbf49aceb	-0.78779477
20	0x3ef838c5	0.48480812
21	0xbefbb54c	-0.49161756
22	0x3f112998	0.5670409
23	0xbe1bbe83	-0.15209393
24	0x3cbac320	0.022798121
25	0x3ea1c95e	0.31598943
26	0xbed9122e	-0.42396683
27	0xbe85148d	-0.25992242
28	0xbf1e3336	-0.6179689
29	0xbea8fefb	-0.33007035
30	0xbf345501	-0.70442206
31	0xbea037e8	-0.31292653
32	0xbe99edad	-0.30064145
33	0xbf17da63	-0.59317607
34	0xbe9365f0	-0.2878871
35	0x3e9aa2a0	0.30202198
36	0x3db8b4b4	0.090188414
37	0xbe8d21c4	-0.27564824
38	0xbe04c93e	-0.12967393
39	0xbdffefbc	-0.124968976
40	0xbed53008	-0.41638207
41	0xbebe31cb	-0.37147364
42	0xbd4ab999	-0.049493406
43	0xbe657200	-0.22406769
44	0xbe2b11ce	-0.1670601
45	0x3f28ef97	0.65990585
46	0xbe51f103	-0.20502095
47	0x3ee6c313	0.45070705
48	0xbe4eb39c	-0.20185703
49	0x3ecdf062	0.4022246
50	0x3e044bf5	0.129196
51	0x3e5525b2	0.20815161
52	0xbe29fb36	-0.16599736
53	0x3e8d5432	0.27603298
54	0x3e16333d	0.14667983
55	0xbd845ef2	-0.06463422
56	0xbeb9e774	-0.36309397
57	0xbd206bb8	-0.03916523
58	0x3e9f845b	0.31155667
59	0xbe0a2f1b	-0.13494532
60	0xbf14734e	-0.5798844
61	0x3c149c22	0.009070428
62	0xbed99679	-0.42497614
63	0x3e8495a2	0.2589541
64	0x3dfc368a	0.1231509
65	0xbe77823c	-0.24170774
66	0x3d4f5884	0.050621524
67	0x3ca5958d	0.020212913
68	0xbe2f84dc	-0.17140526
69	0x3ebfde9b	0.37474522
70	0x3ea7d4e9	0.32779625
71	0x3ec75a90	0.3893628
72	0xbed252b7	-0.4107873
73	0xbe856b8c	-0.26058614
74	0xbe0522ec	-0.13001603
75	0x3d7284d8	0.05920872
76	0x3ced9a67	0.029004289
77	0xbe8b9935	-0.27265325
78	0xbe58c4d9	-0.21168841
79	0xbdc90f76	-0.09817402
80	0x3e37c1a7	0.17944966
81	0x3c53802d	0.012908977
82	0x3e2cb913	0.16867475
83	0x3e99d180	0.30042648
84	0x3e47ae54	0.19500095
85	0xbd176ad1	-0.036967102
86	0x3eb5feff	0.3554611
87	0x3e96f273	0.2948185
88	0xbe8b4394	-0.27199996
89	0xbd9bb2b0	-0.07602441
90	0xbe368cf1	-0.17827202
91	0x3e035088	0.12823689
92	0x3e507771	0.20358063
93	0x3e1db5bf	0.15401362
94	0x3e677eea	0.22607008
95	0x3e98ef42	0.2987004
96	0x3e82e054	0.25561774
97	0xbe403971	-0.18771912
98	0x3ddeacb7	0.108727865
99	0x3de16a8a	0.11006649
100	0xbd921574	-0.07132998
101	0xbe615d9b	-0.22008364
102	0x3eb1ee2a	0.34752017
103	0x3ec56df6	0.38560456
104	0x3ebbed7a	0.36704618
105	0xbd89e04c	-0.06732234
106	0xbe0f0c7c	-0.13969606
107	0x3e9b51b4	0.30335772
108	0x3dd08ca8	0.10183078
109	0xbc138939	-0.009004884
110	0x3ec88188	0.39161325
111	0x3eb65ba2	0.35616785
112	0xbdfa1da0	-0.12212682
113	0xbe3ac9f3	-0.182411
114	0xbd571d92	-0.052518435
115	0x3db53ed6	0.08849876
116	0x3eab95a6	0.3351261
117	0xbebdb769	-0.37053993
118	0xbe788cd2	-0.24272469
119	0x3e0dd835	0.13852008
120	0x3e9058b9	0.2819269
121	0xbd43d6c8	-0.047812253
122	0xbe89ff97	-0.26952812
123	0xbe1498a7	-0.14511357
124	0xbe52bc0a	-0.20579544
125	0xbe455969	-0.19272389
126	0x3ec50ca5	0.3848621
127	0xbe94218b	-0.2893184
128	0x3de57b2d	0.112051345
129	0x3cffb819	0.031215714
130	0x3ea691c6	0.3253309
131	0x3e5f1be9	0.2178799
132	0xbe6a1383	-0.22859006
133	0xbe0a15de	-0.13484904
134	0x3e308bf5	0.1724089
135	0xbf4ee7b0	-0.8082228
136	0xbf18c7db	-0.59679955
137	0x3ca16f04	0.019706257
138	0xbf23acb1	-0.6393538
139	0xbf005170	-0.50124264
140	0x3f379a98	0.71720266
141	0x3e1d583e	0.15365693
142	0x3f2dfa1a	0.6795975
143	0x3f7616ae	0.96128356

_mlp.0.weight f4 [64, 60]
0	0x3c876949	0.016529696
1	0xbec88419	-0.39163283
2	0x3e07bc9c	0.13255543
3	0xbe970be9	-0.29501274
4	0x3e864254	0.2622248
5	0xbbf84d2a	-0.007577558
6	0xbc3b4b46	-0.011431521
7	0xbeb5afd6	-0.35485715
8	0x3e64591d	0.22299619
9	0xbe0701be	-0.13184258
10	0xbe3db911	-0.18527628
11	0xbeaf0034	-0.34179842
12	0xbe1177ab	-0.14205806
13	0x3e2e369a	0.17013016
14	0x3de8c05c	0.11364815
15	0xbdea8c2a	-0.114525154
16	0xbcc1b269	-0.023644643
17	0x3d878751	0.066176064
18	0x3d46c4e9	0.048527632
19	0xbe2fd78b	-0.17172067
20	0xbb96c277	-0.0046008187
21	0x3d9059b3	0.07048359
22	0xbd8f01e1	-0.0698278
23	0xbe260d04	-0.16215903
24	0x3ba11d4c	0.0049168225
25	0xbbeff3f5	-0.007322783
26	0x3e038b4b	0.12846105
27	0xbe397af6	-0.18113312
28	0x3b42834a	0.0029680305
29	0xbdd19e15	-0.1023523
30	0xbef7c34c	-0.48391187
31	0x3ddf144c	0.10892543
32	0xbdf5436b	-0.119757496
33	0xbde4b41a	-0.11167164
34	0xbe0163ab	-0.12635677
35	0xbe35ebeb	-0.17765777
36	0xbc938da0	-0.018011868
37	0xbd0f18d1	-0.034935776
38	0x3d6c0012	0.057617255
39	0x3de5bd1c	0.112177104
40	0x3ddf1357	0.10892361
41	0x3dd24654	0.1026732
42	0xbd96bc91	-0.07360185
43	0x3e594ca7	0.21220647
44	0xbc847d5a	-0.016173054
45	0x3c40e5ac	0.011773508
46	0xbef5200b	-0.4787601
47	0x3d36aafc	0.044596657
48	0xbcb82bb0	-0.02248177
49	0xbe0cfbd9	-0.13767947
50	0xbe24f07a	-0.1610736
51	0xbdb5a374	-0.08869067
52	0xbd1e263e	-0.03861069
53	0xbd476475	-0.048679788
54	0x3d8a8b30	0.06764829
55	0x3c1f271f	0.009713917
56	0x3da7a5e7	0.0818594
57	0x3d08d863	0.033409487
58	0x3df8cb63	0.12148168
59	0x3e0bee89	0.13665213
60	0x3ea6a639	0.32548693
61	0xbef3aeb8	-0.47594237
62	0x3e9a44a7	0.30130503
63	0xbec7c9c7	-0.3902113
64	0x3fbe82d0	1.4883671
65	0xbea800fc	-0.3281325
66	0xbe1d7689	-0.15377249
67	0xbf060597	-0.5235228
68	0x3fcdd124	1.607945
69	0xbe5fb978	-0.21848094
70	0xbe970454	-0.2949549
71	0xbecd7688	-0.40129495
72	0x3ef1d220	0.47230625
73	0x3f35f281	0.71073157
74	0xbd542781	-0.051795486
75	0xbf0ecdaf	-0.557826
76	0x3e588507	0.21144496
77	0x3d79ed0e	0.06101709
78	0x3e53065c	0.20607895
79	0xbe8a7612	-0.27043205
80	0x3ed5b878	0.417423
81	0x3f43365f	0.7625484
82	0xbd71f717	-0.059073534
83	0xbf1f7600	-0.6228943
84	0x3df76156	0.12079112
85	0x3df831b6	0.121188566
86	0x3d0e006e	0.03466838
87	0xbe846234	-0.25856173
88	0x3cd3443e	0.025789376
89	0xbe9da038	-0.307863
90	0x3e8f79ac	0.28022516
91	0x3e3faa45	0.18717296
92	0xbdf1a32c	-0.11798701
93	0x3cae9247	0.021309985
94	0xbd5dcb3e	-0.054148905
95	0x3d1cbf16	0.03826817
96	0x3db7692a	0.08955605
97	0x3eac2e93	0.33629283
98	0xbd0c40e7	-0.034241583
99	0x3e6debeb	0.23234527
100	0x3ea759ed	0.32685795
101	0x3e716128	0.23572218
102	0x3ea53153	0.32264194
103	0xbf2415c4	-0.6409571
104	0x3d56e099	0.052460287
105	0xbe8a13ca	-0.26968223
106	0x3ed62889	0.418278
107	0x3e52dbe5	0.20591696
108	0xbdb1a8e6	-0.08674793
109	0x3e375480	0.17903328
110	0xbe4ccdfb	-0.2000045
111	0x3d463056	0.04838594
112	0x3e184e36	0.14873585
113	0x3ea04a79	0.31306818
114	0xbda428f4	-0.08015624
115	0x3e7b42d0	0.24537206
116	0x3e8fdb60	0.28097057
117	0x3e79b5c5	0.24385746
118	0x3e4a2fcc	0.19744796
119	0xbf32b60c	-0.6980903
120	0x3ef00f52	0.46886688
121	0xbf50f6e8	-0.8162675
122	0x3ee09d12	0.43869835
123	0xbf406e8c	-0.7516868
124	0x3f28bba5	0.6591132
125	0xbd83b217	-0.06430452
126	0xbeb808ad	-0.3594412
127	0xbf3b8075	-0.73242885
128	0x3f290009	0.6601568
129	0x3cecd4b4	0.028910019
130	0xbef40ffd	-0.47668448
131	0xbf3f521f	-0.7473468
132	0xbe48aa53	-0.19596224
133	0x3e1020f7	0.14075075
134	0x3e8bb16e	0.27283806
135	0xbe95893d	-0.29206267
136	0xbf2079c2	-0.6268579
137	0x3e4eb959	0.20187892
138	0x3ebd373e	0.3695621
139	0xbe8f040c	-0.27932775
140	0xbdca9f36	-0.09893648
141	0x3e9a55c4	0.3014356
142	0x3cee6d81	0.02910495
143	0xbe9de977	-0.30842182
144	0xbf0f753a	-0.5603825
145	0x3e325845	0.17416485
146	0x3ed181c9	0.4091933
147	0xbe4c5d50	-0.19957471
148	0xbea98843	-0.33111772
149	0x3f36ca22	0.7140218
150	0xbda0d343	-0.07852795
151	0x3f0fdc06	0.56195104
152	0x3dc0e18c	0.0941802
153	0xbee23ce9	-0.44187096
154	0xbde4f4ef	-0.1117953
155	0x3e51b16d	0.20477839
156	0xbdb84df9	-0.08999247
157	0x3f2c7eb9	0.67380863
158	0xbdb5455e	-0.08851121
159	0x3e521d8e	0.20519087
160	0x3ef2bb84	0.47408688
161	0x3ed95ccc	0.4245361
162	0x3e6e31df	0.23261212
163	0x3d838c9d	0.06423304
164	0xbf038763	-0.5137846
165	0x3f3db5d6	0.74105585
166	0xbd80862c	-0.06275591
167	0x3f0a5de0	0.5404949
168	0xbd3b2265	-0.045687098
169	0xbee7f883	-0.45306787
170	0xbcd364c3	-0.025804883
171	0x3d6991db	0.057023864
172	0xbe2d3cf0	-0.16917777
173	0x3f318fdb	0.6936013
174	0xbe0fa3ab	-0.14027278
175	0x3eb78e56	0.3585078
176	0x3f10c63e	0.56552494
177	0x3ec93a1a	0.3930214
178	0x3e27d8e5	0.16391332
179	0xbe05bcae	-0.13060257
180	0x3e93c470	0.28860807
181	0xbeba6792	-0.36407143
182	0x3dd7fffb	0.10546871
183	0xbeea322e	-0.4574141
184	0x3ea0eea8	0.3143208
185	0x3e31932a	0.17341295
186	0xbe904d6d	-0.2818407
187	0xbeb9847c	-0.3623389
188	0x3ef98f25	0.48742023
189	0x3d5a0d03	0.053235065
190	0xbe25a516	-0.16176257
191	0xbec33808	-0.38128686
192	0x3dfbb4b8	0.12290329
193	0x3b8719ed	0.0041229636
194	0x3e29b418	0.16572607
195	0xbc5d3b23	-0.013502869
196	0xbd42bce2	-0.047543414
197	0xbd122adb	-0.0356854
198	0xbcdba728	-0.026813105
199	0xbec9ba4a	-0.3939994
200	0xbc5c8d53	-0.013461429
201	0x3dda62fb	0.1066341
202	0x3e4e2769	0.20132221
203	0xbd70f14f	-0.05882388
204	0x3db0c4b0	0.08631265
205	0x3dfb2134	0.12262192
206	0x3cb721d6	0.022355001
207	0xbee58186	-0.4482538
208	0xbd8f6777	-0.07002156
209	0x3e46a502	0.19398883
210	0xbe0d445e	-0.13795611
211	0x3ee949b4	0.45564044
212	0x3dfc2a04	0.12312701
213	0x3deac7d0	0.114638925
214	0x3e2d7b5e	0.16941592
215	0x3dd0f725	0.10203389
216	0x3d928ac0	0.07155371
217	0x3e684c53	0.22685365
218	0xbc30e438	-0.010796599
219	0x3e109053	0.14117555
220	0x3ec13ed1	0.37743238
221	0x3ec47bda	0.3837574
222	0xbe06aa82	-0.13150981
223	0xbf1708a1	-0.5899754
224	0xbca692d7	-0.02033369
225	0x3e5802f8	0.21094882
226	0xbd751426	-0.05983367
227	0x3e88eedc	0.26744735
228	0x3e47c96a	0.19510427
229	0x3e347ee3	0.17626528
230	0x3da660f9	0.08123965
231	0xbd474324	-0.048648015
232	0xbc40d0b5	-0.01176851
233	0x3d214915	0.039376337
234	0xbda75358	-0.081701934
235	0x3dee7193	0.11642756
236	0x3e1cfe33	0.15331344
237	0x3ebc27fa	0.3674925
238	0xbe32b4ae	-0.17451736
239	0xbf16ed19	-0.5895553
240	0x3f4479b6	0.76748216
241	0xbf1ca8fd	-0.61195356
242	0x3f17164c	0.590184
243	0xbf37dcd6	-0.71821344
244	0x3f072510	0.5279093
245	0x3e6511e7	0.2237011
246	0xbe4d5785	-0.20052917
247	0xbe8ffb00	-0.28121185
248	0x3ee6c062	0.4506865
249	0x3e5fb2f8	0.21845615
250	0xbe3802e1	-0.17969848
251	0xbed0237a	-0.40652066
252	0xbe689082	-0.22711375
253	0x3e9ecd3e	0.31015962
254	0x3f40ba4e	0.7528428
255	0xbe5ff7c9	-0.21871866

_mlp.0.bias f4 [64]
0	0xbedaad74	-0.4271046
1	0xbeb3067a	-0.3496588
2	0xbf4638e2	-0.77430546
3	0xbec73974	-0.3891102
4	0xbf7dad7b	-0.99092835
5	0xbed30269	-0.41212776
6	0xbf2b5100	-0.6692047
7	0xbedc8325	-0.43068805
8	0xbec9e5c1	-0.394331
9	0xbefa1cf5	-0.48850217
10	0xbf35ddce	-0.7104157
11	0x3dc81d06	0.09771161
12	0xbefa8a14	-0.4893347
13	0xbeec0b6e	-0.4610247
14	0xbf21504e	-0.6301316
15	0xbf22c60d	-0.6358345
16	0xbed22a8c	-0.41048086
17	0xbf2abbf9	-0.66693074
18	0xbed8c5a1	-0.4233828
19	0xbf001b74	-0.5004189
20	0xbed8d366	-0.42348784
21	0xbebe6be8	-0.371917
22	0xbf3a836d	-0.7285679
23	0xbec99ed7	-0.39378998
24	0xbed5be99	-0.41746977
25	0xbecd3efd	-0.4008712
26	0xbf21aaaa	-0.6315104
27	0xbe94ee42	-0.29088026
28	0xbf1bdcd9	-0.6088386
29	0xbef88a01	-0.4854279
30	0xbdc11e76	-0.09429638
31	0xbee34ae3	-0.44393072
32	0x3c8748e6	0.016514253
33	0xbf131c9b	-0.57465523
34	0xbf0b8bba	-0.5451008
35	0xbebcea0b	-0.3689731
36	0xbe9e57a2	-0.30926234
37	0xbf767752	-0.9627582
38	0xbf187d58	-0.5956626
39	0xbf5340d0	-0.8252077
40	0xbe71d0b6	-0.23614773
41	0xbf5439f8	-0.82900953
42	0xbf40a07a	-0.7524487
43	0xbf27ea36	-0.6559175
44	0x3edc82c2	0.4306851
45	0xbf0e3281	-0.5554581
46	0xbebd8f44	-0.37023365
47	0xbf1b5da8	-0.60689783
48	0xbeeac80c	-0.4585575
49	0xbe06e52e	-0.13173363
50	0xbec82c83	-0.3909646
51	0xbf51edbf	-0.82003397
52	0x3d854614	0.06507507
53	0xbf5942f4	-0.8486779
54	0xbe2efbf5	-0.17088301
55	0xbee92a37	-0.4554002
56	0xbf6f7daa	-0.93551123
57	0xbf85c278	-1.0449972
58	0xbf1083fe	-0.56451404
59	0x3dc6f9b4	0.09715596
60	0xbf10b9c3	-0.5653345
61	0xbea050f0	-0.3131175
62	0xbf28c62e	-0.659274
63	0xbf105b6c	-0.563895

_mlp.2.weight f4 [64, 64]
0	0xbd362b0c	-0.044474646
1	0xbe5d0ff7	-0.21588121
2	0xbd820b7e	-0.06349848
3	0x3e29ed0b	0.16594331
4	0xbdff235c	-0.12457916
5	0x3c06aaa7	0.008219398
6	0x3e7e4922	0.24832585
7	0xbcd8a5fe	-0.026446339
8	0x3e87979d	0.2648286
9	0x3dd90bb5	0.10597936
10	0x3db800b4	0.08984509
11	0x3d6349e1	0.05549038
12	0xbe99fb84	-0.30074704
13	0x3d708b5e	0.05872666
14	0xbda0b95d	-0.07847855
15	0x3b9e0400	0.004822254
16	0xbc8b7029	-0.017021256
17	0x3e5b580e	0.21420309
18	0xbc339825	-0.010961567
19	0xbe717ac8	-0.23581994
20	0xbc4ef04e	-0.012630535
21	0x3dbef9f4	0.093250185
22	0xbf3b1844	-0.730839
23	0xbf08d59f	-0.5345096
24	0x3d872fc1	0.06600905
25	0xbf250cb6	-0.6447252
26	0xbec14224	-0.37745774
27	0xbe25500e	-0.1614382
28	0x3df2a183	0.11847212
29	0x3e0f86a7	0.1401621
30	0xbe0f9c7d	-0.1402454
31	0xbe13134e	-0.14362833
32	0xbd7e054c	-0.06201677
33	0xbf6ddfc0	-0.9291954
34	0x3ed54b80	0.41659164
35	0xbd03573f	-0.032065626
36	0x3be58ec2	0.0070055434
37	0xbe64e8a0	-0.22354364
38	0x3df7e3e0	0.121040106
39	0xbe8e787f	-0.27826306
40	0xbd649b65	-0.05581226
41	0xbe6ee21f	-0.23328446
42	0xbdce3ffb	-0.10070797
43	0x3f263900	0.64930725
44	0xbeb395fd	-0.3507537
45	0x3b35d064	0.0027742619
46	0xbddfe64e	-0.10932599
47	0x3dc07d99	0.09398956
48	0xbdb97bff	-0.090568535
49	0xbde6c3bb	-0.112678014
50	0xbc83e40d	-0.016099954
51	0x3dc973c6	0.09836535
52	0xbdc8e36d	-0.09809003
53	0xbe82394d	-0.25434342
54	0x3e8fb9d4	0.28071463
55	0x3db9bd6c	0.090693325
56	0x3d0d12bb	0.03444169
57	0xbe165d2f	-0.14683984
58	0xbe8fe0c4	-0.2810117
59	0xbe643fcd	-0.22289963
60	0xbc9c03d5	-0.019044796
61	0xbe22ee03	-0.15911107
62	0xbcbe5df2	-0.023238156
63	0xbdc75716	-0.09733407
64	0xbe0b391d	-0.13596006
65	0xbd832df6	-0.06405251
66	0x3d0aa3d1	0.033847634
67	0xbdd50ff8	-0.104034364
68	0xbdfb65d8	-0.122752845
69	0x3d8429e0	0.064532995
70	0x3da361f0	0.079776645
71	0x3de59053	0.11209168
72	0x3c460fe0	0.012088746
73	0x3d7014a6	0.058613442
74	0x3cf42c20	0.029806197
75	0xbe0ca373	-0.13734226
76	0x3d3c05c4	0.045903936
77	0xbd9427fe	-0.072341904
78	0xbe3cb771	-0.18429352
79	0xbcb530e2	-0.022118036
80	0xbc80c093	-0.015716827
81	0xbe8ac139	-0.27100542
82	0x3cec08cf	0.028812794
83	0x3e0d156b	0.13777702
84	0x3d2d5184	0.042314067
85	0xbcd2a9ba	-0.025715698
86	0xbd5a58e7	-0.05330744
87	0xbbacf5cf	-0.005278326
88	0x3c932d83	0.017966038
89	0xbe01f55c	-0.12691253
90	0x3dd17b83	0.10228636
91	0xbe1dc6b0	-0.15407825
92	0xbce4ab8c	-0.027913831
93	0x3d272bca	0.040813245
94	0xbe155101	-0.14581682
95	0xbcf84e03	-0.030310636
96	0xbe16353e	-0.14668748
97	0xbcb38fc1	-0.021919133
98	0xbc45df8b	-0.012077223
99	0x3dccd86a	0.10002215
100	0xbe0ed9ea	-0.13950315
101	0x3c7ba320	0.015358716
102	0xbee2a636	-0.44267434
103	0x3cf54e50	0.029944569
104	0x3d1d545f	0.03841054
105	0x3a9e4480	0.0012074858
106	0xbcc9c6d0	-0.024630934
107	0x3d186a42	0.03721071
108	0xbd068d55	-0.03284963
109	0xbc624b9c	-0.013811972
110	0x3d816481	0.06317998
111	0x3c961b98	0.018323705
112	0x3d5fef62	0.054671653
113	0xbd746650	-0.059667885
114	0x3dc3a060	0.095520735
115	0x3debdc90	0.11516678
116	0xbb899822	-0.004199044
117	0xb94ab341	-0.00019330998
118	0xbdbd64a6	-0.09247713
119	0xbe000cf8	-0.12504947
120	0x3cfafd40	0.030638337
121	0xbdec8cf6	-0.11550324
122	0xbb93dfb1	-0.00451275
123	0xbe821ce5	-0.2541267
124	0xbdf13b0c	-0.117788404
125	0x3d573fd1	0.052551094
126	0x3c4f615d	0.012657491
127	0x3d363217	0.044481363
128	0xbc470cfa	-0.01214909
129	0xbdc738a2	-0.09727599
130	0x3e9f5d8f	0.31126067
131	0xbdde671e	-0.10859512
132	0xbce8fbb0	-0.028440326
133	0xbd4201c8	-0.04736498
134	0xbed5ce07	-0.4175875
135	0xbceb5830	-0.028728575
136	0x3df2cedc	0.118558615
137	0x3d3b0268	0.04565659
138	0xbec3e607	-0.38261434
139	0xbe2ccb86	-0.16874513
140	0xbcef51d8	-0.02921383
141	0x3df05ef4	0.11736861
142	0xbe3ce0d9	-0.18445148
143	0x3c967918	0.018368289
144	0xbd29b5e0	-0.041433215
145	0xbda91e5e	-0.08257745
146	0xbd9940aa	-0.07483037
147	0x3dd9a16a	0.106264904
148	0x3e1e6220	0.15467119
149	0xbdb84de7	-0.08999234
150	0xbe8efa18	-0.2792518
151	0xbea4b9c7	-0.32172987
152	0x3d05d030	0.032669246
153	0xbe93ab78	-0.28841758
154	0x3cd570b8	0.026054725
155	0xbcc65d48	-0.024214402
156	0xbd85abb4	-0.065268904
157	0xbd29c558	-0.041447967
158	0xbe816e18	-0.25279307
159	0x3d83c350	0.06433737
160	0xbe994c5a	-0.29941064
161	0xbdfcf4ba	-0.123513654
162	0xbeda2bab	-0.4261144
163	0xbc9918e0	-0.01868862
164	0xbd35fd74	-0.044431165
165	0x3d4d3b90	0.05010563
166	0xbeb53e1f	-0.35398957
167	0xbbb9d9c0	-0.00567171
168	0xbe60d243	-0.21955208
169	0x3dba88ea	0.091081455
170	0xbe4e9f50	-0.2017796
171	0x39b90e00	0.0003529638
172	0xbe9b4d5e	-0.30332464
173	0xbe2484fa	-0.16066352
174	0xbea7c874	-0.3277012
175	0xbd9694da	-0.0735261
176	0x3d50bb90	0.050960124
177	0xbe429b6f	-0.19004606
178	0xbb8b54a0	-0.0042520314
179	0x3d981767	0.07426339
180	0xbe54f75c	-0.20797485
181	0xbd969664	-0.073529035
182	0xbdd604e8	-0.104501545
183	0xbd9d800e	-0.0769044
184	0xbd42abf8	-0.047527283
185	0x3c7a8510	0.015290514
186	0x3d4373e8	0.04771796
187	0xbd17ead2	-0.037089176
188	0x3da9dd6c	0.08294186
189	0xbf23647e	-0.63825214
190	0x3db105df	0.08643698
191	0x3df674b8	0.12033981
192	0x3d80f9a7	0.062976174
193	0xbf0128ea	-0.50453055
194	0xbde0a6a4	-0.10969284
195	0xbdc5c9d0	-0.09657633
196	0xbd64b004	-0.055831924
197	0xbe1bfe60	-0.15233755
198	0xbd3e9ad2	-0.046534367
199	0x3b753452	0.0037415219
200	0xbe8505fb	-0.25981125
201	0x3d771c40	0.060329676
202	0x3dbd0774	0.09229937
203	0x3ba11473	0.004915768
204	0xbea4804b	-0.3212913
205	0x3dfc9722	0.12333514
206	0xbee7164a	-0.45134193
207	0x3deaf7a0	0.11473012
208	0x3e3322f1	0.17493798
209	0xbe2d5f1f	-0.16930817
210	0xbcd0cce1	-0.025488319
211	0xbd3baeb7	-0.045820918
212	0xbd386f49	-0.045028005
213	0xbbf98b9b	-0.007615519
214	0xbd47a72c	-0.048743412
215	0xbc738a0d	-0.014864457
216	0x3d54eaeb	0.051981848
217	0x3d707241	0.05870271
218	0x3dc98fb2	0.09841861
219	0xbd320761	-0.04346407
220	0xbdf3b651	-0.119000085
221	0xbc4f6a68	-0.012659647
222	0xbdbfe292	-0.09369387
223	0xbdcac585	-0.09900955
224	0xbe0187a5	-0.126494
225	0x3d9ab0c6	0.07553248
226	0xbbbea454	-0.0058179293
227	0x3a5bac08	0.00083798217
228	0xbbba3e98	-0.0056837313
229	0xbde7f3aa	-0.11325772
230	0x3e0a9d0d	0.13536473
231	0x3d3b6558	0.045750946
232	0xbba3820c	-0.004989868
233	0xbd4c8670	-0.049932897
234	0xbe13e6ce	-0.14443514
235	0xbe091cd2	-0.133899
236	0xbed05721	-0.40691474
237	0x3d442d5d	0.047894824
238	0x3d476cbf	0.048687693
239	0xbd8397b5	-0.0642542
240	0xbde70ed0	-0.11282122
241	0xbe14b09a	-0.14520493
242	0x3e1facaf	0.15593217
243	0xbe83141d	-0.25601283
244	0xbe48933a	-0.19587412
245	0xbdf617ed	-0.12016282
246	0xbdcc58dc	-0.09977886
247	0xbd7edace	-0.062220387
248	0xbec91c7f	-0.39279553
249	0xbc984398	-0.018586919
250	0xbce4a822	-0.027912203
251	0xbea75a83	-0.32686242
252	0xbc1802f6	-0.00927805
253	0x3ace1538	0.0015722876
254	0x3db5dc8c	0.088799566
255	0x3c559814	0.0130367465

_mlp.2.bias f4 [64]
0	0x3d9bf39f	0.076148264
1	0xbe8da5b5	-0.27665487
2	0xbe8ff5b1	-0.28117135
3	0xbe9a73cc	-0.3016647
4	0xbdb94206	-0.09045796
5	0xbe88ceba	-0.2672022
6	0xbe587207	-0.21137248
7	0x3def9f9b	0.11700364
8	0xbe461033	-0.19342117
9	0xbdc6de65	-0.09710387
10	0xbed3f9c3	-0.4140149
11	0xbe81734d	-0.2528328
12	0xbe93d7c0	-0.28875542
13	0xbd16cc79	-0.036816094
14	0xbe07c851	-0.13260008
15	0xbdf9c175	-0.12195102
16	0xbec150b8	-0.37756896
17	0x3d84dabb	0.06487032
18	0xbe7959dc	-0.24350685
19	0xbf15058d	-0.58211595
20	0xbd352aea	-0.04423038
21	0xbe1f945d	-0.1558394
22	0xbea6ed8e	-0.32603115
23	0xbd89d687	-0.06730371
24	0xbe62cc02	-0.22148135
25	0xbe0dc5b7	-0.13844953
26	0xbec5dbb4	-0.38644183
27	0xbe5fda7c	-0.21860689
28	0xbdd6cb20	-0.10487962
29	0xbe37b92a	-0.17941728
30	0xbe4b7112	-0.19867352
31	0xbecce0f7	-0.40015385
32	0xbf2606dd	-0.6485422
33	0xbe4cd131	-0.20001675
34	0xbdc3f0cf	-0.09567415
35	0xbe85519a	-0.2603882
36	0xbe70b0ed	-0.23504992
37	0xbe2a750a	-0.1664621
38	0xbe29f210	-0.16596246
39	0xbe95d8be	-0.29266924
40	0xbf1da650	-0.615819
41	0xbe2e4813	-0.17019682
42	0xbe810a2a	-0.25203067
43	0xbeb4fc7f	-0.3534889
44	0xbbf6ca94	-0.0075314734
45	0xbe968a2a	-0.29402286
46	0xbe164084	-0.14673048
47	0xbeb01e6d	-0.34398213
48	0xbece860d	-0.40336648
49	0xbdd40311	-0.10352147
50	0xbe257cd6	-0.16160902
51	0xbeaac011	-0.3334966
52	0x3dfefc35	0.124504484
53	0xbe9cede2	-0.3065024
54	0xbeb861d4	-0.36012137
55	0xbe86929d	-0.26283732
56	0xbefd73d3	-0.4950243
57	0xbe9bccd2	-0.30429703
58	0xbe3b00b2	-0.18261984
59	0xbc9a996f	-0.018871991
60	0xbe4f7ea1	-0.20263149
61	0xbcc22343	-0.023698455
62	0xbe1ab861	-0.15109397
63	0xbe4cb5d0	-0.19991231

_mlp.4.weight f4 [1, 64]
0	0x3b337383	0.0027382083
1	0xbd3788d9	-0.044808242
2	0x3b3efff2	0.0029144255
3	0x3e1cf0be	0.15326211
4	0xbbfa6fe5	-0.0076427334
5	0x3dc74ed7	0.097318344
6	0x3d8a1109	0.067415304
7	0x3d8c3a7c	0.068470925
8	0x3dcedeae	0.101010665
9	0xbc49a7a6	-0.012308037
10	0xbe003636	-0.1252068
11	0x3dde2933	0.10847702
12	0xbc607839	-0.013700538
13	0x3ddbc24a	0.10730417
14	0xbd06414c	-0.032777116
15	0x3e101e00	0.14073944
16	0x3de881a4	0.11352852
17	0xbe329f66	-0.17443618
18	0xbda5c863	-0.08094861
19	0xbdac6f33	-0.08419647
20	0xbcc003da	-0.023439337
21	0x39926ec2	0.0002792981
22	0x3d7b5489	0.061359916
23	0x3cb476ab	0.022029242
24	0x3e7ae10e	0.24499914
25	0xbca9513b	-0.020668617
26	0x3d04611f	0.032319184
27	0x3db717d2	0.0894009
28	0x3e8b4ecd	0.27208558
29	0x3b9af6b9	0.0047291187
30	0xbdee14a6	-0.11625032
31	0xbdb9c0ba	-0.09069963
32	0x3dc079ed	0.093982555
33	0x3d90cffe	0.07070921
34	0x3c53dcec	0.01293109
35	0x3e75f628	0.24019682
36	0x3dbc73fd	0.092018105
37	0x3c9d394a	0.019192357
38	0x3e434fe8	0.1907345
39	0xbe8e5240	-0.27797127
40	0x3e44e118	0.19226491
41	0x3df13e9d	0.11779521
42	0xbe377b91	-0.1791823
43	0xbd74efd7	-0.05979904
44	0xbd388408	-0.04504779
45	0xbd6a8d8e	-0.057263903
46	0x3d35b150	0.04435855
47	0x3cfa73d2	0.030572806
48	0x3d2c2ac5	0.042032976
49	0x3d283e9d	0.041075338
50	0x3bb7de34	0.0056112055
51	0x3dcec0bc	0.10095355
52	0x3e30f4bd	0.1728086
53	0xbe66baa6	-0.22532138
54	0xbcf9c0f7	-0.03048752
55	0x3d8ff7a9	0.07029659
56	0xbb4f45a5	-0.0031627205
57	0x3d810ead	0.06301627
58	0xbde7d359	-0.11319608
59	0xbdc5d300	-0.09659386
60	0x3d2fdb33	0.042933654
61	0xbdbb764d	-0.091534235
62	0x3d06de49	0.03292683
63	0xbc0f1bdc	-0.00873467

exp_avg f4 [2, 1, 3, 3]
0	0xb9d107d6	-0.00039869425
1	0xb9b631ef	-0.00034750949
2	0xba22e6b2	-0.0006214186
3	0x3a0e96e3	0.0005439354
4	0xba84edbb	-0.001014165
5	0x395b98de	0.00020942415
6	0xba1c97c3	-0.0005973542
7	0x3a5e8ca8	0.00084895873
8	0xba71de55	-0.00092265505
9	0xb9e67d1b	-0.0004396223
10	0xb84de5b3	-4.9089733e-05
11	0x389da128	7.516361e-05
12	0xb8dae7c2	-0.00010438218
13	0x390f8581	0.00013687277
14	0x369bb9a2	4.6409705e-06
15	0x38b21473	8.4915104e-05
16	0x389509a1	7.106667e-05
17	0xb98fda10	-0.00027437555

exp_avg_sq f4 [2, 1, 3, 3]
0	0x3703a915	7.847576e-06
1	0x3701866e	7.7202985e-06
2	0x37136281	8.7848175e-06
3	0x36c76fb4	5.943666e-06
4	0x3795873e	1.7825161e-05
5	0x36cdef75	6.1373526e-06
6	0x37814a66	1.5412643e-05
7	0x36ebcf6a	7.027692e-06
8	0x378637b6	1.5999987e-05
9	0x357ece15	9.492226e-07
10	0x35172af4	5.631439e-07
11	0x354ac2d3	7.553437e-07
12	0x351f29db	5.9293023e-07
13	0x356d6103	8.843055e-07
14	0x3542ab6d	7.252009e-07
15	0x354b8d24	7.582878e-07
16	0x35528bb8	7.8434414e-07
17	0x3521e8cc	6.031594e-07

exp_avg f4 [4, 1, 3, 3]
0	0x39ee4960	0.00045449566
1	0xba4014c7	-0.0007327315
2	0x3a1946fe	0.00058470655
3	0xba230b50	-0.0006219642
4	0x3a2260b1	0.0006194218
5	0xba40ee4d	-0.00073597283
6	0x38f06950	0.00011463708
7	0xb9795a95	-0.00023780235
8	0x38ebadde	0.000112380585
9	0x392b1318	0.00016314944
10	0x3984072a	0.0002518234
11	0x3976023e	0.00023461223
12	0x3797df03	1.810445e-05
13	0x3916d3ab	0.00014383967
14	0x39748cf3	0.00023322161
15	0xb9186645	-0.00014533948
16	0xb836b505	-4.356077e-05
17	0x3895847e	7.129552e-05
18	0xb761e418	-1.3464152e-05
19	0xb756fa30	-1.2813645e-05
20	0xb76c3e64	-1.4081223e-05
21	0xb7639213	-1.3564265e-05
22	0xb7585cb8	-1.2896191e-05
23	0xb74c4fbe	-1.2177914e-05
24	0xb76cc03f	-1.4111457e-05
25	0xb74d6dcf	-1.2244519e-05
26	0xb74f3c4f	-1.2352203e-05
27	0xba2ee859	-0.0006672196
28	0xb9a2a3c1	-0.00031021054
29	0xb894dccb	-7.098316e-05
30	0xb9a81084	-0.00032055762
31	0xb6ef9da1	-7.1411055e-06
32	0x38151d18	3.5551464e-05
33	0xb8204296	-3.8208986e-05
34	0x38c2850b	9.275422e-05
35	0xb8c072d8	-9.176665e-05

exp_avg_sq f4 [4, 1, 3, 3]
0	0x35ea3420	1.7449529e-06
1	0x36ce603a	6.1504807e-06
2	0x3645b27d	2.9459181e-06
3	0x36c518e6	5.873956e-06
4	0x36810ff6	3.8463577e-06
5	0x36e987ed	6.959765e-06
6	0x3560ce12	8.3746374e-07
7	0x3585a004	9.955843e-07
8	0x355c05cb	8.1964816e-07
9	0x35223771	6.043038e-07
10	0x353efb76	7.114644e-07
11	0x35396e6e	6.9078567e-07
12	0x350bafdb	5.203744e-07
13	0x3523af93	6.0977726e-07
14	0x353ddd37	7.0729897e-07
15	0x34b8a12b	3.4389936e-07
16	0x34d9970b	4.0529298e-07
17	0x34f09483	4.481154e-07
18	0x3526d302	6.2146876e-07
19	0x35285caa	6.271972e-07
20	0x35240832	6.1106687e-07
21	0x352848ec	6.269099e-07
22	0x35296a33	6.3111946e-07
23	0x35250b46	6.1483695e-07
24	0x35235d06	6.08576e-07
25	0x35246124	6.123612e-07
26	0x351fbaa5	5.950372e-07
27	0x35c1fb83	1.445282e-06
28	0x35030267	4.88048e-07
29	0x356e9006	8.887149e-07
30	0x351ecfbd	5.9161886e-07
31	0x3553a524	7.8843937e-07
32	0x35b6583a	1.3585734e-06
33	0x350834c1	5.0740715e-07
34	0x358854a0	1.0157419e-06
35	0x35890fa2	1.0211845e-06

exp_avg f4 [8, 1, 3, 3]
0	0xb708522c	-8.125364e-06
1	0xb809a6f3	-3.281883e-05
2	0xb69ab9cd	-4.6111877e-06
3	0xb82ea2c6	-4.1636427e-05
4	0xb668722a	-3.4637146e-06
5	0xb81eed70	-3.7891266e-05
6	0xb5c9ec9f	-1.5044533e-06
7	0xb82c3f52	-4.1066967e-05
8	0xb6a983a5	-5.051918e-06
9	0x3a24ea6a	0.0006291034
10	0xb9e80032	-0.00044250634
11	0x3a29daea	0.0006479459
12	0xb98238b0	-0.00024837768
13	0x3a1cfc89	0.00059885584
14	0xb98422a8	-0.00025202823
15	0x3940a1af	0.00018370779
16	0x389db556	7.52012e-05
17	0x39129247	0.00013978138
18	0x38b8f30f	8.819077e-05
19	0x38bbb3fd	8.95038e-05
20	0x38b731e5	8.7354136e-05
21	0x38b15fd3	8.457866e-05
22	0x38c4ce18	9.384396e-05
23	0x38bd04c0	9.013107e-05
24	0x38a70966	7.964931e-05
25	0x38bb6cd2	8.937124e-05
26	0x38c36747	9.3175615e-05
27	0xb8f75399	-0.00011793449
28	0x36051bbb	1.9834686e-06
29	0x38da3780	0.00010405388
30	0xb98ac89a	-0.0002647087
31	0xb94207c3	-0.00018504173
32	0xb8855c3f	-6.3591164e-05
33	0xb98caf51	-0.00026833502
34	0xb98fe7e6	-0.00027447863
35	0xb94e2326	-0.00019658785
36	0xb659b4ff	-3.2440873e-06
37	0xb651b9bf	-3.1251545e-06
38	0xb63f6cdc	-2.8524582e-06
39	0xb6829be6	-3.892451e-06
40	0xb68936bb	-4.0892896e-06
41	0xb667300f	-3.4449656e-06
42	0xb68588f8	-3.979654e-06
43	0xb6807c8b	-3.829196e-06
44	0xb65e9a16	-3.3170268e-06
45	0xb84ded2b	-4.909669e-05
46	0xb855966c	-5.092325e-05
47	0xb852b645	-5.0237653e-05
48	0xb8548234	-5.0666e-05
49	0xb85b36dc	-5.226476e-05
50	0xb856d4ec	-5.1219875e-05
51	0xb8516710	-4.9925467e-05
52	0xb856698a	-5.1119867e-05
53	0xb8515b94	-4.991477e-05
54	0xb949d793	-0.00019249161
55	0xb94d2346	-0.00019563464
56	0xb9490cbb	-0.00019173596
57	0xb94e69f4	-0.00019685162
58	0xb95124d4	-0.00019945513
59	0xb94c5b1f	-0.00019488901
60	0xb94d6f6f	-0.00019591836
61	0xb94fc602	-0.00019814822
62	0xb94a6abb	-0.00019303981
63	0x398d1c3e	0.00026914658
64	0x387367c2	5.8032347e-05
65	0xb90f9205	-0.00013691939
66	0x36fbea7c	7.5076805e-06
67	0xb93e2ea1	-0.00018137183
68	0xb97be1f4	-0.000240214
69	0xb95bce23	-0.0002096226
70	0xb98c292b	-0.00026733553
71	0xb923ae9a	-0.00015609936

exp_avg_sq f4 [8, 1, 3, 3]
0	0x3318d8b0	3.5587334e-08
1	0x330da517	3.297927e-08
2	0x330ea093	3.3207993e-08
3	0x331325f6	3.426063e-08
4	0x332d55d9	4.035778e-08
5	0x330d3c06	3.288371e-08
6	0x332db58a	4.044481e-08
7	0x3314e191	3.4664087e-08
8	0x332fc051	4.0920273e-08
9	0x361a8117	2.3022928e-06
10	0x3695c7b5	4.463795e-06
11	0x3636876f	2.7198946e-06
12	0x3629b3b0	2.5287554e-06
13	0x361040bb	2.149535e-06
14	0x3621d81f	2.4116669e-06
15	0x3500b9c2	4.795403e-07
16	0x34f10aec	4.4897695e-07
17	0x3514ae7d	5.538821e-07
18	0x33f9c116	1.1630088e-07
19	0x3400800f	1.1967516e-07
20	0x340173d7	1.2056204e-07
21	0x33f5c4d6	1.1444506e-07
22	0x340342e9	1.2224668e-07
23	0x33ff348d	1.1883922e-07
24	0x3400a3ec	1.1980563e-07
25	0x34070a98	1.2576709e-07
26	0x3407efae	1.266005e-07
27	0x34e22638	4.2123588e-07
28	0x34bdcb3d	3.535187e-07
29	0x349fed6f	2.9788814e-07
30	0x35288648	6.278028e-07
31	0x3514b7ed	5.5401944e-07
32	0x34f83ca6	4.6237727e-07
33	0x35266f23	6.2001544e-07
34	0x3525a8a8	6.1712717e-07
35	0x3511af37	5.427168e-07
36	0x33f0ae9e	1.12076336e-07
37	0x33f66c90	1.1475015e-07
38	0x33f1c7f2	1.1258807e-07
39	0x33f9d7f1	1.16342456e-07
40	0x33fe4b7c	1.1841527e-07
41	0x33fa074d	1.164286e-07
42	0x33f99f14	1.1623902e-07
43	0x33fe638d	1.1845905e-07
44	0x33f933b8	1.16043736e-07
45	0x3428b1ee	1.571095e-07
46	0x342d45db	1.6137294e-07
47	0x342bd422	1.600279e-07
48	0x342d8633	1.6160702e-07
49	0x3431a5e4	1.654476e-07
50	0x342f9255	1.635138e-07
51	0x342aae2f	1.5895851e-07
52	0x342e2a06	1.6220301e-07
53	0x342c0d28	1.6023534e-07
54	0x350296a5	4.864799e-07
55	0x35048309	4.9364513e-07
56	0x35010c48	4.8074116e-07
57	0x350506bb	4.9556155e-07
58	0x3505a709	4.978943e-07
59	0x35020601	4.843751e-07
60	0x35036f01	4.8962835e-07
61	0x3504c450	4.9459504e-07
62	0x3500762b	4.7855673e-07
63	0x35099582	5.125404e-07
64	0x348bfde8	2.607551e-07
65	0x351d1f5a	5.853268e-07
66	0x344b9db0	1.8963215e-07
67	0x35328894	6.6508915e-07
68	0x358ad413	1.0343523e-06
69	0x34b0cc00	3.2930984e-07
70	0x359151ab	1.082711e-06
71	0x35886447	1.0161974e-06

exp_avg f4 [16, 1, 3, 3]
0	0xb7e5df19	-2.7402815e-05
1	0xb74c96af	-1.2194431e-05
2	0xb7d1f259	-2.5027593e-05
3	0xb74de35c	-1.2271888e-05
4	0xb800c5b2	-3.0701696e-05
5	0xb7390d23	-1.1029918e-05
6	0xb7d2025f	-2.5035055e-05
7	0xb74391c6	-1.1656846e-05
8	0xb7e76e95	-2.758884e-05
9	0x387de435	6.0532435e-05
10	0x38683d45	5.5370172e-05
11	0x388f25d5	6.825818e-05
12	0x38355a8e	4.32381e-05
13	0x3853ef07	5.052893e-05
14	0x387dd14d	6.0514827e-05
15	0x37b3ec92	2.1448624e-05
16	0x3845a96b	4.7126243e-05
17	0x38157b0a	3.5638957e-05
18	0x399576d2	0.00028508023
19	0xb9a1d06f	-0.00030863608
20	0x3989e7b5	0.00026303311
21	0xb964f3b4	-0.00021834561
22	0x3971f0b3	0.00023073218
23	0xb949be2e	-0.00019239701
24	0x382ec69c	4.1669802e-05
25	0xb796b8e7	-1.7967495e-05
26	0xb62b8ca5	-2.5562852e-06
27	0xb816b6d1	-3.5933048e-05
28	0x37b18c7c	2.1165462e-05
29	0xb7c3d627	-2.3345534e-05
30	0x37c6fc8f	2.3721046e-05
31	0xb82d4a79	-4.1315772e-05
32	0x37e0fd88	2.682094e-05
33	0xb79b3149	-1.850039e-05
34	0x37a2b61a	1.9396703e-05
35	0xb81e7a32	-3.778394e-05
36	0xb78082bf	-1.5319672e-05
37	0xb782e1aa	-1.560229e-05
38	0xb77737fc	-1.4735382e-05
39	0xb77d7717	-1.5107703e-05
40	0xb7866607	-1.6021555e-05
41	0xb784e653	-1.584288e-05
42	0xb769033a	-1.38886335e-05
43	0xb7800949	-1.5263113e-05
44	0xb7840708	-1.57389e-05
45	0x37a1fad5	1.9309498e-05
46	0x37a092da	1.914187e-05
47	0x379b64d2	1.8524388e-05
48	0x37973e44	1.8029597e-05
49	0x37a4567b	1.9590594e-05
50	0x379f24aa	1.897135e-05
51	0x378891d8	1.6280377e-05
52	0x3792642a	1.7451199e-05
53	0x3798a6bc	1.8197454e-05
54	0xb8472bac	-4.748597e-05
55	0xb8439c1d	-4.6637015e-05
56	0xb83a75ee	-4.4455686e-05
57	0xb8994e35	-7.310176e-05
58	0xb88d811a	-6.747451e-05
59	0xb882cd8b	-6.2371684e-05
60	0xb8b7bfd7	-8.761853e-05
61	0xb8bc4099	-8.976571e-05
62	0xb8b4aef9	-8.61566e-05
63	0xb818a64e	-3.6394507e-05
64	0xb6f7fb1d	-7.390407e-06
65	0x37b74951	2.184944e-05
66	0xb88419cf	-6.299058e-05
67	0xb84eb8d0	-4.9286347e-05
68	0xb78af8e7	-1.6566786e-05
69	0xb87814cf	-5.9147187e-05
70	0xb8963ad3	-7.163514e-05
71	0xb86fcb1e	-5.7171208e-05
72	0x372510e5	9.8387e-06
73	0x372636ab	9.907099e-06
74	0x3722e030	9.70815e-06
75	0x3723321d	9.727225e-06
76	0x3724fbf9	9.833829e-06
77	0x37230e53	9.718892e-06
78	0x3720bc68	9.58061e-06
79	0x37228a9b	9.688224e-06
80	0x371f9d5a	9.513775e-06
81	0x36262ad7	2.4760864e-06
82	0x36342e1c	2.684893e-06
83	0x362d8977	2.5859024e-06
84	0x36279e07	2.4976923e-06
85	0x3631c24c	2.648815e-06
86	0x362bbdf6	2.5591557e-06
87	0x361b42db	2.3135715e-06
88	0x3621000b	2.3990895e-06
89	0x3618f465	2.2792021e-06
90	0x35880326	1.0133706e-06
91	0x35a82759	1.2528427e-06
92	0x35acd458	1.2876799e-06
93	0x359c7c9f	1.1659175e-06
94	0x35b58dfa	1.3526871e-06
95	0x35b0b73f	1.3166353e-06
96	0x359d7d48	1.1733873e-06
97	0x35aba923	1.2789718e-06
98	0x359ef4aa	1.1843124e-06
99	0x36622ffd	3.3704557e-06
100	0x3672ef28	3.6200017e-06
101	0x367242bf	3.6099661e-06
102	0x3673080f	3.6214512e-06
103	0x367f0243	3.7999278e-06
104	0x3677c251	3.6918975e-06
105	0x367652e2	3.67051e-06
106	0x367c3570	3.758203e-06
107	0x366e4d24	3.5509665e-06
108	0x383bee68	4.4806307e-05
109	0x383f2da9	4.5580473e-05
110	0x383d5d35	4.5147917e-05
111	0x383dcca6	4.5251705e-05
112	0x38408459	4.5899626e-05
113	0x383e3069	4.5344616e-05
114	0x383bbd61	4.4760647e-05
115	0x383e5696	4.538017e-05
116	0x383bd752	4.4784807e-05
117	0xb813de4f	-3.5254572e-05
118	0xb8163bf9	-3.581864e-05
119	0xb814c62e	-3.547052e-05
120	0xb815b1f3	-3.5690096e-05
121	0xb817de0b	-3.6208e-05
122	0xb81611b2	-3.5779267e-05
123	0xb81484ae	-3.5409517e-05
124	0xb81694ee	-3.590149e-05
125	0xb814af31	-3.544911e-05
126	0x38d5aa7c	0.00010188387
127	0x38da8b92	0.00010421047
128	0x38d96b41	0.00010367344
129	0x38d667e6	0.00010223668
130	0x38dbaf9e	0.00010475445
131	0x38d9333e	0.00010356911
132	0x38d00df6	9.920813e-05
133	0x38d443c8	0.00010121573
134	0x38d15181	9.981078e-05
135	0x39d95fb3	0.00041460767
136	0x39b4dff3	0.0003449913
137	0x3940006e	0.00018310707
138	0x399a4a7e	0.0002942867
139	0x39286803	0.00016060476
140	0xb49f9d50	-2.9730518e-07
141	0x38ab1cf9	8.159312e-05
142	0xb88af0a6	-6.625177e-05
143	0xb9295832	-0.00016149951

exp_avg_sq f4 [16, 1, 3, 3]
0	0x32aae8cd	1.989647e-08
1	0x328c956c	1.6366094e-08
2	0x32a5c159	1.9296452e-08
3	0x328ccd62	1.6391542e-08
4	0x32b5de5c	2.117229e-08
5	0x3289d110	1.604397e-08
6	0x32a65574	1.9363803e-08
7	0x328b5eba	1.6224806e-08
8	0x32aa6748	1.9837572e-08
9	0x3348af6b	4.672567e-08
10	0x3338017c	4.284219e-08
11	0x335a7771	5.086571e-08
12	0x33292e72	3.939062e-08
13	0x33329fb5	4.1589107e-08
14	0x33463726	4.6150625e-08
15	0x33079f33	3.1576928e-08
16	0x33359a69	4.228278e-08
17	0x33152715	3.472731e-08
18	0x36048bf6	1.9751e-06
19	0x360d6b4f	2.10731e-06
20	0x35f7202d	1.8412298e-06
21	0x3593be74	1.1007783e-06
22	0x35bc6e1f	1.4039141e-06
23	0x35732932	9.05845e-07
24	0x345d0dc9	2.0587244e-07
25	0x34805f4c	2.3911196e-07
26	0x34741b5d	2.2734226e-07
27	0x328befe7	1.6290825e-08
28	0x32c0b410	2.2433625e-08
29	0x320a4b64	8.049799e-09
30	0x3328974e	3.925316e-08
31	0x3326e393	3.8856864e-08
32	0x33308047	4.109486e-08
33	0x316a3f53	3.4087477e-09
34	0x327842fd	1.4450731e-08
35	0x3296c9f5	1.7554138e-08
36	0x32c4ac7a	2.2895836e-08
37	0x32d3a758	2.4639732e-08
38	0x32cae12b	2.361829e-08
39	0x32dc9213	2.5677798e-08
40	0x32eb9f49	2.7430035e-08
41	0x32e7e342	2.6995284e-08
42	0x32c67160	2.310179e-08
43	0x32d64497	2.494407e-08
44	0x32d2769c	2.4501155e-08
45	0x326931bd	1.3573694e-08
46	0x3262de23	1.3205439e-08
47	0x3263f916	1.3269775e-08
48	0x3250665a	1.21304655e-08
49	0x325d1c69	1.2870353e-08
50	0x3252636b	1.2246214e-08
51	0x324fb40c	1.2089924e-08
52	0x325025a3	1.2115751e-08
53	0x32522f27	1.223433e-08
54	0x330fcd69	3.34816e-08
55	0x33119ec5	3.3904843e-08
56	0x3319643c	3.571425e-08
57	0x3332738a	4.1548937e-08
58	0x332cb9d5	4.0215884e-08
59	0x332fbffb	4.0919968e-08
60	0x3360aaed	5.230952e-08
61	0x335e624e	5.177781e-08
62	0x335f8af7	5.204762e-08
63	0x32ed670e	2.7637295e-08
64	0x32cfd6be	2.4195625e-08
65	0x32b27d85	2.0779007e-08
66	0x331bb2bc	3.6251308e-08
67	0x331030b4	3.3571908e-08
68	0x32ebfd13	2.7472685e-08
69	0x332dc864	4.0461956e-08
70	0x33392478	4.3106837e-08
71	0x33279d89	3.9025995e-08
72	0x32417d08	1.1262507e-08
73	0x32437eaf	1.1379298e-08
74	0x323ea976	1.10979865e-08
75	0x32409117	1.12088605e-08
76	0x32429098	1.1325163e-08
77	0x323e0d35	1.10624585e-08
78	0x323a9234	1.0859868e-08
79	0x323c5997	1.0963411e-08
80	0x3237803e	1.0681161e-08
81	0x327bd99f	1.4659604e-08
82	0x3280e0fd	1.5003474e-08
83	0x327ec50f	1.4829552e-08
84	0x327c6039	1.4690209e-08
85	0x3280ad53	1.497998e-08
86	0x327ea179	1.48214605e-08
87	0x32743719	1.4215197e-08
88	0x32782f97	1.4446321e-08
89	0x327513e5	1.42654e-08
90	0x326be150	1.37300304e-08
91	0x3272604a	1.41081475e-08
92	0x32719c58	1.4063595e-08
93	0x327181e6	1.4057582e-08
94	0x32778289	1.44069725e-08
95	0x3275eb6c	1.4314406e-08
96	0x326e0c36	1.38562e-08
97	0x3272e21a	1.41376635e-08
98	0x3270ce66	1.4016768e-08
99	0x32a1efe9	1.8851965e-08
100	0x32a4cb51	1.918457e-08
101	0x32a2b4c4	1.8941485e-08
102	0x32a6a7d2	1.940126e-08
103	0x32a9913b	1.9740233e-08
104	0x32a74a0c	1.9475031e-08
105	0x32a4f2e0	1.920256e-08
106	0x32a79e87	1.9513449e-08
107	0x32a54ccf	1.9243457e-08
108	0x32ef8976	2.7885772e-08
109	0x32f56e1f	2.8571831e-08
110	0x32f3c4c9	2.837841e-08
111	0x32f41815	2.841629e-08
112	0x32f718b3	2.8765816e-08
113	0x32f216d4	2.8182889e-08
114	0x32ee948e	2.7774401e-08
115	0x32f46800	2.8452632e-08
116	0x32f10d72	2.8062207e-08
117	0x32d39e7b	2.4635701e-08
118	0x32d7b800	2.5112968e-08
119	0x32d3d853	2.4662006e-08
120	0x32d4ffa0	2.4796293e-08
121	0x32d9d7b7	2.536022e-08
122	0x32d7334d	2.5052623e-08
123	0x32d4cf72	2.4774383e-08
124	0x32d85d2b	2.5188077e-08
125	0x32d47822	2.4734678e-08
126	0x3426f468	1.5548869e-07
127	0x342865f8	1.5683315e-07
128	0x3427d83d	1.5631754e-07
129	0x342761bc	1.5588643e-07
130	0x342a5d0c	1.5866334e-07
131	0x3428840a	1.5694255e-07
132	0x3421c743	1.5066784e-07
133	0x3423f5e2	1.527001e-07
134	0x34225c93	1.5121104e-07
135	0x35c69344	1.479501e-06
136	0x3549370c	7.495844e-07
137	0x3528fe00	6.2954496e-07
138	0x35635bdb	8.4697757e-07
139	0x352c046f	6.4081445e-07
140	0x35839b82	9.805519e-07
141	0x3521048f	5.998381e-07
142	0x357f55c2	9.5119697e-07
143	0x35c1978f	1.442373e-06

exp_avg f4 [64, 60]
0	0xb6213a66	-2.4024862e-06
1	0x35096278	5.117977e-07
2	0xb6213a66	-2.4024862e-06
3	0x35096278	5.117977e-07
4	0xb6bc83f4	-5.618198e-06
5	0xb5ff8123	-1.9036564e-06
6	0xb4d0f1a7	-3.8918844e-07
7	0xb5431957	-7.2680035e-07
8	0xb6bc83f4	-5.618198e-06
9	0xb5ff8123	-1.9036564e-06
10	0xb4d0f1a7	-3.8918844e-07
11	0xb5431957	-7.2680035e-07
12	0xb5ff2d84	-1.9012227e-06
13	0xb7299f44	-1.0110267e-05
14	0xb5dd9c15	-1.6511209e-06
15	0xb6652bea	-3.414922e-06
16	0xb497335a	-2.8163305e-07
17	0xb549775f	-7.505204e-07
18	0xb60c5d67	-2.0915993e-06
19	0x3459de64	2.0290605e-07
20	0xb5ff2d84	-1.9012227e-06
21	0xb7299f44	-1.0110267e-05
22	0xb5dd9c15	-1.6511209e-06
23	0xb6652bea	-3.414922e-06
24	0xb497335a	-2.8163305e-07
25	0xb549775f	-7.505204e-07
26	0xb60c5d67	-2.0915993e-06
27	0x3459de64	2.0290605e-07
28	0x3385ef44	6.236817e-08
29	0xb6090dcd	-2.0422624e-06
30	0xb6deba48	-6.6378016e-06
31	0xb718cca7	-9.107555e-06
32	0xb4e7fe72	-4.3212236e-07
33	0xb5b0b991	-1.3167029e-06
34	0xb682bc75	-3.896241e-06
35	0xb685e53d	-3.9903957e-06
36	0x35184bdd	5.673481e-07
37	0xb4f725b3	-4.6034765e-07
38	0xb50d8dc3	-5.2732884e-07
39	0xb5a784c2	-1.2481107e-06
40	0xb6424f04	-2.8954246e-06
41	0xb63ade57	-2.7845579e-06
42	0xb64a2e59	-3.0127323e-06
43	0xb6b02ae8	-5.2502037e-06
44	0x3385ef44	6.236817e-08
45	0xb6090dcd	-2.0422624e-06
46	0xb6deba48	-6.6378016e-06
47	0xb718cca7	-9.107555e-06
48	0xb4e7fe72	-4.3212236e-07
49	0xb5b0b991	-1.3167029e-06
50	0xb682bc75	-3.896241e-06
51	0xb685e53d	-3.9903957e-06
52	0x35184bdd	5.673481e-07
53	0xb4f725b3	-4.6034765e-07
54	0xb50d8dc3	-5.2732884e-07
55	0xb5a784c2	-1.2481107e-06
56	0xb6424f04	-2.8954246e-06
57	0xb63ade57	-2.7845579e-06
58	0xb64a2e59	-3.0127323e-06
59	0xb6b02ae8	-5.2502037e-06
60	0x34fa1c33	4.6586646e-07
61	0x33a45e66	7.654016e-08
62	0x34fa1c33	4.6586646e-07
63	0x33a45e66	7.654016e-08
64	0x35963e89	1.1194071e-06
65	0x358c508a	1.0454253e-06
66	0xb4c5b2e6	-3.6824275e-07
67	0x3410e3f2	1.3493971e-07
68	0x35963e89	1.1194071e-06
69	0x358c508a	1.0454253e-06
70	0xb4c5b2e6	-3.6824275e-07
71	0x3410e3f2	1.3493971e-07
72	0x35ba8399	1.389638e-06
73	0x36561537	3.1900834e-06
74	0x35801760	9.543546e-07
75	0x3600fab7	1.9219422e-06
76	0xb52e0ab0	-6.4835604e-07
77	0xb524d922	-6.141073e-07
78	0xb4ada7f0	-3.2345952e-07
79	0x355d96fb	8.254862e-07
80	0x35ba8399	1.389638e-06
81	0x36561537	3.1900834e-06
82	0x35801760	9.543546e-07
83	0x3600fab7	1.9219422e-06
84	0xb52e0ab0	-6.4835604e-07
85	0xb524d922	-6.141073e-07
86	0xb4ada7f0	-3.2345952e-07
87	0x355d96fb	8.254862e-07
88	0x3602a32e	1.9466493e-06
89	0x349692f6	2.8046605e-07
90	0x36adbd2b	5.177824e-06
91	0x3635564c	2.7021333e-06
92	0x35f6ed73	1.8397535e-06
93	0x35e4895a	1.7027298e-06
94	0x3596da36	1.1239379e-06
95	0x36093f86	2.0451566e-06
96	0xb53c9005	-7.0245034e-07
97	0xb55a6811	-8.1362765e-07
98	0xb524a38e	-6.1332764e-07
99	0xb51178b7	-5.419237e-07
100	0xb4abaa86	-3.1975304e-07
101	0xb39d3735	-7.320924e-08
102	0xb45c7211	-2.0530594e-07
103	0x362d48c5	2.5821366e-06
104	0x3602a32e	1.9466493e-06
105	0x349692f6	2.8046605e-07
106	0x36adbd2b	5.177824e-06
107	0x3635564c	2.7021333e-06
108	0x35f6ed73	1.8397535e-06
109	0x35e4895a	1.7027298e-06
110	0x3596da36	1.1239379e-06
111	0x36093f86	2.0451566e-06
112	0xb53c9005	-7.0245034e-07
113	0xb55a6811	-8.1362765e-07
114	0xb524a38e	-6.1332764e-07
115	0xb51178b7	-5.419237e-07
116	0xb4abaa86	-3.1975304e-07
117	0xb39d3735	-7.320924e-08
118	0xb45c7211	-2.0530594e-07
119	0x362d48c5	2.5821366e-06
120	0x228ad648	3.7631854e-18
121	0xa1c05c68	-1.3034886e-18
122	0x228ad648	3.7631854e-18
123	0xa1c05c68	-1.3034886e-18
124	0x23a099f4	1.7412436e-17
125	0x224c3171	2.767333e-18
126	0xa30bb76e	-7.574048e-18
127	0xa2502969	-2.8211179e-18
128	0x23a099f4	1.7412436e-17
129	0x224c3171	2.767333e-18
130	0xa30bb76e	-7.574048e-18
131	0xa2502969	-2.8211179e-18
132	0x238c68e4	1.5223253e-17
133	0x244a2d5d	4.3840192e-17
134	0xa2f0452c	-6.512537e-18
135	0x2300119e	6.9426245e-18
136	0xa368bc56	-1.2616627e-17
137	0xa36525be	-1.2422107e-17
138	0xa376d1a2	-1.3380078e-17
139	0x221b332f	2.1033513e-18
140	0x238c68e4	1.5223253e-17
141	0x244a2d5d	4.3840192e-17
142	0xa2f0452c	-6.512537e-18
143	0x2300119e	6.9426245e-18
144	0xa368bc56	-1.2616627e-17
145	0xa36525be	-1.2422107e-17
146	0xa376d1a2	-1.3380078e-17
147	0x221b332f	2.1033513e-18
148	0x23935c84	1.5976954e-17
149	0x220f7685	1.9442858e-18
150	0x249f8bbe	6.919199e-17
151	0x2430384d	3.8211605e-17
152	0xa3713f17	-1.3077996e-17
153	0xa249cc50	-2.7348742e-18
154	0xa14e4718	-6.9889607e-19
155	0x22d25d88	5.7019644e-18
156	0xa3994d04	-1.662091e-17
157	0xa3909ae3	-1.5678108e-17
158	0xa3809493	-1.3940711e-17
159	0xa3a77483	-1.8155521e-17
160	0xa3aab3f9	-1.8507658e-17
161	0xa3989cc5	-1.6546268e-17
162	0xa34b5e0c	-1.1024567e-17
163	0x23aa904c	1.8492549e-17
164	0x23935c84	1.5976954e-17
165	0x220f7685	1.9442858e-18
166	0x249f8bbe	6.919199e-17
167	0x2430384d	3.8211605e-17
168	0xa3713f17	-1.3077996e-17
169	0xa249cc50	-2.7348742e-18
170	0xa14e4718	-6.9889607e-19
171	0x22d25d88	5.7019644e-18
172	0xa3994d04	-1.662091e-17
173	0xa3909ae3	-1.5678108e-17
174	0xa3809493	-1.3940711e-17
175	0xa3a77483	-1.8155521e-17
176	0xa3aab3f9	-1.8507658e-17
177	0xa3989cc5	-1.6546268e-17
178	0xa34b5e0c	-1.1024567e-17
179	0x23aa904c	1.8492549e-17
180	0xb00d0729	-5.1305676e-10
181	0xb097f566	-1.1056442e-09
182	0xb00d0729	-5.1305676e-10
183	0xb097f566	-1.1056442e-09
184	0xb1a45b32	-4.783396e-09
185	0xb13e666f	-2.7706866e-09
186	0x309b0f90	1.1282157e-09
187	0xb0a63d8f	-1.2095586e-09
188	0xb1a45b32	-4.783396e-09
189	0xb13e666f	-2.7706866e-09
190	0x309b0f90	1.1282157e-09
191	0xb0a63d8f	-1.2095586e-09
192	0xb1e18bc0	-6.5642496e-09
193	0xb28794c1	-1.5783714e-08
194	0xb16d8621	-3.4564283e-09
195	0xb1d8fa7a	-6.3149033e-09
196	0x3112420d	2.1283342e-09
197	0x3136b207	2.6585683e-09
198	0x308bf161	1.0182185e-09
199	0xb1a187e4	-4.7011657e-09
200	0xb1e18bc0	-6.5642496e-09
201	0xb28794c1	-1.5783714e-08
202	0xb16d8621	-3.4564283e-09
203	0xb1d8fa7a	-6.3149033e-09
204	0x3112420d	2.1283342e-09
205	0x3136b207	2.6585683e-09
206	0x308bf161	1.0182185e-09
207	0xb1a187e4	-4.7011657e-09
208	0xb229bfc5	-9.880698e-09
209	0x2f7506ff	2.2285106e-10
210	0xb2e09db1	-2.6148742e-08
211	0xb263fff8	-1.327134e-08
212	0xb204718b	-7.709228e-09
213	0xb1f73a68	-7.195286e-09
214	0xb13b1a14	-2.7226905e-09
215	0xb202136a	-7.57141e-09
216	0x30ff07ab	1.8555871e-09
217	0x313b2d3a	2.723779e-09
218	0x3125e2c0	2.4139553e-09
219	0x312e94f9	2.5405014e-09
220	0x30942e49	1.0781572e-09
221	0xaf4ebd68	-1.8802881e-10
222	0x2fbc5ed1	3.4264372e-10
223	0xb1c2e329	-5.6719682e-09
224	0xb229bfc5	-9.880698e-09
225	0x2f7506ff	2.2285106e-10
226	0xb2e09db1	-2.6148742e-08
227	0xb263fff8	-1.327134e-08
228	0xb204718b	-7.709228e-09
229	0xb1f73a68	-7.195286e-09
230	0xb13b1a14	-2.7226905e-09
231	0xb202136a	-7.57141e-09
232	0x30ff07ab	1.8555871e-09
233	0x313b2d3a	2.723779e-09
234	0x3125e2c0	2.4139553e-09
235	0x312e94f9	2.5405014e-09
236	0x30942e49	1.0781572e-09
237	0xaf4ebd68	-1.8802881e-10
238	0x2fbc5ed1	3.4264372e-10
239	0xb1c2e329	-5.6719682e-09
240	0x18b3c79d	4.6471973e-24
241	0x989408da	-3.826604e-24
242	0x18b3c79d	4.6471973e-24
243	0x989408da	-3.826604e-24
244	0x1a9f9cf2	6.601442e-23
245	0x18e5403c	5.9259973e-24
246	0x9abc7a1e	-7.795227e-23
247	0x9980579f	-1.327028e-23
248	0x1a9f9cf2	6.601442e-23
249	0x18e5403c	5.9259973e-24
250	0x9abc7a1e	-7.795227e-23
251	0x9980579f	-1.327028e-23
252	0x1a819bd2	5.360489e-23
253	0x1b8fe2a9	2.380384e-22
254	0x9a2b300c	-3.5400783e-23
255	0x19c532ca	2.0389836e-23
