Experiments/Experiments-004/checkpoints/model.pt (torch, 70391 bytes, 21 tensors)

cp.convs.0.weight f4 [2, 1, 3, 3]
-0.26272133 0.10634072 0.18831135 0.16616757 0.41852286 -0.5281324 0.120742686 -0.43216148
0.37085497 0.28429925 0.16525488 -0.14483966 0.22048561 0.41257754 0.3470232 -0.2447449
0.39093262 -0.09699751
00000000: 6983 86be 2ac9 d93d b1d4 403e d527 2a3e
00000010: a148 d63e af33 07bf f147 f73d 4544 ddbe
00000020: b4e0 bd3e ac8f 913e 9338 293e d950 14be
00000030: fbc6 613e 5d3d d33e 06ad b13e 689e 7abe
00000040: 5228 c83e a1a6 c6bd

cp.convs.1.weight f4 [4, 1, 3, 3]
0.23902774 0.34341776 -0.4804681 -0.34851292 -0.25930178 0.16317889 0.38378334 -0.4174226
0.36512566 0.017509995 0.3958457 0.23441485 0.2065679 0.29509646 0.22469616 0.083243385
0.074174404 0.085296616 0.861585 0.46228597 0.14882267 0.5287812 -0.040042467 -0.6552667
0.056820076 -0.44794202 -0.9101607 -0.34066233 0.15396087 -0.25490618 0.002278019 -0.030124862
-0.33456576 -0.09998126 0.10612948 0.0051177517
00000000: b0c3 743e 74d4 af3e eaff f5be 4970 b2be
00000010: 34c3 84be 5e18 273e 407f c43e 6ab8 d5be
00000020: c0f1 ba3e 1f71 8f3c 4aac ca3e 720a 703e
00000030: 8986 533e e216 973e c016 663e 827b aa3d
00000040: c0e8 973d feaf ae3d d690 5c3f bfb0 ec3e
00000050: f864 183e 345e 073f 9203 24bd 8fbf 27bf
00000060: 2bbc 683d a858 e5be 4b00 69bf 4b6b aebe
00000070: eba7 1d3e 1083 82be d14a 153b 6ac8 f6bc
00000080: 344c abbe fac2 ccbd 6a5a d93d d0b2 a73b

_mlp.0.weight f4 [64, 12]
0.37686044 0.09948683 0.21552987 -0.21377522 0.107371666 0.01946854 -0.24822493 0.21560714
0.16391405 -0.1711328 -0.2539617 0.16545609 0.1171347 -0.07083225 0.18777326 0.17872478
0.21475704 0.051034763 0.31209758 -0.0107735 -0.13687222 0.11152138 -0.08111473 -0.05529672
-0.095316954 0.2944186 -0.12065727 0.04773263 0.13596939 0.15669739 0.2076036 0.046653666
-0.028985934 0.08081444 0.18777668 0.10945671 0.027396405 -0.67182106 -0.19180898 -0.58264333
-0.38340092 0.11887218 0.66910285 0.096080616 -0.6469912 0.019855648 0.7603517 -0.11583502
0.4648663 -0.21171135 0.33927423 -0.17573926 0.36676365 0.28025708 0.3926891 0.43187937
0.35905463 0.1125484 0.21115527 0.35118344 0.07515017 0.15384401 0.471411 0.2831901
0.39771867 -0.13345756 -0.40666977 -0.13582702 0.10915732 -0.24283962 -0.035181854 0.09354227
0.14675125 -0.2725391 0.2510435 -0.13834402 0.4526055 -0.027672088 0.048634157 0.18736535
-0.021621842 -0.0011167449 -0.18088873 -0.18277258 0.1565619 -0.15176618 0.5417219 -0.015291973
0.32943654 -0.21046932 0.13877368 -0.0959214 -0.0052603763 -0.019301176 -0.122075066 0.098590374
0.33260372 0.004642181 0.3545694 -0.54278564 0.10571171 0.3093553 -0.16810511 0.23928393
0.2415379 -0.13014586 -0.0619523 0.051769886 0.02236342 0.070396036 0.4745817 0.107617125
0.14880897 0.10974129 -0.24452096 -0.12758987 0.29241714 0.07545585 0.07448902 -0.2202722
0.3942913 -0.0332541 0.33172587 -0.06276799 0.35993922 -0.27223787 -0.4761549 -0.23039728
0.38665712 -0.28634608 -0.6500012 -0.036761366 0.29246068 -0.07566968 0.012639575 -0.14821436
-0.08043304 0.34377488 -0.029316042 0.21588783 -0.4494333 0.31836048 0.016466498 -0.13930741
-0.13302322 0.14443566 0.052938092 0.17070004 0.23932588 -0.07521798 -0.034728553 -0.061928947
-0.036344614 0.017308619 0.07108624 0.03384545 0.37322837 0.2767113 0.024843363 -0.029122852
-0.21283309 0.07772219 0.2800319 0.055129036 0.0073442375 0.16557051 0.1079279 -0.20544061
-0.12719943 0.102598816 0.28147733 -0.11709722 -0.04120446 0.09438607 -0.13715649 -0.115353145
0.10427537 -0.031136421 0.14357638 0.14414826 0.053601883 -0.14299875 -0.07365455 0.2459408
0.043928005 0.035073556 -0.13758068 0.20949338 0.3197124 0.052921697 -0.1832584 0.17127527
-0.15149462 0.06975815 0.09052335 0.00056190585 -0.05975247 -0.18875939 -0.06453857 0.17177446
0.1639075 0.34142074 -0.03691734 -0.1526696 -0.04999586 0.117871694 0.13931757 -0.07623098
0.047972243 -0.091018744 0.03455929 0.075594135 0.033044763 0.14486215 -0.22195654 -0.048003655
0.33103904 -0.19966702 -0.18493043 0.16300197 0.2927475 -0.090027705 -0.09067694 0.018439282
-0.08468414 0.21295315 0.28778008 0.064944334 0.14170454 0.27358994 0.13283676 0.0011073337
0.22143051 0.16178483 0.25103536 0.022636643 0.23315437 0.09166034 -0.046219498 0.09416246
0.44998527 0.13445915 0.08438765 0.20406397 -0.011866149 -0.21504802 -0.3258482 0.018843904
0.29051784 -0.011447942 -0.11951368 -0.219364 0.31704527 0.16765352 -0.027344948 0.2808246
00000000: daf3 c03e c0bf cb3d ddb3 5c3e e4e7 5abe
00000010: ade5 db3d 7d7c 9f3c ad2e 7ebe 1ec8 5c3e
00000020: 16d9 273e 703d 2fbe 4507 82be 526d 293e
00000030: 51e4 ef3d 8010 91bd a247 403e a103 373e
00000040: 45e9 5b3e d409 513d 41cb 9f3e 5683 30bc
00000050: 3b28 0cbe 5265 e43d 7b1f a6bd d07e 62bd
00000060: 8935 c3bd 09be 963e 291b f7bd 4a83 433d
00000070: 8f3b 0b3e 4875 203e 0a96 543e ea17 3f3d
00000080: e973 edbc 0b82 a53d 8848 403e d72a e03d
00000090: 6d6e e03c 77fc 2bbf 9369 44be 1d28 15bf
000000a0: 204d c4be 4273 f33d 534a 2b3f eac5 c43d
000000b0: 37a1 25bf 50a8 a23c 69a6 423f e93a edbd
000000c0: f502 ee3e dcca 58be 5ab5 ad3e fef4 33be
000000d0: 72c8 bb3e db7d 8f3e 8c0e c93e 4b1f dd3e
000000e0: 02d6 b73e c77f e63d 1639 583e 51ce b33e
000000f0: 55e8 993d 4989 1d3e c85c f13e 4bfe 903e
00000100: c8a1 cb3e 19a9 08be 0537 d0be 3d16 0bbe
00000110: df8d df3d f3aa 78be d91a 10bd 1793 bf3d
00000120: f645 163e 3f8a 8bbe c688 803e 0eaa 0dbe
00000130: e8bb e73e 93b0 e2bc 9c34 473d b4dc 3f3e
00000140: 4a20 b1bc be5f 92ba e53a 39be bc28 3bbe
00000150: c351 203e 9868 1bbe 49ae 0a3f 2f8b 7abc
00000160: e8ab a83e 4585 57be b01a 0e3e 7072 c4bd
00000170: 3c5f acbb 801d 9ebc 7e02 fabd c0e9 c93d
00000180: 094b aa3e 701d 983b 1f8a b53e 00f4 0abf
00000190: 627f d83d d163 9e3e bf23 2cbe d906 753e
000001a0: b655 773e f544 05be b2c1 7dbd a90c 543d
000001b0: 7e33 b73c cc2b 903d 5ffc f23e 5e66 dc3d
000001c0: 6161 183e 0bc0 e03d b463 7abe eba6 02be
000001d0: b3b7 953e 9988 9a3d b38d 983d 098f 61be
000001e0: 8de0 c93e 7335 08bd f9d7 a93e 818c 80bd
000001f0: f449 b83e c362 8bbe 93ca f3be 44ed 6bbe
00000200: ecf7 c53e f49b 92be 7b66 26bf 1693 16bd
00000210: 68bd 953e b5f8 9abd 3816 4f3c 81c5 17be
00000220: 14ba a4bd 4303 b03e 3228 f0bc b311 5d3e
00000230: 1f1c e6be 2500 a33e c0e4 863c 9aa6 0ebe
00000240: 3d37 08be f1e6 133e 9dd5 583d fecb 2e3e
00000250: d811 753e e20b 9abd 873f 0ebd 35a9 7dbd
00000260: 17de 14bd ceca 8d3c aa95 913d 87a1 0a3d
00000270: ca17 bf3e 1aad 8d3e 4f84 cb3c 0c93 eebc
00000280: ebf0 59be d02c 9f3d 5760 8f3e fcce 613d
00000290: eea7 f03b 518b 293e 4e09 dd3d 065f 52be
000002a0: 9140 02be 541f d23d cc1d 903e abd0 efbd
000002b0: 02c6 28bd 7c4d c13d c072 0cbe 453e ecbd
000002c0: 538e d53d cf11 ffbc b005 133e 9a9b 133e
000002d0: a68d 5b3d 446e 12be 32d8 96bd e8d7 7b3e
000002e0: daed 333d 4aa9 0f3d f3e1 0cbe 6f85 563e
000002f0: 58b1 a33e 6cc4 583d 17a8 3bbe c962 2f3e
00000300: 6821 1bbe 5cdd 8e3d 4e64 b93d dd4c 133a
00000310: 02bf 74bd 244a 41be cc2c 84bd a5e5 2f3e
00000320: 5ed7 273e b3ce ae3e a336 17bd 6b55 1cbe
00000330: 75c8 4cbd b766 f13d 44a9 0e3e fd1e 9cbd
00000340: 8b7e 443d 0968 babd 0b8e 0d3d 19d1 9a3d
00000350: f259 073d be56 143e 9348 63be 7b9f 44bd
00000360: f37d a93e 8375 4cbe 675e 3dbe fde9 263e
00000370: 00e3 953e 7260 b8bd d5b4 b9bd fa0d 973c
00000380: e16e adbd 6410 5a3e e957 933e 8901 853d
00000390: ff1a 113e fb13 8c3e 5c06 083e f423 913a
000003a0: aebe 623e ecaa 253e b587 803e 7b70 b93c
000003b0: 05c0 6e3e 6bb8 bb3d a850 3dbd 3fd8 c03d
000003c0: 7864 e63e a9af 093e 6fd3 ac3d 25f6 503e
000003d0: 3c6a 42bc 8c35 5cbe 93d5 a6be 885e 9a3c
000003e0: c1be 943e 2690 3bbc 97c3 f4bd f5a0 60be
000003f0: c253 a23e 5dad 2b3e 8302 e0bc 3ec8 8f3e

_mlp.0.bias f4 [64]
0.29732627 0.059731163 0.08790653 -0.8091654 0.005206298 0.65599394 -0.22550273 0.3919815
-0.08305214 0.22731562 0.38142404 -0.19355625 -0.37989032 -0.037592135 0.009639839 0.120723076
0.12884592 0.16025172 0.16718075 0.058343697 0.7155686 -0.082055844 0.24808131 -0.09104455
-0.42506462 -0.54246545 -0.20288451 -0.02528153 -0.18150023 -0.0017446944 -0.18679361 0.08150879
-0.09524892 -0.18978412 -0.28258896 -0.24781325 -0.095047414 -0.46599415 0.1920123 0.015706781
-0.5998275 0.55177367 -0.25760537 0.37936446 0.21478885 0.0787772 -0.2932217 -0.18664782
0.56037295 0.17357372 -0.017837161 0.004612671 -0.21245493 0.1302569 -0.7335242 -0.2450884
-0.10743529 -0.22272415 -0.3786821 -0.3175511 -0.2557497 -0.47751513 -0.30960554 -0.18845266
00000000: 263b 983e aaa8 743d 5708 b43d 7725 4fbf
00000010: 9899 aa3b 38ef 273f 30ea 66be cdb1 c83e
00000020: 3e17 aabd 6dc5 683e 034a c33e 9c33 46be
00000030: fc80 c2be 36fa 19bd 6af0 1d3c a93d f73d
00000040: 2ff0 033e 0719 243e 6e31 2b3e cdf9 6e3d
00000050: 812f 373f e50c a8bd 0709 7e3e 9175 babd
00000060: 12a2 d9be 04df 0abf f5c0 4fbe 361b cfbc
00000070: 32db 39be 3bae e4ba d346 3fbe 15ee a63d
00000080: de11 c3bd c556 42be 80af 90be c2c2 7dbe
00000090: 38a8 c2bd c996 eebe df9e 443e 82ab 803c
000000a0: 4c8e 19bf 0a41 0d3f dae4 83be 0f3c c23e
000000b0: 9cf1 5b3e f155 a13d 2821 96be 9b20 3fbe
000000c0: 9a74 0f3f 4fbd 313e 3d1f 92bc e425 973b
000000d0: c98d 59be 1162 053e 3ec8 3bbf 74f8 7abe
000000e0: 0907 dcbd cd11 64be 9fe2 c1be 0f96 a2be
000000f0: a0f1 82be dd7c f4be 9e84 9ebe bcf9 40be

_mlp.2.weight f4 [64, 64]
-0.08123511 0.11334437 -0.012899265 -0.09826114 -0.067129135 0.05246505 0.0670166 -0.0071522295
-0.0059675574 0.05264762 -0.0012203902 -0.25561482 0.12317142 -0.015861332 0.094590455 0.019945115
-0.0037650615 -0.28096125 0.034300342 0.055295214 -0.21276177 -0.054240063 0.069069296 0.0054163635
-0.24863908 -0.1307727 0.033905953 -0.0987343 0.06756437 -0.093706965 0.028802305 0.06413701
-0.046454594 -0.0768297 0.05446312 0.054335475 0.032795697 -0.1205485 -0.04031226 0.104678705
-0.2075568 -0.20793319 0.015765458 -0.2631938 -0.02408725 0.01059185 0.08764221 0.06636158
-0.012718067 0.09225018 0.11251521 -0.05873257 -0.15070416 -0.07337549 -0.078674816 -0.21154036
-0.106949165 -0.090295315 0.113456234 -0.30230534 -0.065985605 -0.27865267 -0.121477395 0.021021232
-0.013810729 0.022744868 0.007093572 0.07319196 0.02422753 0.09164944 0.07863017 0.04994137
0.091347925 0.12876233 0.06845878 0.020289168 0.13542256 0.032193433 -0.0033502132 -0.077370144
0.12045109 0.07606375 -0.034994043 0.06377502 -0.0057280734 -0.053385645 -0.03401818 -0.15878794
-0.06561748 0.1240832 0.12273659 0.10990938 0.057876747 0.116604805 -0.0751935 -0.02373524
-0.049797237 0.088612765 -0.027457297 0.06749597 0.0048575103 -0.034047157 0.004221021 0.12163737
0.10217725 -0.018456122 0.11180538 0.12752733 -0.067962304 0.081872195 -0.008645563 -0.04374026
0.067514025 0.01333724 -0.0768763 -0.08482474 0.048678633 -0.067250855 0.17754295 0.026575921
-0.07124814 0.021446854 -0.15023106 -0.045734156 0.011650011 -0.047441117 0.12622443 0.105091125
-0.10105321 0.004204243 -0.07750785 -0.193892 0.11829446 -0.35438204 -0.08741026 -0.1533223
-0.07687873 -0.1969427 0.09158325 0.04419119 -0.063049 -0.03490847 0.041690066 0.009798095
-0.079720885 0.04418118 0.017208265 -0.10762344 -0.12018525 0.096736476 -0.19615816 -0.042721108
0.061920315 -0.06676556 -0.010884002 -0.17509839 -0.0358211 -0.16950265 -0.11377077 0.057690658
-0.14076371 0.024445884 -0.04121697 0.014310166 -0.06400648 -0.13028347 -0.16717675 -0.06484305
-0.06992657 -0.26585242 -0.0847505 0.0081392145 -0.18088345 0.02069559 0.120695084 0.11638969
-0.0692623 -0.0895828 -0.10209969 -0.08353483 0.06746348 -0.0039180615 -0.09058061 -0.0691115
-0.07707546 0.12423496 0.11233932 -0.026556402 0.012973666 -0.03342193 0.019352037 -0.068773106
-0.610217 -0.05160874 -0.078344926 0.020209905 -0.06527996 -0.07123645 -0.04658097 -0.106707454
-0.0032948107 -0.027146101 0.020794481 -0.09022263 -0.081297845 -0.07672462 -0.0766692 0.09398295
0.010779351 -0.15618709 0.10400991 -0.041121915 -0.2919671 -0.004540384 -0.2851382 0.08844066
-0.173078 -0.11837429 0.052582383 -0.0010815571 0.04032074 -0.004197255 0.06446412 0.086337686
-0.09881298 -0.09483895 -0.073737636 0.029815018 0.002199769 0.11864887 0.11845349 -0.039010435
-0.21413864 -0.041617893 0.02271004 -0.23531984 0.10300699 0.09739721 0.07321176 0.1053171
-0.34471446 0.07113655 -0.096606836 -0.5530201 0.06858981 -0.22304817 -0.09168148 -0.575767
-0.058425084 -0.057259038 -0.053192765 0.11885592 0.08909564 -0.10647032 0.20214209 -0.075191215
00000000: 985e a6bd 1821 e83d 7057 53bc 233d c9bd
00000010: 007b 89bd 98e5 563d 0040 893d 405d eabb
00000020: 808b c3bb 08a5 573d 80f5 9fba f2df 82be
00000030: 4c41 fc3d a0ef 81bc a4b8 c13d f063 a33c
00000040: 40bf 76bb 27da 8fbe 847e 0c3d 3c7d 623d
00000050: 39de 59be d42a 5ebd 3474 8d3d c07b b13b
00000060: 3e9b 7ebe 47e9 05be f8e0 0a3d 3535 cabd
00000070: 305f 8a3d 70e9 bfbd d0f2 eb3c 445a 833d
00000080: 2c47 3ebd e458 9dbd b814 5f3d e08e 5e3d
00000090: c854 063d 22e2 f6bd 781e 25bd ca61 d63d
000000a0: c589 54be 70ec 54be 9026 813c 56c1 86be
000000b0: a052 c5bc 7089 2d3c c27d b33d 94e8 873d
000000c0: 705f 50bc aaed bc3d 606e e63d 9091 70bd
000000d0: 3152 1abe e445 96bd 4320 a1bd 099e 58be
000000e0: 2a08 dbbd c0ec b8bd be5b e83d c4c7 9abe
000000f0: 7623 87bd 90ab 8ebe 24c9 f8bd b834 ac3c
00000100: 6546 62bc 7253 ba3c 3271 e83b abe5 953d
00000110: d078 c63c b4b2 bb3d db08 a13d 528f 4c3d
00000120: 9f14 bb3d 46da 033e 1e34 8c3d 7835 a63c
00000130: 36ac 0a3e 43dd 033d 408f 5bbb 3d74 9ebd
00000140: 10af f63d 50c7 9b3d ea55 0fbd 7a9c 823d
00000150: 90b2 bbbb e8aa 5abd a656 0bbd 4e99 22be
00000160: 7562 86bd 551f fe3d 525d fb3d 2b18 e13d
00000170: 2b10 6d3d 80ce ee3d 0dff 99bd 6870 c2bc
00000180: 30f8 4bbd 9c7a b53d 20ee e0bc 543b 8a3d
00000190: c02b 9f3b 0875 0bbd 7e50 8a3b 031d f93d
000001a0: 4e42 d13d 4b31 97bc 38fa e43d 8696 023e
000001b0: d22f 8bbd 9cac a73d 1fa6 0dbc fd28 33bd
000001c0: cb44 8a3d 7084 5a3c 5271 9dbd 98b8 adbd
000001d0: 3f63 473d d1ba 89bd d2cd 353e bfb5 d93c
000001e0: 8bea 91bd 50b1 af3c 2cd6 19be bd53 3bbd
000001f0: b0df 3e3c 9e51 42bd fa40 013e 043a d73d
00000200: fcf4 cebd bfc3 893b 70bc 9ebd a08b 46be
00000210: 5e44 f23d 9071 b5be 2704 b3bd 8500 1dbe
00000220: 9872 9dbd 59ab 49be 0090 bb3d d201 353d
00000230: d61f 81bd 2ffc 0ebd 34c3 2a3d 3088 203c
00000240: b444 a3bd 53f7 343d 59f8 8c3c ae69 dcbd
00000250: af23 f6bd c61d c63d afdd 48be 54fc 2ebd
00000260: 28a0 7d3d 62bc 88bd d052 32bc fe4c 33be
00000270: 25b9 12bd 1a92 2dbe a600 e9bd 0a4d 6c3d
00000280: 5d24 10be bc42 c83c 20d3 28bd 3075 6a3c
00000290: d415 83bd 0869 05be 6230 2bbe 6fcc 84bd
000002a0: a935 8fbd cf1d 88be ac91 adbd 575a 053c
000002b0: 8339 39be cc89 a93c fc2e f73d b85d ee3d
000002c0: 65d9 8dbd 3077 b7bd a419 d1bd 4f14 abbd
000002d0: 4b2a 8a3d 1563 80bb 5482 b9bd 558a 8dbd
000002e0: bdd9 9dbd e66e fe3d 2812 e63d d08c d9bc
000002f0: 808f 543c 6fe5 08bd 2a88 9e3c ead8 8cbd
00000300: 2e37 1cbf b063 53bd 4e73 a0bd 3e8f a53c
00000310: 80b1 85bd 6ae4 91bd b0cb 3ebd 7089 dabd
00000320: c0ed 57bb 8061 debc 3059 aa3c a4c6 b8bd
00000330: 7c7f a6bd cc21 9dbd be04 9dbd 227a c03d
00000340: e09b 303c 82ef 1fbe 2603 d53d 746f 28bd
00000350: b67c 95be 80c7 94bb a2fd 91be 6020 b53d
00000360: 5c3b 31be 386e f2bd a060 573d 09c3 8dba
00000370: 5c27 253d 2089 89bb c405 843d d0d1 b03d
00000380: 765e cabd ec3a c2bd c203 97bd a03e f43c
00000390: 002a 103b 2efe f23d be97 f23d 68c9 1fbd
000003a0: 2947 5bbe 8677 2abd 680a ba3c aff7 70be
000003b0: 54f5 d23d 3078 c73d 0cf0 953d 7eb0 d73d
000003c0: 6a7e b0be 0ab0 913d ced9 c5bd ba92 0dbf
000003d0: d078 8c3d bd66 64be 80c3 bbbd 7765 13bf
000003e0: 244f 6fbd 7488 6abd a8e0 59bd bc6a f33d
000003f0: c677 b63d 1c0d dabd 56fe 4e3e dafd 99bd

_mlp.2.bias f4 [64]
-0.30350223 -0.83203995 -0.13369472 -0.29912305 -0.1734318 -0.19486625 -0.08428288 -0.42450604
-0.21927302 -0.53980297 -0.1565574 0.29630888 -0.30202737 -0.36068815 -0.17906655 -0.0041534994
-0.64501655 -0.06985249 0.6024484 -0.27509052 0.25153047 -0.16435343 -0.01963512 -0.12552658
-0.063418336 -0.36624444 0.041818716 0.0028674852 -0.03630651 -0.120813325 -0.2842436 -0.14617515
-0.014260277 -0.06685671 -0.11186338 -0.1484583 -0.046455793 -0.23033525 -0.08400803 0.906778
-0.3368542 -0.39912984 -0.13598938 0.030283805 -0.28456658 0.452972 0.34061438 0.7054374
-0.075850114 0.0353779 0.0049516438 0.35059994 -0.39516965 -0.407316 0.4844564 -0.49651065
-0.056985978 -0.20803098 -0.030414067 -0.12557968 0.7219311 -0.04579326 0.80083346 -0.34337208
00000000: a564 9bbe 9200 55bf 45e7 08be a826 99be
00000010: 1b98 31be 058b 47be 819c acbd db58 d9be
00000020: 1b89 60be 8730 0abf 9550 20be ccb5 973e
00000030: 55a3 9abe 1eac b8be 395d 37be 141a 88bb
00000040: ce1f 25bf d30e 8fbd 0f3a 1a3f aad8 8cbe
00000050: 9ac8 803e 444c 28be d5d9 a0bc 0a8a 00be
00000060: 79e1 81bd 6484 bbbe 1a4a 2b3d 6bec 3b3b
00000070: 23b6 14bd fa6c f7bd 6188 91be f0ae 15be
00000080: f0a3 69bc 2cec 88bd a118 e5bd 7405 18be
00000090: 6e48 3ebd 01dd 6bbe 670c acbd 9a22 683f
000000a0: 2778 acbe bf5a ccbe cd40 0bbe be15 f83c
000000b0: b6b2 91be f2eb e73e 0265 ae3e 8c97 343f
000000c0: 4e57 9bbd 6be8 103d 6641 a23b d681 b33e
000000d0: ad53 cabe b98b d0be ab0a f83e a536 febe
000000e0: 216a 69bd 1306 55be ec26 f9bc f697 00be
000000f0: 7ad0 383f b791 3bbd 6c03 4d3f 77ce afbe

_mlp.4.weight f4 [1, 64]
0.07671557 0.11876034 -0.027387835 -0.045901448 0.24932754 0.13652506 -0.042304773 0.3093086
-0.10446552 0.20701978 -0.023664357 -0.03195861 0.025956547 0.028066268 0.0028832094 0.02251392
0.03947518 -0.10672141 -0.050570372 0.15168956 -0.03225198 0.20621406 -0.061299082 -0.021851728
-0.03498216 0.25625268 -0.051465567 0.031208055 0.21243389 -0.022726556 0.080264755 -0.022006635
0.05212213 0.02197016 -0.014559681 -0.039093953 0.04680804 0.076173194 0.02069202 -0.4840476
0.25955287 -0.1694225 -0.0022285928 -0.006091488 -0.046853054 -0.07906655 -0.06152024 -0.14847744
-0.042727474 0.003741524 -0.068413764 -0.14946549 0.06927715 0.018925633 -0.060136285 0.24000838
-0.0074332436 -0.018378822 -0.0045834007 -0.0014629912 -0.2519496 -0.10270924 -0.23481227 0.020312123
00000000: 0e1d 9d3d 9f38 f33d 745c e0bc 2803 3cbd
00000010: b84f 7f3e 3acd 0b3e c547 2dbd b25d 9e3e
00000020: 05f2 d5bd fefc 533e c1db c1bc 08e7 02bd
00000030: d3a2 d43c 3beb e53c 3af4 3c3b 1d6f b83c
00000040: bab0 213d c190 dabd e122 4fbd 8254 1b3e
00000050: a71a 04bd c729 533e bf14 7bbd 6502 b3bc
00000060: 7449 0fbd 8d33 833e 8fcd 52bd 09a8 ff3c
00000070: 4588 593e 0b2d babc d961 a43d 4247 b4bc
00000080: 047e 553d c4fa b33c ba8b 6ebc fb20 20bd
00000090: cab9 3f3d b100 9c3d 5082 a93c 16d5 f7be
000000a0: 1de4 843e 187d 2dbe 950d 12bb 1b9b c7bb
000000b0: fde8 3fbd a5ed a1bd a6fc 7bbd 780a 18be
000000c0: 0103 2fbd 5b34 753b 841c 8cbd 7b0d 19be
000000d0: 2ee1 8d3d ee09 9b3c 7751 76bd c2c4 753e
000000e0: 9192 f3bb 2f8f 96bc 5a30 96bb d7c1 bfba
000000f0: 8aff 80be 3959 d2bd a172 70be 9c65 a63c

exp_avg f4 [2, 1, 3, 3]
-0.0018502456 -0.0008085988 -0.0012654451 -0.0012015286 0.00024395203 -0.003140707 -0.0013197822 -0.003022592
-0.0008112006 8.5584885e-05 -0.00043922625 -0.0003141724 -0.00041193128 -0.00080635963 -0.0002908579 -0.00021468668
-0.000265737 0.00041245914
00000000: f183 f2ba 26f8 53ba 4bdd a5ba 9c7c 9dba
00000010: 60cd 7f39 52d4 4dbb 8bfc acba ae16 46bb
00000020: c0a6 54ba 097c b338 f347 e6b9 81b7 a4b9
00000030: 7bf8 d7b9 e161 53ba 497e 98b9 841d 61b9
00000040: 9e52 8bb9 543f d839

exp_avg_sq f4 [2, 1, 3, 3]
0.0009914004 0.0011643016 0.0010001957 0.00094975345 0.0011698048 0.00080949505 0.000876638 0.0008713879
0.0010373056 4.961562e-06 5.0138415e-06 4.4373755e-06 6.0638035e-06 7.849345e-06 4.419199e-06 5.978987e-06
5.245628e-06 5.284585e-06
00000000: e1f1 813a 7b9b 983a 0019 833a e0f8 783a
00000010: 2354 993a 4b34 543a 2ece 653a da6d 643a
00000020: 33f6 873a 7e7b a636 923c a836 c4e4 9436
00000030: ad77 cb36 aeb0 0337 a148 9436 1b9f c836
00000040: 9a03 b036 3d52 b136

exp_avg f4 [4, 1, 3, 3]
-0.0012190242 -0.0013777872 -0.003968424 -0.0022975525 -0.0028462533 -0.0019668478 -0.0013683838 -0.0029182031
-0.0008303136 -9.012443e-05 -0.00055036467 -0.00040882945 -0.0004970797 -0.0003655212 -0.0002697232 -0.00036536262
-0.00024204592 -0.0003103268 -0.0012045675 -0.00068994705 -8.9797046e-05 -0.0005407098 2.288379e-05 0.0006954341
0.00028851838 0.0008475024 0.0015432293 7.31307e-05 7.1829585e-05 7.387465e-05 6.52076e-05 7.112312e-05
7.545073e-05 5.8579022e-05 6.10562e-05 6.491536e-05
00000000: aac7 9fba de96 b4ba 8e09 82bb 8992 16bb
00000010: 3588 3abb 3be6 00bb 575b b3ba 533f 3fbb
00000020: 67a9 59ba 2f01 bdb8 5946 10ba 2958 d6b9
00000030: 744e 02ba 6da3 bfb9 a369 8db9 248e bfb9
00000040: b5cd 7db9 5cb3 a2b9 94e2 9dba 90dd 34ba
00000050: 6c51 bcb8 6cbe 0dba 91f6 bf37 cb4d 363a
00000060: 4844 9739 ec2a 5e3a 2f46 ca3a bf5d 9938
00000070: 37a3 9638 27ed 9a38 10c0 8838 ef27 9538
00000080: 4d3b 9e38 bfb2 7538 4c0b 8038 2b23 8838

exp_avg_sq f4 [4, 1, 3, 3]
0.0004816248 0.00048547683 0.000536438 0.0004738843 0.0004933426 0.0004890858 0.0004843167 0.00048100544
0.00049044663 3.635242e-05 4.322797e-05 4.1408268e-05 4.2772477e-05 4.0526014e-05 3.6984056e-05 3.648121e-05
3.607681e-05 3.812869e-05 6.78099e-05 4.820796e-05 4.1199375e-05 4.862653e-05 4.1140793e-05 4.9057606e-05
4.100999e-05 4.7522622e-05 7.113034e-05 4.577724e-06 4.579059e-06 4.660948e-06 4.5464362e-06 4.645299e-06
4.7137823e-06 4.401842e-06 4.4656467e-06 4.469926e-06
00000000: 9682 fc39 9987 fe39 bf9f 0c3a ad73 f839
00000010: a953 013a fe35 003a e3eb fd39 752f fc39
00000020: 5191 003a 1d79 1838 ae4f 3538 caad 2d38
00000030: 9966 3338 7afa 2938 541f 1b38 6703 1938
00000040: 2e51 1738 5fec 1f38 2a35 8e38 e732 4a38
00000050: 7ecd 2c38 57f4 4b38 978e 2c38 34c3 4d38
00000060: 2402 2c38 0753 4738 cf2b 9538 5a9a 9936
00000070: d1a5 9936 3d65 9c36 978d 9836 d1de 9b36
00000080: 152b 9e36 89b3 9336 9dd7 9536 5ffc 9536

exp_avg f4 [64, 12]
-3.863595e-33 4.3827274e-34 -3.863595e-33 4.3827274e-34 -3.7745667e-33 -5.2836825e-33 -4.369021e-34 8.3458394e-35
-3.7745667e-33 -5.2836825e-33 -4.369021e-34 8.3458394e-35 -6e-45 -6e-45 -6e-45 -6e-45
-6e-45 -6e-45 -6e-45 -6e-45 -6e-45 -6e-45 -6e-45 -6e-45
-6e-45 6e-45 -6e-45 6e-45 -6e-45 -6e-45 6e-45 -6e-45
-6e-45 -6e-45 6e-45 -6e-45 0.0037771426 -0.0005622539 0.0037771426 -0.0005622539
0.0051411875 0.003692702 0.0005498725 6.744338e-05 0.0051411875 0.003692702 0.0005498725 6.744338e-05
-6e-45 6e-45 -6e-45 6e-45 -6e-45 -6e-45 -6e-45 -6e-45
-6e-45 -6e-45 -6e-45 -6e-45 -7.355054e-05 1.5009747e-05 -7.355054e-05 1.5009747e-05
-6.248414e-05 -0.00013302478 6.743058e-06 -1.5932672e-05 -6.248414e-05 -0.00013302478 6.743058e-06 -1.5932672e-05
-6e-45 6e-45 -6e-45 6e-45 -6e-45 -6e-45 -6e-45 -6e-45
-6e-45 -6e-45 -6e-45 -6e-45 -7.256049e-07 2.5576182e-07 -7.256049e-07 2.5576182e-07
-6.051898e-07 -1.435277e-06 9.930095e-08 -3.450544e-08 -6.051898e-07 -1.435277e-06 9.930095e-08 -3.450544e-08
-6e-45 6e-45 -6e-45 6e-45 -6e-45 -6e-45 -6e-45 -6e-45
-6e-45 -6e-45 -6e-45 -6e-45 3.3759875e-08 4.915327e-08 3.3759875e-08 4.915327e-08
-1.6242256e-08 4.2301212e-07 -1.0432786e-07 2.3541274e-07 -1.6242256e-08 4.2301212e-07 -1.0432786e-07 2.3541274e-07
-3.1263313e-05 5.3362987e-06 -3.1263313e-05 5.3362987e-06 -2.2560098e-05 -8.4045256e-05 2.018114e-05 -1.7702603e-05
-2.2560098e-05 -8.4045256e-05 2.018114e-05 -1.7702603e-05 4.873369e-05 -3.5892335e-06 4.873369e-05 -3.5892335e-06
7.089426e-05 4.538375e-05 -1.1953951e-05 -2.8633704e-06 7.089426e-05 4.538375e-05 -1.1953951e-05 -2.8633704e-06
-6e-45 6e-45 -6e-45 6e-45 -6e-45 -6e-45 -6e-45 6e-45
-6e-45 -6e-45 -6e-45 6e-45 6e-45 -6e-45 6e-45 -6e-45
6e-45 6e-45 -6e-45 -6e-45 6e-45 6e-45 -6e-45 -6e-45
0.0 0.0 0.0 0.0 0.0 0.0 0.0 0.0
0.0 0.0 0.0 0.0 -6e-45 -6e-45 -6e-45 -6e-45
-6e-45 -6e-45 -6e-45 -6e-45 -6e-45 -6e-45 -6e-45 -6e-45
-6e-45 -6e-45 -6e-45 -6e-45 -6e-45 -6e-45 -6e-45 -6e-45
-6e-45 -6e-45 -6e-45 -6e-45 -6e-45 6e-45 -6e-45 6e-45
-6e-45 -6e-45 -6e-45 -6e-45 -6e-45 -6e-45 -6e-45 -6e-45
-6e-45 -6e-45 -6e-45 -6e-45 -6e-45 -6e-45 -6e-45 -6e-45
-6e-45 -6e-45 -6e-45 -6e-45 0.0 0.0 0.0 0.0
0.0 0.0 0.0 0.0 0.0 0.0 0.0 0.0
-1.3933431e-05 3.0239923e-06 -1.3933431e-05 3.0239923e-06 -9.774378e-06 -3.586859e-05 9.400733e-06 -5.5820874e-06
-9.774378e-06 -3.586859e-05 9.400733e-06 -5.5820874e-06 -6e-45 -6e-45 -6e-45 -6e-45
00000000: ca7c a089 1fa4 1108 ca7c a089 1fa4 1108
00000010: 14ca 9c89 c079 db89 852f 1188 d7de dd06
00000020: 14ca 9c89 c079 db89 852f 1188 d7de dd06
00000030: 0400 0080 0400 0080 0400 0080 0400 0080
00000040: 0400 0080 0400 0080 0400 0080 0400 0080
00000050: 0400 0080 0400 0080 0400 0080 0400 0080
00000060: 0400 0080 0400 0000 0400 0080 0400 0000
00000070: 0400 0080 0400 0080 0400 0000 0400 0080
00000080: 0400 0080 0400 0080 0400 0000 0400 0080
00000090: f089 773b 3864 13ba f089 773b 3864 13ba
000000a0: 6877 a83b 4201 723b 5225 103a 6470 8d38
000000b0: 6877 a83b 4201 723b 5225 103a 6470 8d38
000000c0: 0400 0080 0400 0000 0400 0080 0400 0000
000000d0: 0400 0080 0400 0080 0400 0080 0400 0080
000000e0: 0400 0080 0400 0080 0400 0080 0400 0080
000000f0: 253f 9ab8 5fd2 7b37 253f 9ab8 5fd2 7b37
00000100: eb09 83b8 917c 0bb9 6d42 e236 27a7 85b7
00000110: eb09 83b8 917c 0bb9 6d42 e236 27a7 85b7
00000120: 0400 0080 0400 0000 0400 0080 0400 0000
00000130: 0400 0080 0400 0080 0400 0080 0400 0080
00000140: 0400 0080 0400 0080 0400 0080 0400 0080
00000150: 30c7 42b5 a34f 8934 30c7 42b5 a34f 8934
00000160: 5474 22b5 bea3 c0b5 463f d533 2233 14b3
00000170: 5474 22b5 bea3 c0b5 463f d533 2233 14b3
00000180: 0400 0080 0400 0000 0400 0080 0400 0000
00000190: 0400 0080 0400 0080 0400 0080 0400 0080
000001a0: 0400 0080 0400 0080 0400 0080 0400 0080
000001b0: 60ff 1033 981c 5333 60ff 1033 981c 5333
000001c0: 1985 8bb2 581a e334 d90a e0b3 c3c5 7c34
000001d0: 1985 8bb2 581a e334 d90a e0b3 c3c5 7c34
000001e0: ba20 03b8 750e b336 ba20 03b8 750e b336
000001f0: 713f bdb7 7441 b0b8 ab4a a937 0d80 94b7
00000200: 713f bdb7 7441 b0b8 ab4a a937 0d80 94b7
00000210: 6767 4c38 90de 70b6 6767 4c38 90de 70b6
00000220: 11ad 9438 6e5a 3e38 d48d 48b7 5428 40b6
00000230: 11ad 9438 6e5a 3e38 d48d 48b7 5428 40b6
00000240: 0400 0080 0400 0000 0400 0080 0400 0000
00000250: 0400 0080 0400 0080 0400 0080 0400 0000
00000260: 0400 0080 0400 0080 0400 0080 0400 0000
00000270: 0400 0000 0400 0080 0400 0000 0400 0080
00000280: 0400 0000 0400 0000 0400 0080 0400 0080
00000290: 0400 0000 0400 0000 0400 0080 0400 0080
000002a0: 0000 0000 0000 0000 0000 0000 0000 0000
000002b0: 0000 0000 0000 0000 0000 0000 0000 0000
000002c0: 0000 0000 0000 0000 0000 0000 0000 0000
000002d0: 0400 0080 0400 0080 0400 0080 0400 0080
000002e0: 0400 0080 0400 0080 0400 0080 0400 0080
000002f0: 0400 0080 0400 0080 0400 0080 0400 0080
00000300: 0400 0080 0400 0080 0400 0080 0400 0080
00000310: 0400 0080 0400 0080 0400 0080 0400 0080
00000320: 0400 0080 0400 0080 0400 0080 0400 0080
00000330: 0400 0080 0400 0000 0400 0080 0400 0000
00000340: 0400 0080 0400 0080 0400 0080 0400 0080
00000350: 0400 0080 0400 0080 0400 0080 0400 0080
00000360: 0400 0080 0400 0080 0400 0080 0400 0080
00000370: 0400 0080 0400 0080 0400 0080 0400 0080
00000380: 0400 0080 0400 0080 0400 0080 0400 0080
00000390: 0000 0000 0000 0000 0000 0000 0000 0000
000003a0: 0000 0000 0000 0000 0000 0000 0000 0000
000003b0: 0000 0000 0000 0000 0000 0000 0000 0000
000003c0: a1c3 69b7 cbef 4a36 a1c3 69b7 cbef 4a36
000003d0: a2fc 23b7 9b71 16b8 d7b7 1d37 c44d bbb6
000003e0: a2fc 23b7 9b71 16b8 d7b7 1d37 c44d bbb6
000003f0: 0400 0080 0400 0080 0400 0080 0400 0080

exp_avg_sq f4 [64, 12]
2.0443466e-08 1.3444628e-09 2.0443466e-08 1.3444628e-09 2.1309354e-07 3.2618356e-08 3.0405294e-09 2.5045046e-09
2.1309354e-07 3.2618356e-08 3.0405294e-09 2.5045046e-09 7.6453915e-10 3.107945e-10 7.6453915e-10 3.107945e-10
8.024844e-09 1.3732941e-09 5.775563e-10 2.2402091e-09 8.024844e-09 1.3732941e-09 5.775563e-10 2.2402091e-09
5.83972e-08 8.943375e-09 5.83972e-08 8.943375e-09 1.5194491e-06 7.660039e-08 1.2620591e-08 4.1581885e-09
1.5194491e-06 7.660039e-08 1.2620591e-08 4.1581885e-09 0.00046326843 8.212557e-06 0.00046326843 8.212557e-06
0.0009189335 0.0005212811 4.1429295e-05 5.095687e-07 0.0009189335 0.0005212811 4.1429295e-05 5.095687e-07
2.5912946e-15 6.6835254e-17 2.5912946e-15 6.6835254e-17 3.15031e-15 1.2337888e-14 1.8067453e-17 4.0020477e-17
3.15031e-15 1.2337888e-14 1.8067453e-17 4.0020477e-17 3.5263993e-06 8.861826e-08 3.5263993e-06 8.861826e-08
1.129319e-05 5.8117325e-06 1.749864e-07 1.6046995e-08 1.129319e-05 5.8117325e-06 1.749864e-07 1.6046995e-08
2.9876832e-09 5.233916e-10 2.9876832e-09 5.233916e-10 1.2375835e-08 5.6670126e-09 9.676536e-10 3.551834e-09
1.2375835e-08 5.6670126e-09 9.676536e-10 3.551834e-09 2.3918264e-07 8.321884e-09 2.3918264e-07 8.321884e-09
1.156616e-06 3.7510836e-07 1.683552e-08 4.9336584e-09 1.156616e-06 3.7510836e-07 1.683552e-08 4.9336584e-09
3.4128044e-11 3.229422e-14 3.4128044e-11 3.229422e-14 8.335743e-11 3.6978635e-11 1.0415306e-13 1.2413069e-13
8.335743e-11 3.6978635e-11 1.0415306e-13 1.2413069e-13 5.151898e-09 1.0888201e-09 5.151898e-09 1.0888201e-09
1.7034406e-08 1.16387655e-08 2.3336741e-09 5.2978852e-09 1.7034406e-08 1.16387655e-08 2.3336741e-09 5.2978852e-09
3.1783287e-07 1.3315257e-08 3.1783287e-07 1.3315257e-08 5.11777e-07 6.4441775e-07 6.050808e-08 4.319966e-09
5.11777e-07 6.4441775e-07 6.050808e-08 4.319966e-09 4.2938614e-06 9.222387e-08 4.2938614e-06 9.222387e-08
3.7680675e-05 4.453645e-06 2.00443e-07 3.1430275e-08 3.7680675e-05 4.453645e-06 2.00443e-07 3.1430275e-08
1.8485148e-09 8.2369145e-10 1.8485148e-09 8.2369145e-10 1.4012012e-08 3.5107828e-09 1.4838963e-09 5.821506e-09
1.4012012e-08 3.5107828e-09 1.4838963e-09 5.821506e-09 1.5869263e-07 1.1616376e-08 1.5869263e-07 1.1616376e-08
3.1118368e-06 1.8575005e-07 1.4636266e-08 4.364122e-09 3.1118368e-06 1.8575005e-07 1.4636266e-08 4.364122e-09
0.0 0.0 0.0 0.0 0.0 0.0 0.0 0.0
0.0 0.0 0.0 0.0 1.11956634e-13 3.155055e-14 1.11956634e-13 3.155055e-14
4.3709678e-13 2.4085234e-13 1.428385e-13 1.424303e-13 4.3709678e-13 2.4085234e-13 1.428385e-13 1.424303e-13
2.1357256e-09 9.197961e-10 2.1357256e-09 9.197961e-10 1.8229915e-08 3.9284846e-09 1.6363094e-09 6.6106622e-09
1.8229915e-08 3.9284846e-09 1.6363094e-09 6.6106622e-09 7.1170774e-08 3.5262795e-09 7.1170774e-08 3.5262795e-09
8.212556e-07 8.5030166e-08 6.441791e-09 9.594976e-09 8.212556e-07 8.5030166e-08 6.441791e-09 9.594976e-09
4.2345058e-10 1.3648216e-10 4.2345058e-10 1.3648216e-10 8.646569e-09 5.691732e-10 1.7773501e-10 1.3169225e-09
8.646569e-09 5.691732e-10 1.7773501e-10 1.3169225e-09 0.0 0.0 0.0 0.0
0.0 0.0 0.0 0.0 0.0 0.0 0.0 0.0
1.5596412e-06 4.1868198e-08 1.5596412e-06 4.1868198e-08 6.1788214e-06 2.23947e-06 9.6750384e-08 9.4723935e-09
6.1788214e-06 2.23947e-06 9.6750384e-08 9.4723935e-09 1.1609584e-09 5.058857e-10 1.1609584e-09 5.058857e-10
00000000: a89b af32 14c8 b830 a89b af32 14c8 b830
00000010: b5ce 6434 4318 0c33 8ff1 5031 b61b 2c31
00000020: b5ce 6434 4318 0c33 8ff1 5031 b61b 2c31
00000030: a927 5230 70dc aa2f a927 5230 70dc aa2f
00000040: a3dd 0932 7ebe bc30 e9c1 1e30 2df2 1931
00000050: a3dd 0932 7ebe bc30 e9c1 1e30 2df2 1931
00000060: 67d0 7a33 61a5 1932 67d0 7a33 61a5 1932
00000070: e0ef cb35 827f a433 f2d1 5832 d0df 8e31
00000080: e0ef cb35 827f a433 f2d1 5832 d0df 8e31
00000090: d6e2 f239 aac8 0937 d6e2 f239 aac8 0937
000000a0: 95e4 703a 95a6 083a 5ec4 2d38 4bc9 0835
000000b0: 95e4 703a 95a6 083a 5ec4 2d38 4bc9 0835
000000c0: f3b8 3a27 921c 9a24 f3b8 3a27 921c 9a24
000000d0: f600 6327 7742 5e28 91a4 a623 d78f 3824
000000e0: f600 6327 7742 5e28 91a4 a623 d78f 3824
000000f0: 14a7 6c36 674e be33 14a7 6c36 674e be33
00000100: e277 3d37 6702 c336 e5e3 3b34 b7d7 8932
00000110: e277 3d37 6702 c336 e5e3 3b34 b7d7 8932
00000120: e14f 4d31 69de 0f30 e14f 4d31 69de 0f30
00000130: 7f9d 5432 92b7 c231 49fe 8430 8614 7431
00000140: 7f9d 5432 92b7 c231 49fe 8430 8614 7431
00000150: 0369 8034 08f8 0e32 0369 8034 08f8 0e32
00000160: 063d 9b35 8062 c934 b39d 9032 eb84 a931
00000170: 063d 9b35 8062 c934 b39d 9032 eb84 a931
00000180: c318 162e b370 1129 c318 162e b370 1129
00000190: 104e b72e 3ea2 222e 2788 ea29 3cc2 0b2a
000001a0: 104e b72e 3ea2 222e 2788 ea29 3cc2 0b2a
000001b0: 9304 b131 74a5 9530 9304 b131 74a5 9530
000001c0: 0e53 9232 d5f3 4732 6e5e 2031 b108 b631
000001d0: 0e53 9232 d5f3 4732 6e5e 2031 b108 b631
000001e0: 9ea2 aa34 1fc1 6432 9ea2 aa34 1fc1 6432
000001f0: 0c61 0935 0dfc 2c35 abf0 8133 d36e 9431
00000200: 0c61 0935 0dfc 2c35 abf0 8133 d36e 9431
00000210: fd13 9036 9c0c c633 fd13 9036 9c0c c633
00000220: 510b 1e38 8570 9536 5a39 5734 f4fd 0633
00000230: 510b 1e38 8570 9536 5a39 5734 f4fd 0633
00000240: d50e fe30 226a 6230 d50e fe30 226a 6230
00000250: 7bb9 7032 5842 7131 f6f1 cb30 8206 c831
00000260: 7bb9 7032 5842 7131 f6f1 cb30 8206 c831
00000270: 1965 2a34 5d91 4732 1965 2a34 5d91 4732
00000280: f3d4 5036 9672 4734 fb72 7b32 39f3 9531
00000290: f3d4 5036 9672 4734 fb72 7b32 39f3 9531
000002a0: 0000 0000 0000 0000 0000 0000 0000 0000
000002b0: 0000 0000 0000 0000 0000 0000 0000 0000
000002c0: 0000 0000 0000 0000 0000 0000 0000 0000
000002d0: 9b1a fc29 4f17 0e29 9b1a fc29 4f17 0e29
000002e0: 4910 f62a 7b96 872a 65d2 202a bd5c 202a
000002f0: 4910 f62a 7b96 872a 65d2 202a bd5c 202a
00000300: 15c4 1231 e5d4 7c30 15c4 1231 e5d4 7c30
00000310: 0298 9c32 51fb 8631 85e4 e030 0024 e331
00000320: 0298 9c32 51fb 8631 85e4 e030 0024 e331
00000330: 8cd6 9833 f752 7231 8cd6 9833 f752 7231
00000340: 4174 5c35 d499 b633 9856 dd31 27d7 2432
00000350: 4174 5c35 d499 b633 9856 dd31 27d7 2432
00000360: 5fcb e82f 5010 162f 5fcb e82f 5010 162f
00000370: 038c 1432 0174 1c30 f56b 432f 17ff b430
00000380: 038c 1432 0174 1c30 f56b 432f 17ff b430
00000390: 0000 0000 0000 0000 0000 0000 0000 0000
000003a0: 0000 0000 0000 0000 0000 0000 0000 0000
000003b0: 0000 0000 0000 0000 0000 0000 0000 0000
000003c0: dd54 d135 92d2 3333 dd54 d135 92d2 3333
000003d0: ac53 cf36 cd49 1636 16c5 cf33 07bc 2232
000003e0: ac53 cf36 cd49 1636 16c5 cf33 07bc 2232
000003f0: 988f 9f30 8b0e 0b30 988f 9f30 8b0e 0b30

exp_avg f4 [64]
8.5331045e-34 6e-45 6e-45 -0.0011644398 6e-45 4.3058728e-05 6e-45 5.166648e-07
6e-45 -1.8954242e-07 2.801032e-05 -5.1060515e-06 6e-45 -6e-45 0.0 6e-45
6e-45 6e-45 6e-45 0.0 1.1400604e-05 6e-45 6.864536e-06 6e-45
-7.0453766e-06 4.2025127e-31 0.0 6e-45 6e-45 8.1961406e-07 6e-45 6e-45
6.875975e-29 6e-45 0.0 0.0 0.0 6e-45 3.4330708e-07 6e-45
-0.00017825708 9.450129e-05 0.0 4.9922874e-06 6e-45 6e-45 6e-45 3.9483197e-07
1.8906312e-05 2.8259558e-08 6e-45 -8.666105e-07 -2.4827132e-11 1.4934777e-10 2.762088e-05 4.665142e-09
6e-45 0.0 -2.5569116e-07 8.4885835e-07 0.0 6e-45 2.9481346e-06 0.0
00000000: d0c7 8d08 0400 0000 0400 0000 1ea0 98ba
00000010: 0400 0000 f599 3438 0400 0000 efb0 0a35
00000020: 0400 0000 0685 4bb4 b4f7 ea37 a654 abb6
00000030: 0400 0000 0400 0080 0000 0000 0400 0000
00000040: 0400 0000 0400 0000 0400 0000 0000 0000
00000050: 3945 3f37 0400 0000 ea55 e636 0400 0000
00000060: 5367 ecb6 1c61 080d 0000 0000 0400 0000
00000070: 0400 0000 7303 5c35 0400 0000 0400 0000
00000080: a153 ae10 0400 0000 0000 0000 0000 0000
00000090: 0000 0000 0400 0000 c44f b834 0400 0000
000000a0: 85ea 3ab9 fe2e c638 0000 0000 6c83 a736
000000b0: 0400 0000 0400 0000 0400 0000 4bf9 d334
000000c0: ff98 9e37 6dbf f232 0400 0000 05a1 68b5
000000d0: bb61 daad a935 242f 63b3 e737 064b a031
000000e0: 0400 0000 0000 0000 ed45 89b4 1add 6335
000000f0: 0000 0000 0400 0000 91d8 4536 0000 0000

exp_avg_sq f4 [64]
6.395819e-09 3.0462022e-10 4.62615e-08 2.8082448e-05 8.90319e-16 4.8671825e-07 5.925017e-10 4.802729e-08
2.8246379e-12 9.099957e-10 4.131137e-08 7.5929864e-07 3.727096e-10 8.231325e-08 0.0 3.4663607e-14
6.0265454e-10 2.1589036e-08 4.0005377e-10 0.0 2.0741787e-07 2.1641024e-10 1.1892965e-08 2.5548012e-12
3.430815e-07 6.035493e-08 0.0 6.2186145e-09 1.3731301e-10 1.1581169e-09 2.3769313e-11 1.43452725e-08
4.3187065e-10 7.3165335e-11 0.0 0.0 0.0 2.972762e-10 1.5785216e-09 2.5914415e-10
1.0137268e-06 7.606605e-07 0.0 8.815171e-07 8.5955265e-10 2.9307309e-08 5.299101e-11 2.7704735e-08
9.95499e-08 1.4696361e-10 3.9575346e-16 4.0677515e-09 1.4335619e-07 1.25142785e-08 6.4207535e-07 1.8581582e-07
6.021308e-11 0.0 6.258383e-10 7.115504e-08 0.0 9.065181e-08 7.515681e-09 0.0
00000000: 38c2 db31 7c77 a72f 0fb1 4633 9992 eb37
00000010: f94e 8026 06a7 0235 9add 2230 9046 4e33
00000020: 27c4 462c 4123 7a30 556e 3133 9bd2 4b35
00000030: 37e6 cc2f 30c4 b033 0000 0000 6b1c 1c29
00000040: 0ba8 2530 cb72 b932 90ee db2f 0000 0000
00000050: 97b6 5e34 11f2 6d2f d051 4c32 35c7 332c
00000060: c330 b834 799c 8133 0000 0000 83ab d531
00000070: 2dfa 162f 9e2b 9f30 bc13 d12d 2d73 7632
00000080: 646c ed2f 6ce4 a02e 0000 0000 0000 0000
00000090: 0000 0000 e86d a32f 4bf3 d830 4c77 8e2f
000000a0: 630f 8835 3130 4c35 0000 0000 65a1 6c35
000000b0: a445 6c30 74bf fb32 930e 692e 5bfb ed32
000000c0: 23c8 d533 9496 212f e722 e425 52c4 8b31
000000d0: 73ed 1934 61fe 5632 155b 2c35 aa84 4734
000000e0: f368 842e 0000 0000 7507 2c30 e6cd 9833
000000f0: 0000 0000 5cac c233 511e 0132 0000 0000

exp_avg f4 [64, 64]
0.0 0.0 0.0 6e-45 0.0 0.0 0.0 0.0
0.0 0.0 0.0 6e-45 0.0 0.0 0.0 0.0
0.0 6e-45 0.0 0.0 6e-45 0.0 0.0 0.0
6e-45 6e-45 0.0 6e-45 0.0 0.0 0.0 0.0
0.0 0.0 0.0 0.0 0.0 0.0 0.0 0.0
6e-45 6e-45 0.0 6e-45 0.0 0.0 0.0 0.0
0.0 0.0 0.0 0.0 6e-45 0.0 6e-45 6e-45
0.0 0.0 0.0 6e-45 0.0 6e-45 0.0 0.0
-6e-45 -6e-45 -6e-45 0.00013242618 0.0 -6e-45 -6e-45 8.619436e-28
-6e-45 6e-45 -6e-45 4.27314e-05 -6e-45 -6e-45 0.0 6e-45
6e-45 6e-45 6e-45 0.0 -6e-45 -6e-45 -6e-45 6e-45
2.4192728e-05 6.9534235e-32 0.0 6e-45 6e-45 -6e-45 6e-45 6e-45
-6e-45 -6e-45 0.0 0.0 0.0 -6e-45 6e-45 -6e-45
7.839173e-05 -9.3436975e-15 0.0 -8.67889e-11 6e-45 6e-45 6e-45 -6e-45
-6e-45 -6e-45 0.0 6e-45 -2.3201484e-10 6e-45 2.8812856e-05 2.846728e-09
-6e-45 0.0 6e-45 6e-45 0.0 6e-45 -4.4798157e-30 0.0
6e-45 6e-45 0.0 6e-45 0.0 6e-45 6e-45 6e-45
0.0 6e-45 0.0 6e-45 -6e-45 6e-45 0.0 0.0
6e-45 6e-45 6e-45 0.0 6e-45 0.0 6e-45 0.0
6e-45 6e-45 0.0 6e-45 6e-45 6e-45 0.0 -6e-45
6e-45 6e-45 0.0 0.0 0.0 6e-45 6e-45 6e-45
6e-45 6e-45 0.0 6e-45 6e-45 6e-45 0.0 0.0
6e-45 6e-45 0.0 6e-45 -6e-45 6e-45 6e-45 6e-45
6e-45 0.0 0.0 6e-45 0.0 6e-45 6e-45 0.0
6e-45 0.0 0.0 2.4759916e-24 0.0 -5.429398e-30 0.0 -4.7347408e-30
0.0 0.0 0.0 6e-45 0.0 0.0 0.0 0.0
0.0 6e-45 0.0 0.0 -1.3736526e-30 0.0 5.84727e-32 0.0
7.447111e-27 6e-45 0.0 6e-45 0.0 0.0 0.0 0.0
0.0 0.0 0.0 0.0 0.0 0.0 6e-45 0.0
2.0947348e-25 4.236036e-28 0.0 -1.3758014e-30 0.0 0.0 0.0 0.0
6e-45 0.0 0.0 6e-45 4.8495913e-28 6e-45 6e-45 1.9723955e-26
0.0 0.0 0.0 0.0 0.0 6e-45 7.6882335e-29 0.0
00000000: 0000 0000 0000 0000 0000 0000 0400 0000
00000010: 0000 0000 0000 0000 0000 0000 0000 0000
00000020: 0000 0000 0000 0000 0000 0000 0400 0000
00000030: 0000 0000 0000 0000 0000 0000 0000 0000
00000040: 0000 0000 0400 0000 0000 0000 0000 0000
00000050: 0400 0000 0000 0000 0000 0000 0000 0000
00000060: 0400 0000 0400 0000 0000 0000 0400 0000
00000070: 0000 0000 0000 0000 0000 0000 0000 0000
00000080: 0000 0000 0000 0000 0000 0000 0000 0000
00000090: 0000 0000 0000 0000 0000 0000 0000 0000
000000a0: 0400 0000 0400 0000 0000 0000 0400 0000
000000b0: 0000 0000 0000 0000 0000 0000 0000 0000
000000c0: 0000 0000 0000 0000 0000 0000 0000 0000
000000d0: 0400 0000 0000 0000 0400 0000 0400 0000
000000e0: 0000 0000 0000 0000 0000 0000 0400 0000
000000f0: 0000 0000 0400 0000 0000 0000 0000 0000
00000100: 0400 0080 0400 0080 0400 0080 e2db 0a39
00000110: 0000 0000 0400 0080 0400 0080 9694 8812
00000120: 0400 0080 0400 0000 0400 0080 7e3a 3338
00000130: 0400 0080 0400 0080 0000 0000 0400 0000
00000140: 0400 0000 0400 0000 0400 0000 0000 0000
00000150: 0400 0080 0400 0080 0400 0080 0400 0000
00000160: 7df1 ca37 6d85 b40b 0000 0000 0400 0000
00000170: 0400 0000 0400 0080 0400 0000 0400 0000
00000180: 0400 0080 0400 0080 0000 0000 0000 0000
00000190: 0000 0000 0400 0080 0400 0000 0400 0080
000001a0: 3d66 a438 3352 28a8 0000 0000 cfd9 beae
000001b0: 0400 0000 0400 0000 0400 0000 0400 0080
000001c0: 0400 0080 0400 0080 0000 0000 0400 0000
000001d0: 5f1a 7faf 0400 0000 23b3 f137 2ba0 4331
000001e0: 0400 0080 0000 0000 0400 0000 0400 0000
000001f0: 0000 0000 0400 0000 11b9 b58e 0000 0000
00000200: 0400 0000 0400 0000 0000 0000 0400 0000
00000210: 0000 0000 0400 0000 0400 0000 0400 0000
00000220: 0000 0000 0400 0000 0000 0000 0400 0000
00000230: 0400 0080 0400 0000 0000 0000 0000 0000
00000240: 0400 0000 0400 0000 0400 0000 0000 0000
00000250: 0400 0000 0000 0000 0400 0000 0000 0000
00000260: 0400 0000 0400 0000 0000 0000 0400 0000
00000270: 0400 0000 0400 0000 0000 0000 0400 0080
00000280: 0400 0000 0400 0000 0000 0000 0000 0000
00000290: 0000 0000 0400 0000 0400 0000 0400 0000
000002a0: 0400 0000 0400 0000 0000 0000 0400 0000
000002b0: 0400 0000 0400 0000 0000 0000 0000 0000
000002c0: 0400 0000 0400 0000 0000 0000 0400 0000
000002d0: 0400 0080 0400 0000 0400 0000 0400 0000
000002e0: 0400 0000 0000 0000 0000 0000 0400 0000
000002f0: 0000 0000 0400 0000 0400 0000 0000 0000
00000300: 0400 0000 0000 0000 0000 0000 1192 3f18
00000310: 0000 0000 183e dc8e 0000 0000 5c10 c08e
00000320: 0000 0000 0000 0000 0000 0000 0400 0000
00000330: 0000 0000 0000 0000 0000 0000 0000 0000
00000340: 0000 0000 0400 0000 0000 0000 0000 0000
00000350: 4ce3 de8d 0000 0000 c6cd 970b 0000 0000
00000360: 5781 1314 0400 0000 0000 0000 0400 0000
00000370: 0000 0000 0000 0000 0000 0000 0000 0000
00000380: 0000 0000 0000 0000 0000 0000 0000 0000
00000390: 0000 0000 0000 0000 0400 0000 0000 0000
000003a0: 66a8 8116 cf3e 0612 0000 0000 8e3c df8d
000003b0: 0000 0000 0000 0000 0000 0000 0000 0000
000003c0: 0400 0000 0000 0000 0000 0000 0400 0000
000003d0: 8fb0 1912 0400 0000 0400 0000 2b56 c314
000003e0: 0000 0000 0000 0000 0000 0000 0000 0000
000003f0: 0000 0000 0400 0000 7deb c210 0000 0000

exp_avg_sq f4 [64, 64]
0.0 0.0 0.0 7.4884536e-11 0.0 0.0 0.0 0.0
0.0 0.0 0.0 1.4045807e-12 0.0 0.0 0.0 0.0
0.0 4.0535696e-11 0.0 0.0 1.2414864e-11 0.0 0.0 0.0
4.997435e-12 2.6333323e-11 0.0 9.907769e-12 0.0 0.0 0.0 0.0
0.0 0.0 0.0 0.0 0.0 0.0 0.0 0.0
8.08416e-11 3.6703808e-13 0.0 1.8662204e-13 0.0 0.0 0.0 0.0
0.0 0.0 0.0 0.0 1.1483583e-12 0.0 2.3693558e-11 3.36475e-12
0.0 0.0 0.0 1.244068e-12 0.0 3.31812e-11 0.0 0.0
1.7519959e-07 5.0193174e-09 6.701279e-10 4.418351e-06 0.0 4.31556e-08 1.1437917e-08 1.4706055e-08
1.2715805e-13 5.053297e-10 1.9470416e-09 2.9310963e-08 5.5081664e-09 5.2478555e-09 0.0 3.8681694e-14
1.586859e-08 6.2913614e-07 1.8769573e-10 0.0 3.1341034e-07 1.0404336e-10 4.518204e-09 3.213238e-13
6.317522e-08 2.092145e-07 0.0 2.2578024e-07 2.0125865e-09 9.4131005e-09 2.6005978e-10 1.0349688e-08
1.2973901e-09 3.4497538e-09 0.0 0.0 0.0 1.00153335e-08 9.292289e-09 1.3350558e-08
1.3156944e-06 6.12726e-08 0.0 5.240005e-08 1.3970251e-07 2.700026e-09 3.6342374e-12 4.359969e-09
2.719151e-10 1.6912319e-09 0.0 1.3956469e-07 2.3576122e-08 2.0537675e-08 1.4719913e-07 8.0386336e-08
5.5563345e-09 0.0 1.6259757e-10 2.0375971e-08 0.0 2.1919347e-07 1.0258095e-07 0.0
5.8794364e-10 9.033151e-11 0.0 3.817421e-11 0.0 6.7124623e-14 1.6094424e-11 2.5956162e-10
0.0 5.021827e-13 0.0 4.5095216e-13 7.0078015e-13 6.411667e-13 0.0 0.0
2.1174448e-10 5.876128e-10 2.3073429e-11 0.0 4.97552e-11 0.0 5.565792e-16 0.0
7.813151e-11 4.4578088e-10 0.0 1.0375163e-09 1.7338495e-10 7.3139693e-13 0.0 9.74401e-15
3.2014955e-14 1.9415879e-14 0.0 0.0 0.0 2.5722074e-12 3.065587e-11 1.4713208e-11
1.254771e-09 2.9714764e-12 0.0 1.8738261e-10 2.9298802e-10 1.5695019e-12 0.0 0.0
3.6016116e-12 2.0349845e-11 0.0 5.523896e-10 1.3890467e-15 5.6401748e-11 5.5465403e-11 4.810731e-10
2.7129788e-13 0.0 0.0 1.8405988e-10 0.0 3.8427364e-10 1.3870641e-09 0.0
3.7631662e-15 0.0 0.0 3.5630112e-08 0.0 2.517794e-11 0.0 1.8411574e-12
0.0 0.0 0.0 2.0218964e-11 0.0 0.0 0.0 0.0
0.0 3.0730168e-10 0.0 0.0 4.9635206e-11 0.0 4.2601561e-13 0.0
4.380852e-09 1.1612259e-09 0.0 1.1903362e-10 0.0 0.0 0.0 0.0
0.0 0.0 0.0 0.0 0.0 0.0 2.0356321e-08 0.0
1.786599e-08 8.7282785e-11 0.0 2.4713337e-10 0.0 0.0 0.0 0.0
1.4463719e-12 0.0 0.0 7.270896e-15 7.1568765e-11 4.659215e-16 5.044234e-09 1.3363838e-13
0.0 0.0 0.0 0.0 0.0 1.2684335e-09 1.9267326e-09 0.0
00000000: 0000 0000 0000 0000 0000 0000 3fac a42e
00000010: 0000 0000 0000 0000 0000 0000 0000 0000
00000020: 0000 0000 0000 0000 0000 0000 5aad c52b
00000030: 0000 0000 0000 0000 0000 0000 0000 0000
00000040: 0000 0000 2347 322e 0000 0000 0000 0000
00000050: 9467 5a2d 0000 0000 0000 0000 0000 0000
00000060: e5d4 af2c 5fa1 e72d 0000 0000 a04c 2e2d
00000070: 0000 0000 0000 0000 0000 0000 0000 0000
00000080: 0000 0000 0000 0000 0000 0000 0000 0000
00000090: 0000 0000 0000 0000 0000 0000 0000 0000
000000a0: c6c5 b12e c39f ce2a 0000 0000 241e 522a
000000b0: 0000 0000 0000 0000 0000 0000 0000 0000
000000c0: 0000 0000 0000 0000 0000 0000 0000 0000
000000d0: f89d a12b 0000 0000 2669 d02d f3c5 6c2c
000000e0: 0000 0000 0000 0000 0000 0000 4616 af2b
000000f0: 0000 0000 b6ee 112e 0000 0000 0000 0000
00000100: 7f1e 3c34 6276 ac31 0f34 3830 5941 9436
00000110: 0000 0000 165a 3933 7e80 4432 eaa5 7c32
00000120: d02a 0f2a 6be7 0a30 b8cc 0531 7dc7 fb32
00000130: 5842 bd31 a050 b431 0000 0000 f534 2e29
00000140: 664f 8832 e8e1 2835 a75f 4e2f 0000 0000
00000150: ca42 a834 34cb e42e 8b3e 9b31 a4e3 b42a
00000160: f2aa 8733 72a4 6034 0000 0000 006e 7234
00000170: cc4d 0a31 41b7 2132 29f8 8e2f 69ce 3132
00000180: db4f b230 b610 6d31 0000 0000 0000 0000
00000190: 0000 0000 e70f 2c32 eba3 1f32 605c 6532
000001a0: ea96 b035 f894 8333 0000 0000 770e 6133
000001b0: 2201 1634 5c8b 3931 9abc 7f2c b1ce 9531
000001c0: a67c 952f ef70 e830 0000 0000 40db 1534
000001d0: 7184 ca32 d36a b032 ca0d 1e34 dba0 ac33
000001e0: 09ea be31 0000 0000 26c7 322f 3c07 af32
000001f0: 0000 0000 715b 6b34 794a dc33 0000 0000
00000200: db9c 2130 1fa4 c62e 0000 0000 57e4 272e
00000210: 0000 0000 b626 9729 6c91 8d2d 0db2 8e2f
00000220: 0000 0000 145a 0d2b 0000 0000 0edd fd2a
00000230: 8840 452b ee78 342b 0000 0000 0000 0000
00000240: c6d0 682f 9385 2130 bef4 ca2d 0000 0000
00000250: 60d3 5a2e 0000 0000 4c6c 2026 0000 0000
00000260: 21d0 ab2e 1512 f52f 0000 0000 5c98 8e30
00000270: 86a3 3e2f b4de 4d2b 0000 0000 5188 2f28
00000280: bb2e 1029 f8e1 ae28 0000 0000 0000 0000
00000290: 0000 0000 c500 352c 71d3 062e 336b 812d
000002a0: 5474 ac30 5c19 512c 0000 0000 8407 4e2f
000002b0: 6612 a12f 44e3 dc2b 0000 0000 0000 0000
000002c0: de70 7d2c c7ff b22d 0000 0000 f6d6 1730
000002d0: c72e c826 b90e 782e 7ef0 732e 833c 0430
000002e0: 25ba 982a 0000 0000 0000 0000 4060 4a2f
000002f0: 0000 0000 b541 d32f fba2 be30 0000 0000
00000300: 1595 8727 0000 0000 0000 0000 b907 1933
00000310: 0000 0000 ae77 dd2d 0000 0000 588f 012c
00000320: 0000 0000 0000 0000 0000 0000 0fd9 b12d
00000330: 0000 0000 0000 0000 0000 0000 0000 0000
00000340: 0000 0000 def0 a82f 0000 0000 0000 0000
00000350: 464c 5a2e 0000 0000 52d3 ef2a 0000 0000
00000360: 6286 9631 0199 9f30 0000 0000 fce0 022f
00000370: 0000 0000 0000 0000 0000 0000 0000 0000
00000380: 0000 0000 0000 0000 0000 0000 0000 0000
00000390: 0000 0000 0000 0000 06dc ae32 0000 0000
000003a0: ba77 9932 d7ef bf2e 0000 0000 eedc 872f
000003b0: 0000 0000 0000 0000 0000 0000 0000 0000
000003c0: 0a8f cb2b 0000 0000 0000 0000 17fb 0228
000003d0: a261 9d2e f04a 0626 8d51 ad31 a476 162a
000003e0: 0000 0000 0000 0000 0000 0000 0000 0000
000003f0: 0000 0000 0955 ae30 7067 0431 0000 0000

exp_avg f4 [64]
6e-45 3.0570147e-05 6e-45 5.5570813e-25 6e-45 6e-45 6e-45 -0.0004802692
1.9320971e-09 -0.00036170284 6e-45 1.5618747e-05 6e-45 -4.6421443e-05 6e-45 1.0915617e-06
-2.541732e-06 9.718183e-06 0.00012111493 6e-45 2.1419657e-05 6e-45 6e-45 2.9368343e-29
6e-45 6e-45 -6.729735e-07 3.4339319e-06 6e-45 6e-45 2.2589649e-29 6e-45
7.623751e-09 6e-45 3.503827e-37 6e-45 1.6985353e-18 6e-45 6e-45 0.00029701806
6e-45 6e-45 6e-45 2.773044e-07 6e-45 7.416442e-05 6.103164e-05 3.255501e-05
6e-45 2.1086584e-07 1.9004623e-06 1.7016426e-05 -0.00016062176 -3.4812037e-06 4.8542934e-05 -0.00041597392
6e-45 6e-45 6e-45 5.2304805e-09 0.00016932354 6e-45 0.00055214553 -9.554281e-09
00000000: 0400 0000 7238 0038 0400 0000 bcfb 2b17
00000010: 0400 0000 0400 0000 0400 0000 a4cc fbb9
00000020: d0c5 0431 efa2 bdb9 0400 0000 0105 8337
00000030: 0400 0000 a5b4 42b8 0400 0000 c681 9235
00000040: a092 2ab6 470b 2337 15ff fd38 0400 0000
00000050: 5dae b337 0400 0000 0400 0000 4aea 1410
00000060: 0400 0000 0400 0000 63a6 34b5 8072 6636
00000070: 0400 0000 0400 0000 1516 e50f 0400 0000
00000080: 9df9 0232 0400 0000 4775 ee02 0400 0000
00000090: d9a8 fa21 0400 0000 0400 0000 17b9 9b39
000000a0: 0400 0000 0400 0000 0400 0000 6de0 9434
000000b0: 0400 0000 b888 9b38 39fc 7f38 ad8b 0838
000000c0: 0400 0000 5c6a 6234 6313 ff35 7fbe 8e37
000000d0: 936c 28b9 a09e 69b6 949a 4b38 1317 dab9
000000e0: 0400 0000 0400 0000 0400 0000 cbb7 b331
000000f0: 718c 3139 0400 0000 dcbd 103a 2c24 24b2

exp_avg_sq f4 [64]
7.927771e-12 3.7270954e-07 2.5505928e-10 6.063862e-09 1.8150414e-12 1.8152047e-14 2.802842e-10 9.22771e-06
5.7984963e-09 4.308689e-06 1.1657224e-10 1.40018726e-08 1.9005638e-08 7.184024e-07 3.4932965e-10 8.831451e-11
4.4481073e-08 9.860277e-09 1.058068e-06 1.0839061e-13 3.3435172e-09 2.7609044e-11 6.241382e-17 8.253914e-11
4.199418e-10 1.3100676e-12 2.8263685e-09 6.771203e-09 1.5280964e-10 1.3854168e-09 2.357645e-10 8.474459e-10
4.406278e-10 2.4959396e-10 7.792886e-10 5.974354e-13 3.75308e-09 7.460244e-10 1.925868e-09 1.216954e-06
1.4844381e-11 3.349603e-09 6.0684634e-12 1.9080595e-09 3.7146818e-13 7.0887715e-08 1.3348223e-07 1.9929378e-07
3.5684022e-09 7.7968554e-10 3.2679737e-09 1.7536166e-08 1.1611785e-06 8.81202e-08 4.6871666e-08 5.501078e-06
6.312315e-10 1.1551867e-09 9.25575e-10 1.8799835e-09 1.3023551e-06 1.5236342e-09 8.016583e-06 1.2052154e-08
00000000: 8277 0b2d cf18 c834 6738 8c2f 4b5a d031
00000010: c271 ff2b c57f a328 7f16 9a2f b6d0 1a37
00000020: 1d3c c731 5b93 9036 2b2c 002f e38c 7032
00000030: d741 a332 3dd8 4035 c70b c02f a634 c22e
00000040: 750b 3f33 f565 2932 f102 8e35 ef12 f429
00000050: c7c3 6531 0ada f22d 9eea 8f24 6881 b52e
00000060: 8edd e62f 2960 b82b 003a 4231 22a8 e831
00000070: 1704 282f 0569 be30 e79c 812f b4f1 6830
00000080: da3c f22f 3a37 892f 8f35 5630 c229 282b
00000090: 71f4 8031 cd10 4d30 3a58 0431 3956 a335
000000a0: 9392 822d d72e 6631 dc83 d52c f01e 0331
000000b0: 351e d12a ef3a 9833 5153 0f34 75fd 5534
000000c0: ff37 7531 7e51 5630 cd92 6031 70a2 9632
000000d0: cad9 9b35 983c bd33 f14f 4933 e695 b836
000000e0: f882 2d30 85c4 9e30 8d6b 7e30 0531 0131
000000f0: 95cc ae35 1d68 d130 f67e 0637 ef0d 4f32
