Experiments/Experiments-014/checkpoints/model.pt (torch, 163559 bytes, 33 tensors)

cp.convs.0.weight f4 [2, 1, 3, 3]
00000000: 163d f3be 49fd 4abf 9d70 52bf 9284 6ebd
00000010: 8793 dfbd ca8c 78be e5eb 083f e01f 5b3f
00000020: 6c54 8b3f 139d 353e d185 63bd 47ff b83e
00000030: 614c bf3e 7975 93bf dfe0 673e 6fc3 c3be
00000040: 17be 563f 57cf d93d
-0.47507542 -0.7929273 -0.82203084 -0.058231898 -0.109168105 -0.24272457 0.53484946 0.8559551
1.0885139 0.177357 -0.05554754 0.3613226 0.3736296 -1.1520225 0.22644375 -0.38235041
0.83883804 0.1063525

cp.convs.1.weight f4 [4, 1, 3, 3]
00000000: b1cb bebe 6e56 1ebf a6f6 b5be a3c5 c8be
00000010: 74e5 f5be 5207 efbd 1fce 28bf a79a 26bf
00000020: 7b89 8ebe 56e6 95be 550d 05bf 34e4 0d3e
00000030: cdec 40be 74a3 24be f6ac 02be ae5f 23be
00000040: 1d96 2fbf 9e09 edbe 58ae b13e cba5 493e
00000050: a752 ecbe 3121 dfbe 9788 bebe cc22 c6be
00000060: b7b1 f1be c845 343e f6fd e93c 11ea 09bf
00000070: ee45 003e 354d 123f 9939 70be 43e7 7e3f
00000080: 1d86 86bf 4cce 3abe 82b5 94be dc3a 223f
-0.3726478 -0.6185063 -0.3553974 -0.39213285 -0.4802662 -0.11671318 -0.65939516 -0.6507973
-0.27839264 -0.29277295 -0.5197347 0.13856584 -0.18840332 -0.16077977 -0.12761292 -0.15954468
-0.6858843 -0.462964 0.34703326 0.19692151 -0.4615681 -0.4358001 -0.37213585 -0.38698423
-0.47205898 0.17604744 0.02856348 -0.5387278 0.12526676 0.5714906 -0.23459472 0.9957163
-1.0509678 -0.18242759 -0.2904473 0.6337106

cp.convs.2.weight f4 [8, 1, 3, 3]
00000000: 9b25 593f 68af c7be 34f6 4bbf ffd5 a13e
00000010: 2e1b c5bd c40a a3ba 9cf2 31bf d355 b5be
00000020: 2a28 903f 227c ffbd 9177 463d 0acd b2be
00000030: 8f3a c6bd d2b5 3abd 83db c4bc 7cf2 88be
00000040: 667d aebe 3420 91bc fb34 3bbe 4c70 80be
00000050: a25a d5be 5e93 21be 500b c4bc 087d 65be
00000060: 60fd 89be c46f f7be 21b5 9e3d caf2 57be
00000070: 93f6 35bf 98d7 38be 2a0a b83e 5a79 89be
00000080: 0749 a0be 36e1 813a f089 79be b4ec f9be
00000090: 0e66 29bf 095a 8f3e ec7a bc3e 87c4 843e
000000a0: b10b de3e 8fff 773e 0839 4fbe 8fca 293e
000000b0: 1f58 08bc 14c9 97be c02e 53bd 6acd 1f3d
000000c0: fdcb 14be 3ef9 c33e d638 96be 6e65 bcbe
000000d0: 41f3 25bd 5c3a 73be 56cc 763e 255d 50bf
000000e0: 4ac1 8a3f 25db e53d ed25 093f 74a3 76bf
000000f0: 754c fdbe e560 c73e 790c 1dbe 4eb5 2f3d
00000100: 55b7 0b3f de5d e7be 142c 10bf 2ce4 62bf
00000110: 8e82 913f 9473 fa3e eff2 ca3e 9866 43bf
0.84823006 -0.39001012 -0.7967255 0.3160858 -0.09624325 -0.0012439121 -0.6951082 -0.3541704
1.1262257 -0.12474848 0.04845387 -0.34922057 -0.09679138 -0.045583554 -0.024030453 -0.267475
-0.34080046 -0.017715551 -0.18281929 -0.25085676 -0.4167071 -0.15778872 -0.023931175 -0.22410977
-0.26951122 -0.48327458 0.07749391 -0.2108871 -0.7107937 -0.18050992 0.35945255 -0.26850396
-0.31305715 0.0009909037 -0.24369025 -0.48813403 -0.6617135 0.2799838 0.36812532 0.25931188
0.43368295 0.24218582 -0.202366 0.16581176 -0.008321791 -0.29645598 -0.051558256 0.039014257
-0.1453094 0.38276094 -0.29340237 -0.36796135 -0.040515188 -0.23752731 0.24101385 -0.8139213
1.0840237 0.11223439 0.53573495 -0.9634316 -0.49472395 0.38941112 -0.15336789 0.042897515
0.5457662 -0.45188802 -0.5631726 -0.8862941 1.1367967 0.48916304 0.3963847 -0.7632842

cp.convs.3.weight f4 [16, 1, 3, 3]
00000000: 61c2 193f 8892 ea3e eac7 0bbd 2c1a e33e
00000010: 9113 0d3f d3df 49be aec7 0e3f 7d15 623e
00000020: c99d 913d 7c0e 333f fe73 a33d f8d2 38bf
00000030: 5be9 ea3e 70c3 fb3d da40 3cbf 30ae c63e
00000040: ce8f e3bd 6852 c2be 256d 0f3e c468 8b3c
00000050: 4095 d13e c5ad 753e afd5 9cbd 1272 933e
00000060: f8b0 eb3d 4500 833e 4e97 983d 87dd a23e
00000070: 1186 923e 9f05 833d e123 c23e 24fc 943e
00000080: 3868 e6b9 07d2 753d 6e3c e83e 2bf9 06bd
00000090: 2f1a 453e 8ea9 17be 1120 8e3d e85c 9fbe
000000a0: 0c08 3fbe fa96 debe bae6 6ebd 8c69 9ebd
000000b0: 68af 4f3e 5579 fabe 5ff9 033d 8df6 123f
000000c0: ec50 47be 1ab4 b9bd 0df2 cb3e 9203 e0be
000000d0: 86f9 283e ee4a d13e ddf3 6d3e b6c1 873e
000000e0: bd3b 0f3f c963 083e 506a dbbe fcf7 d4bd
000000f0: cc38 213f 3945 bcbe a8cb 28bf a36b febe
00000100: f734 dd3d e2d1 c03e 55a4 d0be 38ad a4be
00000110: 62ee 333f ad22 29bf b4df 97be cc86 6d3f
00000120: 6d0c 34bf 7671 7abe 0e26 913e a111 fc3c
00000130: 4af7 983e cf93 a53c 0958 7d3e ac4c 77bd
00000140: ae0e 08bf c411 a3be 5fc3 8cbe b9e1 7f3d
00000150: 80c1 6dbe 1c47 8dbe 3592 b53d 1f8b c3be
00000160: 7ed3 a4be fb1b aabe d64f 03be 4dee bc3d
00000170: 4a6a 17be 5ae3 a33d 0984 38be ddf4 c2be
00000180: 64bc edbd d782 83bc 68d4 0abd 54fd 973d
00000190: af3c 893e 054e 4fbd 28b7 4a3e cedb f5bc
000001a0: dc62 ec3c 72ee 3a3e b7aa 853e 7f65 09be
000001b0: 4279 563f 6774 ffbd ad67 153d eff9 b63e
000001c0: f47f 56bf c4c6 703f 7d2f 1dbf f92d 7d3f
000001d0: 93fb 2fbf f00c 38bf 0165 b53e 7e5d f6bd
000001e0: 3a72 68bd b719 ab3e 3973 37bf ab4e 023f
000001f0: 2b31 1fbf 0124 863f cdcf 283d c0fd a2bf
00000200: f5c5 f23d 5d99 f03d 31e1 5c3f 8489 0cbf
00000210: edf2 24bf 0053 38bf 192f 02bd 211f 1ebf
00000220: e9a3 11bf a4f0 253f bb6b b93e c8bb 1d3f
00000230: 4088 71bf 507f a5be 49cd 0abf b390 813f
0.60062224 0.4581492 -0.0341262 0.44355905 0.5510798 -0.19714288 0.5577344 0.2207851
0.07110173 0.69943976 0.07981108 -0.7219691 0.4588116 0.12293136 -0.73536456 0.3880477
-0.11111413 -0.37953496 0.14006479 0.01701773 0.4093418 0.23992069 -0.076579444 0.28797966
0.115083635 0.25586143 0.07450734 0.31809637 0.2861791 0.063975565 0.37917998 0.29098618
-0.00043946668 0.06001475 0.45358604 -0.03295247 0.1924827 -0.14810774 0.0693971 -0.3112557
-0.18655413 -0.4347456 -0.058325507 -0.07734975 0.20281756 -0.48920694 0.03222024 0.57407457
-0.19464463 -0.09067555 0.39833108 -0.43752724 0.16501436 0.4087748 0.23237558 0.26514977
0.5595053 0.13319315 -0.42854548 -0.10398862 0.6297729 -0.36771563 -0.65935755 -0.49691495
0.10801118 0.37660128 -0.40750375 -0.32163405 0.7028562 -0.66068536 -0.2966286 0.9278381
-0.7033146 -0.24457344 0.28349346 0.030770125 0.29876167 0.020212082 0.24740614 -0.060375854
-0.531474 -0.31849492 -0.27492806 0.062471125 -0.23218346 -0.27593315 0.088657774 -0.38192078
-0.32192606 -0.33224472 -0.12823424 0.0922514 -0.1478664 0.08002348 -0.18019117 -0.3807744
-0.11608198 -0.0160536 -0.033893973 0.074213654 0.2680411 -0.050611515 0.19796431 -0.030012038
0.028855734 0.18255022 0.26106808 -0.13417624 0.83778775 -0.12473374 0.036475826 0.3573756
-0.8378899 0.9405329 -0.61400586 0.98898274 -0.68743247 -0.7189474 0.35428622 -0.12029551
-0.05674956 0.33418056 -0.7166019 0.5090129 -0.621844 1.0479738 0.0412138 -1.2733688
0.118541636 0.11748002 0.86281115 -0.5489733 -0.64433175 -0.7200165 -0.031783197 -0.6176625
-0.5689073 0.64820313 0.36215004 0.61614656 -0.94348526 -0.32323694 -0.5421949 1.0122284

_mlp.0.weight f4 [64, 60]
00000000: d2cf 5dbc 3714 bd3e 5858 4e3d e279 d93e
00000010: d4b2 c1be 0d18 30be 852f ca3d 88af f63e
00000020: a645 80be c74c 92bc 3452 40bc 8c44 003f
00000030: b5e8 fcbd d32c 4cbe f19c e73c 0d10 08be
00000040: 2c78 74bc e79d a5bd d905 c93e 5480 fb3e
00000050: a310 64be db43 8dbe b7d9 f53c fdcb 95be
00000060: 88f0 c5bc 8718 8e3d d738 c83e 917e 9e3e
00000070: cb5b 0abe c344 89bd b8cd debe e764 0bbf
00000080: 6be4 053d bbe4 8a3e b055 e73b d178 39be
00000090: 1a3b 943b a87a 0fbd 2dbf cb3d acd2 86bd
000000a0: aa8f 3cbe 73b4 583d 903c 34be 8179 07be
000000b0: 8f20 86be 0830 4bbd d4fd ffbe 1c66 e9be
000000c0: 628f 203e a1b8 1f3e 00e0 153d ae92 5cbd
000000d0: 497c 81bd cfd6 89be 45ce 593e 4cad e83d
000000e0: 3472 21be 5bb6 2d3c 0a9e adbd f593 17be
000000f0: e10c 673d bae9 033e dce1 fbbc 2ab3 043e
00000100: 7040 60be 21eb 16bd 4b73 62bc b4ca 8d3d
00000110: eeb2 29be 1148 aebc 12d9 1cbd 9663 b73d
00000120: 206f 2fbd 9546 63bd 9a16 ad3c 15b0 4fbe
00000130: 662a 0abe 5c9e 19bc ab0f 683e e6b1 f93d
00000140: 2d86 5f3d 9272 4fbe 85f9 1ebe 80d9 44bb
00000150: 102e c3bd 757d 44be 591f 1d3c ce27 273e
00000160: 245e e2bd 52d7 923c 05ce c1be eb3d eebe
00000170: cc85 d8bd 1721 843d 47d2 293d 28f4 5f3d
00000180: 02c8 883d fbf5 a5be 4631 ff3c 20bb f63c
00000190: f55d ebbd 3bee 85bd bb61 d3bc 628c 4d3d
000001a0: 76ab 3b3c 7094 6f3d 48cf 4cbe 1124 afbe
000001b0: 424c 4b3d 2f29 123e 6d41 213e 2c9f cf3d
000001c0: 6269 b03c 579f cabe 43bd e1bd 9ccf 05bc
000001d0: 2c26 ea3b 6043 baba d63c 8c3d 8a45 9dbd
000001e0: 3794 993e e0d4 b43e 6208 9c3e 2bbf 913e
000001f0: 1ce3 8abe 6a99 9b3d 3e28 5d3e ed0e 9a3e
00000200: 642c b7be 0ee3 9abc 2b1e a63e 0bb2 8d3e
00000210: 691c 5cbd 7038 8bbe b5cd 0bbe 2f85 80be
00000220: ab4c 133e 3ac7 383d b70f 853e ccf9 403e
00000230: 3529 01be be02 97be 3269 abbd 42a2 ffbd
00000240: 5510 163e 4c94 c83d 528f 433e d8aa 003e
00000250: 66e2 d3bc 5302 983d ea5a a0be c6fe d8be
00000260: 8318 c43d 0a16 a43e eb11 0d3e 7be0 a3bb
00000270: f849 01bd 1e7e bebe 118b 143c 053b 76bc
00000280: c6ba 8cbd 413e cebd ee0e 3abe 4fc3 1cbe
00000290: 251b bbbd 2590 593d adfe 8fbe a57b 04bf
000002a0: ac30 97bd 3d7c 9e3e 6a25 203e 9005 eebd
000002b0: 7e43 3ebc fbab c9be c950 923d 2074 0d3e
000002c0: df92 63be 50cf 4abc c405 50be 931f 66be
000002d0: be90 90bd 193e ab3e ae25 093d 8022 903e
000002e0: 6f0c 5ebe f168 0b3e 1aa5 a2bd 2eb9 713e
000002f0: 13c0 16be 2da2 863d e22e 533d 04b3 d83e
00000300: a536 cb3d bc52 1ebe 78c6 2a3e e0d8 49bd
00000310: b18c 5fbe 1f7c 92bd bebd 6d3d 874c 143e
00000320: a77c 27bc 223b c0bc 9b5a e0bc 009b a63d
00000330: b2a6 73bc 04d7 0dbd 01cc 843d 651f 533e
00000340: 40e2 2d3e 87c6 cf3d b4d9 4fbe b83c a8be
00000350: b2f3 773e 1dca 933d 04fd f33d eea5 c63c
00000360: 1e45 d1bd 7dac e2be e254 fd3d e357 013e
00000370: 364e 4cbd 2462 16bd 4a7d 17be 8111 3bbe
00000380: dbfe e33d 572f 19bc 4d9e 0cbd e887 c7be
00000390: 4378 f93d 0d1c a73d b543 b53e 2a8a 003c
000003a0: a0f5 ecbc 3fab e2be 822f 223e e028 a53d
000003b0: d3c7 6ebe a53d a9bd 5ed9 eabd 4aae 92be
000003c0: 9665 653e a84b 6d3f 5285 b23e a7d7 2e3f
000003d0: c895 d4be ea01 86bd 3b9e 783e 9682 f53e
000003e0: 792b 0fbf 293f 3cbe b19f 6b3e 6a29 003f
000003f0: 42f3 5fbe c329 92be 20f6 ecbd a624 69be
-0.013538318 0.36929485 0.05037722 0.42475802 -0.37831748 -0.17196675 0.09872345 0.48180795
-0.25053138 -0.017858876 -0.011738349 0.50104594 -0.12349073 -0.19938974 0.028273078 -0.13287373
-0.014921229 -0.08086758 0.39262274 0.49121344 -0.22271971 -0.27590832 0.030011041 -0.29257193
-0.024162546 0.06938272 0.39105865 0.30955938 -0.13511579 -0.067025684 -0.43516326 -0.5445084
0.03268854 0.27127632 0.0070597753 -0.18112494 0.004523647 -0.035029083 0.09948573 -0.06583151
-0.18414178 0.052906465 -0.17601228 -0.13229944 -0.26196715 -0.049606353 -0.49998343 -0.45585716
0.15679696 0.15597774 0.036590576 -0.053850822 -0.06322534 -0.26921698 0.21270092 0.11361179
-0.15766221 0.010602559 -0.08477409 -0.14802535 0.056408767 0.12882128 -0.030747347 0.1295897
-0.21899581 -0.03684533 -0.013821433 0.06923428 -0.16572163 -0.021274598 -0.038292952 0.089545414
-0.042830586 -0.055487234 0.021128941 -0.20282014 -0.13492736 -0.009376135 0.22662227 0.121921346
0.05457132 -0.20258549 -0.15524872 -0.0030036867 -0.0953027 -0.19188483 0.009589993 0.16323778
-0.11053112 0.017924938 -0.37852493 -0.46531615 -0.10572395 0.06451624 0.0414603 0.054676205
0.066787735 -0.3241423 0.031151425 0.030118525 -0.1149253 -0.065395795 -0.025803437 0.050182708
0.011454454 0.05849117 -0.20000947 -0.34207204 0.049633272 0.14273523 0.15747614 0.101377815
0.021534625 -0.39574692 -0.11022427 -0.008167174 0.0071456637 -0.0014210753 0.06847541 -0.07679279
0.2999589 0.3531866 0.30475146 0.28466162 -0.27126396 0.07597621 0.21597382 0.30089512
-0.35776055 -0.018907096 0.3244489 0.27674899 -0.05373803 -0.27191496 -0.1365269 -0.2510161
0.14384715 0.045111872 0.25988552 0.1884529 -0.12613375 -0.2949428 -0.08369674 -0.1248212
0.14654668 0.097939104 0.19097641 0.12565172 -0.025864791 0.07422318 -0.31319362 -0.42381877
0.09574988 0.32048064 0.13776366 -0.0050011254 -0.031564683 -0.37205595 0.009066359 -0.01502872
-0.06871562 -0.10070468 -0.18169758 -0.1530888 -0.09136037 0.053115983 -0.2812399 -0.51751167
-0.0738233 0.3095416 0.15639272 -0.11622155 -0.011612771 -0.39389023 0.07144315 0.1381383
-0.22223996 -0.012378529 -0.203147 -0.22472982 -0.070588574 0.33445814 0.0334832 0.2815132
-0.2168443 0.1361425 -0.07941647 0.23605797 -0.14721708 0.06573901 0.051558383 0.42324078
0.09922532 -0.15461248 0.16677272 -0.049279094 -0.21831013 -0.071525805 0.05804228 0.14482318
-0.0102225905 -0.023465697 -0.027386954 0.08135033 -0.014871286 -0.034628883 0.06484223 0.20617445
0.16980839 0.10145288 -0.20297891 -0.32858825 0.24214056 0.072162844 0.11913493 0.024249043
-0.10218261 -0.44272223 0.12369706 0.12631182 -0.049879275 -0.036714688 -0.14793888 -0.18268396
0.11132594 -0.009349666 -0.034330655 -0.38970876 0.12181141 0.08159647 0.3540322 0.007845441
-0.028925717 -0.44271275 0.15838435 0.08064437 -0.23318414 -0.08263711 -0.11467241 -0.28648597
0.22402033 0.9269357 0.3486734 0.6829781 -0.41520524 -0.06543334 0.2427911 0.47951192
-0.5592571 -0.18383469 0.23010136 0.5006319 -0.21870139 -0.28547487 -0.11570382 -0.22767887

_mlp.0.bias f4 [64]
00000000: 27ce e8be c3af 75be 8d7d 1ebf 9176 14bf
00000010: c452 d7be 2267 09bf c7b2 43bf 158c 66bf
00000020: dea2 69bf fa59 d9be 8a3c 3dbf e604 51bf
00000030: 203a eabe a70e e6be 1f67 883e b1b0 19bf
00000040: b4d8 1ebf 4af8 9ebe bbeb 26bf c1fe 3cbf
00000050: 847d 43bf 5781 29be 0cf0 06bf b622 19bf
00000060: 3d96 02bf cc4d a2bf ab28 2cbf 95aa 56bf
00000070: 957b 61be 775d 26bf e149 2abf 58a0 b1bf
00000080: 1243 e8be 80c9 b3be d371 11be f221 0fbf
00000090: d14a e7be e7e4 16bf 28e3 89bf 66e0 95be
000000a0: b173 34bb f6c2 85bf 25d6 72be 4bc2 dabe
000000b0: 82f7 42bf 588d 87be bc49 bcbe 8b2c 08bf
000000c0: 2b0e cd3e e8f2 4fbe 921b f8be a804 1b3d
000000d0: f080 37bf cac7 dabd 0633 92be 0387 98be
000000e0: f6ae 23bf c118 cfbd 3337 acbe d302 8dbf
000000f0: 1b3d 09bf dd1c a0be 2c39 89bf bb09 fbbe
-0.45469782 -0.23992829 -0.61910325 -0.5799342 -0.42055333 -0.53672993 -0.7644467 -0.900575
-0.9126414 -0.4245146 -0.739205 -0.816481 -0.4574747 -0.44933054 0.26641175 -0.60035235
-0.6204941 -0.31048805 -0.65203446 -0.73826224 -0.76363397 -0.16553245 -0.5271003 -0.5981859
-0.51010495 -1.2679992 -0.67249554 -0.8385404 -0.22019799 -0.64986366 -0.6651898 -1.3877058
-0.4536367 -0.3511467 -0.14203577 -0.5591117 -0.45174268 -0.5894303 -1.0772448 -0.29272765
-0.0027534778 -1.0450122 -0.23714502 -0.4272636 -0.76158917 -0.26475024 -0.36775005 -0.5319297
0.40049872 -0.20307505 -0.48458534 0.037846237 -0.7168112 -0.10682638 -0.28554553 -0.29790506
-0.63938844 -0.10112143 -0.33635864 -1.1016487 -0.53608865 -0.3127202 -1.0720572 -0.4903086

_mlp.2.weight f4 [64, 64]
00000000: 1635 8abe 1e9d f1bd b425 24bd 079b f9bd
00000010: a9f2 c33e 9250 26bf adaa 29be 903f 293c
00000020: b4e7 51be abd8 2d3e 847e 4b3e f369 b73d
00000030: 0a59 d0bd 1bac 9ebc 7848 86bd d68f 43bd
00000040: 5d55 9a3e 1e27 6dbe 928e dbbc 7200 8fbe
00000050: 565c 49bd 2cbb 70be df10 cfbe 55d7 2bbe
00000060: 7a99 2abd a11f e3be 7217 503e b283 66be
00000070: 4577 9dbe 6504 2e3e 5f5b b13d 27c8 dd3c
00000080: 062d 103e 079d b73d efd4 b5bd 2bf9 6dbe
00000090: c26e b0be 41e6 47bd 0c85 99bd a60d e5be
000000a0: 642e 6dbe 0474 0fbe 74b0 1abe 453e e5be
000000b0: 0653 8fbd 8261 85be 7221 37be 8d9b 3cbe
000000c0: 6822 08bd 7140 55bc 01ce 28be d06b 10be
000000d0: 2a51 6d3d 08c8 db3c c866 dfbc 431a 5bbe
000000e0: 9fc4 55be cca5 29be 3c60 143e 3ce6 25be
000000f0: 7eda 56be 0796 3fbe dd5b 45bd 2f77 32be
00000100: 5bcc 923e de7c 71be 849c 30be 6c24 70bd
00000110: 0b12 4e3d 0d37 c0be 9446 9c3d b7bf e4be
00000120: c1c2 fe38 67a3 fdbd f4b7 9dbd 5ca4 1bbe
00000130: d213 3e3d 2b74 1abe 3139 88bc 8211 fbbd
00000140: 2aa3 92bd 65a7 04bd 93de 7ebc baae abbb
00000150: c702 fbbd 39ea 12be f5f1 afbd 0d10 d83e
00000160: 1913 913c e7af b8be 7bd8 ecbb 51e9 9a38
00000170: 1390 24bf 61d7 0fbd b6cd f03d 1366 b1bc
00000180: a157 a43b 0994 bcbe 0dbf f1be da83 0bbe
00000190: fef7 54bc 9d13 9abe 2ca4 f1bd f3b2 cabd
000001a0: a96e 023d 6e77 aabe c25f 123d 88a1 8abe
000001b0: 9442 c53a 8524 6abe d4cd 9fbe 6d40 39be
000001c0: b4d9 38be 5fc8 57be cc5b 49bd 5916 44be
000001d0: a855 80be b0f4 2e3e 0d16 6abd 0ec6 8a3e
000001e0: a7c8 cabd ea09 d1bd ec9c 10be 04d1 22be
000001f0: 8e81 eb3d 2b88 12be a079 5dbe 4fcb 7abe
00000200: c03a 0a3c 4e8f e6bc 966e d83d 239c 65bd
00000210: 526d 62bd c2ba cfbd 40ba 6f3c 403c 41bd
00000220: e97f cfb9 1082 e2bd cedb efbd 8cc3 ebbd
00000230: f67c ff3d 4e79 a63d 05a6 95be 37de 3dbe
00000240: dc9a d3bd c292 5ebc b0c1 1ebe 2037 efbb
00000250: 8ee8 96bd e746 d73a 8505 4ebc 7ada 83bd
00000260: d8de 01be 8756 79bd cc39 bdbd 0c84 993d
00000270: 3e73 873d b06e da3c 65b0 acbe 3046 5bbd
00000280: 94fb f6bd b4e3 053d dc71 00be 7756 8cbd
00000290: 68d7 77bd 543c 13bd e0ad 023c a93a ffbd
000002a0: ddc7 2dbe b4c0 c0bd 7e9f afbd fdb1 a33c
000002b0: 04cc a0bd 48fd 84bd eff3 0cbd a8b1 7b3d
000002c0: 219e b5bc 2e64 34bd 5838 aa3d 7fa0 2ebe
000002d0: 2e98 ce3d 5193 aabc 50d3 93bd 12d3 fe3c
000002e0: 186a 19be 84da 83be 5242 c2bd 1098 58bc
000002f0: 8254 ccbd 19bb 373d ba27 a13d 1680 03be
00000300: 6a9b 60be 9a8e 2cbe 0d78 e63d 1e48 b33e
00000310: 9a7b d6bd 3602 493e 4662 e6bd c574 803e
00000320: eb55 113e 5cd1 a7be 1222 553e cf7b 0dbf
00000330: 1fb9 a3bd e8e7 fe3b 290f 62be b48d fc3c
00000340: 4f16 083d 329a 653d 815c d53d 5597 0b3e
00000350: f643 91bd f18b 6e3e 9016 4a3d 811c 833e
00000360: 9321 dc3d 80cf b2bd 5753 1a3e 73c3 5abe
00000370: 0b68 863e da22 69be aed2 753e 7457 c73d
00000380: 1685 b1bd 3cd4 423d 0b6c 79be f2b6 a3bd
00000390: 1e88 703e 13f0 38be 7eb2 473e eda9 b3bd
000003a0: 67f8 2b3e fb5a ef3d 16ba 29bd 4cff 133d
000003b0: cbbd 54be 38e7 c3be 58f3 d73d 05e1 0a3e
000003c0: fb68 eebe d5f1 fdbd 3fcc 843e 95e9 9fbd
000003d0: 72c9 d63e 5bc7 cabd a518 30bd ad8d bebd
000003e0: f553 6b3e 6daa 7dbe 010e 9f3d 735d fdbd
000003f0: 815b 60bd 0fb1 2cbe 10d9 c6bd 0e9b 773a
-0.26993626 -0.11797546 -0.04007502 -0.12187772 0.38271073 -0.6496669 -0.16569014 0.010330096
-0.20498544 0.16977184 0.1987248 0.08955755 -0.10173233 -0.019369176 -0.06556791 -0.047744595
0.30143252 -0.23159453 -0.026801381 -0.27930027 -0.049160324 -0.235089 -0.4044256 -0.16781361
-0.041650273 -0.44360068 0.20321444 -0.22511175 -0.30755058 0.16993864 0.08660006 0.02707298
0.14079675 0.089654975 -0.088785045 -0.23239581 -0.34459502 -0.04880357 -0.0749608 -0.44736975
-0.23162228 -0.140091 -0.15106374 -0.4477407 -0.06998257 -0.26050955 -0.17883852 -0.18418713
-0.033235937 -0.013015852 -0.16484834 -0.14103627 0.057938732 0.02682878 -0.02727069 -0.21396737
-0.20875786 -0.16567153 0.14489836 -0.16201109 -0.20981786 -0.18709575 -0.04818331 -0.17428277
0.28671536 -0.2358279 -0.17247206 -0.058628485 0.050310176 -0.37542 0.07630649 -0.44677517
0.000121479396 -0.12384682 -0.07701102 -0.15199417 0.04640562 -0.15083377 -0.016628833 -0.12259199
-0.07160027 -0.032386202 -0.0155559955 -0.005239335 -0.12256389 -0.14347161 -0.085910715 0.42199746
0.017709302 -0.36071703 -0.007227955 7.386751e-05 -0.6428234 -0.03511751 0.11757986 -0.021655118
0.005015329 -0.36831692 -0.47216073 -0.13624516 -0.012998579 -0.3009309 -0.117988914 -0.09897413
0.031843815 -0.33294243 0.035735853 -0.27076364 0.0015049749 -0.22865494 -0.31211722 -0.18090983
-0.18051797 -0.2107253 -0.04915981 -0.1914915 -0.2506535 0.17085528 -0.057149936 0.2710423
-0.09901553 -0.10206969 -0.14122361 -0.15900046 0.1149932 -0.14309756 -0.21628428 -0.24491619
0.008436859 -0.028144505 0.105679676 -0.056057107 -0.055280037 -0.10143043 0.014631808 -0.0471766
-0.00039577417 -0.11059964 -0.11711846 -0.11511907 0.12475006 0.08128606 -0.29228225 -0.185418
-0.103322715 -0.0135847945 -0.15503573 -0.0073002726 -0.07368575 0.0016424329 -0.012574558 -0.064381555
-0.12682664 -0.060873535 -0.092395395 0.07495889 0.066137776 0.026664108 -0.33728328 -0.053533733
-0.120597035 0.032687858 -0.12543434 -0.06852429 -0.06050816 -0.035946205 0.007976025 -0.124623604
-0.16970773 -0.09411755 -0.085753426 0.019982332 -0.07851413 -0.06493622 -0.03441232 0.061448723
-0.022170128 -0.04404085 0.08311528 -0.17053412 0.1008762 -0.020822199 -0.07218039 0.031106506
-0.14981878 -0.25752652 -0.09485306 -0.013219848 -0.09977056 0.044856165 0.07868905 -0.1284183
-0.21934286 -0.16851273 0.112533666 0.3501596 -0.10472794 0.1962975 -0.11249213 0.25089088
0.14192931 -0.32776916 0.20813778 -0.5526704 -0.079942934 0.00777911 -0.22076096 0.030829288
0.0332244 0.056055255 0.10418034 0.13631947 -0.07093041 0.23295571 0.049337924 0.25607684
0.10748591 -0.08730984 0.15070854 -0.2136362 0.26251253 -0.22767201 0.24006149 0.09733477
-0.08667962 0.047565684 -0.24357621 -0.079938784 0.23489425 -0.18060331 0.19501683 -0.08772645
0.16793977 0.11687275 -0.04143723 0.036132142 -0.20775525 -0.38262343 0.10544461 0.135624
-0.4656447 -0.123996414 0.25937077 -0.07808224 0.41950566 -0.09901305 -0.042992253 -0.09304366
0.22981246 -0.24772044 0.07766343 -0.1237134 -0.054774765 -0.16864417 -0.0970937 0.0009445407

_mlp.2.bias f4 [64]
00000000: 8e1f bdbe 889b 0cbe 7530 4cbe 0aa6 95be
00000010: 6465 3abe 827e 35be b041 86be c76a a9be
00000020: 2348 4abe dc1c 15bd d686 94be a948 93bd
00000030: 2aec 8fbd 0b3b 41be 3871 9fbe 1bf9 53bc
00000040: a9cc 223c d660 58be 98a6 24be 7931 62bd
00000050: d763 a9be 353e 99be 202b 7dbe 3f46 70be
00000060: 72b9 85bd 786b 8cbe 95ee 16bd b7ed 90be
00000070: 6b66 e3bd bff0 01bf a71a 4dbe 1445 24be
00000080: 9acf 43be d3f9 4abe d612 80be aff0 7abe
00000090: 45ea fbbd fa89 8d3e 5968 5dbe f65c e2be
000000a0: c126 8bbe dd7b fbbe 2bc5 aabe 2352 2fbe
000000b0: 7cef 5bbe c5c0 9a3b 687c f23d 7d09 32be
000000c0: 9c5b 36bd 4777 74be 1949 39be fe1f 29be
000000d0: 2636 c1bd 97d8 24bf 4bc8 babe 446d 8abe
000000e0: fc50 c0be db04 42be 84fc 67be 4693 9fbe
000000f0: 0349 a2be 6561 25be b0fc 15be 75ab 4cbe
-0.36938137 -0.13731205 -0.1994036 -0.2922824 -0.1820274 -0.1772404 -0.2622199 -0.33089277
-0.1975408 -0.036404476 -0.29009122 -0.07191593 -0.070274666 -0.1887018 -0.31141067 -0.012937809
0.00993649 -0.2113069 -0.16079175 -0.055222962 -0.33083984 -0.29930273 -0.24723482 -0.23464297
-0.065295115 -0.27425742 -0.036848623 -0.28306362 -0.11103519 -0.50757974 -0.20029698 -0.16041976
-0.19122162 -0.19821863 -0.2501437 -0.24505876 -0.12300543 0.2764433 -0.21621837 -0.4421155
-0.27178004 -0.49117938 -0.33353552 -0.17121176 -0.21478075 0.004722687 0.11840135 -0.17386432
-0.04452096 -0.23873626 -0.18094291 -0.1651611 -0.09434156 -0.6439299 -0.36480936 -0.27036488
-0.37561786 -0.18947165 -0.22654921 -0.31167048 -0.3169633 -0.16150434 -0.14647174 -0.1998728

_mlp.4.weight f4 [64, 64]
00000000: 4e68 8f3c 73d4 98bd 6ff8 923c 470f 66be
00000010: f9ce 23bf 8aea 773d f4bf 233e 4966 703b
00000020: f119 f3bd 7b09 81bd 2cdc 1f3e b0e7 223d
00000030: 78ed 823d e956 873d 090a dfbd e80f 653e
00000040: 4ca7 9fbe d286 c9be 49c4 e0bc b5e2 563c
00000050: 8547 88be fe7d 913d 0dc1 00be 4f3d 91bd
00000060: 212a 223e 49b5 88bd 9b65 573e 1c2b 9cbd
00000070: a470 97bd 001e fabd 6391 4f3d 53a3 703d
00000080: 9b6f 6e3d a037 5d3d ec9f ab3e bf29 45bd
00000090: 1ade a53d 73f1 7a3e d2d6 003e c414 b33d
000000a0: 7158 61be 26b8 40bc b9e3 3dbe e9f3 6b3c
000000b0: fcf9 22bd 63af 01be 99fb dabe f583 973e
000000c0: 4b35 0bbd 9393 f33c 63af 15b9 2d00 15be
000000d0: e906 1bbe 8495 d13b add0 c3be 7192 743d
000000e0: 1c83 c3bd 7816 77be cfb7 3dbe fa74 ab3d
000000f0: 9ee5 153c dc0b b53d 62eb 36bc a542 553d
00000100: 1f02 e43c 6df2 82bd 8b13 f13c 7951 9abc
00000110: 7a76 96bd f639 4c3c 78ef 13bd 1831 8e3c
00000120: b3c5 68bc 2e46 f33c 77ef fdbd d432 bb3d
00000130: 3df0 76bc 3e0e 8e3e aedb a9be fc34 053e
00000140: 9716 c33c a044 bebd 1992 073d 4835 813d
00000150: 8f69 3e3e 2afe 113d fe0d 40bc c283 923d
00000160: 330e 3e3d 8532 f53d 08e8 ab3d 964a 683d
00000170: 631d 33be deef 813d c0f5 1abe eac6 d7bd
00000180: 6cf8 80bd 1fd6 6f3d eab3 c5bd 061c 23be
00000190: a8f7 d63d 12b9 d6bd d92e e4bd 3563 d83e
000001a0: e09d 5f3c e122 dabd 5a96 c2bc 3a15 48bd
000001b0: ed79 00be 26b0 28be 6253 b53d a67c 453d
000001c0: c14c abbd 092a 083d e66e 553d b2c2 16bd
000001d0: 4257 d8bd ed44 5cbf f1bd f7bd 812a debd
000001e0: cc63 cfbd 694f 153d 3a6b 93bc 5b77 94be
000001f0: 4f98 8b3d 2af9 81bc d1ae 80bd b1e5 973d
00000200: 82f9 4ebc c4af 07be a037 6a3c 086d 2dbd
00000210: a5dd 82be b069 293c 7078 31bd e0f5 693d
00000220: 2c81 37bd 0ddb 7cbd b577 413a 348b abbd
00000230: c710 1ebe 0035 6bbb 6c2b 04be e0bb 17be
00000240: eaf1 0ebd 7ce0 32bd 3e49 173c e084 933c
00000250: 184c e6bd 5f60 ef3c 2cc5 22be 378e 3bbe
00000260: a0c3 c33c 1aa4 07be 0ae4 11bd 0abc b7bd
00000270: 536e 683d 7c9d 0fbe 98b4 95bd 811f eabd
00000280: c912 80bc cebf ddbd 50a9 503c c0b6 61bb
00000290: 8ae9 de3d 304c c5bd 5849 39bd e8fe ca3c
000002a0: 701d 2bbc 8ad7 b7bd 38e6 65bd e761 d83c
000002b0: 44a3 39be c396 d3bd b37e 64bd 4c73 f23d
000002c0: 4d92 383d 768f 7abd b5a0 8cbd 560e 22be
000002d0: 32d9 8cbc abbd cfbd 6881 e23d fbc3 49be
000002e0: b543 3cbe 5b9e fb3c 2f9a 29be dc89 ba3c
000002f0: 608f 4cbe 0822 5bbd 6c36 d2bd 8288 903c
00000300: fc4a f43d d399 e73d b9e8 09be feeb 753d
00000310: 9c7d 7cbe 77ab 14be 51f7 b03d 80ce b43c
00000320: 6dd9 35be 6e91 6f3d c621 eb3d cdfb 16be
00000330: 7a8a 42bd 2677 c53d 8c57 9abd bd84 c2bd
00000340: 29dd 7b3d 393c c0be 2002 f3bd fad8 b1bd
00000350: 6fd7 993d 358b 27be e5ee 3e3d 1d63 8f3d
00000360: 8bc5 dabd ee8d 913d 7179 bc3d 88ab 86bd
00000370: 08ca 29bd 153f 1abe 1ad7 b3bd f807 ed3d
00000380: 200e a43e 85bc 15bd e018 24be 4279 f8bd
00000390: 8063 15be 4fe3 25be ebb0 06bd 780c f5bd
000003a0: c53e 23be 547f 8abd 27ab d7bc 07d1 18be
000003b0: 416f 2e3e 925e 44be c3dd 30bd 4cbe 293d
000003c0: 55c1 9d3c 4c9e dfbc 13a3 033d 3b2d a0bd
000003d0: d817 54be 07b8 85be f507 2d3e 9ca7 cebd
000003e0: caf8 a03d 67fc c23c 615d 5e3d 1359 10be
000003f0: dc97 eebd fea5 ab3d 1904 843d 77be 9a3d
0.017505791 -0.074623965 0.017940728 -0.22466765 -0.6398769 0.06052641 0.15991193 0.003668206
-0.11870182 -0.063006364 0.15611333 0.039771736 0.0639295 0.06608374 -0.10890586 0.22369349
-0.31182325 -0.39360672 -0.027437346 0.013115575 -0.26617065 0.07104109 -0.12573643 -0.07091772
0.15836383 -0.066752024 0.21034853 -0.0762541 -0.07394531 -0.12212753 0.05067576 0.058749508
0.058211904 0.054008126 0.33520448 -0.048135515 0.08099003 0.24506168 0.12581947 0.08744195
-0.22006394 -0.011762654 -0.185439 0.014401414 -0.039789185 -0.12664561 -0.4277008 0.29592863
-0.03398637 0.029733455 -0.00014275084 -0.14550848 -0.15139355 0.0063959975 -0.38245144 0.05970997
-0.095464915 -0.24129665 -0.18527149 0.08371921 0.009148983 0.088401526 -0.011164518 0.05206551
0.027833043 -0.06393895 0.029428264 -0.018837677 -0.07346816 0.012464991 -0.036117047 0.017357394
-0.014207291 0.02969655 -0.1239919 0.09140554 -0.015071926 0.2774524 -0.33175415 0.13008493
0.023814483 -0.09290433 0.033098314 0.06308991 0.18594955 0.03564278 -0.011722086 0.07154037
0.04640026 0.119725265 0.08393866 0.056711756 -0.17491679 0.06344579 -0.15132809 -0.10535987
-0.06297383 0.05855381 -0.096534565 -0.15928659 0.104964554 -0.10484518 -0.11141748 0.4226319
0.01364848 -0.10651184 -0.023753334 -0.04884837 -0.12546511 -0.16473445 0.08853795 0.048214577
-0.08364249 0.033243213 0.052107714 -0.03680677 -0.10563518 -0.8604267 -0.12096775 -0.10847951
-0.101264566 0.036452685 -0.017995466 -0.2899731 0.0681616 -0.015865881 -0.062833436 0.07416857
-0.0126327295 -0.13250643 0.014295489 -0.04234031 -0.25559726 0.010340139 -0.04332775 0.05711925
-0.044800922 -0.06173234 0.00073802035 -0.0837616 -0.15436088 -0.0035889745 -0.12907189 -0.14817762
-0.034898676 -0.043671116 0.009233771 0.018007696 -0.112449825 0.029220758 -0.15895528 -0.1831597
0.023896992 -0.13246194 -0.035617866 -0.089714125 0.05674584 -0.1402492 -0.07309836 -0.1143179
-0.015633957 -0.108275995 0.01273568 -0.0034441203 0.10884388 -0.09633672 -0.04523596 0.024779752
-0.01044403 -0.08976658 -0.056127757 0.026413871 -0.18128687 -0.1033149 -0.055784892 0.118383974
0.0450614 -0.06117197 -0.0686659 -0.15825781 -0.01719341 -0.10143598 0.110598385 -0.19703667
-0.18385203 0.030715158 -0.16562723 0.022770815 -0.19976568 -0.05349925 -0.102642864 0.017643217
0.11928365 0.113086365 -0.13467683 0.060039513 -0.24657291 -0.14518534 0.08640922 0.022071123
-0.17758723 0.058488302 0.11481051 -0.14744492 -0.047495343 0.096418664 -0.075362295 -0.09497974
0.06149021 -0.37545946 -0.1186564 -0.08683963 0.07511794 -0.16361697 0.046614546 0.07001326
-0.106822096 0.07107149 0.092028506 -0.06575686 -0.041452438 -0.15063126 -0.08781262 0.115737855
0.32042027 -0.03655674 -0.16025114 -0.12132503 -0.14588737 -0.16199993 -0.032883566 -0.11965269
-0.15941913 -0.06762567 -0.026326729 -0.14923488 0.17034627 -0.191767 -0.04318024 0.041441247
0.019257227 -0.027297162 0.03213794 -0.07821127 -0.2071222 -0.26116964 0.16897567 -0.10090563
0.07859953 0.023801995 0.05428827 -0.14096479 -0.116500586 0.0838127 0.06446094 0.075558595

_mlp.4.bias f4 [64]
00000000: 884b 543c 7970 7c3b 4a02 53bd aa65 20be
00000010: 29a4 9abe 8f62 52bd 61ab 1dbd 7e0a 45bd
00000020: 2da9 83be 862a b2bd f9f5 6cbe 9a81 63bd
00000030: f857 85be ca76 16bc 4839 573d ba2a c4be
00000040: 3bab 4bbe 18e4 c3be ea94 bbbe 553d 8abe
00000050: 59ca 8ebe 5403 7cbe 7258 99be e73e 3fbe
00000060: 191d 07be 87de 49be 387f 82be 7e2a 73bb
00000070: e3cc 993d d0c0 27be a9dc 9dbc e2b0 10be
00000080: 1b21 d0bd dbb6 54be 1acf 9f3c dd6c b2bd
00000090: 9c9c dbbe 18cb 30bd 313c 87be 6f5d ffbd
000000a0: f52e d039 8fea 9abd 62f5 84be 67c4 b9be
000000b0: c64e 76bd c284 21be a1b4 3ebe 4f11 7abe
000000c0: 70fa a9be e9e8 2cbe 7a8c 46be 6f32 4bbe
000000d0: 33e6 55be abc8 d0be 498c 08be 928f 23be
000000e0: 06a3 06bd 5462 2ebe 72fc 18be 47da 57bd
000000f0: e3af 03bd c51a 213e d219 c2bd f0fc ebbc
0.012957461 0.0038519187 -0.051515855 -0.15663782 -0.3020337 -0.051363524 -0.038493518 -0.04810571
-0.25715008 -0.08699517 -0.23140706 -0.05554352 -0.26043677 -0.009183595 0.052544862 -0.38313848
-0.19889538 -0.3825996 -0.3663705 -0.26999918 -0.27888754 -0.24610645 -0.2995029 -0.18676339
-0.13194694 -0.19713794 -0.25487685 -0.0037104185 0.07509782 -0.16382146 -0.019270258 -0.14129975
-0.10162564 -0.20772879 0.019507933 -0.0871217 -0.4289292 -0.043162435 -0.2641311 -0.12468993
0.00039707837 -0.0756427 -0.25968462 -0.36282656 -0.060133718 -0.157733 -0.18623592 -0.24420665
-0.3319888 -0.16885723 -0.19389525 -0.19843458 -0.20888595 -0.40778098 -0.13334765 -0.15972736
-0.032870315 -0.17029697 -0.1494005 -0.0526984 -0.03215016 0.15732868 -0.09477581 -0.028807133

_mlp.6.weight f4 [1, 64]
00000000: ffdb 3fbe c32b 1abc 0474 70bd ff50 cbbd
00000010: cf52 00be 080b 6a3d b358 723d 17e2 993b
00000020: 84b5 1e3e 20a4 4dbd ba19 15bd 0453 1cbd
00000030: ff3c 30be 87d1 bf3d 47b4 5e3e 0394 2bbd
00000040: 82c8 6fbc 8f41 a03e ce6e 7fbe 94a4 443e
00000050: c125 6b3e 4673 c73c d0b8 203d a223 7dbc
00000060: db9e 9ebd c51b 9abd cf41 023e 697b 78bc
00000070: 031d 4d3e e422 8f3d 0ce0 273d 3003 f9bc
00000080: 46d7 373c 35df e23d b56b 3d3a d76d d83d
00000090: 73d4 09be 8e78 eabd c850 fbbd 5ccd af3d
000000a0: 382c a13b 25d4 8e3d 1348 8e3e 488a 94bd
000000b0: 9c73 83bd fba2 02be 9911 003e b7f7 58be
000000c0: c89d 853d 14f5 953d 94c2 993e 68e8 27be
000000d0: 9f78 9c3d d831 893e 9e9e b1ba 1293 9fbd
000000e0: 6082 033e f400 433e 5b30 11bb 0208 aa3d
000000f0: 0928 f93c 9fdc 6e3c 2c5f 0abc bca7 a63c
-0.18736266 -0.009409848 -0.05870439 -0.09927558 -0.12531589 0.057139426 0.05916662 0.0046961415
0.1549893 -0.05020535 -0.036401488 -0.038165107 -0.17210768 0.09366136 0.21748458 -0.0418892
-0.014635207 0.31300017 -0.24944612 0.19203407 0.2296362 0.024346959 0.03923875 -0.01545039
-0.07745143 -0.07524828 0.12720416 -0.015166142 0.20030598 0.06989077 0.040985152 -0.030397028
0.011220759 0.110777296 0.00072258274 0.10567825 -0.13459949 -0.11448775 -0.12271267 0.08584091
0.0049186014 0.06974057 0.27789363 -0.072529376 -0.06418535 -0.12757485 0.12506713 -0.21188246
0.06524235 0.073221356 0.30031264 -0.1639725 0.07640194 0.2679584 -0.00135513 -0.07791723
0.12842703 0.19043332 -0.0022154066 0.083023086 0.030414598 0.014578967 -0.008445542 0.020343654

exp_avg f4 [2, 1, 3, 3]
00000000: 61ee c0ba d81b d5ba cf02 acba d627 8dba
00000010: 5cc4 7bba 3d54 4eba dd3b 3cba d698 7fb9
00000020: f28e 19b9 8627 fd39 73c8 adb8 3e83 85b9
00000030: 22f4 54ba 355e 9a3a 5710 f2b9 c79a 673a
00000040: 0173 8eba a318 313a
-0.001471948 -0.0016258908 -0.0013123396 -0.0010769318 -0.000960415 -0.0007870829 -0.0007180551 -0.00024375631
-0.00014644468 0.00048285368 -8.2866194e-05 -0.0002546552 -0.0008123537 0.0011777343 -0.0004617001 0.00088350143
-0.0010868014 0.00067556853

exp_avg_sq f4 [2, 1, 3, 3]
00000000: 7192 7d37 12d9 9b37 a613 8037 bf53 6037
00000010: 3659 5c37 a45a 4937 b4a1 6a37 a38f 8837
00000020: b36e 7837 d1df 7935 b54b 9836 7ba7 5736
00000030: 04b6 2737 2d5c 4e37 b238 bb36 96fb 9436
00000040: 8733 bb37 4554 4935
1.5114071e-05 1.8578521e-05 1.5267939e-05 1.3370939e-05 1.3133793e-05 1.20016375e-05 1.3985136e-05 1.627935e-05
1.4807726e-05 9.3085424e-07 4.5387665e-06 3.2134983e-06 9.9963545e-06 1.2300018e-05 5.5796345e-06 4.440032e-06
2.2316131e-05 7.5000963e-07

exp_avg f4 [4, 1, 3, 3]
00000000: 8da7 8cb9 5b54 9db9 220f d5b8 6e87 e7b9
00000010: 7c6d 07ba 98ed 3ab9 f7a0 9fb9 4097 c3b9
00000020: 4d6a 32b9 945e 12ba aff1 05ba 1385 96b9
00000030: 4cbd 2aba c653 41ba 0921 0aba 6ae1 eab9
00000040: 8dc5 27ba fab2 16ba deca e8b8 3d4f fcb8
00000050: c1bd 2ab9 dc9f 29b9 842b 31b9 1fd7 1fb9
00000060: e462 2bb9 fa4a f2b8 61fb 03b9 87f3 e1b8
00000070: f6ef ba39 7e2c ecb9 f223 033a abe2 8bba
00000080: 21db 8f3a ff0c 19b7 ddd8 e139 a87d 6fba
-0.00026827716 -0.00030008223 -0.0001015945 -0.00044160656 -0.0005166156 -0.00017826853 -0.0003044677 -0.00037305988
-0.00017015003 -0.0005583551 -0.0005109561 -0.00028709378 -0.0006513193 -0.0007374849 -0.0005269205 -0.00044799905
-0.0006399982 -0.00057487155 -0.00011100409 -0.00012031056 -0.00016283152 -0.00016176648 -0.00016896246 -0.0001524356
-0.0001634467 -0.00011553425 -0.0001258678 -0.000107741966 0.0003565547 -0.00045046577 0.00050026097 -0.0010672411
0.001097534 -9.1225365e-06 0.0004307692 -0.00091358507

exp_avg_sq f4 [4, 1, 3, 3]
00000000: 345c fe34 86e3 ab35 7e12 6035 b349 1236
00000010: ad30 5336 b7a6 3f35 f954 d235 7320 ab35
00000020: bfb1 3b34 b698 2c36 255b 2536 f0e7 8b35
00000030: 611a 5d36 bf02 9436 b1ff 1b36 3277 0736
00000040: b796 7336 811a 2e36 3411 6d33 bc78 7733
00000050: cbaf 8333 49e1 8a33 3d04 9133 5385 8733
00000060: 02f5 8633 b346 7c33 eefb 7433 fd1b 4235
00000070: f9ed ef34 4fb4 7336 a77e fb34 e34e 1c37
00000080: ec97 4037 280b 1c34 17df 1336 d12d f436
4.7378273e-07 1.2806711e-06 8.347341e-07 2.1798594e-06 3.1469783e-06 7.1395647e-07 1.567095e-06 1.2749937e-06
1.7480396e-07 2.5718887e-06 2.463997e-06 1.042381e-06 3.294692e-06 4.4110634e-06 2.3245632e-06 2.0185948e-06
3.629755e-06 2.5943448e-06 5.519651e-08 5.7618976e-08 6.1321394e-08 6.467105e-08 6.7528596e-08 6.310679e-08
6.284428e-08 5.8737623e-08 5.7039806e-08 7.231136e-07 4.4690367e-07 3.6314775e-06 4.6844545e-07 9.316692e-06
1.1479464e-05 1.4532691e-07 2.2034562e-06 7.2771004e-06

exp_avg f4 [8, 1, 3, 3]
00000000: 0654 a539 3979 48b9 65f4 08ba 9479 9a38
00000010: cc7d afb8 7a1a e0b8 1b56 86b9 7ad2 5936
00000020: dada af39 4de8 2a38 6b06 6838 dd29 7038
00000030: 5fde 6938 f0f8 8738 7371 6b38 799e 7238
00000040: 05e8 7238 9d63 2c38 8cd9 9fb9 f61f 9eb9
00000050: e138 64b9 a9fc bfb9 d5e3 d1b9 c6c0 afb9
00000060: 8005 99b9 9795 b8b9 3a3f acb9 071d 8bb9
00000070: bb22 cbb9 8793 9cb9 42d2 5cb9 5734 ecb9
00000080: 1f5f fab9 8b6c c3b8 c555 a0b9 f349 dbb9
00000090: b132 be37 cecf 2d38 75c1 5938 da71 6a38
000000a0: 1e8c 6c38 f002 1538 1964 3a38 bd17 e937
000000b0: bc12 e037 0651 9db8 65f3 97b8 3e66 93b8
000000c0: fa89 96b8 5a4e 90b8 c2cb 9cb8 45d6 9cb8
000000d0: f10c 9eb8 8981 9eb8 3ab4 90b9 d73c f539
000000e0: 9ce3 08ba b422 5739 82c6 c1b9 1cff c639
000000f0: 7725 4639 90fe 2cb9 a5b5 8238 f716 4c38
00000100: fe95 8fb9 9acd 7939 9f9c c537 5688 a339
00000110: b1ee c1b9 6674 bbb8 04dd 38b9 84f0 a239
0.00031533855 -0.00019118645 -0.0005224406 7.365938e-05 -8.368082e-05 -0.00010686084 -0.00025622625 3.2458033e-06
0.00033541658 4.0747505e-05 5.5319088e-05 5.7259447e-05 5.5758628e-05 6.48367e-05 5.6134024e-05 5.7844885e-05
5.791338e-05 4.1100768e-05 -0.00030488928 -0.0003015992 -0.00021764963 -0.00036618605 -0.00040033335 -0.00033522228
-0.00029186532 -0.00035206668 -0.00032853504 -0.00026533773 -0.00038745053 -0.00029864555 -0.00021059162 -0.00045052424
-0.00047754587 -9.318542e-05 -0.0003058148 -0.00041826032 2.267337e-05 4.1439947e-05 5.1917003e-05 5.589598e-05
5.639728e-05 3.5527104e-05 4.443908e-05 2.7786818e-05 2.6711605e-05 -7.501435e-05 -7.245577e-05 -7.02855e-05
-7.1782575e-05 -6.881049e-05 -7.4766125e-05 -7.4785705e-05 -7.5364376e-05 -7.558155e-05 -0.000276001 0.0004677537
-0.0005221905 0.00020516926 -0.00036959728 0.00037955574 0.00018896708 -0.0001649803 6.232717e-05 4.8658778e-05
-0.00027386838 0.00023823083 2.3557162e-05 0.0003119136 -0.00036989668 -8.938536e-05 -0.00017629942 0.00031078246

exp_avg_sq f4 [8, 1, 3, 3]
00000000: 1792 2e35 b59c a535 b243 8436 9708 5735
00000010: 9ec5 db35 ebb1 bc35 74f9 f335 eebc 6035
00000020: a54b 3935 ccd9 e233 5c00 fc33 bd18 f133
00000030: 2402 3e34 cfea 4c34 5b70 3834 44fe 2b34
00000040: a1d7 3334 175f 1b34 0182 6f35 0ea5 8b35
00000050: 7d37 1235 3d3b 9535 7ae9 ca35 5f2a 7635
00000060: cbc2 4835 28a8 9e35 0b51 5f35 79b1 2c35
00000070: 98b1 a635 626e 5f35 1687 cc34 22f3 b335
00000080: 7d6c ca35 7142 4634 5248 3e35 9d2a a135
00000090: 2844 9f32 2631 bc32 6a3a c632 5f85 bb32
000000a0: 2f05 d232 9aa8 c332 1688 ab32 28d0 b432
000000b0: bd01 b232 8307 9732 a957 9332 c2f8 8b32
000000c0: 9c8f 9732 ef2e 9332 46f0 9532 337b 9832
000000d0: a7a2 9732 dba0 9232 b1c6 9a34 01b6 ea35
000000e0: d20e 3436 894b ba34 6b64 bd35 9278 aa35
000000f0: 0b77 9334 9d77 3d34 afac f633 b50d 1234
00000100: 167f c834 9346 5135 3f60 4934 501a 4335
00000110: 1817 b835 9a84 4a34 1c88 fd34 8aab 7935
6.503264e-07 1.2339066e-06 3.9417873e-06 8.010624e-07 1.6374286e-06 1.4058872e-06 1.8177511e-06 8.372143e-07
6.902795e-07 1.0563562e-07 1.173473e-07 1.1226937e-07 1.7695908e-07 1.9084403e-07 1.717721e-07 1.6018117e-07
1.674912e-07 1.4470093e-07 8.922362e-07 1.0404344e-06 5.4469984e-07 1.1118606e-06 1.5118123e-06 9.17038e-07
7.4789267e-07 1.1820857e-06 8.3191907e-07 6.433325e-07 1.241965e-06 8.32346e-07 3.809625e-07 1.34073e-06
1.5081747e-06 1.8464358e-07 7.0885756e-07 1.2007837e-06 1.854103e-08 2.190843e-08 2.3076797e-08 2.1830315e-08
2.4449575e-08 2.2777659e-08 1.9968905e-08 2.1049416e-08 2.0722718e-08 1.758213e-08 1.7152916e-08 1.6294852e-08
1.764402e-08 1.7134395e-08 1.7455147e-08 1.7751153e-08 1.765268e-08 1.7069786e-08 2.8829302e-07 1.7487329e-06
2.6830717e-06 3.470016e-07 1.4110823e-06 1.2701078e-06 2.74675e-07 1.7645512e-07 1.14866786e-07 1.3602296e-07
3.734537e-07 7.7961266e-07 1.8754598e-07 7.268145e-07 1.371579e-06 1.8860956e-07 4.7223955e-07 9.300935e-07

exp_avg f4 [16, 1, 3, 3]
00000000: ce88 8a38 2075 5538 9bf4 0637 77b5 ae38
00000010: d91c b338 e13e 2138 7dcc 5238 3ea3 8038
00000020: 9be1 4438 1823 ce39 aaaa 2e35 7a78 c0b9
00000030: 3e7e 083a 5c5b 53b8 b939 f9b9 e848 8739
00000040: 363b 45b8 0692 45b9 3149 8db7 8dc4 b2b7
00000050: 6cda b7b7 374d abb7 3499 c8b7 ca57 bcb7
00000060: b7f8 a8b7 ea86 b4b7 dcd3 9ab7 f04d 53b8
00000070: 5a8d 61b8 d316 4eb8 ce7e 6fb8 3d7f 72b8
00000080: b5ba 51b8 9877 53b8 3823 4bb8 acf6 28b8
00000090: b03b 64b7 450a 85b7 b159 89b7 b8c0 8cb7
000000a0: d060 97b7 3ffc 8eb7 5afb 8db7 9c3d 8bb7
000000b0: c581 72b7 2ddf 543a b54d 7c3a 8f22 863a
000000c0: f8bf 5d3a 7f9a 873a 3bb3 943a 3ece 243a
000000d0: f084 513a a99c 6d3a f7a6 0d39 6f66 1939
000000e0: 3c4d 3939 726c cc36 4e69 4cb8 f63e 04b8
000000f0: 2a8c b4b5 7876 e4b8 1512 1db9 e98d 99b9
00000100: 7117 8cb7 4f72 f638 583b 0dba 4a5d 69b9
00000110: fd07 7f34 dbe7 25ba cb74 cdb9 bf39 25b9
00000120: f17d 46b8 506b 2db8 5a5b f3b7 22bd 0db8
00000130: ba37 cdb7 51c6 03b8 388e f2b7 83a6 21b8
00000140: bc61 39b8 d31b c137 a778 e137 0fe9 9237
00000150: b520 be37 2ca5 af37 1497 6f37 2935 da37
00000160: e4dc c837 fc87 9d37 85e2 2bb8 f766 2ab8
00000170: 58b4 2db8 843e 2db8 8b73 2fb8 fc5b 33b8
00000180: 877e 2cb8 038d 2bb8 c1c6 2bb8 69a4 c736
00000190: 16c0 8c36 dee2 1a37 5ce2 f836 9603 0e37
000001a0: cf8f 1537 c607 ca36 f053 8036 f9b6 1c37
000001b0: 225c 8bb7 5f36 1a37 bd95 c0b7 4199 d3b8
000001c0: 8578 1739 07f5 f6b8 0a59 ee38 79f3 2cb9
000001d0: b02d 1939 dc8f 8638 edf3 6fb8 520a 5d38
000001e0: de1d 9838 cb46 00b9 b3f9 fd38 1a03 12b9
000001f0: e241 5639 4397 57b9 43c9 7fb8 20a5 1f39
00000200: b027 a5b8 064b b137 7ae0 24b9 6a49 f138
00000210: c715 ed37 8699 bd38 a9bf c5b8 b6a3 ce36
00000220: 31a6 b538 f468 c6b8 a878 bcb7 08a0 c5b8
00000230: ee9b 0939 206e 0338 c6c0 8238 d1ca f1b8
6.605835e-05 5.089224e-05 8.043974e-06 8.330767e-05 8.5407584e-05 3.844395e-05 5.0258346e-05 6.133922e-05
4.6940153e-05 0.0003931753 6.50684e-07 -0.00036710856 0.00052068 -5.0391405e-05 -0.00047535988 0.00025803526
-4.7023605e-05 -0.00018841782 -1.6842592e-05 -2.131078e-05 -2.191701e-05 -2.0420744e-05 -2.3913199e-05 -2.2452226e-05
-2.0142978e-05 -2.1520496e-05 -1.8456885e-05 -5.0378905e-05 -5.3775824e-05 -4.9135484e-05 -5.7100136e-05 -5.7815796e-05
-5.0003368e-05 -5.04177e-05 -4.843177e-05 -4.0284052e-05 -1.3603756e-05 -1.5859618e-05 -1.6373438e-05 -1.6779042e-05
-1.8045685e-05 -1.704518e-05 -1.6925555e-05 -1.659878e-05 -1.4454538e-05 0.0008120414 0.00096246164 0.0010233688
0.00084590865 0.0010345726 0.0011344919 0.0006286836 0.00079925265 0.00090641767 0.00013509007 0.00014629377
0.00017671747 6.0922985e-06 -4.8735463e-05 -3.152989e-05 -1.3451838e-06 -0.00010893954 -0.00014979423 -0.00029288165
-1.6700216e-05 0.00011751486 -0.0005387566 -0.00022255364 2.3751632e-07 -0.00063287996 -0.00039187665 -0.00015757138
-4.732417e-05 -4.1346357e-05 -2.9010396e-05 -3.3793163e-05 -2.4463854e-05 -3.141753e-05 -2.8914874e-05 -3.8540467e-05
-4.419846e-05 2.302035e-05 2.6878273e-05 1.7513083e-05 2.2664995e-05 2.093854e-05 1.4280686e-05 2.601238e-05
2.3944718e-05 1.8779181e-05 -4.098054e-05 -4.0627052e-05 -4.1414372e-05 -4.1304636e-05 -4.183086e-05 -4.2762593e-05
-4.1125833e-05 -4.0900904e-05 -4.095468e-05 5.949802e-06 4.194687e-06 9.231937e-06 7.4173277e-06 8.4646945e-06
8.914575e-06 6.020974e-06 3.824469e-06 9.340926e-06 -1.6612994e-05 9.191775e-06 -2.2957911e-05 -0.0001008981
0.00014445379 -0.00011775834 0.00011365309 -0.00016493899 0.00014608237 6.416414e-05 -5.7209214e-05 5.2700118e-05
7.253488e-05 -0.00012233404 0.0001211049 -0.000139248 0.00020433174 -0.00020560347 -6.0984177e-05 0.00015224935
-7.8752055e-05 2.113498e-05 -0.00015723883 0.0001150545 2.8262742e-05 9.040818e-05 -9.4293915e-05 6.158337e-06
8.661708e-05 -9.460925e-05 -2.2467531e-05 -9.4235e-05 0.00013123426 3.1335396e-05 6.23479e-05 -0.00011529553

exp_avg_sq f4 [16, 1, 3, 3]
00000000: 4112 5033 9eb2 6c33 3c6a 8f32 2385 e533
00000010: daf8 ca33 0a35 9332 193f 4933 27f5 0433
00000020: 2a65 2832 371c c635 abd1 5634 28f0 3335
00000030: b7ed e235 da06 f032 1b2e e535 3a85 5534
00000040: c699 d334 5a58 2335 6013 9631 3d8e a831
00000050: 8c4a a831 033f bd31 4cdd ce31 a51e c631
00000060: a5b9 8e31 ba42 9631 ff6d 8a31 2766 f431
00000070: 525e fd31 b207 eb31 9253 1832 84c3 1a32
00000080: 61eb 0c32 2ee6 d531 790a d531 951d c031
00000090: b73b 8731 9375 9031 7b5d 8931 f1f2 e031
000000a0: 0061 ee31 1221 e131 1d21 8d31 47f6 9331
000000b0: 7b20 8a31 5537 a035 629b 1135 f1fd ec35
000000c0: 4860 dd35 ff44 3135 e835 0b36 d4f1 c435
000000d0: b9bb 2c35 90ae d035 619a b834 21a1 b734
000000e0: e28b c934 6b8f 0134 a82c c933 7356 b733
000000f0: b208 bf33 2175 c333 9456 f933 ee0f 6d34
00000100: b2bd 7d34 a783 2835 6ba1 2635 e89c e133
00000110: 326f 1d35 1662 5c35 0f7d 0934 8649 8a34
00000120: 6503 6a31 4893 5731 e356 3731 6fee 4731
00000130: 5ba2 3b31 fa7f 3831 d981 3a31 257e 4931
00000140: 78af 4e31 d667 7031 a39e 7731 bb34 5831
00000150: b7fb 7631 2ab8 7631 46e2 5d31 6e10 7c31
00000160: 73d7 7b31 91fe 6231 86e3 ae31 cb63 aa31
00000170: 1c48 b631 4d94 b031 adeb b531 5f6a c331
00000180: 859a b031 6880 af31 82cb af31 5f9b 8231
00000190: d2f5 8431 407e 6831 fd12 8031 a718 7631
000001a0: 552a 6d31 e6fd 8031 9d4e 8531 8dbd 6531
000001b0: 4375 cb32 1dbd 9931 f6c7 2531 203e 2a33
000001c0: 33d4 1f34 3398 0034 def3 b533 c112 5c34
000001d0: 999c 1734 f431 c633 dc9d 5333 8585 6e32
000001e0: a9a1 0232 a4b5 ab33 8e01 0b34 9319 dc33
000001f0: ba7d 9534 8e83 9e34 7a39 4131 0c12 4d34
00000200: 84a3 a233 6f14 8c31 a8eb 7534 6399 dc33
00000210: 4eca 2b32 4aed f133 6580 6033 e432 c532
00000220: d192 eb32 9b5d b333 a6e0 e432 0af4 5733
00000230: 6775 1034 5b4a 9932 2cda 2433 c827 d033
4.8445376e-08 5.5110483e-08 1.66957e-08 1.0687861e-07 9.451624e-08 1.7137172e-08 4.6856346e-08 3.095661e-08
9.801889e-09 1.4760361e-06 2.000658e-07 6.703217e-07 1.6907496e-06 2.7942793e-08 1.7075248e-06 1.9885638e-07
3.9413698e-07 6.08508e-07 4.3677773e-09 4.905614e-09 4.8979185e-09 5.5077876e-09 6.0205476e-09 5.7660423e-09
4.1538493e-09 4.3731605e-09 4.0288337e-09 7.112948e-09 7.373992e-09 6.840275e-09 8.866566e-09 9.008435e-09
8.2025915e-09 6.2252843e-09 6.2003065e-09 5.5912985e-09 3.935806e-09 4.2043182e-09 3.9978523e-09 6.5468773e-09
6.9377393e-09 6.5521215e-09 4.1074046e-09 4.3062616e-09 4.020021e-09 1.1937033e-06 5.424282e-07 1.7657277e-06
1.6493805e-06 6.603804e-07 2.0743992e-06 1.4673519e-06 6.4348166e-07 1.5548012e-06 3.4384996e-07 3.4203643e-07
3.7540946e-07 1.2066236e-07 9.367915e-08 8.5373266e-08 8.895712e-08 9.101701e-08 1.16107145e-07 2.207814e-07
2.3631472e-07 6.2776456e-07 6.2074713e-07 1.050592e-07 5.864887e-07 8.209912e-07 1.2804615e-07 2.5757998e-07
3.4053411e-09 3.1370337e-09 2.6679394e-09 2.9093845e-09 2.730437e-09 2.684827e-09 2.7140372e-09 2.9321054e-09
3.0076688e-09 3.498362e-09 3.6033405e-09 3.146211e-09 3.5940795e-09 3.5902397e-09 3.2288354e-09 3.6680166e-09
3.6647776e-09 3.3032033e-09 5.089933e-09 4.9589963e-09 5.305095e-09 5.139134e-09 5.2945865e-09 5.68734e-09
5.139841e-09 5.1077684e-09 5.1163065e-09 3.8011616e-09 3.869652e-09 3.3832208e-09 3.727449e-09 3.5811725e-09
3.4512102e-09 3.754155e-09 3.8797467e-09 3.3431633e-09 2.3685635e-08 4.4743858e-09 2.4124325e-09 3.9637712e-08
1.4885227e-07 1.1976299e-07 8.4728285e-08 2.0495919e-07 1.4119941e-07 9.22918e-08 4.9270838e-08 1.3883782e-08
7.603753e-09 7.995848e-08 1.294595e-07 1.02492e-07 2.784489e-07 2.9525512e-07 2.8117868e-09 1.9098678e-07
7.573456e-08 4.0768593e-09 2.2903134e-07 1.0272449e-07 9.999509e-09 1.12656e-07 5.227084e-08 2.295696e-08
2.7424365e-08 8.352364e-08 2.6644852e-08 5.028054e-08 1.3453756e-07 1.7845357e-08 3.838265e-08 9.692991e-08
