Experiments/Experiments-005/checkpoints/model.pt (torch, 163559 bytes, 33 tensors)

cp.convs.0.weight f4 [2, 1, 3, 3]
000000 49 6a 19 bf 22 65 90 be 90 ca 1a 3e 3b 2b fa be
       -0.59927803 -0.28202158 0.15116334 -0.48861107
000010 a6 cc de 3c 35 b6 2e 3e f9 23 eb be 92 08 cb be
       0.027197193 0.17061694 -0.45925882 -0.39654976
000020 21 c2 78 3e fb 88 86 3f 9e 3e 6d 3e 69 8c 80 3f
       0.24292804 1.0510553 0.23168418 1.004285
000030 94 06 0c be cc e3 31 3f a8 c2 1b 3c 22 1f 44 bf
       -0.13674384 0.69488215 0.009506859 -0.76610005
000040 6a 48 a2 bf 77 7a 5a bf
       -1.2678349 -0.85343117

cp.convs.1.weight f4 [4, 1, 3, 3]
000000 04 7d 72 3f fb 0f 66 3f f8 28 79 3f f2 7d 61 bd
       0.9472201 0.89868134 0.9732814 -0.05505175
000010 ec 2b ac bd c8 82 73 be 8f 89 4c bf b4 97 1b bf
       -0.08406815 -0.23780358 -0.798974 -0.60778356
000020 9b c9 3b bf e0 83 fd be d0 2c 82 be 04 65 87 bf
       -0.733545 -0.49514675 -0.25424814 -1.0577703
000030 2e 30 d0 3e f6 3b ec 3c ba 7f d1 be a4 f7 4c 3f
       0.40661758 0.028837185 -0.4091776 0.8006537
000040 e4 4a ab 3e 9f ef 8e 3e 20 40 0e 3f 00 8d bb 3f
       0.33455575 0.2791719 0.55566597 1.4652405
000050 9c 03 db bd fa 57 0f 3f d4 9f a8 be 99 12 1b 3f
       -0.10694048 0.55993617 -0.3293444 0.6057525
000060 cc 06 e4 3e 11 5b 99 3f 41 48 bc bd 27 96 04 bf
       0.44536436 1.1980916 -0.09193469 -0.51791614
000070 0a 5f b9 3e 38 00 e5 be 58 e4 8c 3f 72 18 a1 bf
       0.36205322 -0.4472673 1.1007185 -1.2585585
000080 90 4b 9e 3f 67 0f bb 3d a5 01 00 bf ca 3c f7 3b
       1.236681 0.09133797 -0.5000251 0.0075450884

cp.convs.2.weight f4 [8, 1, 3, 3]
000000 da 70 2a be 3a ec b2 be 1f bb 8e 3c 44 96 8e be
       -0.16644612 -0.34945852 0.01742321 -0.2784902
000010 d8 4a fb be b3 75 7f 3c 27 0d 8e be 6b fe 65 bd
       -0.4908054 0.0155920265 -0.2774441 -0.056150835
000020 fb 0f a0 bc a1 fc 47 bf 80 1d 8e bd f5 35 18 bf
       -0.01953887 -0.78119856 -0.069392204 -0.5945733
000030 99 24 cc 3e 91 ba 9b 3e 53 bc 33 be a8 1c f9 3c
       0.39871672 0.30415776 -0.17552309 0.030409172
000040 3a d2 72 3e b9 8a f4 3e d0 13 37 3e 5f 89 57 3e
       0.23713008 0.47762087 0.17878652 0.21048497
000050 fa 4b d7 be 0c ac 66 be 72 7f 11 bf 77 bd 53 bf
       -0.42050153 -0.22526568 -0.5683509 -0.82710975
000060 a0 a9 65 3f ba 91 ba 3e dc a7 28 3e 0d 24 e0 3c
       0.8971195 0.36439306 0.16470283 0.02736094
000070 bd bf 16 3f fa 76 42 3e cb 14 4b bf fa 7c 58 bf
       0.5888632 0.18990698 -0.793286 -0.845657
000080 be 1b a1 be 77 1a 8e 3e 4f e3 2a 3c 83 37 01 bd
       -0.31466478 0.27754566 0.010430171 -0.03154708
000090 82 1d 76 bf 98 35 59 3e 3c 3d 3a 3f 1a a5 bc bd
       -0.96138775 0.2121185 0.72749686 -0.09211178
0000a0 1d 37 d4 3c b3 bc d7 3d 65 d6 be bf 4a 91 d7 3d
       0.025905186 0.105340384 -1.4909178 0.105257586
0000b0 d3 03 ad 3f 1c 56 ec be 06 b2 06 bf 34 41 78 3f
       1.3516792 -0.46159446 -0.5261539 0.9697449
0000c0 a8 4b 5b bf 9c b3 d7 3e 4c 9f fc 3e a4 b1 50 bd
       -0.8566232 0.4212922 0.49340284 -0.05095066
0000d0 e8 4c 6b bf 81 98 6e 3f 6e 60 5a 3e de a8 b0 bf
       -0.91914225 0.9320145 0.21325848 -1.3801534
0000e0 64 2b 92 3f bb 80 47 be c8 3b 71 3f cb a2 36 bf
       1.1419492 -0.194827 0.94231844 -0.7134215
0000f0 d2 2c 07 be 37 01 2c 3f 15 91 04 bf 44 c5 bf 3e
       -0.13200691 0.67189354 -0.5178388 0.3745519
000100 a5 3b 18 bf 0f c6 23 3e 17 ba ba 3e 00 29 71 bf
       -0.5946601 0.15993522 0.364701 -0.94203186
000110 8e 88 0f 3f 40 25 31 bf 87 94 c6 3f e4 6e 53 bf
       0.5606774 -0.69197464 1.5514077 -0.8259108

cp.convs.3.weight f4 [16, 1, 3, 3]
000000 78 23 e5 be 91 bf e2 3d 3e 67 bf be fb d2 bd be
       -0.44753623 0.11071695 -0.37383455 -0.37075028
000010 be d5 6a 3e 1a 1b 22 be f6 bd a0 be 51 71 20 be
       0.22933099 -0.15830651 -0.3139493 -0.15668227
000020 62 f3 38 be b3 3a 3f 3f 4e 05 9c bd c2 c2 2e bf
       -0.18061593 0.7469894 -0.07618199 -0.68265927
000030 3e 67 49 3f 32 fd c7 bd b9 30 33 bf f2 39 04 3f
       0.7867316 -0.0976509 -0.6999622 0.5165092
000040 f4 24 6e bc 3c df f4 be 48 bd ca be e0 e1 14 bd
       -0.0145351775 -0.47826564 -0.39597535 -0.036348224
000050 5a 2d 10 be 48 04 29 bd 26 23 0b be 46 dc 13 3e
       -0.140798 -0.04126385 -0.13587627 0.14439496
000060 77 1b 85 3e 8f 05 3b 3b 79 a8 15 3f 17 c0 3c 3e
       0.25997517 0.0028537249 0.58460194 0.18432651
000070 58 82 cd 3e 86 fc e5 3e a2 0a a7 3d 4c 1a 42 be
       0.40138507 0.44919223 0.08156325 -0.18955344
000080 34 79 4f be 8d 28 a6 bc 2b 79 5a 3e 39 87 03 3e
       -0.20261079 -0.020283008 0.21335284 0.12844552
000090 3e ea 23 3e 99 24 71 3e 4a 88 0e 3f 09 7a a3 be
       0.16007325 0.23549117 0.5567671 -0.31929043
0000a0 8a 2c f6 be 7a b5 07 bf fc c5 9d 3e d4 4c 81 3e
       -0.48080856 -0.53011286 0.30815113 0.25253928
0000b0 f3 9d eb 3d 4d 89 1e bf 67 e6 f7 bc c6 a8 cb 3e
       0.11504736 -0.61928254 -0.030261232 0.397772
0000c0 d3 76 a0 bc bb b9 a7 3e a1 f0 c9 3e 40 b6 d1 3e
       -0.01958791 0.3275889 0.39441398 0.40959358
0000d0 6c fe e6 3e 89 31 ff 3e a7 f0 55 be 11 c0 33 be
       0.45115983 0.4984248 -0.20892583 -0.17553736
0000e0 e3 fd 8f be 49 cf ff 3e 9f 16 a4 3e d7 e4 01 3f
       -0.28123388 0.49962834 0.3204851 0.50739807
0000f0 77 35 50 be 69 ef a0 be 46 f3 71 be b5 fd b6 3e
       -0.20332895 -0.31432655 -0.23627958 0.35740438
000100 9a b0 81 3d 8a 63 a2 3e de fa 96 be b7 42 da be
       0.06332512 0.31716567 -0.2948827 -0.42629024
000110 9c 41 18 bf be 53 82 3e 59 dd 23 3e eb 19 ad 3e
       -0.5947511 0.25454515 0.16002406 0.33808836
000120 ae b6 ff be aa 09 76 be a4 b6 4b 3f e4 09 99 3f
       -0.4994406 -0.24027124 0.7957556 1.1956143
000130 d2 1b 9f be 1f 49 43 bf 73 c5 8e bf 7d e7 fe 3e
       -0.31075913 -0.7628345 -1.1154007 0.49785987
000140 45 fd d8 3e 1a e3 65 bf cc 48 b1 be 49 2c 06 3f
       0.4238073 -0.89799654 -0.34625852 0.52411324
000150 07 c2 96 3f 47 d9 57 3f cb f9 3d bf bf 67 7e bf
       1.1777962 0.84315914 -0.7420928 -0.99377054
000160 73 18 c9 be 0d 9d 1d 3f 82 15 5d 3f d0 32 6d bf
       -0.39276466 0.61567765 0.86360943 -0.9265566
000170 fd a6 63 3e 3a a7 9c bf 63 9f b4 3f b6 de 87 be
       0.2223167 -1.2238533 1.4111141 -0.26537102
000180 ff bd 28 3f 15 13 1b bf e0 d0 04 be 5a 8a d0 3e
       0.6591491 -0.6057599 -0.12970304 0.40730554
000190 d6 de a5 3e b6 b2 bb 3e c7 51 3d 3f 5c 7c 1d 3f
       0.32396573 0.36659783 0.7395291 0.6151788
0001a0 2f 39 0a 3f 10 1e 01 3f c9 4d df 3e 55 5e a9 3e
       0.53993505 0.50436497 0.43614033 0.33079782
0001b0 5d 84 af 3f 74 6c 87 bf dc 2f 92 3f fc c4 e8 be
       1.3712269 -1.0579972 1.1420856 -0.45462787
0001c0 95 f3 37 3f e6 1f d1 be 74 cd 43 bf fc 5d eb 3e
       0.7185605 -0.4084465 -0.7648537 0.45970142
0001d0 5e 72 be be 03 87 9b be d1 c7 63 3f 88 55 12 bf
       -0.3719663 -0.30376443 0.8897677 -0.5716176
0001e0 05 cb 56 3f 78 64 97 bf 3e 9a 9c 3f 3e 8b 5a 3f
       0.83903533 -1.1827536 1.2234571 0.85368717
0001f0 69 3f 03 bf 52 81 eb 3e cb bf ee be 9a e3 9c 3e
       -0.5126863 0.459971 -0.466307 0.30642396
000200 6d 96 06 bf 1c 5e 77 bf 1c 6f 89 3f 8d 5d 1c bf
       -0.5257328 -0.96627975 1.0737033 -0.6108025
000210 63 73 e7 3e 22 f9 48 bf 4a 76 8c 3f 4e a4 79 bf
       0.4520522 -0.78505147 1.0973599 -0.97516334
000220 d9 c6 b8 3f 49 f6 2a bf a1 b1 2a 3f b1 57 a5 bf
       1.4435683 -0.6678205 0.6667729 -1.2917386
000230 a5 78 a8 3f d6 77 91 3e 30 28 2d bf 4d 08 42 3f
       1.3161818 0.2841174 -0.67639446 0.75793916

_mlp.0.weight f4 [64, 60]
000000 8d 10 19 bf 28 6c c2 3e 71 0e 28 bf 81 04 ce 3e
       -0.5979088 0.37973142 -0.65647036 0.4023781
000010 de 5a 0e 3f 26 32 b9 3e af b9 b2 3d 74 c0 5e 3e
       0.556074 0.36171073 0.087268226 0.21753103
000020 39 95 48 3f a5 b1 91 3e b8 76 34 3d d6 21 30 3e
       0.78352696 0.28455845 0.04405853 0.17200407
000030 d6 2a 75 3f 54 5e c8 3e 9b 0a 13 3e dc 48 2a 3f
       0.9576849 0.39134467 0.14359514 0.66517425
000040 7e c4 6c bd 7e 92 c1 bd d8 66 0f 3e 68 7f f2 3a
       -0.057804577 -0.09451769 0.14004076 0.0018501105
000050 e8 a0 80 3f 7a c5 01 3f 85 ae 90 3e 64 f1 0d 3f
       1.0049105 0.5069195 0.28258148 0.5544646
000060 2a 68 50 bd d2 6e 8d bd 45 ae ba 3d 59 09 e7 3d
       -0.05088059 -0.06905903 0.091152705 0.1128108
000070 bc e3 61 3e 3d 6d 18 3f bb f4 b1 bd 0a f9 52 be
       0.2205953 0.59541684 -0.08689257 -0.20602813
000080 fe 8f 13 bf ae f6 51 bf 57 6d 9a 3e 61 9d aa 3e
       -0.5764159 -0.8201703 0.30161545 0.33323196
000090 67 56 2d be 37 c0 f2 bc bd 42 0d be 79 df 2a be
       -0.16927491 -0.02963267 -0.1379499 -0.1668681
0000a0 89 9d 1b be a7 dd 12 be 5f 06 32 be 3f 95 2a be
       -0.15196814 -0.14342366 -0.17385243 -0.16658495
0000b0 5b cd 84 3e a0 ef 0b 3f c0 9f f2 bc d2 7d 30 3d
       0.25937924 0.54662514 -0.02961719 0.04308874
0000c0 76 3d ff be ba 42 43 bf 2f 08 e8 3e 5b 6b 99 3e
       -0.49851578 -0.7627369 0.45318744 0.29964718
0000d0 e6 1b 12 3c 04 df 44 be 97 4b 73 be 2f 72 35 bd
       0.008917784 -0.19225699 -0.23759304 -0.044298347
0000e0 5d 2f 1d be 3f 82 5b bd bd 6e 99 be c0 97 df bd
       -0.15350099 -0.05359101 -0.299673 -0.10917616
0000f0 7f e5 af be c7 13 21 3f 11 c9 dc be 7f 3a cd 3e
       -0.3435478 0.629208 -0.43122151 0.4008369
000100 56 42 10 3f 05 6a 92 3e 20 77 cb be 4c 17 01 3f
       0.5635122 0.2859651 -0.39739323 0.50426173
000110 10 c5 08 3f 29 9f 21 3e b2 27 f9 be a3 78 0c 3f
       0.53425694 0.15783371 -0.48663098 0.5487158
000120 ad bb 3e 3f b2 55 fb 3e 89 f5 a0 bd 82 98 0f 3f
       0.7450512 0.49088818 -0.07859332 0.56092083
000130 90 59 66 bd 6e 5a ed bd 44 87 a5 bc f7 77 0f 3e
       -0.056237757 -0.11589514 -0.020206101 0.14010607
000140 cf ec 39 3f 11 68 a7 3e 3e b2 98 3d 1f 8b cb 3e
       0.72626966 0.32696584 0.07455872 0.39754578
000150 a8 10 69 be ba ce f1 bd 6e 18 f2 3d 61 6b 30 3c
       -0.2276026 -0.11807008 0.11821066 0.010767789
000160 dc e7 a6 3d 46 2a a1 3f cf 43 2b bd 1b b0 b7 be
       0.081496924 1.2591026 -0.041812714 -0.35876545
000170 c9 17 51 bf 43 c6 69 bf f6 95 5e 3f f0 fc 14 3f
       -0.8167692 -0.9131815 0.8694757 0.5819845
000180 ad 3d d5 3c 24 4c 25 be 45 81 60 be e5 1e 0f bf
       0.026030386 -0.16142327 -0.21924312 -0.55906516
000190 d6 35 e6 bd 4d d5 99 bd 2f cc 1e be fc dc 56 be
       -0.11240737 -0.07511387 -0.15507577 -0.20982736
0001a0 73 9d 0f bd e0 71 b1 3f 2e b1 98 3c f9 34 b2 be
       -0.035062265 1.3862877 0.018639173 -0.3480604
0001b0 25 de 51 bf d5 0e 60 bf 1e 1d 5e 3f 01 bd 1d 3f
       -0.8197959 -0.8752263 0.8676318 0.6161652
0001c0 f6 61 3d be bf f6 ed 3c 41 67 2d be be df d1 be
       -0.184944 0.029048322 -0.1693392 -0.40991014
0001d0 fd 66 ac be 9e 8b 50 be 96 e1 09 be e3 e8 a0 be
       -0.33672324 -0.2036576 -0.1346496 -0.31427678
0001e0 99 ff c5 bf 54 33 c1 3e ef 48 c7 bf 80 c1 d0 3e
       -1.5468627 0.37734473 -1.5569133 0.4077263
0001f0 55 ca 3a 3e 59 13 a5 3e 5a ac dd bd 68 22 9e 3f
       0.18241246 0.32241324 -0.10823889 1.235425
000200 30 9a 9d 3d e3 4e 48 3e a6 fc a4 bd bc 9d 93 3f
       0.076954246 0.19561343 -0.08056001 1.1532512
000210 e5 40 97 3e 77 5f c9 3b d4 d9 cf 3e 6b 46 f0 3e
       0.29541698 0.0061454135 0.40595877 0.46928725
000220 8d 86 93 bd a6 29 ab 3e 2d 65 f8 3e 00 c3 f0 3e
       -0.07203398 0.33430213 0.4851469 0.47023773
000230 42 c5 e5 3e 28 ed dd 3d af 56 cb 3e 28 78 94 3e
       0.44877058 0.108362496 0.39714572 0.28997922
000240 7d 36 06 3e 60 2d 92 3e 34 ea f1 3e 80 0a 87 3e
       0.13106723 0.28550243 0.47248995 0.26375198
000250 26 e4 a4 3e 7a 62 a0 3e c2 eb ba 3d 87 ad f1 bd
       0.32205313 0.31325132 0.091269985 -0.11800676
000260 67 09 de 3d 14 db e0 be ea e0 cb 3e 9a f2 93 3e
       0.10841637 -0.43917143 0.39820033 0.28896028
000270 b4 6b d4 3d 2a 09 e7 bc b7 3e e0 bd ea 77 5b bf
       0.10372105 -0.028202612 -0.10949462 -0.8572985
000280 e0 69 67 be 60 11 a7 be 46 e0 96 be fc 4f b8 be
       -0.22598982 -0.32630444 -0.29467982 -0.35998523
000290 f6 98 fa 3d 51 51 74 3e d2 4c d0 3d 3d ea 10 be
       0.12236206 0.23859145 0.10170902 -0.14151855
0002a0 ad 00 da 3c 72 e5 f7 be e5 bc b1 3e 03 ae b3 3e
       0.02661165 -0.4841724 0.34714428 0.35093698
0002b0 e8 e7 19 3e c3 d5 f8 3c 5a 11 0e be 16 4b 6c bf
       0.15029871 0.030375367 -0.13873807 -0.9230207
0002c0 8c 8c 3e be 0f 48 ca bd e0 7d 0f be 8d ae e1 be
       -0.18608302 -0.09877025 -0.14012861 -0.44078484
0002d0 cb 25 2c 3d b6 cc 1f bf e8 c3 58 3e 8c 21 47 bf
       0.04202823 -0.6242174 0.21168482 -0.77785563
0002e0 76 f5 f6 be 62 9d 6c 3d 8d 32 28 bf f1 28 c9 3f
       -0.48234147 0.05776728 -0.65702134 1.5715619
0002f0 36 d9 f5 be 1a c4 02 bd bb e9 30 bf ed 88 bf 3f
       -0.4801728 -0.0319253 -0.69106644 1.4963661
000300 86 38 ba 3e f1 86 c5 bc 80 67 e0 bd b7 5f 81 3c
       0.3637125 -0.024112197 -0.10957241 0.01579271
000310 41 d0 00 bf 8b 78 a5 3e 8b 0a 11 3f be 18 19 3f
       -0.5031777 0.3231853 0.5665671 0.5980338
000320 12 23 04 3f 48 32 b7 39 7d 5a 09 be fa 8e 3d 3d
       0.51616013 0.00034941942 -0.13413425 0.04627893
000330 87 8e 28 bf b3 9c 71 3e 19 3d 32 3f 22 47 4c 3f
       -0.6584248 0.23594932 0.6962448 0.7979604
000340 1b 83 fa bd 18 cd 2a bf 0f 7f 12 be 49 69 06 bd
       -0.12232038 -0.667192 -0.14306282 -0.03281525
000350 1d 0b 3b bd bf ef 97 be 14 8a 48 bc 31 ae 7a bc
       -0.045664895 -0.296751 -0.012239952 -0.0153003195
000360 9b b6 10 3f 98 30 0c 3f 61 a2 19 3f f2 41 a9 bf
       0.56528634 0.5476165 0.60013396 -1.322325
000370 66 0a 13 3e b6 cd 99 3e a2 96 67 3e 50 81 46 3e
       0.14359435 0.30039757 0.22616056 0.19385266
000380 45 31 7e bc 86 4a 49 bf 5e 0d af 3d 1a 45 0a bd
       -0.015514676 -0.7862934 0.085474715 -0.033757307
000390 4a df 5b be ce 6a 7d be 80 3e f5 bc c1 b1 3d bc
       -0.21471897 -0.24747774 -0.029937029 -0.011578024
0003a0 db 1e 1e 3f 0a 3b 08 3f 33 49 26 3f 24 09 9b bf
       0.6176583 0.53215086 0.64955443 -1.2112164
0003b0 1e aa 5d 3e fa 06 86 3e 49 1c 94 3e ed 91 7d 3e
       0.21646926 0.26177198 0.2892783 0.24762698
0003c0 b2 66 0a bf 23 97 1f 3f 18 77 e2 be dc c3 02 3f
       -0.5406295 0.6233999 -0.44231486 0.5108011
0003d0 f2 31 3a 3f a1 e1 9c 3e 35 28 06 be 2f 6d a9 3e
       0.7273246 0.3064089 -0.13101275 0.33091113
0003e0 57 3f 41 3f e7 18 c9 3e 09 34 5c be 47 15 8b 3e
       0.75487274 0.3927681 -0.21504225 0.2716467
0003f0 43 76 73 3f f8 98 ca 3e bf cf 9f 3e e4 94 d5 3e
       0.9510233 0.3956983 0.31213185 0.41715157

_mlp.0.bias f4 [64]
000000 43 ff 9b bf a3 5d a4 bf d6 f2 1f bf bc 6d 98 bd
       -1.2187275 -1.2841076 -0.62479913 -0.07442805
000010 0f 0a 85 bf f6 b7 19 bf 1e 52 39 bf 74 91 d4 bf
       -1.0393695 -0.6004633 -0.72390926 -1.6606889
000020 12 3a b9 bf 97 14 3f bf 37 4b f5 bf e0 b8 88 bf
       -1.4470847 -0.7464079 -1.9163579 -1.0681419
000030 8f 03 6c bf 9d 77 bd bf 6a 64 8f bf 08 09 55 bf
       -0.9219293 -1.4802128 -1.1202519 -0.83216906
000040 39 41 96 bf 02 23 a9 bf fa a3 a0 bf 59 b9 07 bf
       -1.1738654 -1.3213809 -1.2550042 -0.53017193
000050 08 62 84 bf a8 a0 e4 bf b0 9a 96 bf bd 55 3e bf
       -1.0342417 -1.7861528 -1.1765957 -0.74349576
000060 ac 9d 91 bf a1 80 98 bf 4a 77 24 bf 57 de 25 bf
       -1.1376243 -1.1914254 -0.6424452 -0.6479239
000070 75 40 c1 bf 18 fb 9e bf 4b 66 c0 be 6b 12 0b bf
       -1.5097796 -1.2420378 -0.37578043 -0.5432498
000080 70 09 6a bf ec 6e 93 bf 46 70 06 c0 c9 6b 3b bf
       -0.9142065 -1.1518226 -2.1006026 -0.7321134
000090 20 b8 c1 be 71 53 b0 bf 18 7c 33 bf 71 ac d1 be
       -0.3783579 -1.3775464 -0.7011123 -0.40951875
0000a0 f2 96 7f bf 54 5f 56 bf 57 26 18 bf a8 98 50 bf
       -0.998397 -0.8373921 -0.594335 -0.81482935
0000b0 5e 9b 7f bf cb e6 7b bf 94 0b ab bd c8 fc 8f bf
       -0.99846447 -0.9839904 -0.08351818 -1.1249018
0000c0 00 61 70 bf 29 12 67 bf 14 7c b7 bf 9b d4 84 bf
       -0.9389801 -0.90262085 -1.4334741 -1.0377382
0000d0 9d dd 67 bf 0f 5a 64 bf de c4 e2 3e 8c a3 c7 bf
       -0.9057253 -0.8919992 0.44290823 -1.5596786
0000e0 f1 4e 81 bf 40 26 46 bf 9e 29 40 bf d0 99 97 bf
       -1.0102216 -0.77402115 -0.750635 -1.1843815
0000f0 0a 25 b6 bf 43 65 b0 be 90 26 9b be 63 4f aa bf
       -1.4230053 -0.34452257 -0.30302858 -1.3305477

_mlp.2.weight f4 [64, 64]
000000 80 90 aa 3b 70 de 5e bc 5f b2 54 bd ff 74 8a be
       0.005205214 -0.013602838 -0.05192792 -0.27042386
000010 19 ab f3 bd d6 b2 c2 3d 34 ae 0f bd ac cb 62 bd
       -0.11897869 0.095067665 -0.035078242 -0.055370018
000020 7a 7b 97 bd 9a 27 bc 3d d1 5d c1 be 39 6f e3 3d
       -0.07396598 0.09187241 -0.3776689 0.111051984
000030 2e 1e d7 bd 39 1e a5 be d2 45 91 3d 9a 07 99 bd
       -0.10503803 -0.3224962 0.07093395 -0.07472153
000040 ea 4d 8c 3d 6b 67 dc bd 56 9e 76 3c 5e 98 2b 3e
       0.068507984 -0.10761913 0.015052399 0.16757342
000050 27 79 9e be 66 16 b4 bd c8 8b 17 be 09 c1 c6 bd
       -0.30951807 -0.08793335 -0.14799416 -0.09704787
000060 fa 07 a1 bd 00 1e 6f bd 95 f3 69 bc d0 48 56 bc
       -0.078628495 -0.05837822 -0.014279266 -0.013078883
000070 a8 9b c0 bc de 39 d1 bd 1e 99 9a be 45 d6 1f 3c
       -0.023511723 -0.102161154 -0.30194944 0.009755676
000080 e3 7d b2 3d 43 ba b6 be 96 fc fd 3d db ec 26 be
       0.08715417 -0.3568898 0.124016926 -0.1630129
000090 5e 16 4e bd 4b b8 61 be 70 1f e0 bd 6f 47 38 bd
       -0.0503143 -0.22042958 -0.10943496 -0.04499
0000a0 24 40 7c 3d 24 ca 36 3d e0 32 94 bd bf cd 46 3d
       0.061584607 0.04462637 -0.07236266 0.04853606
0000b0 74 e9 12 3e dd 18 1a be b7 01 0f bd 52 04 e3 bd
       0.14346868 -0.15048547 -0.034913745 -0.110848084
0000c0 fe 8e 20 3d ba 37 4d 3d 5c 71 d1 3c 97 b0 4b bd
       0.039198868 0.050101973 0.02556675 -0.049728956
0000d0 8a 46 c6 3b 70 1d bc 3d de d6 bd bd bd ed 2b 3e
       0.0060508894 0.09185302 -0.09269498 0.16789909
0000e0 dc ad 0e 3d b6 1e 74 bd 63 b8 12 3d bc de c9 3d
       0.034833774 -0.0595996 0.035820376 0.09856936
0000f0 4f 7b b9 be 85 20 47 3d 3c 5c dd bd e6 51 7d be
       -0.3622689 0.048614997 -0.10808608 -0.24738273
000100 ac 19 c1 bd 5e 77 97 bd d8 c8 9e 3c 0e 4e d1 bd
       -0.09428725 -0.07395814 0.01938288 -0.10219966
000110 3c dd 60 3d 48 14 00 3d 34 b6 94 bd ea 5c c1 bd
       0.054898486 0.03126934 -0.07261315 -0.0944155
000120 99 bd 78 be 66 dc bc 3d 0c 5b 89 3d 7e 2e c5 bd
       -0.24291076 0.09221725 0.06706819 -0.09628008
000130 b0 ef 87 bc 24 cd 04 bd 40 04 06 3d 00 9b 3f ba
       -0.016593784 -0.0324222 0.032718897 -0.00073091686
000140 f6 24 82 bd 4c 44 7e 3d 08 3b 7b bd 4c 4d 70 bd
       -0.06354706 0.06207685 -0.061335593 -0.058667466
000150 aa c0 0a bd 78 6d ff 3d 06 ec fd bd 48 52 98 3c
       -0.033875145 0.124720514 -0.123985335 0.018593922
000160 90 db d1 bc 90 ac 36 bc ea c0 a4 bd ee a4 a1 3d
       -0.02561739 -0.011149541 -0.08044608 0.07892786
000170 88 68 c7 bc c8 82 f1 bd c0 16 a9 bd 2c 1c f1 3d
       -0.024341837 -0.11792523 -0.08256292 0.117729515
000180 08 2e d8 bc bb 63 ad bd e8 97 f6 bd a6 7c c5 3d
       -0.026389137 -0.08466288 -0.120406926 0.096429154
000190 cf b9 ae bd c8 ee 64 3d 22 fc f8 3d ec e9 71 bd
       -0.08531534 0.055891782 0.121574655 -0.059060976
0001a0 c0 8a 67 3c e0 a8 cc 3d 8c 6f 7f 3d ee 0e db bd
       0.014132202 0.09993148 0.06236224 -0.10696207
0001b0 90 e5 59 3c bf 4e da be d6 3d 21 be 86 a3 d5 bd
       0.013299361 -0.42638204 -0.15746245 -0.1043158
0001c0 f0 8a 3e bc d8 0d 92 bc d8 5f b9 bc 1c bc 82 bd
       -0.011629805 -0.017828867 -0.02262871 -0.06383535
0001d0 00 24 6b 39 f8 19 f4 bd 48 dc ae be ba 74 d4 bb
       0.00022424757 -0.11919016 -0.34152436 -0.0064836415
0001e0 f0 bf ae bd 2c 36 47 bd f8 4f 29 bd e0 f7 43 3c
       -0.08532703 -0.048635647 -0.04133603 0.0119609535
0001f0 40 42 e9 bd 30 4d f6 bc e8 d8 80 3d 70 4f bb 3c
       -0.11389589 -0.030066103 0.062913716 0.022865027
000200 40 ac 19 3e d8 f6 d0 3d 33 2b 93 be 99 54 99 be
       0.15007114 0.10203332 -0.28743896 -0.29947355
000210 d2 9f 93 bd f2 a1 9d 3d 50 40 84 be 20 ba 7a bc
       -0.07208218 0.07696904 -0.25830317 -0.015303165
000220 dc f6 09 3d 10 61 8d bc 68 04 3e be a0 fb 4d 3d
       0.03368269 -0.017258197 -0.18556368 0.050288796
000230 08 30 22 3d fc 6a d8 bd ee da 9d bd dc a3 90 bd
       0.039596587 -0.10567281 -0.07707773 -0.07062504
000240 82 e3 d8 bd cc 8e 8b 3d f2 b0 98 bd 50 06 75 3c
       -0.10590269 0.06814346 -0.07455625 0.014955118
000250 eb a4 00 be a2 08 e4 3d b8 9c ec bd 98 81 86 be
       -0.12562911 0.11134459 -0.11553329 -0.26270747
000260 9b de aa 3e c4 d2 32 3d 78 fc af 3d 28 50 f4 bd
       0.3337296 0.043658033 0.085930765 -0.11929351
000270 34 81 5d 3d 6c f0 5b bd 3b fc 71 be 14 22 d8 bd
       0.054078296 -0.05369608 -0.23631375 -0.10553375
000280 12 f5 9e bd 62 43 ce bd 00 e3 e6 bc 6f c4 76 be
       -0.07761587 -0.10071446 -0.028184414 -0.24098371
000290 80 e8 91 3b 98 33 71 bd 20 20 4c 3d f1 04 0f be
       0.004452765 -0.058887094 0.049835324 -0.13966729
0002a0 aa fb b9 3d e0 b0 2b 3c d2 4e a1 3d 3e 6b 92 be
       0.09081204 0.010479182 0.07876362 -0.28597444
0002b0 fc 2e 81 bd 7c 17 99 bd 0e 29 cb be 60 43 64 3d
       -0.0630779 -0.074751824 -0.3967976 0.055728316
0002c0 aa a0 b6 be b6 e8 9a bd 78 0d a2 3c 02 c0 85 bd
       -0.35669452 -0.07563917 0.019781813 -0.06530763
0002d0 be 12 a9 bd c6 d1 d7 bd d8 ce 96 be 2c 50 3b 3d
       -0.08255528 -0.10538058 -0.29454684 0.045730755
0002e0 38 47 db 3c b1 60 01 bf a0 ec 31 be b8 5b 92 3c
       0.026767358 -0.50538164 -0.17375422 0.017866
0002f0 8c ea 4d 3d 68 0d 99 bc 70 06 cf bc 2f 14 a5 be
       0.05027251 -0.01868315 -0.025271624 -0.3224196
000300 80 5e bc bd 1e 98 e0 3d b3 b1 1a 3c 6f 8a e1 be
       -0.09197712 0.10966514 0.009441781 -0.4405093
000310 ae 77 ad 3d d6 52 f8 bd 46 55 cc 3e 3f 20 89 be
       0.08470093 -0.12125175 0.39908808 -0.26782414
000320 34 bf 01 3e 1a 1a d9 bd 20 b7 ac 3b 6e eb c5 bd
       0.12670594 -0.106006816 0.0052708536 -0.09664045
000330 48 6e f3 bd af b4 97 bc 7e 04 f2 3d b8 1a c5 3c
       -0.11886269 -0.018518774 0.11817263 0.024060592
000340 7a df 84 be 51 20 02 bd b5 d1 93 be 13 99 a5 bd
       -0.2595175 -0.0317691 -0.2887093 -0.08085837
000350 f8 17 a7 be 62 7a 95 be e8 1f c4 bd 6a 20 db bd
       -0.32635474 -0.29194933 -0.09576398 -0.10699542
000360 00 f8 fe bd 7c ec 68 bd 10 c7 d7 bc 08 fb 16 bd
       -0.12449646 -0.056866154 -0.026340038 -0.036860496
000370 18 7d 82 3d 8a da cd bd 37 f9 8e be 31 c8 bf 3a
       0.06371516 -0.10051449 -0.2792451 0.0014631805
000380 04 65 e9 3d 42 b9 a5 bd 86 9a 80 bd 38 3b 8d 3c
       0.1139622 -0.08091976 -0.06279473 0.017240152
000390 e2 4e 6c be 6c d1 c2 bd 7c f3 c7 3d a9 e8 49 be
       -0.23076966 -0.095126 0.09763238 -0.19717659
0003a0 68 80 be be 00 f1 50 bd 80 f6 91 bd 1e 38 94 bd
       -0.3720734 -0.051011086 -0.07127094 -0.07237266
0003b0 a4 d2 3d 3d 2a 66 dd bc f0 f5 52 be 0c 6e 9e be
       0.04634346 -0.027026255 -0.2060163 -0.30943334
0003c0 b0 5f 65 bc 51 e0 31 bd d5 36 d9 bd 3a b1 7d bd
       -0.013999864 -0.043426815 -0.106061615 -0.061936595
0003d0 e0 20 25 bd d8 a3 c0 bd 46 b6 08 bf e7 cb c1 3e
       -0.040314555 -0.09406251 -0.5340313 0.37850878
0003e0 bc 5c 9c bd 80 31 db 3c 68 45 8e bd 88 24 ab 3d
       -0.07634875 0.026757002 -0.06946832 0.08356577
0003f0 14 4c bf 3d 3a b7 d3 3d 9b 53 40 be 37 f3 44 be
       0.093406826 0.10337682 -0.18781893 -0.19233404

_mlp.2.bias f4 [64]
000000 31 4b 5d be 63 45 de bd e6 64 94 be dc 9d 8c be
       -0.21610714 -0.10853078 -0.2898323 -0.27464187
000010 36 86 c7 be d5 0e 9c be 52 e9 9c be f2 72 96 be
       -0.38969582 -0.30480066 -0.3064676 -0.2938457
000020 b1 d1 1a be ff 77 c6 be 4e 49 8b be 4d 0f 04 bf
       -0.15119053 -0.38763425 -0.27204365 -0.5158585
000030 8e f8 ef be e9 45 9a bf ec 2f 66 bf dd 43 03 bf
       -0.4686932 -1.2052585 -0.8991687 -0.51275426
000040 2c 1b f4 be 2d 7b ba be c4 94 db bd 5b 3f c8 be
       -0.4767698 -0.364221 -0.10721734 -0.39110836
000050 6b 56 05 bf 54 0f 40 be 55 f0 86 be 3e 52 a3 be
       -0.5208499 -0.18755847 -0.26355234 -0.31898683
000060 e6 1a 0b bf 80 04 d0 be 6c 98 c3 be eb c5 01 bf
       -0.5433792 -0.40628433 -0.38202226 -0.50692624
000070 89 ee a8 be 17 16 d8 be fe 14 54 bf 25 f8 a9 be
       -0.32994488 -0.42204353 -0.8284453 -0.33197132
000080 dd 30 88 bf 33 ec c5 bd 82 dc 24 bf e3 b0 91 be
       -1.0639912 -0.09664192 -0.6439897 -0.28455266
000090 68 fd 4a be af 3e d3 be 37 96 76 be 99 ee b6 be
       -0.1982323 -0.4125876 -0.2408074 -0.3572891
0000a0 d7 2c a5 be 11 21 8e bf 09 38 77 be 24 0c 3b bf
       -0.32260773 -1.1103841 -0.2414247 -0.730654
0000b0 09 a6 9c be 90 01 24 bf 96 aa e9 be e1 86 7b bf
       -0.30595425 -0.64064884 -0.4563796 -0.98252684
0000c0 ad 45 21 bf 8b ad fe be 85 13 aa be de 73 a2 be
       -0.6299694 -0.49741778 -0.33218017 -0.31729025
0000d0 4c 11 b1 bb 4d cc 38 bf b8 fd b1 be 52 6a aa bd
       -0.0054036733 -0.7218674 -0.34763885 -0.0832106
0000e0 c1 60 bb be 6a 9b de be 34 ce 73 bf fd a5 aa be
       -0.36597255 -0.43477947 -0.95236516 -0.33329764
0000f0 8f e9 dc be 66 45 cc 3c e8 98 59 be a6 2a a6 be
       -0.4314694 0.024935436 -0.21249735 -0.32454413

_mlp.4.weight f4 [64, 64]
000000 4e ce 0c 3d b4 fc 60 3d c8 53 cb bc 58 fa e3 3d
       0.034376435 0.054928496 -0.024820223 0.11131734
000010 ff 15 92 be 96 a4 38 bd 8b 14 65 bd 93 5b cf bd
       -0.28532407 -0.045078836 -0.055927794 -0.10124888
000020 2b 74 9b bd 8c b5 47 bd dc d7 e4 bd 33 32 81 bd
       -0.07590517 -0.04875712 -0.111739844 -0.06308403
000030 95 99 44 bd ba f5 8e bd b0 a9 39 be 3c 8e 9b 3d
       -0.04799803 -0.06980462 -0.18131137 0.075954884
000040 21 fa af 3b 98 bc ca bd e6 75 ee 3d 47 78 3d 3c
       0.005370394 -0.09899253 0.11643581 0.011564321
000050 c9 f9 85 be 0a d6 65 3c a8 64 9b bd 64 7d 05 bd
       -0.26167133 0.014028082 -0.07587558 -0.032590285
000060 9f 6f 5c be 83 9d ad bc b9 aa 1c bd 20 90 0a 3e
       -0.21526955 -0.021193272 -0.03824875 0.13531542
000070 76 ad d9 3d 9c 62 32 3d 38 98 22 3c a3 b7 ff bc
       0.10628788 0.043551072 0.009923987 -0.031215494
000080 fd 40 ff bd 46 4a a2 39 e2 89 95 be c2 0a b9 3c
       -0.124635674 0.00030954386 -0.2920676 0.022588138
000090 11 73 f5 bd 5d d6 31 3d 31 b9 cb bc 6f 3e 38 bd
       -0.11984838 0.043417323 -0.02486858 -0.044981416
0000a0 d0 02 f8 3d c4 0d 31 be 4b f4 a7 bc 4e eb 01 be
       0.121099114 -0.17290407 -0.02050223 -0.12687418
0000b0 50 c9 8e bd d3 ab e8 bd 50 ab 3f bd eb 2e 37 be
       -0.06971991 -0.11360898 -0.046794236 -0.17888992
0000c0 60 92 67 3d 94 e1 07 3d c0 77 2c bb ab ec 5d 3e
       0.05653608 0.033174112 -0.0026316494 0.21672313
0000d0 fd 76 0a bc 59 5e ab bd 54 3b 86 3d d6 a9 a7 3d
       -0.008451221 -0.08367605 0.06554285 0.081866905
0000e0 27 9f 2b 3c 8b 33 3e be 3d f5 27 be ab b6 86 be
       0.010474957 -0.1857435 -0.16402145 -0.2631124
0000f0 f6 ed ac 3d 42 09 12 be 74 39 ac bb e5 01 99 bd
       0.08443825 -0.14261344 -0.0052558724 -0.074710645
000100 f4 3c 46 be a6 c3 f7 bd 58 12 b5 3d 26 8d 2d bd
       -0.1935919 -0.12097864 0.088413894 -0.042370938
000110 d5 c0 a1 be 4e 01 0b be 0f a5 33 be 77 57 8a bd
       -0.31592432 -0.13574716 -0.17543434 -0.06754964
000120 82 ce 80 bd b4 93 a1 3d d4 95 3e 3e b5 38 14 3c
       -0.06289388 0.078895 0.18611842 0.009046723
000130 27 df c4 bd 96 06 0b be ab e2 88 bd af f1 ec 3d
       -0.096128754 -0.13576731 -0.066838585 0.11569535
000140 cf 3e 0d be aa 3f bc 3d db 92 bd 3d 4f e3 0b 3e
       -0.13793491 0.091918305 0.09256526 0.1366093
000150 b8 b2 25 3d b5 31 c2 bd 1c 0a 50 be a9 15 e6 3d
       0.040453643 -0.09482137 -0.20316356 0.112346
000160 a8 10 0a 3d 6d e8 03 be 7b 71 f5 3d 77 7e f1 3d
       0.03370729 -0.12881632 0.11984535 0.117916994
000170 aa 07 06 bd 1c 1f 5d be 5b b2 05 be 34 36 b5 bd
       -0.032722153 -0.21593899 -0.13056318 -0.08848229
000180 aa 04 d9 bd 50 77 fe bd b3 43 de bd 38 cb b1 3d
       -0.10596593 -0.12425101 -0.10852756 0.08681339
000190 a8 d0 6d 3d ee 0d 1b 3d 78 74 e0 bd 52 57 e9 bd
       0.05806032 0.03785508 -0.10959715 -0.11393608
0001a0 40 9f bc 3b 4c 09 1f bd f8 0c b9 3c e7 9d 42 be
       0.0057562888 -0.038827226 0.022589192 -0.19005547
0001b0 3d 35 87 bb 27 a3 eb bd 5e 13 8d be 82 a6 1f bd
       -0.0041262195 -0.11505728 -0.27553838 -0.038977154
0001c0 42 36 98 be 7b 62 40 be cc 62 f6 bd d9 4a e0 bc
       -0.29728895 -0.18787567 -0.12030563 -0.02737944
0001d0 3a f8 43 bd 68 ce 3f bd 05 8b e7 bd be 41 dc 3d
       -0.04784415 -0.046827704 -0.11305813 0.10754727
0001e0 54 d2 6f bd 10 a8 8f bd 78 d7 6e 3d 7b 02 99 3d
       -0.058550194 -0.07014477 0.058310956 0.07471176
0001f0 40 88 c4 3d 19 74 f7 bd 79 44 d5 3d c1 02 12 bd
       0.095963 -0.12082691 0.10413451 -0.035647158
000200 23 16 77 3e 3a 20 9b bd 7c 42 ce 3d 20 97 44 bd
       0.24129538 -0.07574506 0.10071275 -0.047995687
000210 91 ef 9a 3d 43 83 02 3e 16 dd 3b 3c fb 30 da be
       0.07565225 0.12745385 0.011466285 -0.42615494
000220 cc 28 dd 3d 89 99 75 3d ec 03 2c 3d 56 bd 30 be
       0.10798797 0.059960876 0.041995928 -0.17259726
000230 f4 0f 53 be 07 b2 11 be 07 46 25 be 7c 5e f5 3d
       -0.20611554 -0.14228068 -0.16139995 0.11980912
000240 ac d5 97 bd b4 6d 77 bd 7c df d3 3d 56 7c 24 3d
       -0.074138016 -0.060407355 0.10345361 0.04015764
000250 ec 82 e4 bd b4 f3 ec 3d 54 cb 9a 3e 38 2d c8 bc
       -0.11157784 0.1156992 0.30233252 -0.024435624
000260 c1 d5 12 be 02 a2 2f be 08 6c 03 bd ae d2 fd 3d
       -0.14339353 -0.17151645 -0.03208545 0.123936996
000270 74 c1 78 3d 3f a4 a1 3e 53 a2 86 bd 0c e9 ca bd
       0.060731366 0.31570622 -0.0657393 -0.099077314
000280 a4 bd ee 3c 47 d7 a0 3e 0b 41 f3 bd c6 bc 5b bd
       0.029143162 0.31414244 -0.1187764 -0.053646825
000290 e4 0a 62 3d 65 5c 6c 3d 06 c6 ac be 6d 50 11 3e
       0.055186167 0.0577053 -0.3374483 0.14190836
0002a0 48 d6 79 bd 53 d9 f2 3c 26 46 bb bd 45 b7 d9 bd
       -0.06099537 0.029644644 -0.09144239 -0.10630659
0002b0 dc f4 28 bd 8d 02 0b be 60 f3 a3 bc a7 d8 52 3c
       -0.04124914 -0.13575192 -0.020013511 0.012869037
0002c0 e0 30 e1 bd fe ac ab 3d 74 b3 e6 bd 00 fa 27 3b
       -0.1099565 0.08382605 -0.11264697 0.002563119
0002d0 f0 9b dc bd 9c 8a 85 bd 32 01 99 3d ec 77 af bd
       -0.1077193 -0.06520578 0.07470931 -0.08567795
0002e0 be 11 cd 3d 33 2f 9a bd 5a f5 60 bd bb 85 4a bd
       0.1001315 -0.07528534 -0.054921485 -0.04944394
0002f0 1a 1d 19 be ef c2 42 be a8 74 f5 be f8 8d ed bd
       -0.14952508 -0.19019674 -0.47940564 -0.11599344
000300 77 e4 34 be 08 ba ee 3c 40 75 9d bc 7c c8 d1 3d
       -0.17665277 0.029141441 -0.019220948 0.102433175
000310 6c e3 0f bd 5b bd 14 bd 35 b4 81 3c f4 68 30 be
       -0.035128996 -0.036313396 0.015833 -0.17227536
000320 08 93 b1 3d 09 33 47 3c 8c e9 91 bd 44 a9 9a be
       0.08670622 0.012158164 -0.07124624 -0.30207264
000330 9c 34 a8 be 41 30 64 be ae aa e4 be 46 3e ab 3d
       -0.32852638 -0.22284032 -0.44661468 0.08361487
000340 62 b3 5c bd 2e 83 a2 3c d8 13 04 bd 6b 97 e2 bc
       -0.05388201 0.019837942 -0.032245487 -0.027660092
000350 0d 4c 79 be 92 bd 06 be 2c 61 ad bd 37 6b 8f 3e
       -0.24345417 -0.13158253 -0.084658 0.28011486
000360 00 c7 5d bd fc d7 85 bd 3a ad 87 bd ba 97 b0 3d
       -0.05414486 -0.065353364 -0.06624837 0.086226895
000370 60 64 55 3d e5 06 03 bc e7 90 c2 be 65 0a 73 bc
       0.05209768 -0.007997249 -0.38001177 -0.014834021
000380 96 69 ef be 69 b4 bf bc 41 85 a3 be 8d 1c 2b be
       -0.46760243 -0.023401456 -0.31937602 -0.1671011
000390 db 75 0a bd 1e c5 f5 bd 3a 68 13 be 74 da 4f 3d
       -0.033803802 -0.12000488 -0.14395228 0.050745443
0003a0 a0 9e a0 bc b6 0f 4b be 0d bc 80 3d 9d fe 93 be
       -0.019606888 -0.19830212 0.06285868 -0.28905192
0003b0 34 1a ee bd e8 6e c2 be 48 50 5c bd 10 13 08 be
       -0.116260916 -0.3797524 -0.0537875 -0.13288522
0003c0 f0 a5 7c bd 96 be a4 bd 98 3a 8f 3d dc 6d e5 3d
       -0.061681688 -0.08044164 0.06993598 0.11202595
0003d0 39 e3 a2 be de 6e 6f 3d ba b6 96 bd 54 db 1d 3d
       -0.31813982 0.05845534 -0.07359071 0.038539246
0003e0 08 80 e7 bc 60 3d a9 bd 1b 96 8f be 40 ba 45 be
       -0.028259292 -0.082636595 -0.2804421 -0.1930933
0003f0 e0 fb 34 3d 27 96 09 be 5e 3c d6 3d 40 57 0b bc
       0.04418552 -0.13436185 0.10460733 -0.008504689

_mlp.4.bias f4 [64]
000000 f4 c2 a4 be ed 33 6f bc 95 a6 0e bd 4c f7 95 be
       -0.32179987 -0.014599782 -0.034826834 -0.29290235
000010 77 36 e0 bd 66 2f 80 be 65 29 fe bd 67 b7 9d be
       -0.10947888 -0.25036162 -0.12410239 -0.30803987
000020 e8 98 fe bd 43 7e 64 be bb 38 21 be 6d 7f 98 be
       -0.12431508 -0.2231379 -0.15744297 -0.29784718
000030 58 46 63 be c9 e1 91 be a6 42 7b bb 47 e4 6d bd
       -0.22194803 -0.28492573 -0.0038339286 -0.05807903
000040 51 04 09 be 46 2d 16 be 2d 24 97 be 1c e0 0a bd
       -0.13380553 -0.14665708 -0.29519787 -0.033905134
000050 60 ea eb bd ad 8c fe bd cd 65 4b be c4 1b b3 be
       -0.11519313 -0.124291755 -0.19863053 -0.3498212
000060 5a b8 ab be 37 c6 13 be ce 42 28 be dc e8 2c be
       -0.33539087 -0.14431082 -0.16431734 -0.16885704
000070 01 10 85 bd 5e de 03 be 0c 86 78 be e5 1a d9 be
       -0.06497193 -0.12877795 -0.24269885 -0.4240333
000080 3d 82 ac be 44 c6 96 be d3 41 8f be 96 2a b6 bc
       -0.33693114 -0.2944814 -0.27979907 -0.022237103
000090 27 37 53 be 32 a9 82 be 6b d7 17 be c3 8f 30 be
       -0.20626508 -0.2551971 -0.14828269 -0.1724234
0000a0 c5 57 b9 be e0 b4 b6 be 8a cb a8 be 96 c5 7b be
       -0.36199775 -0.35684872 -0.32967788 -0.24587092
0000b0 50 d4 c9 be 1c f9 c6 be da d0 85 be b6 05 60 be
       -0.39419794 -0.3886193 -0.26135904 -0.21877179
0000c0 1e 2c 5a bc 2d d6 c2 be 76 9c 88 bc ba c5 8c be
       -0.013316182 -0.38054028 -0.016676169 -0.27494603
0000d0 36 72 c5 be f3 ed 9d bd a8 8c 09 bb 5d 19 73 be
       -0.385637 -0.07711401 -0.0020988379 -0.23740144
0000e0 26 a4 4b 3e 1e 4e a3 be 61 98 32 be 89 7c e1 bd
       0.19886836 -0.31895536 -0.1744094 -0.11010081
0000f0 12 88 28 be 2b 9b f2 bd 76 e7 31 be 77 3d 31 bd
       -0.16458157 -0.11846002 -0.17373452 -0.043271508

_mlp.6.weight f4 [1, 64]
000000 01 a4 9b bc d4 3a 0e bd 02 78 40 be 54 d7 5d be
       -0.018999102 -0.03472407 -0.1879578 -0.21664172
000010 d8 45 2f bd 52 16 2a 3e 7d 23 44 be 69 d7 dc bd
       -0.042791218 0.16610077 -0.19154163 -0.10783274
000020 04 4b 4d bd cd 90 89 bd a1 40 31 bd 9f 09 ec 3d
       -0.05012037 -0.06717072 -0.043274526 0.115252726
000030 98 66 b4 3d bf 6c 3d bd eb c7 a6 bc 6a 11 14 3c
       0.08808631 -0.046246286 -0.020359 0.009037355
000040 4c 08 8b 3d 7b 92 1b bd 64 1b c3 3d 4c 33 19 bd
       0.06788692 -0.03798149 0.09526709 -0.037402436
000050 d1 96 46 bd 56 a6 2f 3c c8 dc 09 3e 86 33 21 be
       -0.048483673 0.01072081 0.13463128 -0.15742311
000060 05 1d f5 3d ab ed 79 3a 0b cb 4f 3e 14 6f 0e be
       0.11968426 0.00095340115 0.20292298 -0.1390956
000070 ad a4 3a bb 47 60 75 bd fc e6 86 3d 33 61 30 be
       -0.0028479502 -0.05990627 0.065870255 -0.17224579
000080 fc d9 d0 bd 7d 44 5d 3c 7e 88 69 be 97 20 ac 3c
       -0.10197827 0.013505098 -0.22805974 0.021011634
000090 02 e9 e1 bd 20 b8 ee bd bd de 55 bd 54 d6 49 3d
       -0.11030771 -0.11656213 -0.052214373 0.049276665
0000a0 b5 0d 1c be fa 87 ac 3e d9 e8 f5 bc 06 4d da bd
       -0.15239604 0.33697492 -0.030018257 -0.10659222
0000b0 67 d7 51 3e 5c 78 e8 bc 73 f1 02 bd b3 ea 4c bc
       0.20492326 -0.028377704 -0.031968545 -0.0125071285
0000c0 95 7b b1 bd 6f 70 d6 3d 4a 64 52 bc df 6f 91 bc
       -0.086661495 0.10470664 -0.012841294 -0.01775354
0000d0 a6 4a f1 3d 2b 0a 05 3e cb 1c 8d 3b 6f ea 14 bc
       0.11781816 0.1299216 0.004306411 -0.009089096
0000e0 13 ce 94 3e d6 a9 3b 3d f9 3f 3b bd d9 14 6a be
       0.29063472 0.045816265 -0.045715306 -0.22859515
0000f0 36 73 f5 bc 67 68 1c 3d 92 af d5 bc db 53 38 bd
       -0.029962163 0.038185503 -0.026084695 -0.045001846

exp_avg f4 [2, 1, 3, 3]
000000 bd fe 53 39 76 72 0b 39 a8 e8 f0 37 bf 66 7d 39
       0.00020217425 0.00013298713 2.8718569e-05 0.00024166236
000010 79 46 30 39 88 ae 04 38 9d 4e 3b 39 72 b7 0b 39
       0.00016810921 3.1633797e-05 0.00017862995 0.00013324412
000020 12 ba d2 37 1d ee 8a 3a d0 e4 9d ba 42 5d 9d 39
       2.5120597e-05 0.0010599528 -0.0012046341 0.00030014856
000030 14 a3 8b b9 c4 a1 c6 3a af 17 59 ba eb c6 5d 3a
       -0.0002663365 0.0015154411 -0.0008281422 0.0008460122
000040 b5 b9 11 3a f4 41 5f 39
       0.00055589835 0.00021291507

exp_avg_sq f4 [2, 1, 3, 3]
000000 9b 6d 6d 34 53 7a d1 33 9a 4f 6d 33 fc d5 04 35
       2.2112219e-07 9.7545716e-08 5.525326e-08 4.948522e-07
000010 fa 57 50 34 2f 06 4d 33 a5 a0 57 34 41 fb 94 33
       1.9403515e-07 4.7735906e-08 2.0081877e-07 6.93749e-08
000020 f9 53 90 33 49 dc 06 37 57 d2 da 37 ed 92 e3 36
       6.720797e-08 8.0383115e-06 2.6085572e-05 6.7822316e-06
000030 f2 2d 3b 37 23 bb 88 37 51 64 0c 37 cc f2 ed 36
       1.1156766e-05 1.6299606e-05 8.368007e-06 7.0914157e-06
000040 ed fd c1 36 be d4 cb 36
       5.781409e-06 6.074638e-06

exp_avg f4 [4, 1, 3, 3]
000000 05 69 fe b8 f0 30 81 b9 c6 8d 39 b9 cd b3 32 b8
       -0.00012131225 -0.0002464126 -0.0001769579 -4.260596e-05
000010 50 7b 1b b9 18 36 ed b8 90 1a 0a 38 19 e0 31 b8
       -0.0001482789 -0.000113111164 3.2926502e-05 -4.2408796e-05
000020 bc 56 0b b8 3d 61 16 38 19 9d 43 38 e2 cd 88 38
       -3.322096e-05 3.5853347e-05 4.663793e-05 6.523334e-05
000030 d0 dc 21 37 0f 2e 9b 37 fb ef 25 38 90 a8 5f b7
       9.64776e-06 1.8498888e-05 3.9562565e-05 -1.3331082e-05
000040 56 d1 d9 b6 3c b6 81 37 7a ac 0f ba 26 21 24 b9
       -6.491474e-06 1.5462858e-05 -0.0005480718 -0.00015652608
000050 bf 65 08 ba f9 fb 34 ba 05 19 97 ba 50 2c b6 b9
       -0.00052031496 -0.0006904002 -0.0011527842 -0.0003474676
000060 6b 3f c8 b9 de 7a 15 b9 5d cc 31 ba 15 47 ba b9
       -0.00038194223 -0.00014255519 -0.00067824667 -0.00035529645
000070 02 5d 8d 39 30 24 9b b9 e3 ef 23 3a bb 5e 1d b9
       0.00026962912 -0.00029590866 0.00062537024 -0.00015007977
000080 85 3a 30 3a d6 49 42 b8 99 2c 8a 36 37 83 d7 b8
       0.0006722587 -4.632197e-05 4.1179123e-06 -0.000102764396

exp_avg_sq f4 [4, 1, 3, 3]
000000 43 9e 20 34 bd 89 8c 34 c6 fb ed 33 76 4c e9 33
       1.4958736e-07 2.617725e-07 1.108197e-07 1.0863816e-07
000010 28 a8 bc 33 81 72 df 33 d9 a5 27 34 00 86 1e 34
       8.78502e-08 1.0405075e-07 1.5613422e-07 1.4763646e-07
000020 e6 6f 45 34 cd 73 d1 31 d0 e0 c6 31 b2 b0 32 32
       1.8387763e-07 6.0958656e-09 5.7881167e-09 1.04011395e-08
000030 7d 41 0f 31 7c 53 24 31 23 10 12 32 33 3e 8e 31
       2.0846465e-09 2.3912596e-09 8.501988e-09 4.139815e-09
000040 67 31 62 31 cf 5e da 31 39 9a 07 36 bd 09 8c 34
       3.291541e-09 6.3554135e-09 2.0206337e-06 2.6084118e-07
000050 36 03 37 36 df d2 5e 36 67 ba 21 37 84 48 41 35
       2.7270994e-06 3.320332e-06 9.639748e-06 7.2003627e-07
000060 27 09 e4 35 47 ab 6e 34 0d cb 35 36 20 29 3f 35
       1.6989987e-06 2.2227788e-07 2.7089293e-06 7.121289e-07
000070 9a f1 37 35 bc de 1a 35 b5 a7 02 36 be a5 8a 35
       6.852439e-07 5.769359e-07 1.9469128e-06 1.0330039e-06
000080 6c da 0d 36 81 5f 91 32 43 35 a5 32 11 42 ac 32
       2.1137776e-06 1.6923652e-08 1.9232749e-08 2.0053479e-08

exp_avg f4 [8, 1, 3, 3]
000000 05 a1 14 39 c2 cc 05 39 32 ea 42 32 f3 d3 e5 38
       0.00014174364 0.00012760147 1.1345536e-08 0.000109590495
000010 73 0e 09 39 16 9d 46 b7 56 d6 db 38 e9 84 1f 39
       0.00013070721 -1.1838294e-05 0.00010482657 0.00015212935
000020 99 66 74 38 d1 64 29 37 8c 2d 30 37 eb 8c 26 37
       5.8269685e-05 1.0096658e-05 1.0501022e-05 9.927181e-06
000030 51 ce a8 b6 72 03 cb b6 ad 26 d6 b6 61 d1 ce b7
       -5.0308086e-06 -6.0502725e-06 -6.3821994e-06 -2.4654613e-05
000040 0b 02 db b7 eb 5b d6 b7 d3 e3 39 37 9f 48 e3 37
       -2.6107786e-05 -2.555359e-05 1.1079904e-05 2.7094326e-05
000050 00 00 2a 38 31 95 60 37 38 84 f7 37 2f 88 3d 38
       4.053116e-05 1.3386177e-05 2.9506264e-05 4.5187942e-05
000060 46 08 b7 b7 ee 97 08 b7 de f4 16 37 84 c0 c7 35
       -2.1819153e-05 -8.141606e-06 8.997709e-06 1.4882685e-06
000070 a3 70 02 35 34 02 99 b3 32 17 03 37 af 9f 04 37
       4.859268e-07 -7.1250184e-08 7.813609e-06 7.904992e-06
000080 f2 57 e3 36 41 ca bf b6 13 42 aa b6 91 85 a9 b6
       6.7753654e-06 -5.715789e-06 -5.074087e-06 -5.0521417e-06
000090 f4 de 93 b8 18 3f 05 b7 97 05 4e 38 83 03 cd 39
       -7.0510345e-05 -7.942108e-06 4.9119433e-05 0.00039103263
0000a0 e5 87 22 b6 a8 bd c8 b9 87 ca 4e b8 f0 a3 53 38
       -2.4218982e-06 -0.00038288278 -4.9302846e-05 5.0459e-05
0000b0 b6 68 ae 38 45 1a ff 39 1a f2 12 b9 9e d1 96 b9
       8.3164705e-05 0.00048656962 -0.00014013835 -0.00028766406
0000c0 5d 73 be 39 fb 9c 39 39 34 cc 29 ba cc c6 18 3a
       0.00036325576 0.00017701455 -0.0006477267 0.0005827963
0000d0 a2 6e af 34 fe 11 13 b9 c2 d0 0f 39 b7 a8 55 b9
       3.2676786e-07 -0.00014025715 0.00013715311 -0.00020376114
0000e0 58 16 2f 39 17 88 2c b8 75 6c 39 39 40 3f cc b8
       0.00016697624 -4.113474e-05 0.00017683378 -9.739259e-05
0000f0 59 2d ca b7 45 b8 bd 38 b9 4e 09 b8 c1 ea 11 38
       -2.4101393e-05 9.046545e-05 -3.273666e-05 3.4789326e-05
000100 f2 b6 e3 b7 e2 b4 e2 37 3d c9 00 39 65 76 20 b9
       -2.71457e-05 2.702553e-05 0.00012281998 -0.00015302894
000110 3a c5 ea 38 06 2b fb b8 6f 92 8c 39 66 60 13 b9
       0.00011194726 -0.000119766264 0.00026811982 -0.00014054924

exp_avg_sq f4 [8, 1, 3, 3]
000000 58 2d 5a 34 4a 0d 79 34 bd 44 91 32 51 9e 57 34
       2.0319328e-07 2.3194767e-07 1.691148e-08 2.008103e-07
000010 ff 73 5b 34 44 c9 06 33 fa 70 4c 34 70 90 37 34
       2.0438164e-07 3.1382356e-08 1.9040081e-07 1.7095749e-07
000020 91 ff 88 32 a3 c3 1b 32 34 d7 21 32 39 47 1e 32
       1.5948702e-08 9.06667e-09 9.420365e-09 9.213005e-09
000030 c4 92 b8 30 c3 8c bc 30 a2 8d af 30 ee 9e 03 32
       1.3429475e-09 1.3718807e-09 1.277318e-09 7.66134e-09
000040 e9 94 0d 32 80 5f 08 32 ec 5e 64 30 85 3b 16 31
       8.241138e-09 7.937956e-09 8.308081e-10 2.1861706e-09
000050 ec 7e 94 31 49 b2 1f 31 29 71 47 31 54 28 ab 31
       4.3217963e-09 2.3238889e-09 2.9022635e-09 4.98134e-09
000060 55 21 9e 30 df 1c 6b 30 3e fb 0b 31 f5 7f be 2f
       1.1505487e-09 8.553353e-10 2.0369977e-09 3.4651718e-10
000070 c5 6a f3 2f 98 fe 07 30 15 44 d7 31 dc 4c d7 31
       4.4277307e-10 4.9474513e-10 6.2650636e-09 6.2660614e-09
000080 5d 72 b4 31 e2 d0 c5 2f fe fe d5 2f ee fe a1 2f
       5.251691e-09 3.5982511e-10 3.8925657e-10 2.9466868e-10
000090 1f 6d d1 33 43 3b 94 33 eb 0e 87 33 37 15 9c 35
       9.75217e-08 6.902567e-08 6.289141e-08 1.162908e-06
0000a0 14 d6 a3 33 58 52 b1 35 ae db b4 33 fe c4 3d 33
       7.6292196e-08 1.3211493e-06 8.421863e-08 4.4184155e-08
0000b0 8f c7 6e 33 bd 9a 63 36 d2 a9 fb 34 f0 2d 51 35
       5.559519e-08 3.3915705e-06 4.6875954e-07 7.7925415e-07
0000c0 92 b3 0a 36 b2 f2 82 35 44 47 50 36 93 74 52 36
       2.0668126e-06 9.756388e-07 3.1035897e-06 3.1360294e-06
0000d0 67 1a 24 35 6b 25 6f 35 81 85 0c 34 82 11 c0 34
       6.113318e-07 8.908889e-07 1.3087084e-07 3.5775525e-07
0000e0 8e ac 68 34 13 ba 27 33 5c 76 3c 34 67 01 c4 33
       2.1669459e-07 3.905195e-08 1.7551923e-07 9.127216e-08
0000f0 e8 3c 08 33 4f 2d ce 33 99 82 17 33 4f 1d c7 32
       3.172036e-08 9.600864e-08 3.5276205e-08 2.3179977e-08
000100 d1 05 33 33 46 5a b1 32 b1 67 bc 33 68 f6 44 34
       4.1681975e-08 2.0646564e-08 8.7732936e-08 1.8343565e-07
000110 0e c0 ab 33 a6 e0 38 34 1e 51 01 35 07 c3 58 34
       7.9977426e-08 1.7218062e-07 4.8174286e-07 2.0187518e-07

exp_avg f4 [16, 1, 3, 3]
000000 eb 7c d8 b7 bd 03 df b7 13 be d7 b7 1d 33 0c b8
       -2.5807376e-05 -2.6585412e-05 -2.5718507e-05 -3.3426204e-05
000010 af b1 0e b8 9c 32 08 b8 3b 62 f9 b7 67 c8 fb b7
       -3.402092e-05 -3.247206e-05 -2.9728855e-05 -3.0014851e-05
000020 36 23 ef b7 b4 7c 0b b9 77 0c 3e b7 55 f8 17 39
       -2.8507417e-05 -0.00013302529 -1.1327785e-05 0.00014492993
000030 24 1a 0c b9 87 6e 49 37 d2 b4 59 39 91 f8 cf b8
       -0.00013361179 1.2006268e-05 0.00020762093 -9.916828e-05
000040 f9 4a ef 36 40 39 2a 39 e5 4b a2 b6 55 17 a7 b6
       7.131483e-06 0.0001623379 -4.8368115e-06 -4.979704e-06
000050 7a fb ab b6 07 a5 04 b4 6e f2 04 b5 25 c4 5b b5
       -5.125473e-06 -1.2353495e-07 -4.9526614e-07 -8.1869285e-07
000060 98 be c1 36 4c d6 bd 36 6a 1c ba 36 f5 45 f8 36
       5.7740363e-06 5.6575864e-06 5.54654e-06 7.39912e-06
000070 dc 5a ff 36 21 5b fe 36 42 23 3f b6 a3 03 3a b6
       7.6101696e-06 7.5803987e-06 -2.848174e-06 -2.7718277e-06
000080 7f 54 2e b6 10 eb 13 35 fe dc 3a 35 3f e5 58 35
       -2.5977204e-06 5.510383e-07 6.9611986e-07 8.079987e-07
000090 f8 58 80 b5 14 3b bd b5 b1 e4 48 b6 99 62 a1 36
       -9.562636e-07 -1.4098791e-06 -2.9935438e-06 4.809652e-06
0000a0 71 4e ba 36 22 08 9c 36 05 fd 46 b4 ab 4a a1 35
       5.5523637e-06 4.650109e-06 -1.8532235e-07 1.2017166e-06
0000b0 a8 34 d1 35 18 af 5e 36 53 d4 bc 34 42 71 2c 33
       1.5587038e-06 3.3182496e-06 3.5172215e-07 4.0149878e-08
0000c0 cc f0 11 b7 9d b4 43 b7 09 11 45 b7 b9 e9 3e b7
       -8.698738e-06 -1.1664958e-05 -1.1746081e-05 -1.13793e-05
0000d0 c2 6e 72 b7 47 2a 70 b7 5c 4a 93 b5 da 1d 16 b5
       -1.4450112e-05 -1.4314958e-05 -1.0973995e-06 -5.5922794e-07
0000e0 7a 3b fb 33 fb 19 e1 b6 ac 87 f4 b6 65 89 ea b6
       1.1698917e-07 -6.708547e-06 -7.287561e-06 -6.9897383e-06
0000f0 36 f2 4d 36 e9 db 2c 36 87 9e f6 35 68 b9 72 34
       3.0688366e-06 2.5758002e-06 1.8374566e-06 2.2605457e-07
000100 4e 71 1d 35 82 24 9b 34 34 0b 92 36 72 da b9 36
       5.865194e-07 2.8897563e-07 4.3524433e-06 5.53886e-06
000110 54 1a c4 36 a6 a6 77 b6 21 dd 4a b6 62 e0 07 b6
       5.84432e-06 -3.690287e-06 -3.022906e-06 -2.0247176e-06
000120 01 7f 07 b9 ba 62 1f 38 e6 40 2e 39 3f 01 73 38
       -0.00012921916 3.80005e-05 0.0001661811 5.7936875e-05
000130 a3 46 b3 b7 2c 9f 04 b8 41 4f 3c b9 f5 1e bb 36
       -2.1371356e-05 -3.1619493e-05 -0.00017958602 5.576638e-06
000140 98 9a 10 39 00 1d 00 b9 53 02 62 37 44 af 10 39
       0.00013790501 -0.00012217835 1.3471191e-05 0.00013798202
000150 e3 27 17 38 0d 0e bc 38 dd 3a d1 b4 a1 33 33 b9
       3.6038353e-05 8.967156e-05 -3.8972112e-07 -0.00017090004
000160 86 4d 4f b8 9d 26 f3 38 cf 73 cf 38 d2 cb da b8
       -4.9424845e-05 0.00011594335 9.8921e-05 -0.000104330145
000170 79 bb 1e 38 60 1f 83 b8 f3 50 cf 38 7e b9 9e b8
       3.7844733e-05 -6.252411e-05 9.885607e-05 -7.568578e-05
000180 1d 62 d4 38 81 45 be b8 1f 6f be 37 bd fa a8 b9
       0.00010127223 -9.072852e-05 2.270151e-05 -0.00032230272
000190 c5 1b ac b9 dd 46 69 b9 df 7f b6 b9 e3 52 d7 b9
       -0.00032827086 -0.0002224701 -0.00034809017 -0.0004106975
0001a0 1f 2a a9 b9 c8 d2 88 b9 8f 82 ba b9 11 34 a8 b9
       -0.00032265575 -0.00026096986 -0.00035573958 -0.0003208225
0001b0 e3 de 3d 38 60 b7 4d b8 eb 95 31 38 aa 2c ba b7
       4.526869e-05 -4.904659e-05 4.233971e-05 -2.2193726e-05
0001c0 e8 3e e5 37 23 ca d0 b7 f0 76 97 b7 81 09 92 37
       2.732822e-05 -2.488966e-05 -1.8055987e-05 1.7408982e-05
0001d0 79 fb 73 b7 7b da 85 b8 bd 42 97 38 7c 7c 84 b8
       -1.4542479e-05 -6.382629e-05 7.212672e-05 -6.3174375e-05
0001e0 49 32 5e 38 2c d3 87 b8 91 11 86 38 2d b1 95 37
       5.2975756e-05 -6.4766355e-05 6.39289e-05 1.7844688e-05
0001f0 9b 13 70 b7 3b 26 1b 37 b1 a7 6e b6 84 e8 a2 36
       -1.43096795e-05 9.247621e-06 -3.5562373e-06 4.8550446e-06
000200 cb cf b1 b6 09 45 63 b8 7c 87 7a 38 c2 f5 59 b8
       -5.2992013e-06 -5.418531e-05 5.9730824e-05 -5.196571e-05
000210 c5 7e 7c 38 d8 ec 92 b8 a6 b3 8b 38 c4 97 55 b8
       6.0199545e-05 -7.005938e-05 6.6614986e-05 -5.09245e-05
000220 79 e1 6c 38 fc 9a 4f b8 f3 3a 22 38 30 49 3c b8
       5.6476772e-05 -4.9496986e-05 3.867871e-05 -4.4890854e-05
000230 4e 65 2e 38 0a e7 9a 36 1c 89 d9 b6 b5 2d ca 36
       4.157918e-05 4.616454e-06 -6.4830656e-06 6.02539e-06
