Experiments/Experiments-007/checkpoints/model.pt (torch, 60087 bytes, 21 tensors)

cp.convs.0.weight f4 [2, 1, 3, 3]
00000000: cfa1 c4bb 2d4f 63be 6c9d 75be 7a41 06be
00000010: a9ad 083e c14c 4bbd 0ee4 72be a918 3bbe
00000020: 16bb 44be 1e6b 2cbe 72bc 3dbe be36 42be
00000030: 6292 1cbe 8003 6abc cc46 913d 05cb 36bd
00000040: 3e5b 4bbe b371 7ebe
-0.0060007344 -0.22198172 -0.23985833 -0.13110915 0.13347496 -0.049633745 -0.23719808 -0.18271126
-0.19211993 -0.16837737 -0.18528917 -0.18966195 -0.15290216 -0.014283061 0.070935816 -0.04462721
-0.19859025 -0.2484806

cp.convs.1.weight f4 [4, 1, 3, 3]
00000000: bfe0 333e f998 ba3d 9bd1 403e 08e3 173e
00000010: 02aa 3e3d 9086 2d3e 65f4 b03d 7c42 693e
00000020: efef 64be a78d 6bbe a1d7 b13d d47e 05be
00000030: 1b78 bdbd 489e bb3d 6c12 7bbe 36ad 01be
00000040: 3067 a2bd 3509 01be 960b bd3d 94ef 553d
00000050: 7640 843e 5180 653e e5cd a83d a26f 063d
00000060: 9958 30be daf5 9e3e efe2 013c 19ba 62bd
00000070: b8ef f3bd e819 02bd 36a2 18be 9aa6 373e
00000080: 251e 9dbe df85 50be a059 38bd a43e 16be
0.17566203 0.091112085 0.18829958 0.148327 0.04654885 0.16945863 0.086403646 0.22779268
-0.22357152 -0.23003255 0.08683706 -0.13036662 -0.09251424 0.09161049 -0.24518746 -0.12663731
-0.07929838 -0.12601168 0.092307255 0.052230433 0.2583043 0.2241223 0.08242396 0.032821305
-0.17221297 0.31046945 0.00792764 -0.055353258 -0.11910957 -0.031762987 -0.14905629 0.17934647
-0.3068706 -0.20363568 -0.045007348 -0.14672333

cp.convs.2.weight f4 [8, 1, 3, 3]
00000000: 1830 5cbd 9654 7e3e 9446 353e 81aa afbd
00000010: ca20 863e 9d20 e63c e2b9 813d d835 db3c
00000020: ba78 873e 3738 a1be 3392 a4be 9df5 063e
00000030: 7121 8cbe 0387 483e cdaf 3bbe 43cc a13c
00000040: c88d 61be 4cf3 29bd a850 b1be 2c57 183e
00000050: 5d93 9d3d 36bf 95be cd8c 1abe 25ca c8bd
00000060: a462 4a3c 4849 97be a5a1 25be 15cc 7f3e
00000070: 1a34 d9bc 3edf 09be 2247 4bbe 4abb a33d
00000080: 2dd0 a43e 995a 5d3e 704c 973e 716b 873e
00000090: f728 7bbe 2e63 c93d 67b9 4fbe c45c c13d
000000a0: c8de 66be a997 a4be 6d0b 5abe 04cf e53d
000000b0: fbc0 e1bd f0d2 93be d0c1 88bd 6308 3abe
000000c0: 714d 9cbe 5cbb 18bb acba 403e 429b c5be
000000d0: 5e86 4f3e 1d57 21be 1f85 0f3e 4735 afbe
000000e0: 9660 22bc f40a adbe 721c aebe d99d 89be
000000f0: 26cc 463e 509d 8ebe 45d8 043e c557 143e
00000100: 5d4f 78be 63ee b93e eaee 763e 76f3 40be
00000110: 5b9e 943e 15e3 1c3e 4440 913e e1b1 af3c
-0.053756803 0.24836954 0.17702705 -0.08577443 0.2619689 0.028091723 0.063342825 0.026759073
0.26459295 -0.314882 -0.3214279 0.13179632 -0.27369264 0.19582753 -0.18328781 0.01975072
-0.22026742 -0.04149179 -0.34631848 0.14877003 0.07694123 -0.29247445 -0.15092774 -0.09804181
0.012352619 -0.29548097 -0.16174944 0.24980195 -0.026514102 -0.13464066 -0.19851354 0.07994707
0.32190076 0.21616592 0.29550505 0.2644916 -0.24527346 0.0983337 -0.20285569 0.09441522
-0.22545922 -0.32146958 -0.21293421 0.11221126 -0.11023136 -0.2887187 -0.06677592 -0.18167262
-0.30527833 -0.0023305034 0.1882121 -0.38595015 0.20266101 -0.15755887 0.14015625 -0.34220335
-0.009910723 -0.3379742 -0.34006077 -0.2687824 0.19413814 -0.27854395 0.12973125 0.14486606
-0.24249025 0.36314687 0.24114576 -0.18842873 0.29027066 0.15321 0.28369343 0.021447124

cp.convs.3.weight f4 [16, 1, 3, 3]
00000000: 3033 d73e bbb2 293e a9c7 003f ce8d 773b
00000010: b3ce 473e 6243 0f3f 4820 973d 990e 913e
00000020: 70f2 b83e 6d8f d0bd 4157 c53e 0c55 4abe
00000030: 8163 e33e 0337 9b3d 5cfc 383e 9754 febd
00000040: 3ade 8e3e 24e9 673e 1dba a23e c113 d2bd
00000050: dc3d d23c 65af a83e 4b86 ae3e 7b56 30be
00000060: 2a45 44be 2e94 983e a32e 8a3e fe0a dc3a
00000070: 5d5b 5b3e a254 db3e 2cd9 ba3e 9f78 12be
00000080: 181a dc3c a5b5 d33d 8c29 d03d ece9 8dbd
00000090: 8760 bf3d f997 b0be e601 e53b 755d 403e
000000a0: ed94 73be 9a7c 40be a2bb 68be 735e 5ebe
000000b0: 6109 80be e64c e1bd 4cbe 863e 5eeb e6bd
000000c0: 3ec0 273e 9c72 223e 7984 313e 72da 7bbe
000000d0: d80f c13e 89fe d13e 3a36 3f3b 3dde 1e3e
000000e0: 7bf6 be3e 59b6 d43b a228 933e da61 24ba
000000f0: d4fe a43e d679 8f3e 8674 82be f8cc b83e
00000100: b406 123e 2bc3 003e d44d 7b3e 5f95 23be
00000110: 4a84 cc3d ef5b 0d3e ac27 17be 291d 933e
00000120: 3c26 36be 6eda f3bd f236 7abe 3527 4fbe
00000130: e890 2e3e e877 63be 5860 11be 99b9 13bd
00000140: 5608 2dbd aacd c83e dc73 993e 0c3e a7bc
00000150: e570 b2bd 3964 963e 556b 65bd c360 9c3d
00000160: 5d01 1dbe aea7 9c3e 6b7c 323e 8ac0 8dbd
00000170: 67a9 aabd b3dc 34be 83b9 7abe 5929 86be
00000180: 9f53 aebe 5635 863e ed6d c0be 8a5e 9f3e
00000190: d73d 80be ddb4 b03e 1f81 413e 1247 51be
000001a0: 8218 c03d 5ee7 aa3e 883a 8a3e 050a 1a3e
000001b0: 7415 27bd e4a9 94be f7b2 65bd 5d16 d5bb
000001c0: 4acc a0be 5eb4 40be ed51 ed3d 0785 acbe
000001d0: 1820 bf3c 60a0 ddbe 5e1f 963d de2f 0fbe
000001e0: 8325 99be 7f25 eebd d55b ebbc 992c 843d
000001f0: 4714 a0be e1ec 5a3e 9cc3 203e 9c23 c1be
00000200: de52 97be 1684 003c c96a b53d f0ef c0be
00000210: 7dfe a8bd 7af7 acbe 27da 7b3e 0869 13be
00000220: 9cfb aa3e 5843 ee3d 9f7d 00be 91d0 a73e
00000230: ebe4 823d d8f0 473e 7679 933e fffb 09bd
0.4203124 0.16572087 0.5030466 0.0037773731 0.19512443 0.55962193 0.07379204 0.2833145
0.36122465 -0.10183606 0.38543132 -0.19759005 0.44411853 0.07578852 0.18065017 -0.12418478
0.2790392 0.2264753 0.31782618 -0.10257674 0.025664262 0.32946315 0.34086832 -0.1722049
-0.19167009 0.29800552 0.26988706 0.0016787944 0.21421571 0.42838007 0.36493814 -0.14303826
0.026867911 0.1033738 0.101641744 -0.06929383 0.09344583 -0.34490946 0.0069887517 0.18785651
-0.2378728 -0.18797532 -0.22727826 -0.21715717 -0.25007156 -0.11000995 0.2631706 -0.112753615
0.16381928 0.15864033 0.1733569 -0.24595049 0.377074 0.41014507 0.0029176609 0.15514465
0.37297425 0.006491464 0.28741938 -0.00062706845 0.32225668 0.2802264 -0.25479525 0.3609388
0.1426037 0.1257445 0.24541408 -0.1597495 0.0998617 0.13804601 -0.14761227 0.28733185
-0.17788023 -0.119068965 -0.24435022 -0.202298 0.17047465 -0.2221371 -0.14196908 -0.03606567
-0.042244278 0.3921941 0.29971206 -0.020415328 -0.08712939 0.2937334 -0.056010563 0.07635643
-0.15332551 0.3059668 0.17430274 -0.069214895 -0.08333092 -0.17662315 -0.2448483 -0.2620342
-0.34048173 0.26212567 -0.37583867 0.31126815 -0.2504718 0.34512988 0.18896912 -0.20437267
0.093796745 0.33379644 0.2699778 0.15042885 -0.040791944 -0.29035866 -0.056078877 -0.00650291
-0.3140586 -0.18818805 0.11587892 -0.33695242 0.023330733 -0.4328642 0.073302016 -0.13983104
-0.29911432 -0.116282456 -0.028730312 0.06453819 -0.3126547 0.21379425 0.15699619 -0.3772248
-0.2955541 0.007843992 0.08858258 -0.37683058 -0.08251665 -0.3378256 0.24594937 -0.14395535
0.33395088 0.116339386 -0.1254792 0.3277631 0.06391319 0.19525468 0.28803605 -0.033687588

_mlp.0.weight f4 [64, 60]
00000000: cede e4bd be13 73bd 3522 82bd 204a 81bd
00000010: 83ad b8be 1adc 873d 3095 853b f686 efbc
00000020: 43c6 9dbe bb99 813d 05c3 23be bee6 a4bd
00000030: 4ae3 23be da54 d23d 4bba e83d 7e34 4fbd
00000040: a143 203d 3de3 a63d 9516 bcbd 4545 c13d
00000050: d44c fc3c 3ace c8bd c48a 373e 092f b13c
00000060: 6694 48be fcc4 21bd 71e4 afbd dd8d fc3b
00000070: 6c64 a93b 965b dd3d ba63 713d e984 9dbd
00000080: cae0 9d3c 9dfd f13d 6d25 adbd 7a4b 7b3c
00000090: f96c 943d 5620 f9bc 5078 02be df31 933d
000000a0: ea89 09be e494 adbd 445c 5cbd 6341 ae3d
000000b0: dce8 03be 939b 9ebc 0cda c3bc b30d ff3d
000000c0: 722a 2b3e 3044 213e d419 1f3d 1c94 eabc
000000d0: dba6 25bd f7e7 1e3c f489 13bd 10cc 853c
000000e0: 9620 63bd 3ff1 1abd e617 f2bc 811c 16be
000000f0: bf6a 203d 9242 fe3d c472 eb3d 5dd0 b13d
00000100: ef61 ebbd 6e70 563e 52d1 abbd 973a d13c
00000110: 5f6d 353d e41c 8a3e 41c0 93bd c0df b73d
00000120: df70 aabd 04ec edbd 3650 8a3e 3a45 82bc
00000130: 839a 16bd 78fb 1d3e 9bdb 47bc 77ff 943c
00000140: 1d06 e1bb 8f76 563d b539 f63d e13f 233e
00000150: 229b 25be 49a5 57bd 9b0c 92bd 7996 ebbc
00000160: 1182 acbd 7a3f 7a3d 0d3e 9a3c 3a9f 843d
00000170: eef0 ee3c 8aa3 74bd 697b 0f3d bed5 763c
00000180: 15fd 9b3c 9057 aabc d8bc a63b 4138 da3d
00000190: c3c9 fdbc 83bf 353d 7416 183c effc ebbd
000001a0: a497 183b e2bd 5e3d 49aa b0bd bef5 2ebd
000001b0: 60c9 b03c d355 22bd 6dee f9bd 23c0 d9bd
000001c0: e896 c6bd e003 873d 5e62 e0bc f9ae b73d
000001d0: 5ba5 6fbc 5774 493d 0063 75be 06df 8a3d
000001e0: 66de 293f 577f 543f 646f 3e3f c0a4 653f
000001f0: a1bc d2bd 4c03 c93e 515c e6bb a95e 5b3e
00000200: 8ac5 2cbd 58de 133f e9a7 24bd 0bfc 7d3e
00000210: 537b 9cbd 9a25 2bbd 9e25 99bd 7982 f63c
00000220: 9dc9 92bc 6226 243d 5ddf 56be 33a4 30bd
00000230: 0d54 c5bd f843 79be 84b0 0d3d c55c 3dbe
00000240: 9e25 edbd 7515 ffbb a3aa c5bd 83db 2bbd
00000250: aa2c 92be 3b6c efbd 637f 8abd 1049 1cbd
00000260: a2db 96bd 02bb 9abe 009c 86be e0d2 babd
00000270: a372 8dbd eaa5 7bbc f50e 46bb 25ce d83d
00000280: e15f 27be 56e6 babd d121 3fbe 6590 0cbd
00000290: d054 9ebe 6d60 32be 96f1 e03d 9f00 393c
000002a0: e108 24be efda b5be e939 3bbd 1569 c4bd
000002b0: dd99 51be 4542 393e d022 0bbe 6c20 fdbb
000002c0: d6c3 0fbe e903 ebbc 846c 24be dc05 e1bb
000002d0: 1006 9ebd e7c9 d73c 2925 cabb 2870 743d
000002e0: 701d cc3d bc50 4b3e 1e1b 473d d018 49bd
000002f0: cae9 4d3d 7da8 063b 51aa f33d 68d4 163d
00000300: fcd2 433e 8efe 78bd 908b aa3d a662 ddbd
00000310: 393c 10be d7d0 4b3e 34fb 87bd 63d4 39bc
00000320: f50e cbbc b289 d93d 4316 c7bc 8ca1 023d
00000330: 96db 53bd f69f 413e e642 1e3c 188f f2bd
00000340: 4709 b5be 3b74 de3d 7a2c b73d b5a8 b03a
00000350: 81e1 c5bd e0e2 91be 85f2 0bbe 2b10 f7bb
00000360: a561 013e 5556 563d 766f 0b3d 0c31 af3c
00000370: 6116 1b3e a330 7c3b ea01 87bd c39c c03c
00000380: 2de7 fabe 73aa f43d d468 5d3d 236a 973d
00000390: 11ca ffbd 24ad e5bd 4358 93be 95d1 ca3c
000003a0: 8869 623d 87f8 ba3d 2688 1f3d fff3 01bd
000003b0: a404 abbc c887 e0bd d224 abbd e33d 0ebe
000003c0: f744 d4be caa8 72be cf81 a7be 7909 7fbe
000003d0: 687b 8fbe 7960 853c 9c48 12be 5ec7 263d
000003e0: 289e b1be ef85 073b 3c7e f8bd 7032 0dbe
000003f0: 4e76 bcbd 6a8e 923d 1a9b 823e dd42 513e
-0.11175309 -0.059345 -0.06354181 -0.06312966 -0.3606988 0.06633778 0.0040766224 -0.02923916
-0.30815324 0.0632815 -0.15992363 -0.08051823 -0.16004673 0.102700904 0.113636576 -0.05058717
0.039126996 0.08148811 -0.09183995 0.0943704 0.030798353 -0.098049596 0.17924029 0.021628873
-0.1958786 -0.0394945 -0.085884936 0.007707341 0.005169442 0.10808484 0.058932997 -0.07691366
0.019272227 0.11815951 -0.08454404 0.015337819 0.072473474 -0.030410927 -0.12741208 0.071872465
-0.13431516 -0.08475664 -0.05379893 0.08508565 -0.12881798 -0.019361293 -0.023907684 0.12453785
0.1671541 0.15748668 0.03884299 -0.028635077 -0.04044233 0.009698859 -0.036020234 0.016332656
-0.055451 -0.037827726 -0.029552411 -0.14659311 0.0391643 0.12415041 0.11496499 0.0868232
-0.11493289 0.20941326 -0.08389534 0.025540633 0.044293758 0.26975167 -0.07214404 0.08978224
-0.0832231 -0.11617282 0.2701432 -0.01590215 -0.036768448 0.15427959 -0.012198354 0.018188221
-0.006867184 0.05235916 0.120227255 0.15942337 -0.1617246 -0.052647863 -0.071313106 -0.028758274
-0.08423246 0.061095692 0.018828416 0.064756826 0.029167619 -0.059726276 0.035029802 0.015065609
0.019041577 -0.020793706 0.00508843 0.10655261 -0.030979997 0.044372093 0.009282697 -0.11522853
0.0023283744 0.054380305 -0.08626229 -0.042714827 0.021580398 -0.03963263 -0.12203679 -0.1063235
-0.09696752 0.06592536 -0.027390655 0.0896892 -0.014626826 0.049183216 -0.23963547 0.067808196
0.6635498 0.83006805 0.7438872 0.89704514 -0.10289884 0.39260328 -0.007030048 0.21422829
-0.042180575 0.57761145 -0.040199194 0.24803178 -0.0764071 -0.041783907 -0.07477878 0.030091511
-0.017918402 0.040075667 -0.20983644 -0.043125343 -0.09635172 -0.24342334 0.034592167 -0.1849242
-0.115794405 -0.0077845403 -0.09651687 -0.04195739 -0.285497 -0.11690565 -0.06762578 -0.038155615
-0.073661104 -0.302208 -0.26290894 -0.091222525 -0.06906631 -0.015359381 -0.0030221317 0.10586194
-0.16345169 -0.09125964 -0.18665244 -0.034317393 -0.30924082 -0.17419596 0.10983579 0.011291652
-0.16019012 -0.35518596 -0.045709524 -0.09590355 -0.2046885 0.18091686 -0.13587499 -0.0077248123
-0.14039549 -0.028688388 -0.1605702 -0.0068671536 -0.07716 0.026341392 -0.0061689806 0.059677273
0.09966552 0.19855016 0.048609845 -0.04909593 0.050271787 0.0020547204 0.1189772 0.03682366
0.19123453 -0.060789637 0.08327401 -0.10809831 -0.14085473 0.19903885 -0.0663971 -0.011342141
-0.024787406 0.106219664 -0.024302607 0.031892344 -0.051723085 0.18908677 0.0096595045 -0.11843699
-0.3535864 0.10862013 0.0894403 0.0013478013 -0.09662152 -0.28493404 -0.13666733 -0.007539769
0.12634905 0.052328426 0.034041844 0.021385692 0.15145256 0.0038481138 -0.06592162 0.02351225
-0.49004498 0.11946573 0.05405505 0.07393291 -0.12489713 -0.112146646 -0.28778276 0.02475814
0.055276424 0.09129434 0.0389482 -0.031726833 -0.020876236 -0.10963398 -0.08356632 -0.13890795
-0.41458866 -0.236972 -0.32716224 -0.24905957 -0.2802384 0.016281353 -0.14285511 0.040717475
-0.34690976 0.0020679196 -0.12133452 -0.13788772 -0.09202252 0.071560696 0.25508958 0.20435663

_mlp.0.bias f4 [64]
00000000: c779 f5be c5e4 90be 0d56 a4be 3e94 47be
00000010: 0410 3abf 98b1 5ebe 155e 1c3d f00f 09bf
00000020: 6f07 90be 9aec 813e 56ed ddbe d8e6 67be
00000030: 9af2 25bf 7cb4 f6be 54d9 81be 2019 4bbf
00000040: c87e 48bf 00a8 8fbe 9b60 16bf b690 babe
00000050: 14ad c3bd 817c 79be 49f6 bcbd deab 13bf
00000060: f004 76bf 462a e8be 82c4 70bf a53b 033f
00000070: 1deb 96bd 4319 143e e04e d6be b5c5 8dbe
00000080: cf4f 39bd db17 6ebe 8ea4 c2be 747e 93be
00000090: 5620 ddbd 42e4 f3be 565f 4fbf 7899 1cbf
000000a0: ce0f aebe 2fcd 0e3f fad1 aabe c3ba 013f
000000b0: 51df 2bbf 4c4c 25bf c884 cbbe aacc 3abe
000000c0: 7e7a 82be dbfe eebe 2dc6 1abf 1a01 cfbe
000000d0: d47e c9be 65be 29bf 9272 22be d783 a6be
000000e0: 8fd9 d1be f576 2bbe 2473 95bd b0b3 9d3e
000000f0: 7168 35be dccf c5be 8e1c 56be 9366 81be
-0.4794447 -0.28299537 -0.32096902 -0.19490144 -0.7268069 -0.21747434 0.03817566 -0.53539944
-0.2813067 0.25375825 -0.43345135 -0.22646654 -0.64823306 -0.48184574 -0.2536112 -0.7933521
-0.7831845 -0.2805786 -0.5874116 -0.3643853 -0.095544964 -0.243639 -0.09226663 -0.57684124
-0.96101284 -0.45344752 -0.9404985 0.51262885 -0.07369063 0.14462762 -0.41857052 -0.276899
-0.045242127 -0.23251288 -0.3801617 -0.28807414 -0.10797183 -0.47635084 -0.81004846 -0.61171675
-0.33996433 0.55781835 -0.33363324 0.506756 -0.6713763 -0.64569545 -0.39749742 -0.18242136
-0.2548408 -0.46678814 -0.6045864 -0.40430528 -0.39354575 -0.66306144 -0.15864018 -0.3252246
-0.40986297 -0.16744597 -0.07297352 0.30801153 -0.17715622 -0.38635147 -0.2090933 -0.2527357

_mlp.2.weight f4 [1, 64]
00000000: 5264 32bc 66d2 dfbc 4f42 2d3d 125d 30bc
00000010: 4533 c43b d75f 883c 1227 8e3d cbf0 f2bc
00000020: f66c 1f3d 6e57 1bbc 57f4 883c b37a 33bc
00000030: 1653 283e 1e20 10bd 106e 7b3d 7244 9a3e
00000040: aac1 82be 9c83 f6ba c29f 823c 7b57 5d3d
00000050: 23bc 223d 4098 19bb 01f0 e5ba 0ada 25bd
00000060: 3d73 93bc b06c cbbd 3dd0 56bd 318a 20bf
00000070: d22e ac3d d174 21bc 9d00 1ebc fe04 5abc
00000080: ecce 6c3e 790f 48ba b6be 1f3d af05 733d
00000090: d59c f63d 4374 283d 2eb6 ed3c 6dc4 7e3c
000000a0: a88f a8bc eda8 64be 518f e1bd 8bb7 4ebe
000000b0: 579d 3e3d de19 89bc ac5a dbbc a34b cf3c
000000c0: 47a0 093d 1cb2 7b3d 110c cfba 1d6a 17bc
000000d0: 9636 20bc 5811 b63d fd85 cb3c 1ee2 67bc
000000e0: 717b 953c bf45 e03c 56e0 0abd ba85 26bd
000000f0: 0c5c 183d acb9 27bd 5255 9c3b baf7 3fbd
-0.010888176 -0.027322005 0.042299565 -0.010764377 0.005987557 0.016647262 0.06941046 -0.029655835
0.038922273 -0.009481294 0.016718073 -0.010954547 0.16437945 -0.03518688 0.06138426 0.30130345
-0.2553838 -0.0018807533 0.01594532 0.054038506 0.039730202 -0.0023436695 -0.001754284 -0.04049114
-0.017999286 -0.0993284 -0.052444685 -0.62710863 0.08407368 -0.009854511 -0.009643701 -0.013306854
0.2312581 -0.00076317 0.039000235 0.059331592 0.12041632 0.0411265 0.029017534 0.015549761
-0.020576313 -0.22330065 -0.110136636 -0.20187204 0.04653677 -0.016735967 -0.026776634 0.025304621
0.033600118 0.061449155 -0.0015796443 -0.009241608 -0.009778639 0.08890027 0.024844164 -0.014153032
0.018247338 0.027377008 -0.03390535 -0.040654875 0.037197158 -0.040948555 0.004770913 -0.04686711

exp_avg f4 [2, 1, 3, 3]
00000000: 0701 033a 3992 87ba 10f6 9fba df2e 1fba
00000010: 3afa 9938 0cf7 28ba 93fc adba 9916 acba
00000020: 6373 97ba 0091 9aba fadf d9ba c362 a5ba
00000030: aa61 aaba 77cb 86ba fd92 f736 a75b ccb9
00000040: 93fd e9ba 47e9 daba
0.00049974065 -0.001034326 -0.001220407 -0.0006072353 7.342217e-05 -0.0006445504 -0.0013274126 -0.0013129293
-0.0011554774 -0.0011792481 -0.0016622536 -0.0012617934 -0.0012999077 -0.0010284026 7.3782853e-06 -0.00038978198
-0.001785206 -0.0016701602

exp_avg_sq f4 [2, 1, 3, 3]
00000000: e407 b83d 767f bd3d 1baa ba3d dc3a bd3d
00000010: bb40 c03d dcfc bd3d 4559 bb3d 5018 bf3d
00000020: 6ee1 bb3d 0f7b 133e 3eb1 163e 7c01 133e
00000030: 370a 163e 1abf 183e 6d94 143e 642e 123e
00000040: 0451 163e 020d 133e
0.0898588 0.09252827 0.09114476 0.09239742 0.09387346 0.09276745 0.09147886 0.09330809
0.09173857 0.14402412 0.1471605 0.14356035 0.14652334 0.1491665 0.14509745 0.14275509
0.14679343 0.14360431

exp_avg f4 [4, 1, 3, 3]
00000000: 1480 013b 41a4 023b 6b41 fe3a 9714 023b
00000010: 4b60 023b 3edd fc3a e422 003b b111 003b
00000020: 82f8 f23a 6201 23bb 8f91 28bb 6b46 2abb
00000030: f903 24bb 7e88 2abb e9d2 2ebb 7881 29bb
00000040: 3832 2fbb dac5 28bb 1e13 bb3a 3bc9 cc3a
00000050: 4b6a c73a db70 bf3a aab0 cc3a ed8a c33a
00000060: d6de ac3a 635a c43a 00c8 bf3a faae 74bb
00000070: ce3f 7ebb 37b3 76bb 93f7 77bb e173 80bb
00000080: 22bc 7fbb d65d 7abb 74ef 81bb c59f 7dbb
0.0019760178 0.0019934329 0.0019398158 0.0019848698 0.001989382 0.001929201 0.0019552046 0.0019541795
0.0018537196 -0.002487265 -0.0025721525 -0.0025981914 -0.0025026782 -0.0026021297 -0.0026676005 -0.0025864523
-0.0026732814 -0.0025752694 0.0014272665 0.0015623936 0.0015214173 0.0014605777 0.0015616615 0.0014918722
0.0013188969 0.0014980551 0.0014631748 -0.003733574 -0.0038795355 -0.0037643441 -0.0037836775 -0.003920064
-0.0039022048 -0.0038202903 -0.0039653126 -0.0038699966

exp_avg_sq f4 [4, 1, 3, 3]
00000000: df0b 2f3a f1f7 303a 188d 2c3a 8efb 2f3a
00000010: eda7 313a 7e1f 2d3a c49c 2b3a 5528 2d3a
00000020: 8d02 283a 13a7 903c b6d4 923c 72ed 903c
00000030: 40f0 923c 0232 953c 8665 933c 0720 913c
00000040: 4555 933c 1011 913c 4f36 a13b 3f4c a53b
00000050: 0b26 a33b dad4 a23b 64a7 a63b 1b4c a43b
00000060: db80 9e3b 57ed a23b 91ee a03b c0e7 333c
00000070: 566c 373c 638d 343c 86a8 373c 5039 3b3c
00000080: a6f1 383c 4f4a 363c 7fef 393c 0140 373c
0.0006677489 0.00067508133 0.0006582304 0.0006713205 0.0006777037 0.0006604119 0.0006546492 0.0006605436
0.00064090715 0.017657792 0.017923694 0.017691348 0.017936826 0.018212322 0.017992746 0.017715467
0.017984996 0.017708331 0.004919804 0.0050444896 0.0049789003 0.0049692215 0.0050858725 0.0050139553
0.004837138 0.004972141 0.004911252 0.0109805465 0.011195263 0.011020037 0.011209613 0.011427239
0.011288082 0.011126115 0.011348604 0.011184693

exp_avg f4 [8, 1, 3, 3]
00000000: 42d7 283a 795b 2d3a 41cd 2b3a aec0 2b3a
00000010: 4ecf 2f3a 8858 2d3a 0427 2c3a 3775 2e3a
00000020: 5135 2c3a 3a56 61ba be97 62ba 5c1a 60ba
00000030: 67d9 62ba e4e4 63ba 6482 61ba ea2d 61ba
00000040: 0246 62ba 8dc8 5fba 891c b6ba 7246 b6ba
00000050: 94c7 b3ba feaa b7ba e512 b8ba 14bf b5ba
00000060: ef19 b6ba 84c4 b6ba 6fa4 b4ba af0f cc38
00000070: 44f2 d838 474a cd38 8177 e838 bf7c f938
00000080: 292e f038 6585 e738 f0b8 fa38 70dd f238
00000090: 2011 283a 0a45 253a 502f 253a 607a 283a
000000a0: ffc2 243a af4a 243a 8893 2a3a a978 273a
000000b0: d3ac 263a e997 68ba b495 69ba fb37 68ba
000000c0: 9ccf 69ba dbde 6aba a380 69ba 30c8 68ba
000000d0: a1df 69ba d79e 68ba 34ab 7aba 2381 7cba
000000e0: 457d 7aba 31e1 7bba 950a 7eba a054 7cba
000000f0: daed 78ba a561 7bba 42fd 79ba 0962 7a39
00000100: d237 8639 982d 8139 e792 8839 a515 9239
00000110: acb0 8c39 e512 8339 7f5b 8d39 6d78 8739
0.00064407673 0.0006613057 0.00065537175 0.0006551844 0.0006706611 0.00066126185 0.0006567093 0.00066550396
0.0006569224 -0.00085959176 -0.0008643827 -0.000854885 -0.00086536113 -0.000869347 -0.00086024986 -0.00085899106
-0.0008631648 -0.00085366593 -0.0013894002 -0.0013906492 -0.0013716095 -0.0014012752 -0.0014043717 -0.001386615
-0.0013893227 -0.0013944064 -0.0013781915 9.730399e-05 0.00010344808 9.788997e-05 0.000110848814 0.00011896481
0.0001145269 0.00011039785 0.00011955376 0.00011580705 0.0006411243 0.0006304538 0.00063013006 0.00064269267
0.000628516 0.0006267232 0.0006506969 0.0006388524 0.000635815 -0.0008872734 -0.0008910552 -0.00088584394
-0.0008919181 -0.00089595997 -0.0008907413 -0.0008879928 -0.0008921568 -0.00088737666 -0.00095622544 -0.000963228
-0.000955541 -0.0009608446 -0.0009690908 -0.0009625647 -0.0009495892 -0.00095894403 -0.00095363345 0.00023878379
0.0002560006 0.00024638767 0.00026049392 0.00027863416 0.00026834512 0.00025000345 0.00026961786 0.0002583893

exp_avg_sq f4 [8, 1, 3, 3]
00000000: f45d fe38 0e3d 0439 3806 0539 e3ba 0139
00000010: a5c3 0639 be48 0739 c46a 0039 58ff 0439
00000020: bf6c 0539 ad16 f638 21c5 f638 c530 ef38
00000030: d2e8 f738 d7ef f738 a59a f038 6d2d f238
00000040: 4248 f238 b4bd ea38 12e4 7039 5fe4 7039
00000050: 0843 6b39 3a20 7639 724e 7639 5059 7039
00000060: efd1 7339 203e 7439 4a23 6e39 e6cd 2839
00000070: 5fb8 2b39 1b5b 2a39 78a9 2d39 1ac9 3039
00000080: a36e 2f39 a8ce 2d39 8fd1 3039 cb36 2f39
00000090: ab64 1739 5628 1a39 8249 1839 4233 1939
000000a0: 7dd1 1c39 d61c 1b39 1942 1739 6a1c 1a39
000000b0: 64b8 1839 1cb0 b738 9cca b538 9b92 af38
000000c0: a415 ba38 4a2b b838 69a4 b138 ede8 b638
000000d0: 321a b538 b700 af38 fa1f aa38 d5b0 ad38
000000e0: 5c57 ab38 cff6 ab38 757a af38 fd2f ad38
000000f0: 5425 a838 d3c2 ab38 3d8c a938 cc25 8d39
00000100: d18d 8f39 422a 8e39 490a 9039 0d3c 9239
00000110: bca8 9039 976b 8e39 8cf2 9039 ebe1 8e39
0.00012129164 0.00012611246 0.00012686185 0.0001237202 0.00012852119 0.00012901702 0.00012246805 0.00012683624
0.0001272438 0.00011734418 0.00011766912 0.00011405492 0.00011821244 0.000118225515 0.000114728966 0.000115479204
0.00011552918 0.000111933245 0.00022973146 0.00022973258 0.00022436318 0.00023472394 0.00023489611 0.00022921455
0.00023252492 0.00023292797 0.00022710595 0.00016098432 0.00016376514 0.00016246403 0.00016561698 0.00016859584
0.00016730516 0.00016575551 0.00016862735 0.00016709713 0.00014437984 0.00014701611 0.00014523233 0.00014610312
0.0001495536 0.00014792694 0.00014425105 0.0001469717 0.0001456454 8.758923e-05 8.6684915e-05 8.371958e-05
8.873202e-05 8.781867e-05 8.4706415e-05 8.721822e-05 8.635632e-05 8.3447834e-05 8.112188e-05 8.2822204e-05
8.170187e-05 8.199887e-05 8.36746e-05 8.258221e-05 8.017817e-05 8.190204e-05 8.0846694e-05 0.00026921777
0.00027380747 0.00027115835 0.00027473483 0.0002789203 0.00027591537 0.0002716451 0.00027646532 0.00027252673

exp_avg f4 [16, 1, 3, 3]
00000000: f2c7 6039 e1c4 5f39 1488 5939 5927 6139
00000010: 84ee 6139 5f09 5e39 a071 5a39 9d90 5d39
00000020: af10 5c39 d20a 1739 ccf6 1639 afe5 1539
00000030: 52c7 1639 b105 1739 a357 1639 3f3f 1639
00000040: 47df 1639 4385 1639 f324 c639 4c3e c739
00000050: a894 c639 cae0 c639 1e07 c839 7596 c739
00000060: c086 c639 13b7 c739 df42 c739 71d6 0d39
00000070: e783 0e39 343d 0e39 ec6d 0e39 854e 0f39
00000080: da1f 0f39 d8da 0d39 1bc4 0e39 56a2 0e39
00000090: e529 eab9 2950 ebb9 60fb eab9 4657 ebb9
000000a0: 5e64 ecb9 66fe ebb9 69df e9b9 8ff9 eab9
000000b0: 3e7a eab9 45f8 c238 242c c738 a45a c638
000000c0: f37a c738 e85e cc38 a71f cc38 2fc4 c438
000000d0: 9a2c ca38 1e92 ca38 361a c438 9e81 c438
000000e0: 5842 c238 1b8b c438 be7d c538 00dd c338
000000f0: c575 c038 080a c238 7801 c138 f602 c2b7
00000100: 52e5 c0b7 b939 c6b7 023c c1b7 a798 bfb7
00000110: 9569 c4b7 7fcf c7b7 c5c5 c5b7 9eae c9b7
00000120: 4dae 9339 d07a 9339 f91d 9339 d165 9439
00000130: 5f32 9439 1eca 9339 ca61 9439 0d36 9439
00000140: 96c3 9339 fd85 6638 2b4a 6738 4b57 6738
00000150: f962 6938 d8cf 6838 8d2d 6838 7645 6a38
00000160: 6dad 6938 cc91 6738 3b2b adb9 1c93 afb9
00000170: f883 afb9 b9fe aeb9 bd8d b1b9 0b9b b1b9
00000180: f070 aeb9 7416 b1b9 8248 b1b9 70de 1d3a
00000190: 5fbb 1e3a eda5 1e3a 377f 1e3a e16e 1f3a
000001a0: 5384 1f3a 7e24 1e3a 6b2c 1f3a 455d 1f3a
000001b0: 4fa3 0dba c6c7 0dba de49 0dba e8e0 0dba
000001c0: fd06 0eba af95 0dba f59e 0dba f9e2 0dba
000001d0: 657a 0dba 90df 39b8 d13a 3ab8 3ec9 39b8
000001e0: 5132 3ab8 8b82 3ab8 b015 3ab8 a8fd 3ab8
000001f0: 7530 3bb8 309d 3ab8 c9b9 0a39 2d1b 0439
00000200: 48e2 0239 406e 0939 106f 0339 aaaa 0239
00000210: fe2f 0d39 891e 0839 eb46 0839 e116 31b8
00000220: d19a 2cb8 97ae 2eb8 89db 2cb8 7bd3 27b8
00000230: 82c1 29b8 6593 2fb8 7f83 2ab8 cb16 2cb8
0.0002143679 0.0002134028 0.00020745426 0.0002147233 0.00021546526 0.00021175061 0.00020832429 0.00021130075
0.0002098705 0.00014404513 0.00014397054 0.00014295311 0.00014379367 0.00014402602 0.00014337762 0.00014328676
0.00014388292 0.00014354759 0.00037793032 0.00038002653 0.0003787626 0.00037932984 0.00038152275 0.00038068337
0.000378659 0.0003809264 0.0003800606 0.00013526694 0.00013591313 0.00013564975 0.00013583124 0.00013666794
0.00013649408 0.00013528334 0.0001361523 0.0001360265 -0.00044663172 -0.00044882417 -0.00044819247 -0.00044887717
-0.00045088207 -0.00045012234 -0.00044607677 -0.00044817894 -0.00044723036 9.296885e-05 9.497281e-05 9.458259e-05
9.5119605e-05 9.745156e-05 9.733374e-05 9.38255e-05 9.640418e-05 9.659327e-05 9.3508905e-05 9.3701514e-05
9.262998e-05 9.371919e-05 9.417113e-05 9.339489e-05 9.17721e-05 9.252509e-05 9.203231e-05 -2.3127981e-05
-2.299497e-05 -2.3630319e-05 -2.3035336e-05 -2.2840059e-05 -2.3414186e-05 -2.3819272e-05 -2.3576324e-05 -2.404238e-05
0.0002816789 0.00028129527 0.00028060356 0.0002830462 0.0002826629 0.00028188614 0.00028301618 0.0002826903
0.00028183748 5.496106e-05 5.5143766e-05 5.515599e-05 5.5643704e-05 5.550668e-05 5.5355533e-05 5.5854638e-05
5.5713044e-05 5.5210476e-05 -0.0003302934 -0.00033488206 -0.00033476925 -0.0003337765 -0.00033865674 -0.00033875587
-0.0003327201 -0.000337768 -0.00033814093 0.00060222205 0.0006055142 0.00060519465 0.0006046178 0.0006081891
0.00060850865 0.00060326594 0.00060719874 0.0006079267 -0.0005403058 -0.00054084917 -0.000538973 -0.0005412237
-0.00054179115 -0.0005401028 -0.00054024096 -0.00054125447 -0.00053969614 -4.4315646e-05 -4.4400633e-05 -4.429486e-05
-4.4392717e-05 -4.4467433e-05 -4.4366054e-05 -4.458209e-05 -4.4629403e-05 -4.4492248e-05 0.00013229916 0.00012598625
0.00012482062 0.0001310641 0.00012534508 0.00012461343 0.00013464686 0.00012981346 0.0001299639 -4.2221396e-05
-4.115218e-05 -4.1647432e-05 -4.1212454e-05 -4.001286e-05 -4.0472958e-05 -4.1860523e-05 -4.0653624e-05 -4.1029223e-05

exp_avg_sq f4 [16, 1, 3, 3]
00000000: 9c4a 4438 d7fe 4938 49e6 4838 6385 4638
00000010: 8e35 4c38 5ee2 4a38 1566 4338 05cb 4838
00000020: 303a 4738 2621 7237 53df 7737 2384 7237
00000030: 87f5 7737 575c 7d37 089e 7737 46bf 7637
00000040: 9fc7 7b37 43bc 7537 e2c6 fa36 e74c fe36
00000050: a64a f736 cc03 0037 d5d0 0137 75d9 fb36
00000060: 6137 fd36 b376 0037 8f8c f936 9ae9 c236
00000070: 3d07 c736 9947 c436 3fa5 c436 2efe c736
00000080: 82d5 c436 9a7b bf36 1ba4 c236 f338 bf36
00000090: 640a 3c37 5194 4037 b3ce 3f37 c32e 4037
000000a0: 6fe2 4437 d93e 4437 827d 3e37 190d 4337
000000b0: b19c 4237 b6c0 8f37 ae72 9337 b539 9337
000000c0: f426 9337 9a15 9737 4901 9737 e7cb 9137
000000d0: dac8 9537 aae3 9537 d050 1837 fbc0 1937
000000e0: f323 1737 be78 1937 c0c6 1a37 ede9 1737
000000f0: 1d44 1637 2650 1737 505e 1437 2e10 7e37
00000100: 843a 7f37 c779 7a37 b211 7e37 960f 7f37
00000110: 7b5d 7a37 fb98 7737 16a5 7837 0327 7437
00000120: df82 d137 b90a d437 fd7e d037 2247 d337
00000130: 5e7d d537 3b61 d237 dc8f ce37 f304 d137
00000140: 5ca6 cd37 9cc6 7937 299e 7b37 bfa2 7637
00000150: ca93 7a37 1e36 7d37 4257 7837 847c 7437
00000160: 93b9 7637 33af 7237 2722 5537 751a 5b37
00000170: 6f24 5d37 7355 5a37 f97e 6037 d471 6237
00000180: 3e12 5a37 adf7 5f37 d5fe 6137 a429 fe36
00000190: f169 0037 bb0e fe36 6bc5 0137 692d 0337
000001a0: d5ab 0137 1780 0137 53ec 0237 4a5d 0137
000001b0: 6df9 8a37 0189 8e37 f42a 8d37 5741 8c37
000001c0: afe5 8f37 779b 8e37 366a 8937 8306 8d37
000001d0: 88c7 8b37 b9b9 3b37 a5a0 3a37 d090 3437
000001e0: c851 3c37 613f 3b37 4821 3537 a949 3737
000001f0: 2860 3637 497b 3037 22f3 f737 cf25 ff37
00000200: 91e3 fe37 048c f937 2480 ff37 48be ff37
00000210: e11e f437 300e fa37 d3cb f837 cf0e 6537
00000220: 5616 6a37 9ad7 6737 9c1c 6937 81f8 6d37
00000230: 42bd 6b37 26b7 6637 b5d2 6a37 727d 6837
4.6799527e-05 4.8159472e-05 4.7898186e-05 4.7331105e-05 4.8687267e-05 4.8371374e-05 4.6586694e-05 4.7872792e-05
4.749949e-05 1.4432042e-05 1.4774344e-05 1.44550895e-05 1.4779514e-05 1.5101475e-05 1.4759142e-05 1.4707277e-05
1.5007244e-05 1.4646971e-05 7.4737336e-06 7.5787425e-06 7.369864e-06 7.630279e-06 7.737622e-06 7.5056982e-06
7.5464345e-06 7.657031e-06 7.4371414e-06 5.8088453e-06 5.931505e-06 5.8495903e-06 5.8604924e-06 5.9602526e-06
5.8661108e-06 5.7066327e-06 5.800755e-06 5.6988733e-06 1.12080925e-05 1.1478624e-05 1.1432613e-05 1.1454979e-05
1.1735231e-05 1.1697143e-05 1.1354105e-05 1.1625955e-05 1.1599784e-05 1.7136666e-05 1.7577167e-05 1.7550637e-05
1.7541905e-05 1.8010662e-05 1.8001201e-05 1.7380296e-05 1.7855713e-05 1.7868198e-05 9.078722e-06 9.164442e-06
9.008671e-06 9.147623e-06 9.22539e-06 9.054766e-06 8.956556e-06 9.018962e-06 8.843446e-06 1.5143347e-05
1.5212809e-05 1.4929515e-05 1.51437e-05 1.5202813e-05 1.4922926e-05 1.4757966e-05 1.4820389e-05 1.4552616e-05
2.4975683e-05 2.5277363e-05 2.4854666e-05 2.5186284e-05 2.5449957e-05 2.5079227e-05 2.4624103e-05 2.4917046e-05
2.4515371e-05 1.4887799e-05 1.499759e-05 1.4700635e-05 1.4935571e-05 1.5092575e-05 1.4802268e-05 1.4572524e-05
1.470595e-05 1.4465116e-05 1.2703741e-05 1.3059577e-05 1.3181109e-05 1.3013708e-05 1.3381004e-05 1.3497152e-05
1.299806e-05 1.3349502e-05 1.3470378e-05 7.5746375e-06 7.654061e-06 7.5715047e-06 7.734964e-06 7.818781e-06
7.729007e-06 7.718822e-06 7.803627e-06 7.71072e-06 1.656703e-05 1.6991517e-05 1.6828511e-05 1.6719727e-05
1.7153883e-05 1.7000113e-05 1.6381131e-05 1.6811542e-05 1.6663005e-05 1.11893105e-05 1.1123867e-05 1.0762553e-05
1.1224714e-05 1.1160825e-05 1.079619e-05 1.09248e-05 1.08704335e-05 1.0519122e-05 2.9557912e-05 3.0415975e-05
3.0385128e-05 2.9748313e-05 3.0458039e-05 3.0486975e-05 2.9101446e-05 2.9808929e-05 2.9658817e-05 1.3652912e-05
1.3952687e-05 1.3818872e-05 1.3894543e-05 1.418416e-05 1.40511565e-05 1.3751711e-05 1.3996546e-05 1.3857485e-05

exp_avg f4 [64, 60]
00000000: 021c feb4 43c5 04b5 021c feb4 43c5 04b5
00000010: 8d98 74b5 12cb 9fb5 56d9 86b5 2b0d 92b5
00000020: 8d98 74b5 12cb 9fb5 56d9 86b5 2b0d 92b5
00000030: 103a 9db5 a95f 83b5 b0b2 83b5 66bf 94b5
00000040: 32e7 95b5 3f3a 91b5 d278 54b5 67c1 89b5
00000050: 103a 9db5 a95f 83b5 b0b2 83b5 66bf 94b5
00000060: 32e7 95b5 3f3a 91b5 d278 54b5 67c1 89b5
00000070: 4010 a835 a7e0 57b5 1d5a 3cb5 f72a 80b5
00000080: c4e1 12b5 9635 55b5 e40c 45b5 d74b 82b5
00000090: 0e1a a1b5 5813 8db5 b34e 5bb5 96f1 12b5
000000a0: 4065 12b5 736e 6db5 764e 9bb5 6cca 88b5
000000b0: 4010 a835 a7e0 57b5 1d5a 3cb5 f72a 80b5
000000c0: c4e1 12b5 9635 55b5 e40c 45b5 d74b 82b5
000000d0: 0e1a a1b5 5813 8db5 b34e 5bb5 96f1 12b5
000000e0: 4065 12b5 736e 6db5 764e 9bb5 6cca 88b5
000000f0: 0400 0000 0400 0000 0400 0000 0400 0000
00000100: 0400 0000 0400 0000 0400 0000 0400 0000
00000110: 0400 0000 0400 0000 0400 0000 0400 0000
00000120: 0400 0000 0400 0000 0400 0000 0400 0000
00000130: 0400 0000 0400 0000 0400 0000 0400 0000
00000140: 0400 0000 0400 0000 0400 0000 0400 0000
00000150: 0400 0000 0400 0000 0400 0000 0400 0000
00000160: 0400 0000 0400 0000 0400 0000 0400 0000
00000170: 0400 0000 0400 0000 0400 0000 0400 0000
00000180: 0400 0000 0400 0000 0400 0000 0400 0000
00000190: 0400 0000 0400 0000 0400 0000 0400 0000
000001a0: 0400 0000 0400 0000 0400 0000 0400 0000
000001b0: 0400 0000 0400 0000 0400 0000 0400 0000
000001c0: 0400 0000 0400 0000 0400 0000 0400 0000
000001d0: 0400 0000 0400 0000 0400 0000 0400 0000
000001e0: 032a 9a33 2453 a433 032a 9a33 2453 a433
000001f0: 80fe 0534 aeca 1c34 920f 0c34 ba39 1734
00000200: 80fe 0534 aeca 1c34 920f 0c34 ba39 1734
00000210: 77d0 2334 cf01 1534 c03a 1634 76a7 1f34
00000220: 3650 1f34 8f9e 1a34 09c8 ff33 767e 1b34
00000230: 77d0 2334 cf01 1534 c03a 1634 76a7 1f34
00000240: 3650 1f34 8f9e 1a34 09c8 ff33 767e 1b34
00000250: bd3c 2cb3 efe8 0934 3055 0134 11a5 1734
00000260: ae88 e733 9921 0634 62a5 0034 aa6d 1834
00000270: eec9 3034 2489 1e34 223d 0a34 f0f3 ee33
00000280: 9a22 dd33 b59f 0634 003d 2e34 efa5 2134
00000290: bd3c 2cb3 efe8 0934 3055 0134 11a5 1734
000002a0: ae88 e733 9921 0634 62a5 0034 aa6d 1834
000002b0: eec9 3034 2489 1e34 223d 0a34 f0f3 ee33
000002c0: 9a22 dd33 b59f 0634 003d 2e34 efa5 2134
000002d0: d6e4 4825 01f1 d723 d6e4 4825 01f1 d723
000002e0: 16f9 3ea7 fabe 1da7 ffd9 04a7 e363 2ea7
000002f0: 16f9 3ea7 fabe 1da7 ffd9 04a7 e363 2ea7
00000300: ce40 b6a7 c6ab a1a7 6d45 7ca7 f721 9da7
00000310: 694d 78a7 ad30 3ca7 e885 36a7 6831 4ca7
00000320: ce40 b6a7 c6ab a1a7 6d45 7ca7 f721 9da7
00000330: 694d 78a7 ad30 3ca7 e885 36a7 6831 4ca7
00000340: 56cd a327 4fef 37a7 0986 e6a7 2fb2 e4a7
00000350: 9c6d 11a8 963c caa7 66b0 3da8 2084 19a8
00000360: ec28 c0a7 bf9e d3a7 0223 83a7 207a aba7
00000370: 6eaa 83a7 73b0 9aa7 0b6a 94a7 fd0d b6a7
00000380: 56cd a327 4fef 37a7 0986 e6a7 2fb2 e4a7
00000390: 9c6d 11a8 963c caa7 66b0 3da8 2084 19a8
000003a0: ec28 c0a7 bf9e d3a7 0223 83a7 207a aba7
000003b0: 6eaa 83a7 73b0 9aa7 0b6a 94a7 fd0d b6a7
000003c0: 0dd5 ac27 a6c1 9727 0dd5 ac27 a6c1 9727
000003d0: 8dcc 24a8 07af d0a7 0a79 a1a7 2fc3 f8a7
000003e0: 8dcc 24a8 07af d0a7 0a79 a1a7 2fc3 f8a7
000003f0: c7ea bda8 0f30 a7a8 ddb0 61a8 8663 9ba8
-4.7331565e-07 -4.9460886e-07 -4.7331565e-07 -4.9460886e-07 -9.1119074e-07 -1.1905524e-06 -1.0047031e-06 -1.088168e-06
-9.1119074e-07 -1.1905524e-06 -1.0047031e-06 -1.088168e-06 -1.171431e-06 -9.788101e-07 -9.812265e-07 -1.1082564e-06
-1.1168652e-06 -1.0820294e-06 -7.915197e-07 -1.0263583e-06 -1.171431e-06 -9.788101e-07 -9.812265e-07 -1.1082564e-06
-1.1168652e-06 -1.0820294e-06 -7.915197e-07 -1.0263583e-06 1.2521705e-06 -8.0420654e-07 -7.016659e-07 -9.549248e-07
-5.471777e-07 -7.942666e-07 -7.340698e-07 -9.707827e-07 -1.2003018e-06 -1.0510948e-06 -8.169838e-07 -5.474079e-07
-5.4536576e-07 -8.8450105e-07 -1.1571235e-06 -1.0191702e-06 1.2521705e-06 -8.0420654e-07 -7.016659e-07 -9.549248e-07
-5.471777e-07 -7.942666e-07 -7.340698e-07 -9.707827e-07 -1.2003018e-06 -1.0510948e-06 -8.169838e-07 -5.474079e-07
-5.4536576e-07 -8.8450105e-07 -1.1571235e-06 -1.0191702e-06 6e-45 6e-45 6e-45 6e-45
6e-45 6e-45 6e-45 6e-45 6e-45 6e-45 6e-45 6e-45
6e-45 6e-45 6e-45 6e-45 6e-45 6e-45 6e-45 6e-45
6e-45 6e-45 6e-45 6e-45 6e-45 6e-45 6e-45 6e-45
6e-45 6e-45 6e-45 6e-45 6e-45 6e-45 6e-45 6e-45
6e-45 6e-45 6e-45 6e-45 6e-45 6e-45 6e-45 6e-45
6e-45 6e-45 6e-45 6e-45 6e-45 6e-45 6e-45 6e-45
6e-45 6e-45 6e-45 6e-45 6e-45 6e-45 6e-45 6e-45
7.178826e-08 7.651968e-08 7.178826e-08 7.651968e-08 1.2479177e-07 1.4602367e-07 1.304418e-07 1.4083972e-07
1.2479177e-07 1.4602367e-07 1.304418e-07 1.4083972e-07 1.5256397e-07 1.3877364e-07 1.3991212e-07 1.4868951e-07
1.483721e-07 1.4400051e-07 1.1910749e-07 1.4481506e-07 1.5256397e-07 1.3877364e-07 1.3991212e-07 1.4868951e-07
1.483721e-07 1.4400051e-07 1.1910749e-07 1.4481506e-07 -4.0102112e-08 1.284386e-07 1.2045052e-07 1.4123022e-07
1.07816376e-07 1.2491945e-07 1.1981095e-07 1.4195999e-07 1.6464739e-07 1.4764788e-07 1.2874492e-07 1.11271106e-07
1.02974084e-07 1.2537824e-07 1.6227204e-07 1.505466e-07 -4.0102112e-08 1.284386e-07 1.2045052e-07 1.4123022e-07
1.07816376e-07 1.2491945e-07 1.1981095e-07 1.4195999e-07 1.6464739e-07 1.4764788e-07 1.2874492e-07 1.11271106e-07
1.02974084e-07 1.2537824e-07 1.6227204e-07 1.505466e-07 1.7424767e-16 2.3412416e-17 1.7424767e-16 2.3412416e-17
-2.6502827e-15 -2.1891655e-15 -1.8436856e-15 -2.42015e-15 -2.6502827e-15 -2.1891655e-15 -1.8436856e-15 -2.42015e-15
-5.058541e-15 -4.4872714e-15 -3.5009661e-15 -4.361308e-15 -3.4458878e-15 -2.6116628e-15 -2.5330165e-15 -2.833747e-15
-5.058541e-15 -4.4872714e-15 -3.5009661e-15 -4.361308e-15 -3.4458878e-15 -2.6116628e-15 -2.5330165e-15 -2.833747e-15
4.5464214e-15 -2.5526081e-15 -6.3983145e-15 -6.34759e-15 -8.072885e-15 -5.613195e-15 -1.0529858e-14 -8.521856e-15
-5.3335073e-15 -5.8736377e-15 -3.639776e-15 -4.7594442e-15 -3.6544584e-15 -4.2934893e-15 -4.1193224e-15 -5.0530314e-15
4.5464214e-15 -2.5526081e-15 -6.3983145e-15 -6.34759e-15 -8.072885e-15 -5.613195e-15 -1.0529858e-14 -8.521856e-15
-5.3335073e-15 -5.8736377e-15 -3.639776e-15 -4.7594442e-15 -3.6544584e-15 -4.2934893e-15 -4.1193224e-15 -5.0530314e-15
4.797058e-15 4.2120873e-15 4.797058e-15 4.2120873e-15 -9.148184e-15 -5.7921362e-15 -4.4817708e-15 -6.9045446e-15
-9.148184e-15 -5.7921362e-15 -4.4817708e-15 -6.9045446e-15 -2.1085034e-14 -1.8561567e-14 -1.252836e-14 -1.7251618e-14

exp_avg_sq f4 [64, 60]
00000000: 3aa5 202f 1eb0 c02f 3aa5 202f 1eb0 c02f
00000010: 7241 2831 9f0b 6e30 34e7 6530 f631 d230
00000020: 7241 2831 9f0b 6e30 34e7 6530 f631 d230
00000030: e1c9 c630 b988 0532 3bfb 6831 0108 3231
00000040: 8d93 fa30 f4b5 de31 78be 5831 b474 8d31
00000050: e1c9 c630 b988 0532 3bfb 6831 0108 3231
00000060: 8d93 fa30 f4b5 de31 78be 5831 b474 8d31
00000070: 2b6c 0f32 a5b8 d131 6981 9932 3600 f232
00000080: 5a0e 7831 aab6 1832 4e16 7331 dd03 9131
00000090: 2ae6 1c32 2341 1032 ec08 2832 10ba 0b32
000000a0: beac f631 6f1c 9132 200d 6732 0bdd d831
000000b0: 2b6c 0f32 a5b8 d131 6981 9932 3600 f232
000000c0: 5a0e 7831 aab6 1832 4e16 7331 dd03 9131
000000d0: 2ae6 1c32 2341 1032 ec08 2832 10ba 0b32
000000e0: beac f631 6f1c 9132 200d 6732 0bdd d831
000000f0: a9e2 2031 2302 2d31 a9e2 2031 2302 2d31
00000100: 373c d433 a62c ea30 4094 8831 b20d ba31
00000110: 373c d433 a62c ea30 4094 8831 b20d ba31
00000120: 7caa a832 f998 2733 9254 f330 5a82 b531
00000130: 6f73 2c32 82cd 1732 4dd8 9132 9b64 3532
00000140: 7caa a832 f998 2733 9254 f330 5a82 b531
00000150: 6f73 2c32 82cd 1732 4dd8 9132 9b64 3532
00000160: 61f8 9e32 0c82 2932 5d63 8433 8f9a 5333
00000170: aad6 4132 d626 6d31 9ac1 bb32 fb54 5732
00000180: 5c59 9331 887f ec31 426d bc33 4339 3233
00000190: d6ca 8831 c31b 2a32 01e4 aa31 3a50 8332
000001a0: 61f8 9e32 0c82 2932 5d63 8433 8f9a 5333
000001b0: aad6 4132 d626 6d31 9ac1 bb32 fb54 5732
000001c0: 5c59 9331 887f ec31 426d bc33 4339 3233
000001d0: d6ca 8831 c31b 2a32 01e4 aa31 3a50 8332
000001e0: f400 cb33 30d3 6c33 f400 cb33 30d3 6c33
000001f0: a739 1b35 ad39 da32 a25b 1133 7924 4033
00000200: a739 1b35 ad39 da32 a25b 1133 7924 4033
00000210: 9a50 7d34 bdd4 9a34 cda5 0d34 6e38 8b33
00000220: 485d fe33 4eb5 3034 6df3 4634 283c c333
00000230: 9a50 7d34 bdd4 9a34 cda5 0d34 6e38 8b33
00000240: 485d fe33 4eb5 3034 6df3 4634 283c c333
00000250: 1352 2f36 dd1c 9934 2d5a 4735 6e27 1235
00000260: 2fec d334 67ef 9434 0a0a ff34 b2de 4834
00000270: 0b6d 2a34 2cbb f434 d99c 5535 85df f134
00000280: e020 b934 e9c7 0b35 984e 0334 1aa4 6e34
00000290: 1352 2f36 dd1c 9934 2d5a 4735 6e27 1235
000002a0: 2fec d334 67ef 9434 0a0a ff34 b2de 4834
000002b0: 0b6d 2a34 2cbb f434 d99c 5535 85df f134
000002c0: e020 b934 e9c7 0b35 984e 0334 1aa4 6e34
000002d0: 944e b931 8a27 1b32 944e b931 8a27 1b32
000002e0: 404b 5934 f011 5b31 a317 7c32 5e98 d032
000002f0: 404b 5934 f011 5b31 a317 7c32 5e98 d032
00000300: 8bca bb33 af63 8c33 eb1a cf32 d50a 2f32
00000310: 9732 1933 76a3 5733 de85 6533 6197 3d33
00000320: 8bca bb33 af63 8c33 eb1a cf32 d50a 2f32
00000330: 9732 1933 76a3 5733 de85 6533 6197 3d33
00000340: edd2 5233 d0b6 2334 27b8 4e33 42e9 9133
00000350: a22e 6c33 fd6d 1333 2e62 d032 eb39 e332
00000360: f827 a632 8be9 2833 1f4d 3c33 b41c d433
00000370: 3adb eb32 aa70 aa32 fc08 a032 e7b9 6733
00000380: edd2 5233 d0b6 2334 27b8 4e33 42e9 9133
00000390: a22e 6c33 fd6d 1333 2e62 d032 eb39 e332
000003a0: f827 a632 8be9 2833 1f4d 3c33 b41c d433
000003b0: 3adb eb32 aa70 aa32 fc08 a032 e7b9 6733
000003c0: 777b fd30 21be 4030 777b fd30 21be 4030
000003d0: 30fb 2332 65db 1a30 9db2 2f30 9357 8430
000003e0: 30fb 2332 65db 1a30 9db2 2f30 9357 8430
000003f0: 1c24 d731 f834 6132 97e9 8831 a561 ae31
1.4610615e-10 3.5049735e-10 1.4610615e-10 3.5049735e-10 2.448442e-09 8.660041e-10 8.3638274e-10 1.5293711e-09
2.448442e-09 8.660041e-10 8.3638274e-10 1.5293711e-09 1.4463774e-09 7.772706e-09 3.3903251e-09 2.5906959e-09
1.823183e-09 6.481736e-09 3.1540406e-09 4.1169077e-09 1.4463774e-09 7.772706e-09 3.3903251e-09 2.5906959e-09
1.823183e-09 6.481736e-09 3.1540406e-09 4.1169077e-09 8.34829e-09 6.103692e-09 1.7870393e-08 2.8172604e-08
3.6096908e-09 8.8890975e-09 3.5373833e-09 4.2204946e-09 9.132728e-09 8.3967135e-09 9.780916e-09 8.133171e-09
7.179181e-09 1.6893152e-08 1.3448954e-08 6.311557e-09 8.34829e-09 6.103692e-09 1.7870393e-08 2.8172604e-08
3.6096908e-09 8.8890975e-09 3.5373833e-09 4.2204946e-09 9.132728e-09 8.3967135e-09 9.780916e-09 8.133171e-09
7.179181e-09 1.6893152e-08 1.3448954e-08 6.311557e-09 2.3411906e-09 2.5176028e-09 2.3411906e-09 2.5176028e-09
9.882972e-08 1.7038431e-09 3.974975e-09 5.4148694e-09 9.882972e-08 1.7038431e-09 3.974975e-09 5.4148694e-09
1.9635301e-08 3.9021845e-08 1.7704613e-09 5.2826126e-09 1.0037964e-08 8.836084e-09 1.6978584e-08 1.0558462e-08
1.9635301e-08 3.9021845e-08 1.7704613e-09 5.2826126e-09 1.0037964e-08 8.836084e-09 1.6978584e-08 1.0558462e-08
1.850657e-08 9.866664e-09 6.164803e-08 4.9267836e-08 1.12828875e-08 3.4510115e-09 2.1857705e-08 1.2533969e-08
4.288422e-09 6.8830026e-09 8.774306e-08 4.1495934e-08 3.9811807e-09 9.901615e-09 4.973572e-09 1.528689e-08
1.850657e-08 9.866664e-09 6.164803e-08 4.9267836e-08 1.12828875e-08 3.4510115e-09 2.1857705e-08 1.2533969e-08
4.288422e-09 6.8830026e-09 8.774306e-08 4.1495934e-08 3.9811807e-09 9.901615e-09 4.973572e-09 1.528689e-08
9.4530975e-08 5.5140106e-08 9.4530975e-08 5.5140106e-08 5.7825895e-07 2.5404768e-08 3.3843783e-08 4.4736655e-08
5.7825895e-07 2.5404768e-08 3.3843783e-08 4.4736655e-08 2.3591784e-07 2.8839523e-07 1.3191966e-07 6.4829564e-08
1.18447645e-07 1.6457236e-07 1.8528745e-07 9.0913375e-08 2.3591784e-07 2.8839523e-07 1.3191966e-07 6.4829564e-08
1.18447645e-07 1.6457236e-07 1.8528745e-07 9.0913375e-08 2.6124806e-06 2.8519472e-07 7.42645e-07 5.4446616e-07
3.947366e-07 2.7741336e-07 4.7504756e-07 1.8707468e-07 1.5872153e-07 4.5584727e-07 7.9576927e-07 4.505238e-07
3.4482855e-07 5.207244e-07 1.2228918e-07 2.2225177e-07 2.6124806e-06 2.8519472e-07 7.42645e-07 5.4446616e-07
3.947366e-07 2.7741336e-07 4.7504756e-07 1.8707468e-07 1.5872153e-07 4.5584727e-07 7.9576927e-07 4.505238e-07
3.4482855e-07 5.207244e-07 1.2228918e-07 2.2225177e-07 5.393142e-09 9.031178e-09 5.393142e-09 9.031178e-09
2.0237076e-07 3.187889e-09 1.4673705e-08 2.4283676e-08 2.0237076e-07 3.187889e-09 1.4673705e-08 2.4283676e-08
8.7447084e-08 6.5373904e-08 2.4110212e-08 1.0188804e-08 3.56691e-08 5.0207255e-08 5.343997e-08 4.414267e-08
8.7447084e-08 6.5373904e-08 2.4110212e-08 1.0188804e-08 3.56691e-08 5.0207255e-08 5.343997e-08 4.414267e-08
4.908627e-08 1.5247065e-07 4.8130598e-08 6.794518e-08 5.4990444e-08 3.432614e-08 2.4259034e-08 2.6452616e-08
1.9343119e-08 3.9327954e-08 4.3842302e-08 9.8772404e-08 2.7457293e-08 1.9841838e-08 1.8630537e-08 5.3952956e-08
4.908627e-08 1.5247065e-07 4.8130598e-08 6.794518e-08 5.4990444e-08 3.432614e-08 2.4259034e-08 2.6452616e-08
1.9343119e-08 3.9327954e-08 4.3842302e-08 9.8772404e-08 2.7457293e-08 1.9841838e-08 1.8630537e-08 5.3952956e-08
1.8443264e-09 7.011938e-10 1.8443264e-09 7.011938e-10 9.544962e-09 5.633665e-10 6.3918454e-10 9.629154e-10
9.544962e-09 5.633665e-10 6.3918454e-10 9.629154e-10 6.2614287e-09 1.3108767e-08 3.984677e-09 5.0751674e-09

exp_avg f4 [64]
00000000: 5467 b235 0400 0000 a82b e9b3 9415 f427
00000010: d620 1629 1207 ccb4 358b f2b7 12a4 9729
00000020: a78b 412d 97e3 d836 88be 6cb6 6791 b232
00000030: 21c5 b5b8 0acc ac36 a2eb 5bb1 2090 74b9
00000040: 692b 7a36 538e 5a02 8819 e9b6 6e9b 7002
00000050: 9c89 b7b7 62d3 1e23 dad1 9128 0400 0000
00000060: 22b2 4c33 13a4 da01 8adb 3434 101e a1ba
00000070: 3c0b 35b8 4178 8035 5cba cf28 a03b 4c32
00000080: 85b1 58ba 94ad e72b 8a18 a32a 1cd0 fcb3
00000090: 1444 87b8 acf9 9eb6 e545 13b5 b146 72b4
000000a0: d9af cc35 f590 2b3a 0400 0000 4137 003a
000000b0: 89e7 84b6 bd8e dc35 f688 7328 9754 0200
000000c0: 07d5 f3b5 f233 fab3 825a 6b17 fef4 0828
000000d0: d21f c034 0400 0000 4c01 b528 82d6 941c
000000e0: 829e 16b1 7a8e d6b6 2d08 ce33 02f9 15b8
000000f0: 574c 0029 b894 aa19 c2e3 909c 406e c62a
1.3292106e-06 6e-45 -1.0857849e-07 6.7747e-15 3.333517e-14 -3.8003105e-07 -2.8913471e-05 6.734209e-14
1.1001789e-11 6.4637966e-06 -3.5277644e-06 2.0788049e-08 -8.667471e-05 5.1497527e-06 -3.2002636e-09 -0.00023323344
3.727817e-06 1.6056956e-37 -6.9469133e-06 1.7677021e-37 -2.187938e-05 8.609959e-18 1.6189242e-14 6e-45
4.7659462e-08 8.031599e-38 1.6843674e-07 -0.0012292285 -4.3164226e-05 9.571742e-07 2.3062437e-14 1.188792e-08
-0.00082661986 1.6461715e-12 2.8971644e-13 -1.1772519e-07 -6.449982e-05 -4.7378326e-06 -5.486348e-07 -2.2563724e-07
1.5250363e-06 0.00065447326 6e-45 0.0004891046 -3.960861e-06 1.643282e-06 1.3518908e-14 2.14016e-40
-1.816691e-06 -1.1650981e-07 7.604683e-25 7.602641e-15 3.578594e-07 6e-45 2.00956e-14 9.849267e-22
-2.1917974e-09 -6.3942834e-06 9.59411e-08 -3.5756275e-05 2.8487924e-14 1.7637655e-23 -9.587995e-22 3.5248367e-13

exp_avg_sq f4 [64]
00000000: 7dc0 1231 b8ad 7333 13f6 1736 4a6d 2e34
00000010: 9046 2433 689a 6d33 63a9 4d35 bbf0 8334
00000020: 695d 7333 46a5 cb35 f2c2 8a34 bc02 0f31
00000030: 42f0 4935 afb0 9833 693a bb34 e01c 3135
00000040: 8918 cc33 d121 2833 8560 6f34 184e 3633
00000050: 79b3 c433 1fc4 6332 d219 f132 257e cc32
00000060: b209 fa31 4538 1733 a668 2433 4ed0 2439
00000070: 85c8 8235 4907 0435 f6b2 f031 f273 c832
00000080: 39b9 4038 ef9a 0e31 5142 2e35 79be 2434
00000090: 0e2a 5435 69bc c834 15e3 bf32 9ddf 8f32
000000a0: 9838 be32 7166 e837 4573 d631 a532 9037
000000b0: 8060 4934 0809 e332 ab5a 9032 17f6 3f32
000000c0: 2d40 7734 2cab a633 3538 3b34 2ff0 1832
000000d0: bdb1 db31 c53f b631 2370 e932 bb24 6934
000000e0: be7f 2534 03b6 db33 5670 f633 b0da 0136
000000f0: 7d22 ff33 8fb4 9935 641a 3d33 a53e 0935
2.1355213e-09 5.6735843e-08 2.2643987e-06 1.6244772e-07 3.8248402e-08 5.5321294e-08 7.661494e-07 2.4575806e-07
5.6662802e-08 1.517278e-06 2.5846344e-07 2.0810793e-09 7.5227956e-07 7.11019e-08 3.4873963e-07 6.5979657e-07
9.503953e-08 3.9146304e-08 2.2293723e-07 4.2446203e-08 9.159607e-08 1.3257732e-08 2.8067834e-08 2.380609e-08
7.27706e-09 3.5208604e-08 3.8279403e-08 0.00015717858 9.744114e-07 4.9184433e-07 7.005265e-09 2.333579e-08
4.594887e-05 2.075179e-09 6.4916554e-07 1.5342984e-07 7.903735e-07 3.738999e-07 2.2338591e-08 1.6749079e-08
2.2144647e-08 2.7704258e-05 6.2413243e-09 1.718972e-05 1.875469e-07 2.6430385e-08 1.6805037e-08 1.1173618e-08
2.3027015e-07 7.761113e-08 1.743618e-07 8.902176e-09 6.3939454e-09 5.304147e-09 2.7175764e-08 2.1713178e-07
1.5413295e-07 1.023109e-07 1.14757015e-07 1.934979e-06 1.1880636e-07 1.1451938e-06 4.4028994e-08 5.1127637e-07

exp_avg f4 [1, 64]
00000000: c78f 87b7 0400 0080 4584 25b5 e6c3 7ea9
00000010: 995e 97aa 3a1c 13b6 0c3a cbb9 47e2 8baa
00000020: a1ae a32d cdc9 7dba 0ad9 80b9 849f ddb3
00000030: b063 a8ba 67b4 b5b8 0ea4 e1b1 0445 07bb
00000040: 8b07 e3b6 5cfb 0204 ccc4 a7b9 b0c1 0902
00000050: f480 11ba bb06 06a5 2521 55aa 0400 0080
00000060: 616a d6b5 e355 9881 4eb6 e1b5 d1d6 8fba
00000070: 2a3e 34ba a79c 33b9 d015 f4a9 dd1f c4b3
00000080: 8fe1 49bc 0839 03ad fda4 222c acb3 11b5
00000090: fbdc 5bba 5fa1 70b8 5e36 b6b6 a952 b0b6
000000a0: 1619 3bb7 e731 903a 0400 0080 fae3 a43a
000000b0: 6886 c4b8 ad38 e8b8 4c10 4baa c22f 0100
000000c0: 71fd d2b6 6504 b3b4 9048 db99 8cd7 84a9
000000d0: 4994 21b7 0400 0080 0181 4aaa b6e6 269d
000000e0: 83b8 aab2 1dac 7fb9 c301 24b5 6142 85ba
000000f0: ea3b 1eab feef d198 5132 699d cb05 2bac
-1.6160206e-05 -6e-45 -6.165977e-07 -5.6569244e-14 -2.6888629e-13 -2.1921137e-06 -0.00038762426 -2.4848372e-13
1.8608505e-11 -0.0009681255 -0.0002457577 -1.032013e-07 -0.0012847092 -8.664355e-05 -6.5670127e-09 -0.0020640502
-6.7660053e-06 1.5396845e-36 -0.00031999347 1.0120756e-37 -0.00055505265 -1.1624928e-16 -1.89297e-13 -6e-45
-1.5975203e-06 -5.5959223e-38 -1.6816864e-06 -0.0010974054 -0.0006875718 -0.00017129128 -1.08395606e-13 -9.132757e-08
-0.012321844 -7.459151e-12 2.3113172e-12 -5.4278166e-07 -0.00083871157 -5.7370748e-05 -5.430352e-06 -5.2548316e-06
-1.1151909e-05 0.00110012 -6e-45 0.0012580149 -9.3710434e-05 -0.00011073179 -1.8035676e-13 1.08968e-40
-6.287992e-06 -3.3344546e-07 -2.2673377e-23 -5.899369e-14 -9.630873e-06 -6e-45 -1.7985961e-13 -2.2089192e-21
-1.9874511e-08 -0.00024382812 -6.1097325e-07 -0.0010166877 -5.6216024e-13 -5.4267564e-24 -3.0863306e-21 -2.4303777e-12

exp_avg_sq f4 [1, 64]
00000000: db57 8035 2041 d937 5471 b439 509a b437
00000010: 38a2 8e36 e370 d137 902c 1437 ee44 ff36
00000020: 5d37 be37 f1f2 a838 7e51 0839 a048 4936
00000030: 1739 8338 1bb6 d337 a314 7338 fccb 0838
00000040: 1eb4 de38 7feb b437 e6c7 4138 5eb4 8237
00000050: c7f2 9437 1ed0 9037 511f e237 91a0 3e37
00000060: 4bba ab35 0b5c 2c36 c785 c536 0ed2 f139
00000070: 8432 c138 3723 3238 d9e1 ed36 08df 4836
00000080: d18a 8b3b cf13 1b37 a263 0d39 4a1b 0e38
00000090: 2c0a 2538 8b49 9039 501d 1737 76aa 7f36
000000a0: 2d9b b736 61b7 153a 92c0 cb35 cde1 5539
000000b0: 5d85 5437 3bcd 2037 058c 4e37 5074 4237
000000c0: dc3e 8a38 cbb8 a437 9421 da37 1acf 2537
000000d0: 9175 3d36 65be 0b34 167a 0e37 e5ac 3238
000000e0: 46c7 ca38 b445 1537 301d 4a37 f066 c338
000000f0: 9a12 ba36 4475 1139 35ee 2f37 aae8 c238
9.562312e-07 2.5898742e-05 0.0003441671 2.152953e-05 4.2508145e-06 2.4967308e-05 8.831863e-06 7.6076167e-06
2.2675546e-05 8.0561156e-05 0.00013000329 2.9993607e-06 6.2572006e-05 2.523796e-05 5.7954934e-05 3.2614902e-05
0.00010619334 2.1567334e-05 4.6200956e-05 1.5581198e-05 1.7756027e-05 1.726305e-05 2.6955882e-05 1.1362267e-05
1.2794711e-06 2.5683573e-06 5.8866312e-06 0.00046123605 9.2123664e-05 4.2471303e-05 7.0894425e-06 2.9932144e-06
0.0042584916 9.243332e-06 0.00013483924 3.3880853e-05 3.934854e-05 0.00027520614 9.007126e-06 3.8097182e-06
5.47189e-06 0.00057112245 1.5180724e-06 0.0002039738 1.2667236e-05 9.584527e-06 1.2311158e-05 1.1590382e-05
6.592061e-05 1.9636374e-05 2.6003261e-05 9.882986e-06 2.8231627e-06 1.3014649e-07 8.492285e-06 4.2599528e-05
9.669228e-05 8.897321e-06 1.2046934e-05 9.317498e-05 5.5453975e-06 0.00013871962 1.0486275e-05 9.293978e-05
