Experiments/Experiments-009/checkpoints/model.pt (torch, 994319 bytes, 27 tensors)

cp.convs.0.weight f4 [2, 1, 3, 3]
00000000: 37d8 76be 6c9d a6be c2be d83d 5d72 57bd
00000010: 8603 ecbd c076 49bd 6995 783e 43a3 08bd
00000020: c97c a1bd 77cd 48be 71d3 693d 77f8 4cbe
00000030: 6746 1b3e ac83 9ebe e488 8fbd 65f4 403e
00000040: 7878 4bbe 2754 b1be
-0.24105917 -0.32541978 0.10583259 -0.0525993 -0.115241095 -0.049185514 0.24275745 -0.033358824
-0.07885129 -0.19609629 0.057086412 -0.20016657 0.15163575 -0.30959833 -0.07008532 0.18843229
-0.19870174 -0.34634516

cp.convs.1.weight f4 [4, 1, 3, 3]
00000000: 848f 473e 1c8e b43c d395 5dbe 1386 363c
00000010: aa11 30be 14e5 263e 2e9c 8ebe 0ecb d93d
00000020: f949 223e 240a e63d 85f0 b43e 5187 843e
00000030: c108 aa3d 0152 b73d 82fa 87be ae14 b03e
00000040: 073f 643e bdd3 33be 1304 73be 0fcd 67be
00000050: 7112 743e 8618 aabe 5396 1ebe 4b2e 81bc
00000060: ed60 24bd 0389 02bd 3861 ff3d 185b 0bbe
00000070: fdfa ed3d 7eb5 4e3e fe15 43be dd6d 9bbe
00000080: 3ffd 7ebe 8950 8c3e 729d 693e 2a13 47bd
0.1948834 0.02204042 -0.21639185 0.011140364 -0.17194238 0.16298324 -0.2785353 0.10634433
0.15848531 0.11232403 0.35339752 0.25884488 0.08302451 0.08951188 -0.2655831 0.34390777
0.22289668 -0.1756124 -0.23732023 -0.22636817 0.2383516 -0.33221835 -0.15487032 -0.015769145
-0.040131498 -0.031868946 0.12469715 -0.13608968 0.11620138 0.20186421 -0.19051358 -0.30357257
-0.24901293 0.27405193 0.22813967 -0.04860226

cp.convs.2.weight f4 [8, 1, 3, 3]
00000000: afa9 f83d eae8 43be e63c a93e 9de6 a43e
00000010: c573 e73d 96e1 cdbd 4641 a1be 7090 5fbe
00000020: ae10 4e3e 4387 66bd 5cc4 a3bd d0dd 3cbe
00000030: b1a2 b7be 8333 803d 278e 193e c9ed 693e
00000040: 6692 883e 6016 4e3d 149e 743d 1f5b 46bd
00000050: cb42 08bd 79eb 39bd c26c 973e 162a 55be
00000060: e0ff 7e3e 6503 89be 6615 773e b3af 6a3e
00000070: 2dee 71be 515b 5c3e 5762 f53d da7a 963d
00000080: 8cd0 833d c110 a33e 0448 333e e9e1 5a3e
00000090: b5da c33e 6867 a23e b23a 7f3e f9ff 013e
000000a0: 66fd 7b3e c79f 4abe 857a fa3d 5baf 253e
000000b0: a7b0 c63e bd92 6dbd 0507 893e bcf5 8ebe
000000c0: 6174 8a3e 366b 803e bf7d 813d 429b 643e
000000d0: 6ae1 a83a e2b3 c3be 3abe c93d 8e78 963e
000000e0: 0a39 263e 3a49 ba3e 0b8f 963d 9249 1c3e
000000f0: 74b7 93be 8e30 023c 9fc7 223d b360 c0bc
00000100: a935 483e 8e59 3e3e 1c91 2ebd 3ac6 adbe
00000110: 0433 49be 0551 373b d4bc e23d 041e 68be
0.121417396 -0.19131818 0.33054274 0.32207194 0.11301378 -0.10052793 -0.31495112 -0.21832442
0.2012355 -0.05628134 -0.07996437 -0.1844399 -0.3586631 0.06259825 0.14995633 0.22844614
0.26674193 0.050314307 0.059721068 -0.048426744 -0.033266824 -0.04539058 0.29575163 -0.20816836
0.24902296 -0.26760402 0.24129257 0.22918586 -0.23626013 0.2151921 0.119816475 0.07347651
0.064362615 0.3184872 0.1750794 0.2137524 0.38252798 0.31719518 0.24924734 0.12695302
0.24608383 -0.19787513 0.122304 0.16180174 0.3880665 -0.05800127 0.26763168 -0.27921855
0.27041915 0.25081795 0.06322812 0.22324851 0.0012884561 -0.38223177 0.09850736 0.2938885
0.16232696 0.36383992 0.07351502 0.1526244 -0.288509 0.007946147 0.039741155 -0.02348361
0.1955172 0.1858885 -0.042618856 -0.33940297 -0.19648367 0.0027971875 0.11071172 -0.226677

cp.convs.3.weight f4 [16, 1, 3, 3]
00000000: 8cb6 ef3d b70a df3d 1906 933e a84f 863c
00000010: 66f0 c13d 449d b23e 82e3 05be 3a24 cb3d
00000020: 2743 283e ec6d 173e 31c0 343e 6f56 dbbd
00000030: 2357 c5be 7b2b b73e c352 40bd 93c3 b1bc
00000040: 846d 6ebe c4bb 473d 6ef5 8bbd f72a c53e
00000050: b3f1 c63d 61f0 28be e4b5 7fbc e5a7 9dbe
00000060: 3d8f 803e ce08 d33c e95b 503e d117 7e3e
00000070: b9e0 30be c2fe 613e 92e1 51be b954 abbd
00000080: f3c8 64be a384 9b3e 0210 c9bd 99d3 5fbe
00000090: 29d2 4a3e de32 c33e dbba 553e 4d6a a2be
000000a0: 3bd1 0d3e 69ae 9dbe 7d25 4abd 0cb5 1dbe
000000b0: ed63 4bbe 8393 ebbc c907 9c3d 35f4 f4bd
000000c0: d5ec d4bd ecfb 613e f731 08be b709 643e
000000d0: cceb 92be c212 0c3d c725 1e3e 6869 a8bd
000000e0: 9d4f 463d 2f08 733e 039d a3be 0b7b 15be
000000f0: 7393 08be 27c4 bdbe 9fb0 743e e583 833e
00000100: 4532 6f3d 03b0 453d 9f49 933d c237 973c
00000110: 79e0 56bd 553b 843e 4f31 1abe 8207 a13e
00000120: 0b3f 67be d0c1 6f3e a72f 19be cc7e 233e
00000130: d4f9 ae3e 5b1b ec3d f29c 1d3d 8e3b 613e
00000140: 2cc1 d73c 592c 553e a41c 9fbe 5c30 a3be
00000150: 1ac8 23be aa98 fc3d b78e 593d 6a92 43bd
00000160: 6735 b4be 913c 953d c70d 01be 02e0 903c
00000170: 8b51 733e f638 b13e f59f bbbd d3e5 9b3e
00000180: 3764 bf3e 132f b8bd 7e47 56be 882e 89be
00000190: 1cae 78be 42c1 343d 0532 983e 4400 6b3e
000001a0: d96e 3cbd aae5 9b3d 2ab9 203e ba00 1d3e
000001b0: 6c32 32be a687 9d3d e120 973d 8c78 c3be
000001c0: ab70 a2be c55c c1be ae63 31be c5eb 58be
000001d0: 3fd9 b2be 7780 303e 02e7 f6bd 4526 f13d
000001e0: 0a2f 333e dc18 803e 0bc4 55be 72e1 2dbe
000001f0: c302 703e 25b6 5f3d 542a 2d3e e7bf debd
00000200: 7479 833e dfd0 76be 5e94 b23e 935a 94bd
00000210: 0c0c 143e 8fa5 9c3e 5eeb 3b3e e865 12bd
00000220: 467d cabd 4e93 643d 459b 1f3d 3979 873e
00000230: dc51 79be 68b3 6f3d da60 84bb e5c3 be3d
0.1170474 0.108907156 0.2871559 0.016395405 0.094696805 0.3488561 -0.13075069 0.09919019
0.16431867 0.14788026 0.1765144 -0.10709845 -0.38543043 0.3577536 -0.046953928 -0.021699702
-0.23283964 0.04876305 -0.068339214 0.38509342 0.09714069 -0.16497947 -0.015607331 -0.30792156
0.25109282 0.025761034 0.20347561 0.24813773 -0.17273225 0.22069839 -0.20496204 -0.08365769
-0.22342281 0.3037463 -0.098175064 -0.21858062 0.19806732 0.38124746 0.20872061 -0.31721726
0.13849346 -0.30797127 -0.049352158 -0.15401095 -0.19862337 -0.028756863 0.076186724 -0.11960641
-0.103967346 0.22068757 -0.1330031 0.22269331 -0.28695524 0.034197576 0.15444098 -0.0822323
0.04841577 0.2373359 -0.31955728 -0.14597718 -0.13337497 -0.37063715 0.238955 0.25686565
0.05839755 0.04826356 0.071917765 0.018459205 -0.052460168 0.25826517 -0.15057872 0.3145104
-0.22582643 0.23413777 -0.14959584 0.15966338 0.3417498 0.11528655 0.038479753 0.21995375
0.026337229 0.20817699 -0.3107654 -0.31872833 -0.15994301 0.12333806 0.05311462 -0.047747053
-0.35196993 0.07286943 -0.12602912 0.01768494 0.23761575 0.3461377 -0.09161369 0.3044878
0.37381145 -0.08993354 -0.2092571 -0.26793313 -0.24285167 0.044129618 0.29725662 0.2294932
-0.04600415 0.07612164 0.15695634 0.15332308 -0.17402047 0.076918885 0.07379318 -0.38177907
-0.31726584 -0.3776609 -0.17323181 -0.21183689 -0.3493137 0.17236505 -0.1205578 0.117748775
0.17498413 0.25018966 -0.20875566 -0.16980532 0.23438554 0.054617066 0.16910678 -0.10876446
0.256786 -0.24103115 0.3487882 -0.07243838 0.1445772 0.3059506 0.18351504 -0.035741717
-0.09887175 0.055804543 0.038966436 0.26459673 -0.24347633 0.058520705 -0.004039866 0.09314708

_mlp.0.weight f4 [256, 60]
00000000: 461a 163d 158d d4bd 9484 56bc 69d0 15bd
00000010: a532 d1bc 9c4e 8bbd 9617 333d e548 ccbb
00000020: 454b 7b3d fec0 cf3d c732 a43d eafb ef3d
00000030: 5c0e 4b3d 038f 893d 1d25 ff3d a561 cdbd
00000040: 0528 f6bb b05e 023e 5e98 443d 3389 883d
00000050: 3fca f73d c631 45bd c838 fa3d d627 b3bc
00000060: 2d0f 5d3d ce70 0bbd 6a89 0f3d fcb9 943d
00000070: 1f25 debd 000c ccbd d6bd 82bc fde0 503c
00000080: 8982 3cbd 7551 013e fd24 48bb 4105 2fbb
00000090: 5b52 363b 4ace d83d 8e32 4fbd 2a17 adbd
000000a0: 811a c23d 6983 8bbd c4f4 b73b d451 b43b
000000b0: 9b53 7d3d 837b 3f3c 0252 5e3c 293d 723d
000000c0: f064 25bd 027e 1bba 84fa fdbd 1ffb 42bd
000000d0: 6565 6b3d 4e38 8fbd 60b9 2a3d e99c 49bd
000000e0: 75a7 573d 6960 f53d 9a03 6fbd 3b18 983d
000000f0: be74 6fbd 42b7 c13c c10b e83d c5c7 e6bd
00000100: a89b 913d 1d79 b7bd 64e7 c33d 070d ee3d
00000110: fe98 da3a 8f29 1bbd a6bd e3bd 5d00 703d
00000120: 3121 1d3c a2e9 d23d ee2a 8b3d b501 7d3a
00000130: dee4 c2bd 1641 a4bd eb12 23bd 5e3c 00be
00000140: 0009 f93d 34f7 853c 9592 c93d 6e84 84bc
00000150: 85bc 89bd 6cd3 173d ed37 7cbc ed19 e13d
00000160: eddc cf3d 0803 823c 00e2 e9bc 1fa5 453d
00000170: cda5 e83d 9803 193d e86c 97bd 5b3e 873d
00000180: ca8b 233c b359 9f3d be3e d5bd a9d8 c43d
00000190: 0d61 92bc 438e 913d 2196 a23d 3b5c c93d
000001a0: 37ad 80bd 4b4d e0bd 2fb7 abbd fd79 c03d
000001b0: 3848 ac3d fd58 a33c 94e4 943d edf3 b73d
000001c0: 5e22 a83c 2aa0 dd3d a3b9 ddbd 8d87 d3bd
000001d0: c180 013d 9d13 4d3d 187b 823d 23d2 02bc
000001e0: e604 573d 0078 64bd 316d b4bd ad5c 3cbe
000001f0: 8824 0bbe e976 0abc 1522 2abe 71df 24be
00000200: ac77 e2bd 2a2b bdbd a4c3 15be 12da 14be
00000210: f45d e53c aec6 eb3b 4d9c 3bbd c512 31be
00000220: 630b 02be a546 22be 4026 553d 6edd fabd
00000230: 7918 2ebe 9f52 3cbd ede4 ee3c a191 84bd
00000240: 3595 2dbe f41f 873d 0920 0c3d fad4 fbbd
00000250: 976d 04be 0b95 1abe baf1 313d e168 72bd
00000260: 2d7b d53c cbef f5bd de3a c7bd 9ece 2fbe
00000270: 0459 9bb9 3191 03bd 4367 34be f98e bcbd
00000280: 6a91 5f3d b968 d2bd 5b52 03be b300 283d
00000290: fd10 2abe 7184 31bd aa89 8fbc 37c5 cfbd
000002a0: 3a4d 23be 9d7c 133d dc32 e13c c164 1e3d
000002b0: dcc3 b93c 552c 81bd 46b9 113c 806e fdbd
000002c0: f39c 21be 5e39 39be aa9c 133d bb11 2b3d
000002d0: 1925 063d a1bc 84bd d662 f9bc 878d 9c3d
000002e0: 6b58 48bd 83a7 c9bc 6ecd a2ba 62fc 143d
000002f0: 39ca 17bd 93cd 40bd 6ee3 453d 0933 b53d
00000300: 181a c03d 6438 f43d acc9 e73d b25a fd3d
00000310: 3e0d d2bc 29e3 afbd b734 c3bc 120f f9bd
00000320: 8405 be3d 771c 48bb 988c d8bb 59f4 3fbd
00000330: 4bec 053d eea9 cc3d 0eb6 893c 2ed7 80bd
00000340: 27fc b8bd 9575 803d 5d2e f83d 4bd6 9d3d
00000350: 0fdb d4bd 4eff 853c 7126 933b 807f 34bd
00000360: 4563 18bb 8a67 5f3d 75fe f73c bb0a 483d
00000370: d587 aabd 7e97 05bd 5f41 fabc 9ac6 e83d
00000380: 2be9 adbd e88c eb3d ad0d 8ebd 15f3 d43c
00000390: b205 db3b 8569 c73d 0e51 00be 4923 b33d
000003a0: eca6 b83d 564b 80bd 2005 4e3d 7b87 ba3d
000003b0: 4250 51bd 1d8d f23d b79a 083b 9a7d f13d
000003c0: 7437 d23b a512 fbbd 0cab 1bbe e94b 9dbc
000003d0: 22c3 3e3c a6d7 e9bd 3df0 a6bd ccf7 2fbd
000003e0: 38b3 60bd 6acb 84bd a252 05be 6ff5 3dbe
000003f0: 4eb5 613c 29b0 22be 328a afbc 9e12 1cbe
0.03664615 -0.10378472 -0.0130931325 -0.03657571 -0.025536845 -0.06802103 0.043723665 -0.0062342756
0.06135108 0.10144232 0.080174975 0.11717971 0.04957424 0.067167304 0.12458251 -0.1002839
-0.007512095 0.12731433 0.04799687 0.06666794 0.12099122 -0.04814317 0.122178614 -0.021869581
0.05396955 -0.034043126 0.035043158 0.07262036 -0.10846924 -0.09963226 -0.015959661 0.012748954
-0.046022926 0.1262873 -0.0030539625 -0.0026706012 0.0027820084 0.105862215 -0.050585322 -0.08451684
0.094777115 -0.06812174 0.005613895 0.0055029187 0.06184731 0.011687162 0.013569357 0.059140358
-0.040379465 -0.00059315574 -0.12401298 -0.04760277 0.057469744 -0.06993161 0.041680694 -0.049221907
0.052649934 0.119812794 -0.058353044 0.074264966 -0.058460943 0.023646954 0.11330367 -0.11268572
0.07109767 -0.089586474 0.09565619 0.116235785 0.0016677675 -0.03788143 -0.11120157 0.058594096
0.009590433 0.10298468 0.067952976 0.00096514384 -0.09516309 -0.08020227 -0.039812963 -0.12523028
0.1215992 0.016353227 0.098424114 -0.016176429 -0.0672541 0.037066862 -0.015394193 0.10991273
0.1014956 0.015870586 -0.028550148 0.048253175 0.11359749 0.037356943 -0.07393819 0.0660369
0.009982059 0.07780781 -0.10412358 0.09611637 -0.017868543 0.071072124 0.07938791 0.09832045
-0.06283038 -0.109522425 -0.08384549 0.093982674 0.08412212 0.019939894 0.0727016 0.08982072
0.0205242 0.108215645 -0.10826423 -0.10328589 0.03161693 0.050067533 0.063711345 -0.007984671
0.052494906 -0.055778503 -0.08809889 -0.18394728 -0.13588154 -0.008451202 -0.16614564 -0.16100861
-0.11057982 -0.092367485 -0.14625412 -0.14536312 0.027998902 0.0071953153 -0.045803357 -0.17292316
-0.12699656 -0.15847261 0.05203843 -0.122492656 -0.17001523 -0.04597723 0.029161895 -0.06473089
-0.16951449 0.065978914 0.03421024 -0.122964814 -0.1293243 -0.15095918 0.04344342 -0.05918205
0.026059711 -0.120086275 -0.09728025 -0.17168662 -0.00029630226 -0.032120887 -0.17617516 -0.09206957
0.054582037 -0.102738805 -0.12824385 0.04101629 -0.16608043 -0.043339197 -0.017521698 -0.101450376
-0.15947428 0.036007512 0.027490072 0.038670305 0.0226764 -0.06307284 0.00889427 -0.12374592
-0.15782528 -0.1808829 0.03603808 0.041764956 0.032750223 -0.064812906 -0.030442636 0.07644182
-0.048912447 -0.024616009 -0.0012420842 0.036373504 -0.03705809 -0.04707105 0.048312597 0.08847625
0.09379977 0.11924818 0.11317763 0.123708144 -0.02564108 -0.08588249 -0.023828847 -0.121610776
0.09278396 -0.0030534544 -0.006608557 -0.046863887 0.03269605 0.09993349 0.016810443 -0.06291042
-0.09032469 0.06272427 0.12118218 0.07706889 -0.103933446 0.01635709 0.0044906666 -0.044066906
-0.0023252529 0.054542102 0.030272702 0.04883836 -0.08326689 -0.032615177 -0.03054875 0.11366005
-0.08491739 0.11501485 -0.06936202 0.025994817 0.0066840285 0.09736923 -0.1253092 0.087469645
0.09016213 -0.06264369 0.050297856 0.09107872 -0.05110193 0.118433215 0.002084417 0.11791535
0.006415302 -0.122594155 -0.15201968 -0.019201236 0.011643203 -0.11418085 -0.081512906 -0.042960927
-0.054858416 -0.06484111 -0.13019803 -0.18550657 0.013776137 -0.15887512 -0.021428201 -0.15241477

_mlp.0.bias f4 [256]
00000000: 1c94 6e3d 2832 483d ab7d 3d3e 35e6 703d
00000010: d8e5 053e a573 8b3c c650 2d3d 5001 293d
00000020: e5bc ae3c 8f84 703c 9192 c9bd dc95 d93c
00000030: 9605 b7bd 1540 5f3d da5a 13be 484e 0a3d
00000040: 1b76 c93d 9737 ac3b e1af c9bd 89ab 863d
00000050: cab5 fc3b e5ea 2dbe 63be 473d 7a2f db3d
00000060: 5582 78bc 0b3f d23d 9fcb 13be 1f75 203d
00000070: a858 203e 0ea8 fa3d bede d7bd bd26 81bd
00000080: 3119 b33d bf65 483d 6327 cb3c 60ee 7c3d
00000090: d0b9 20bd 61d0 aabd 30e8 603d 8174 fbbd
000000a0: 301e 8dbd a974 a63d e536 71bd 50de e23d
000000b0: 1081 36bd 85fa f1bd 3052 f23d 6f94 d23d
000000c0: d4ac 5a3d ae2b dcbd 04fa b4bc 8230 96bd
000000d0: 71ff 023e 8212 d6bd 0a11 883d e9a2 2cbc
000000e0: 85ea 013e 9989 093e 978b 38be 7928 e83b
000000f0: c468 83bc 4b73 e13d 28e8 d2bd af8e b9bd
00000100: 3170 c8bd 9723 67bb ddf9 893d fcbf 7d3d
00000110: 008b bf3c 5b00 f6bd fd44 15bd 9688 ff3d
00000120: 08ba 2ebd 4af8 88bd 95ed c53c 7a83 51bd
00000130: dc96 3a3e 38a1 9dbd fdf6 8cbd 4db2 db3c
00000140: d254 dbbd 699b 30be f7df 453d 6d9e 323d
00000150: 1359 1ebe c962 c83d c21d 003e e2ff d43c
00000160: 9b0a c43b 8bef 8a3c cd14 c83d 91a9 ed3c
00000170: 8dcc 41bd 4834 a83d 9150 2bbc 6320 e1bd
00000180: 042f 90bd 8207 933d 165f dc3d 7f75 0cbe
00000190: bdbb 8dbd 5913 86bd 2ca7 bcbd 50cb 423d
000001a0: 5ced e7bd 393f 29bd 10fc debc 8e5d ad3d
000001b0: a64a 5cbd 4d46 483d 6b6c db3d 5cdd 7dbd
000001c0: 0936 e13c 7afd a93d 358e cf3d d2c2 ad3c
000001d0: a599 29bd 0384 a83a 89da 6f3b d07f 63bc
000001e0: 1029 143e 9089 07be 3773 6e3d 057d 9ebd
000001f0: 1290 82bc 6733 44bd b845 253e bc53 ff3d
00000200: 3285 47bd db33 fbbc 232b e13d cfff 213d
00000210: 5b85 79bd 9eab e13d 30d4 6abd 81cf 63bd
00000220: 0a91 eabd d74f 9cbd 7c96 b93d 3bab f53d
00000230: d081 773c e400 4d3d 8f03 6dbd 9e1c 8e3d
00000240: ac60 6bbd d78b e7bd 9c00 39be 5878 50bd
00000250: 27fb 08bc d11f 923c 2d76 e33b 5196 b53a
00000260: 64f1 613c f015 e6bd 163c 2ebd cfa4 f7bd
00000270: 559c 3bbd 6c01 33be 79e6 ea3d a9ae f9bd
00000280: 00b6 20be c38f f93d 7bf0 08bd f92a 633c
00000290: 20f6 343d 9ff7 3ebd ad48 87bd 964a 17be
000002a0: 7141 2ebd 8cbd f9bb ef16 ae3b cd44 24be
000002b0: ff07 febd e0b8 00be 6c2f cabc 8c9d 863c
000002c0: 689d a6bd ff44 993d 1d2e c0bc 2b52 a23c
000002d0: 7088 1dbd 9422 21be b5ab f03d c0fd f9bd
000002e0: af52 023d 9300 f3bd ffd2 a53c 272d 7ebd
000002f0: caca 46bd d38b dfbd 130d dcbd 3a66 063c
00000300: 8651 02be ab6b 38bb 1f8f b43d a891 d5bd
00000310: 5a3a 12bd b9c0 523d bcc9 2d3d 54ea 0cbd
00000320: 5ace 263c 5dec 353d d6df b3bc 54bd 1bbd
00000330: fc60 9fbd b92c 8a3d 42fe 863d 4d69 01be
00000340: 7e4a 48bc 1ad3 38bb f423 fe3c 5e1d 063d
00000350: 8494 ebbc af53 f1bd ad87 e33d 0d46 353d
00000360: b981 003e e852 ce3d 6a69 6bbd eda8 89bd
00000370: f796 bebd d501 363e 9c67 4a3b 8cdb e2bd
00000380: d69f c93d f303 cb3c 6a8c 153e 9d2e 873d
00000390: c748 1cbe dc96 d7bd 924f 5fbd 31e3 5d3d
000003a0: 2d27 063e 9336 1e3e ff47 fcbd e7ad 933c
000003b0: 9e83 123d 2df8 9fbd 9546 373e 5076 d8bd
000003c0: 3743 8bbd d345 a53d 81f5 f2bd 7de1 b53d
000003d0: 37b6 29bd 9631 2ebc abda 503c 88a6 90bd
000003e0: fcc8 10bd 535d 9e3c 9c79 793c 7a10 da3c
000003f0: c485 2abd b553 3f3e 7355 17bd bbac 7e3d
0.058246717 0.048875958 0.1850497 0.058813293 0.1307596 0.017022917 0.04231336 0.041261017
0.021330306 0.014680042 -0.098424084 0.026560716 -0.08936612 0.054504473 -0.14390126 0.03376606
0.0983698 0.0052556503 -0.09847999 0.065756865 0.0077121006 -0.16984136 0.04876555 0.10702415
-0.015167792 0.10265931 -0.14433144 0.039174195 0.1565882 0.12239085 -0.105405316 -0.06306217
0.08745039 0.048925158 0.024799054 0.06175077 -0.039239705 -0.08340526 0.05490893 -0.12278081
-0.068905234 0.0812772 -0.058890242 0.11077559 -0.044556677 -0.11815361 0.11832082 0.10282218
0.053387478 -0.10750519 -0.022091873 -0.07333471 0.12792756 -0.10452749 0.06643875 -0.010536888
0.12687118 0.13431396 -0.18022 0.007084903 -0.016041167 0.110083185 -0.102981865 -0.09060418
-0.09787024 -0.0035269016 0.06737111 0.06195067 0.02338171 -0.120117866 -0.036442745 0.124772236
-0.042657882 -0.066879824 0.02416114 -0.051150776 0.18221611 -0.07696766 -0.06883047 0.026818419
-0.107095376 -0.17246784 0.048309293 0.043608118 -0.15463667 0.09784467 0.12511352 0.02600092
0.0059827096 0.016959926 0.097695924 0.02901152 -0.047314215 0.08213097 -0.01045622 -0.109925054
-0.070402175 0.071791664 0.10760324 -0.13716696 -0.06920574 -0.06546659 -0.09211573 0.047557175
-0.113245696 -0.04132006 -0.027219802 0.0846511 -0.053782128 0.04889517 0.107140385 -0.061978683
0.027491586 0.083003 0.10134546 0.021211062 -0.041406292 0.0012856725 0.0036598763 -0.013885453
0.14468789 -0.1323607 0.058215346 -0.07738689 -0.015937839 -0.047900584 0.16139877 0.12467143
-0.04871101 -0.030664375 0.10994556 0.0395506 -0.060918193 0.110190615 -0.057331264 -0.055617813
-0.11453445 -0.07632416 0.09061906 0.1199555 0.015106633 0.050049677 -0.057864722 0.06939052
-0.05746524 -0.11305969 -0.18066639 -0.05089602 -0.008360661 0.017837437 0.006941578 0.0013854002
0.013790462 -0.11234653 -0.04253777 -0.120919816 -0.045803387 -0.17481011 0.114697404 -0.12191517
-0.15694427 0.121856235 -0.033432465 0.013865226 0.044180036 -0.04662287 -0.06605659 -0.14774546
-0.04254288 -0.0076214727 0.0053127925 -0.1604187 -0.12403869 -0.12570524 -0.024680816 0.016432546
-0.081354916 0.07483863 -0.023459489 0.019814571 -0.038460195 -0.15735847 0.117515005 -0.12206602
0.031817134 -0.11865344 0.020242212 -0.06205478 -0.04853324 -0.10915341 -0.10744681 0.008203084
-0.12726411 -0.0028140347 0.08816361 -0.10428172 -0.03570018 0.051453326 0.042428717 -0.03440316
0.010181034 0.044414867 -0.02195732 -0.038022354 -0.0778217 0.067468114 0.065914646 -0.12637825
-0.012224792 -0.0028201998 0.031023003 0.03274285 -0.028757341 -0.117835395 0.111098625 0.04425626
0.12549485 0.10074407 -0.057473578 -0.06721673 -0.09306138 0.17774136 0.003088451 -0.110770315
0.098449394 0.024782157 0.14604345 0.06600688 -0.15262137 -0.10526821 -0.054519244 0.054171745
0.13100882 0.15450506 -0.1231842 0.018027259 0.03577005 -0.07811008 0.17898019 -0.10569441
-0.067999296 0.080699585 -0.118632324 0.08880899 -0.04143354 -0.010631939 0.012747447 -0.07063013
-0.035347924 0.01933161 0.015226748 0.026619185 -0.041631475 0.18684275 -0.036946725 0.062176447

_mlp.2.weight f4 [256, 256]
00000000: 748d b03c 40a3 ce3a d813 d3bc 0461 d83c
00000010: c276 2dbd 3071 05bd a8e7 00bc d035 55bd
00000020: 986a 0f3d 382a 2fbc 0070 c439 4095 533d
00000030: 8c3b d1bc f433 96bc ee26 26bd 0656 48bd
00000040: 86eb 6ebd 46a1 7ebd d0ca be3b 46b7 42bd
00000050: 2c50 c93c 46a9 2bbd 74d1 9cbc a099 fe3b
00000060: 7ce0 d2bc dac7 19bd 0066 e139 8c6c 673d
00000070: c8e3 f4bc 5cd7 e73c 40a8 e7ba 50f9 e13c
00000080: cc8f 2e3d 60f5 46bb 5c58 8bbc 0cf4 2b3d
00000090: 421f 3bbd 3487 ccbc 5853 11bd 28eb e9bc
000000a0: fcbc e73c 9064 a73b 6a6c 113d d2c8 513d
000000b0: 2082 473d 7657 493d f04f cb3c d462 b83c
000000c0: 0c91 ea3c 04b5 763d 7a9b 4b3d 086a f7bc
000000d0: 884a 5f3c 76c4 70bd 6c4d c4bc f065 e3bb
000000e0: 62cc 62bd d856 483d 6092 5cbc c839 f0bc
000000f0: 7862 4dbc e0d0 423b d081 6e3c dac5 5dbd
00000100: e006 c5bb f08f ef3c 5087 ef3c d08d 07bd
00000110: 7e65 713d 465d 453d 46ce 513d a67d 053d
00000120: 503a 833c 240c a4bc 208b 7ebd c0f2 3e3d
00000130: 88e4 90bc 2a56 6cbd 68e2 d33c 1696 0fbd
00000140: 409c 56bc 8cb6 433d 60f2 77bb 9efc 15bd
00000150: a20c 733d 50b6 86bc 1436 31bd 6aa1 403d
00000160: 7a17 783d 3e17 7c3d 6cb6 26bd e041 55bd
00000170: 8a3b 5a3d ac61 88bc 5a9c 1a3d 1a2b 08bd
00000180: 2015 69bb f06e a2bc c0c8 d73a 7854 ac3c
00000190: c4d3 8fbc b0be 483d 9e10 163d 0049 2dbd
000001a0: fa76 01bd b454 3e3d ae43 25bd b421 1e3d
000001b0: 2caa 6bbd 50ba cfbb 0099 44bd c493 68bd
000001c0: 088e 613d f009 39bc 926a 4ebd 6e8c 063d
000001d0: 58ae 47bd 545e 193d 4ef9 23bd 3c49 65bd
000001e0: f8f5 73bc f625 243d c07e 44bb 48cd 393d
000001f0: 9865 393d d082 1d3d 2080 6d3b e072 243b
00000200: 704a 08bc c0dd 18bd 8212 3c3d 1225 67bd
00000210: ecf2 86bc a0bd e8bb 8e2c 383d 32fb 05bd
00000220: b018 fc3b c061 8c3a 0075 08bc a039 afbc
00000230: 5838 4abc 3043 3ebd 9048 283c 3c4c 093d
00000240: 002f 553d b48c f63c 30eb fbbc 9059 be3b
00000250: 543f 633d 7821 16bd 9aa1 76bd 60ff 55bb
00000260: 20c6 b1bc c848 243c 0e22 11bd 3c24 adbc
00000270: b0ce 52bd c6db 75bd 30c9 9cbc 5839 cd3c
00000280: 9078 31bc 6492 673d f050 673c 38c6 e4bc
00000290: 9c7f a9bc 32b7 673d 00f0 a9b8 606a e13b
000002a0: a8b2 7abc c882 ebbc 362b 43bd 14f3 2dbd
000002b0: fc60 febc 8ac3 47bd 78a4 a0bc 68bb 22bd
000002c0: 1e5e 4fbd 7057 b4bb 7435 3dbd 6859 023d
000002d0: e099 613d 8093 373c c005 913a 80d9 0ebd
000002e0: 4453 bbbc 9849 2c3c c84c d03c 3a7e 533d
000002f0: 385e 5f3c f0cc 3ebd a81b 6a3d 18f0 c73c
00000300: ec08 adbc 28d5 08bc de33 02bd c01c be3a
00000310: 6042 29bd 027d 25bd 321c 223d 781b 7cbc
00000320: 10d7 d43c 2ad8 7dbd 502c 92bc ac50 973c
00000330: 1eb7 483d b8d4 a03c ac89 cdbc eea5 17bd
00000340: 289f 66bc acff ce3c f889 563d ac1b 323d
00000350: 008b 2abd 3ef6 723d 40c7 753c a047 0f3c
00000360: 9a4d 2f3d 4035 a53a 9431 58bd 28d9 1cbc
00000370: 8063 503a 6c0b d23c 7093 df3b bcce 523d
00000380: fa7f 4c3d 128c 4c3d 120b 7dbd 4a75 2bbd
00000390: 5c30 66bd a645 73bd 5030 f73b 70d3 523c
000003a0: 14e6 c9bc c85c e3bc 2c85 c9bc 68f6 4b3c
000003b0: 9405 96bc da29 573d ecf9 d7bc 401f 4ebb
000003c0: 1ec2 7cbd f82c ebbc ac6a 883c 5a06 1f3d
000003d0: 0e74 69bd 788e 4fbc e806 a4bc bc66 c83c
000003e0: 381e c5bc 40ba b73b f00f fcbb fac0 5fbd
000003f0: a8d5 45bd 10c2 04bc c046 b1ba 4462 babc
0.021551825 0.0015765205 -0.025766298 0.026413448 -0.042349584 -0.032578647 -0.007867731 -0.052053273
0.035013765 -0.010691218 0.0003746748 0.051656008 -0.02554109 -0.01833532 -0.04056447 -0.048910163
-0.05833008 -0.06216552 0.005822517 -0.047538064 0.024574362 -0.04190948 -0.019142844 0.0077697784
-0.025741808 -0.03754411 0.0004299134 0.056500003 -0.02989377 0.028300934 -0.0017674044 0.027584702
0.042617604 -0.0030358657 -0.017009906 0.041980788 -0.045684107 -0.024966814 -0.035479873 -0.028554514
0.028288357 0.0051084235 0.035503782 0.051216908 0.04870808 0.049155675 0.02481839 0.022508062
0.028633617 0.060231224 0.04970882 -0.030201927 0.0136286095 -0.05878111 -0.023962699 -0.006939642
-0.055370696 0.048910946 -0.013462633 -0.029324427 -0.012535684 0.002972655 0.014557317 -0.054143764
-0.0060127825 0.02924344 0.029239327 -0.033094227 0.05893468 0.048184656 0.05122211 0.03259053
0.016019017 -0.02002532 -0.0621444 0.046618223 -0.017687097 -0.05769936 0.025864795 -0.035055242
-0.013098776 0.047781512 -0.0037833676 -0.036617868 0.05933822 -0.016444355 -0.043264464 0.047028936
0.060569264 0.061545603 -0.040701315 -0.052064776 0.053279437 -0.016648136 0.037746765 -0.03324423
-0.003556557 -0.01982829 0.0016463026 0.021036372 -0.017557032 0.04900998 0.03663694 -0.042305946
-0.031607606 0.046467498 -0.040347748 0.03860636 -0.057535335 -0.006339349 -0.047997475 -0.056781545
0.055067092 -0.011293873 -0.050394602 0.032848768 -0.04875025 0.037443474 -0.040032677 -0.055978045
-0.0148901865 0.040075265 -0.0029982775 0.045361787 0.045262903 0.03845483 0.0036239699 0.0025092885
-0.0083185285 -0.037320852 0.045916088 -0.056431837 -0.016473256 -0.007102683 0.044964366 -0.03271026
0.0076933727 0.0010710284 -0.008328676 -0.021389782 -0.012342535 -0.046450794 0.0102712065 0.03351997
0.052046776 0.03009639 -0.030751795 0.0058090165 0.055480316 -0.036653012 -0.06021271 -0.0032653436
-0.021700919 0.010027118 -0.035432868 -0.021135442 -0.051466644 -0.060024045 -0.019138902 0.025051758
-0.010831967 0.056536093 0.014118418 -0.02792655 -0.020690732 0.056571193 -8.1032515e-05 0.006879136
-0.015301384 -0.028748885 -0.04764863 -0.042468145 -0.031052105 -0.048770465 -0.019609675 -0.039729506
-0.050626867 -0.0055035874 -0.046193555 0.031823546 0.055078387 0.0112046 0.0011064336 -0.034875393
-0.022866853 0.010515593 0.025427237 0.05163405 0.013633303 -0.046582162 0.05715528 0.024406478
-0.021122418 -0.008351602 -0.031787746 0.0014504418 -0.041323066 -0.04040242 0.03957767 -0.015387408
0.025981456 -0.06197373 -0.017843395 0.018471085 0.04900276 0.019632682 -0.025090061 -0.037023477
-0.014076032 0.025268398 0.05237767 0.04348342 -0.041636467 0.059316866 0.015001118 0.008745104
0.042798616 0.0012604371 -0.052781656 -0.009573258 0.0007949397 0.025640212 0.006822996 0.05146669
0.049926735 0.04993827 -0.061778136 -0.041859902 -0.056198463 -0.059392594 0.007543601 0.012867793
-0.024645843 -0.027754202 -0.024599634 0.012448885 -0.018313207 0.052530147 -0.02636429 -0.0031451732
-0.061708562 -0.028707966 0.016652428 0.038824417 -0.056995444 -0.012668245 -0.020022824 0.02446305
-0.024062261 0.0056069195 -0.0076923296 -0.054627396 -0.04829946 -0.008102909 -0.0013525113 -0.022751935

_mlp.2.bias f4 [256]
00000000: a0bb d3bb bc88 2f3d a296 893d f8e0 e8bd
00000010: 33e0 aabd c186 85bd 32d7 6cbd 1683 61bd
00000020: 4fa4 a83c f8c8 7b3d 20ee 353b 36af 153d
00000030: 2fba 88bc 478e 653d 9c4f 38bd b6c6 7f3d
00000040: 807c a23b 258e a63d 5713 253d fc4c e33c
00000050: 9af1 b7bd dac5 793d 637f 423d 1e71 bd3d
00000060: 22df acbd 856b b23c 7fca 8abd bbf2 91bd
00000070: a3f7 d33c 46b4 b5bd ac72 babc 9bc9 2a3d
00000080: 9d13 eb3c 0160 463d fd0f 64bd aa57 bf3c
00000090: 7108 943c 38b8 c4bc bba8 d33d a84a 85bc
000000a0: 5cec c8bc 02e0 203d 3fe8 703c e493 06bd
000000b0: e4ba edbc 7012 a83c 6031 c53c 6e2c 1e3b
000000c0: 4485 abbb 107b 29bc 7b75 9c3d 87ac 9dbd
000000d0: a440 a5bc a339 313c 30d4 0bbd de64 863d
000000e0: 6c9a babd 003b 313b 4d44 833d 8821 0abc
000000f0: 6c42 763d 55fb e73d cc75 d13d dc28 c6bc
00000100: b243 933d 1988 ddbd 4a1b a03d 9e22 6ebc
00000110: 3660 6d3d ea8d d9bd b076 993d a4c1 c1bc
00000120: 701b cbbc 2c29 91bc 04cd 2d3d fb56 d03d
00000130: ecc7 babd ef14 cebd b46e 893c 3e5d 363d
00000140: 4454 b53d 0297 3d3d e92a c2bc f682 04bd
00000150: e874 a0bc 991e eabd 6423 813c fc25 2dbd
00000160: 98da 57bd bfc5 d73c aa19 f23c 1bf4 68bd
00000170: f4b9 983c e637 a1bd 9064 283d fa83 5a3d
00000180: 204d 643c 9254 63bd dcc6 acbc 4a63 1cbd
00000190: 42df 8f3d f2e0 dabd c41c 133d 4bf1 4b3d
000001a0: 0134 f139 5933 2abd 154f a03d 983f 473d
000001b0: b7d9 d53d 2926 b8bc 888c 09bc e89b 113d
000001c0: 50f1 bd3d 401f fb3a 2899 9b3c b06e 43bc
000001d0: 78f7 5cbd 8077 19bd be1a 563d 0737 a6bd
000001e0: a632 4cbd 789f 783d 18ee 04bc a431 2d3d
000001f0: c0da 2ebd 9c7f 3a3a 3c6e 85bd 557a c9bc
00000200: 1e47 563d b44e 5dbd fb4b da3d 149c f13c
00000210: a219 613c 8023 73bc f7c8 5bbd 83eb f53d
00000220: b4f8 733d 4e8f f5bb ac92 bf3a 0ebd d33d
00000230: 4826 013d 58c1 523d f271 61bd dc58 3abd
00000240: b4d7 27bd e0e7 783b f85e f5bc 1dbc 5d3d
00000250: 285d edbc 7fab e2bc 205b debb a995 773d
00000260: 0ee0 60bd 5040 e33d 15b7 c23c 00b7 663d
00000270: f891 453c 94cf ca3c 7e3c 7dbd 786d f53c
00000280: a8f4 4ebd 447d e23c c4a8 d6bc c12d bdbd
00000290: 7e36 a0bd a000 8e3c b06b 7ebc 9025 4abc
000002a0: 0b75 e5bd eca2 e7bc d08e f63b 060c 1c3b
000002b0: 6013 9ebc af76 c83d 06e6 74bd 4c54 2a3d
000002c0: fc7e d13b 99c2 13bd a849 b0bd 5c81 3ebd
000002d0: 72d5 ce3d d6e2 2a3d e8c8 22bd 1a64 123c
000002e0: b759 acbc 8bfc 04bd 986d 4d3d c70e 823c
000002f0: 40ae 503c ebe6 e7bd 9076 f1bb 94dc d83d
00000300: 2a4d 633d bc36 853c 2e17 55bd 3462 9dbd
00000310: 305d b53c 76c6 a7bd 790e 71bd a4d0 c53c
00000320: 78bd 473d dc20 6c3c 01c5 863d af29 4d3c
00000330: 3bea 063d 9725 e9bc 0cdf 643d f570 cabb
00000340: ab98 d0bc 58a6 023d 3d5c 9fbd 6e10 d3bd
00000350: 0057 653c bbd3 b2bd 900f b03b 1e4f 81bc
00000360: c81d 253c 0cdd 5cbd bf3c 5d3d d0c8 99bc
00000370: 58bf 47bc a0d5 d5bb 6997 22bb f8bd c93c
00000380: ac05 2c3c 6288 fa3c 2cbb 7abd 14b6 eebd
00000390: a034 f1bc 50ec 153c 3b76 6ebd 081c 953d
000003a0: 00c5 4f3b 3cde f2bd e4bc afbc 30ab f73c
000003b0: 8c9f 2b3d b409 303d 108b f93d cfb4 9a3d
000003c0: e67d 1dbc 0006 d93d 6eff 7ebd 6f99 993d
000003d0: bd4c 41bd eb23 f9bd 97c9 9cbc b018 283d
000003e0: 4e93 b53c f18c fcbc 92c1 553d 8bd7 73bd
000003f0: bc83 a5bc db4f 983c 438c c6bd 4aad 713d
-0.0064615756 0.04285501 0.06718184 -0.113710344 -0.08343544 -0.06519843 -0.057822414 -0.055056654
0.020586161 0.061470956 0.0027760342 0.036544047 -0.016690342 0.05604389 -0.044997796 0.062445365
0.004958689 0.08132581 0.040301647 0.02774667 -0.08981629 0.0609797 0.047484767 0.09250091
-0.08440997 0.021779785 -0.06776904 -0.07126375 0.025874918 -0.08872275 -0.022759758 0.041696172
0.028695876 0.0484314 -0.05567931 0.023357231 0.018070431 -0.024013624 0.10334917 -0.01627095
-0.024526767 0.03927613 0.014703809 -0.032855883 -0.02901978 0.020516604 0.024071395 0.002413537
-0.0052343924 -0.010344282 0.07639595 -0.076989226 -0.020172425 0.010816964 -0.034137905 0.06562208
-0.09111485 0.0027043223 0.06409512 -0.008430846 0.06012194 0.11327235 0.10227546 -0.024189405
0.07190646 -0.10816974 0.07817705 -0.014534621 0.057953082 -0.10622771 0.07493341 -0.023651905
-0.024793357 -0.017719828 0.042431846 0.1017284 -0.09120163 -0.100625865 0.01677642 0.044522516
0.08853963 0.04628659 -0.023702102 -0.032351457 -0.019586995 -0.11431617 0.015763946 -0.042272553
-0.0526987 0.02633941 0.029553253 -0.056873422 0.018643357 -0.0787199 0.04111153 0.05334852
0.013934404 -0.055500574 -0.021090917 -0.038180627 0.07025005 -0.10687436 0.035916105 0.04979066
0.00046005848 -0.041552875 0.07827584 0.048644632 0.104419164 -0.022479134 -0.008395322 0.035549074
0.09274542 0.0019159093 0.018993929 -0.011928245 -0.053946942 -0.03746748 0.052271597 -0.081159644
-0.04985299 0.060698956 -0.008113407 0.04228367 -0.042689085 0.0007114352 -0.06515166 -0.024594465
0.052313916 -0.054030135 0.106590234 0.02949337 0.0137390215 -0.014840007 -0.053658452 0.12007811
0.059563354 -0.00749389 0.0014615855 0.10338794 0.03153065 0.05145392 -0.055040307 -0.0454949
-0.040977195 0.0037980005 -0.029952511 0.054134477 -0.028975084 -0.027669666 -0.0067857653 0.06044546
-0.054901175 0.11096251 0.023768941 0.056326866 0.012058727 0.024757184 -0.061825268 0.029959425
-0.05052629 0.027647622 -0.02620352 -0.092372425 -0.078228936 0.017334282 -0.015528604 -0.012338057
-0.11203965 -0.02827593 0.007524349 0.0023810877 -0.019296348 0.09788262 -0.05978968 0.041584298
0.0063933115 -0.036074255 -0.08607799 -0.046510085 0.10099305 0.041720234 -0.03974238 0.008934999
-0.021038873 -0.032467406 0.050153345 0.015876187 0.012736857 -0.11323341 -0.00736887 0.10588947
0.05549351 0.016261451 -0.05202406 -0.076847464 0.022139162 -0.0819215 -0.058851693 0.02414734
0.048764676 0.014412131 0.06580544 0.012522145 0.032938223 -0.028460307 0.055876777 -0.0061780163
-0.025463423 0.03189692 -0.07781265 -0.10305868 0.013997793 -0.08731791 0.005372949 -0.015784796
0.010077901 -0.053921744 0.05401301 -0.018772513 -0.012191616 -0.00652571 -0.0024809486 0.024626717
0.010499399 0.03058261 -0.061213657 -0.116558224 -0.029444039 0.00915058 -0.058218222 0.07280737
0.0031703115 -0.11858794 -0.021452375 0.030232996 0.041900203 0.042978004 0.12184727 0.07554018
-0.009612536 0.105968475 -0.062255315 0.07499968 -0.047192324 -0.12165054 -0.019139094 0.04103917
0.022164967 -0.030828925 0.052186556 -0.05953173 -0.020204417 0.018592766 -0.096947215 0.059003152

_mlp.4.weight f4 [1, 256]
00000000: 00b4 f6bc 4b63 a6bd 2b3d e43d 8716 093d
00000010: 9831 b53c 9f27 613d 50b0 ec3c ac91 7c3d
00000020: 33e3 93bd 58fa 923c 2817 773c 9032 f13d
00000030: 0b4a a4bd 843c b4bd 600a 153c c03e 4cbd
00000040: b84e 82bc 2843 ef3d 2dd0 d23d a05e 313c
00000050: 6622 113c b3f0 813d 2ef3 9f3d 8872 9cbd
00000060: edbe 2b3d ea61 f73d 04ef 303d 4b04 113d
00000070: 23f1 a2bd c04f a13b 8053 7c3a 0e2e ca3d
00000080: c2d7 d23d 4c89 6dbd 228b 04bd c38e f03d
00000090: 81a6 f53d 487a 3ebc 9b84 da3d 9032 a83b
000000a0: 5e6a 613d b772 9b3d 0b5f c03b f681 0bbd
000000b0: 282d 6fbd ba6e 14bd fea7 3e3d f681 8d3c
000000c0: 892d 123d 285b d43c 42ab e03d 08af 9e3b
000000d0: 84c1 9f3c c496 9b3d 6b89 b6bd d44d db3d
000000e0: f9f9 143c e044 e7bc a8a6 953d c024 933a
000000f0: 52fb 923d daba d23d f06f aa3d 0479 6c3d
00000100: 236d 8d3d a98c 5e3d 04ea eb3d edfe 213d
00000110: 3dda e73d a14c 4f3d 5e5f 9b3d cac9 063d
00000120: d2d0 7bbd 1c5b 213d 20e9 083c c2c2 ee3d
00000130: 681b 053c ec3f ba3c 5687 69bd 1c8f 773d
00000140: e7a1 cb3d c0bb bb3a 8913 24bc 40e1 adbc
00000150: 129c 7f3d c513 223d 9094 21bc 308e cc3b
00000160: 5b47 12bc 8dbf e93d 7a2d f03d 7377 153d
00000170: 90ee efbc e9ab fcbc e070 e3bb 1083 42bc
00000180: b475 283d b07a 69bc dea9 66bd ac94 1dbd
00000190: c9ee cf3d 0c8e fb3c 5e46 58bd d2ec b33d
000001a0: 1f52 25bc f9f6 533d 3bab 793d 726a e73d
000001b0: dc3e d73d dd95 953c fdbf 283d cb1c b9bc
000001c0: eec3 8d3d dc87 cdbc 1460 033d 648e 19bd
000001d0: 448a f43c 8202 76bd 4893 b83c 672d 593a
000001e0: 701a b7bc 3875 6f3c 5c2b c73c 3091 a0bb
000001f0: f888 7d3c 94f1 813d 4631 583d 8705 2c3d
00000200: 02f6 753d 9832 07bc c079 b63d 0e27 6ebd
00000210: ed6d 49bd fa4e 4e3d f280 fb3c 7e00 a13d
00000220: 188d 263c 60cc 2cbd 69b0 37bc cfa1 b83d
00000230: bb50 30bd 084b f7bc 7804 03bc b0b9 ab3c
00000240: a480 ad3c 14c5 fbbc 489f 8ebc 6b57 ca3d
00000250: 400b ce3a 8a3f eab9 32ef 773d 1b71 ab3d
00000260: 00ff 6b3b 17d6 e33d ecdb e73d df02 de3d
00000270: 0a44 363d ec9a 78bd f8d0 20bc 1c2d df3c
00000280: cae4 153d 6087 08bb e0db 103b 722e 3b3d
00000290: ad8a bebc f017 6fbc 87bd dc3c 5836 4fbd
000002a0: 829a c73c ddf7 6cbd b385 b43d fc68 68bd
000002b0: 60cb 8b3c 1d4b c93d ae09 58bd 975b 963d
000002c0: 2dff 963d a8c4 c73c 264c 59ba 5cc8 40bd
000002d0: 92dd 8d3d 8e85 3b3d 5518 9f3c e8ce ce3d
000002e0: 7e88 b63c a047 983c fa18 093d 4349 83bd
000002f0: f866 5f3d bd69 9c3b da78 d43c b908 ec3d
00000300: d894 01bd a8bc a4bc 831b 23bd 71ee 4f3d
00000310: e0d7 583d 87fd 313d 36fb 483b 58f0 9fbc
00000320: 2ebd 49bd e0d9 a63d 4ce5 f03d d9d4 903d
00000330: d67c 8cbd 029a 7fba 52b6 07bd bd04 c53c
00000340: bdf5 1d3d 41d6 59bd c530 483d cc7a 503d
00000350: 80e1 2eba 6faa 2c3d c007 4c3d 072b 603d
00000360: 1803 48bc f0cf 78bd 3634 e13d d0c2 84bc
00000370: 0007 013a a06e 80bc aa72 c6bd ce65 bdbc
00000380: d095 b8bd d482 e63d f4fa 6bbd 046f e53c
00000390: 5cf5 f5bc 6c77 4ebd 382d 333c 142f c9bd
000003a0: 486c 6fbc 32a4 5d3d 107e da3c 14f4 7ebd
000003b0: 12bc c13d 507e 21bd 45de a13d 504e dc3d
000003c0: 22e8 593d 89b6 983d 7c12 a13c 319b 9d3d
000003d0: 402a 203d acfe 0a3d cbb9 f23c 84ac 8e3d
000003e0: 6368 863d fa77 ae3b 4848 43bd 0ed2 273d
000003f0: 0d7a 203d a6bd d93d 8c6a 243d 7b12 b13d
-0.030115128 -0.081244074 0.11144479 0.03346875 0.022118375 0.054969426 0.028892666 0.06166236
-0.07221069 0.017941639 0.0150812045 0.11777222 -0.08021935 -0.08800605 0.009096712 -0.04986453
-0.015906677 0.11682731 0.10293613 0.010825783 0.008858299 0.06344738 0.07810055 -0.076390326
0.041930128 0.120792225 0.043196693 0.035404485 -0.079561494 0.004922837 0.00096254796 0.098720655
0.10295059 -0.057992265 -0.03235925 0.1174598 0.11994649 -0.011625834 0.10669824 0.0051329806
0.05503308 0.075902395 0.005870705 -0.034059487 -0.058392674 -0.03623841 0.04654693 0.017273884
0.035687957 0.025922373 0.10970165 0.0048426427 0.019501455 0.07597116 -0.08912929 0.10708204
0.009092801 -0.028231084 0.07307178 0.0011226162 0.07176842 0.10289545 0.08322132 0.057732597
0.06905582 0.054333363 0.11519244 0.039549757 0.113209225 0.05061019 0.07586549 0.032907285
-0.061478443 0.03939353 0.008356363 0.11658241 0.00812421 0.022735558 -0.057013832 0.060439214
0.0994299 0.0014322922 -0.010014423 -0.021225572 0.0624047 0.039569635 -0.00986208 0.006242536
-0.008928145 0.114134885 0.11727424 0.03649087 -0.02928856 -0.030843692 -0.006940946 -0.011872068
0.041127875 -0.014250442 -0.05631434 -0.038471863 0.101529665 0.030707382 -0.052801482 0.08785404
-0.01009038 0.051749203 0.060954314 0.112996 0.10510036 0.018259937 0.04119872 -0.022596737
0.06922136 -0.025089197 0.03207405 -0.03748931 0.029851086 -0.060060985 0.022531167 0.00082846585
-0.022351474 0.0146153495 0.024312668 -0.00490012 0.01547455 0.063449055 0.052781366 0.04199746
0.060049064 -0.008251809 0.08909941 -0.058142714 -0.0491771 0.050368287 0.030701134 0.07861422
0.010165475 -0.042187095 -0.011211493 0.090152375 -0.04304574 -0.030187145 -0.007996671 0.020962566
0.021179505 -0.030733623 -0.017409936 0.09879955 0.0015719905 -0.00044679298 0.06053085 0.083711825
0.0036010146 0.11124819 0.11321244 0.10840391 0.04449848 -0.06069462 -0.009815447 0.02724319
0.036595143 -0.0020832643 0.0022103712 0.04569859 -0.023259485 -0.0145931095 0.026945842 -0.050588936
0.024365667 -0.05785357 0.088145636 -0.056740746 0.01706475 0.0982878 -0.052743606 0.07341688
0.0737289 0.024385765 -0.000828924 -0.047066078 0.06927027 0.045781665 0.019420782 0.10098058
0.022281881 0.018588841 0.033471085 -0.06410458 0.054541558 0.004773347 0.025936533 0.11525101
-0.03163609 -0.02010949 -0.03982116 0.050764505 0.05294025 0.043454673 0.0030667312 -0.019523785
-0.04925268 0.08147025 0.11762485 0.070718475 -0.06859748 -0.0009750427 -0.03313286 0.024050111
0.038564432 -0.053182844 0.048874635 0.05089836 -0.00066711754 0.042154726 0.04981208 0.054728534
-0.012207769 -0.06074518 0.109962866 -0.016206175 0.00049220026 -0.01567775 -0.09689839 -0.023119833
-0.090129495 0.11255422 -0.057612374 0.028007038 -0.030024223 -0.05040686 0.010936074 -0.098234326
-0.014613219 0.054111667 0.02667144 -0.06224449 0.094597 -0.0394271 0.07903723 0.107571244
0.053199895 0.07456691 0.019662134 0.07695616 0.039102793 0.03393428 0.029629609 0.069664985
0.06562879 0.005324361 -0.047676355 0.040971808 0.039178897 0.10631876 0.040140674 0.08646103

exp_avg f4 [2, 1, 3, 3]
00000000: 8b8b 331d 5649 4d1d 1b7b 441d 20a2 211d
00000010: 39fe 4d1d 969b 181d e248 381d 9726 411d
00000020: 49b1 041d f9b4 aa1b dec1 9219 43db 381a
00000030: 0759 7b1c d869 231c 6ba0 f31b 4267 a21b
00000040: a33d 661b 6d58 741b
2.3762595e-21 2.7169438e-21 2.6004028e-21 2.139199e-21 2.7262954e-21 2.0197469e-21 2.4389877e-21 2.5563288e-21
1.7561709e-21 2.8241092e-22 1.5174349e-23 3.8227426e-23 8.3164e-22 5.4068976e-22 4.0304645e-22 2.686738e-22
1.904507e-22 2.0211779e-22

exp_avg_sq f4 [2, 1, 3, 3]
00000000: 06d3 fc35 5c42 2536 1569 1736 80e7 cc35
00000010: 226b 2636 c1aa b635 6533 0536 1650 1236
00000020: 4818 8a35 ee7f e432 08d5 a82e a1c8 0530
00000030: 60c4 7734 1f67 d133 4bbd 6833 90f3 ce32
00000040: 65c9 4f32 dfdb 6932
1.8836879e-06 2.4625542e-06 2.256192e-06 1.526656e-06 2.4798287e-06 1.3609753e-06 1.984846e-06 2.1802311e-06
1.0288868e-06 2.6600869e-08 7.6775974e-11 4.867023e-10 2.3075108e-07 9.7510785e-08 5.418887e-08 2.4092316e-08
1.2094778e-08 1.3612378e-08

exp_avg f4 [4, 1, 3, 3]
00000000: ace7 f399 fb81 2c9a 387d 3d9b 5c65 ac1b
00000010: 7d2b a31b f8de a01b 1d94 551b 3dc8 a11b
00000020: ec41 5b1b acfd db9b 49a9 029c aefa f71a
00000030: 7293 009b 8f40 ce9a 7637 6819 e479 8b9b
00000040: af99 1a9c 70a3 ad9b 7225 171d 30db fe1c
00000050: f057 161d 0458 0c1d d2ed 0a1d 23e3 031d
00000060: f22b 1a1d 0060 051d 4ad2 0c1d e3c4 a19b
00000070: a88a c61b 144e a41a 39cd e19b 65d1 141c
00000080: 9b0c 701b 55b6 8e9b bb1c 151c 67f9 131c
-2.5219183e-23 -3.5673764e-23 -1.5674174e-22 2.8520515e-22 2.6994192e-22 2.661387e-22 1.7666805e-22 2.6764617e-22
1.8136556e-22 -3.6394442e-22 -4.323219e-22 1.025618e-22 -1.0635554e-22 -8.53039e-23 1.2005319e-23 -2.307439e-22
-5.1152957e-22 -2.8726068e-22 2.0004042e-21 1.6864969e-21 1.9897797e-21 1.8574349e-21 1.8387098e-21 1.7455133e-21
2.040445e-21 1.7652034e-21 1.8637563e-21 -2.676245e-22 3.2845957e-22 6.795495e-23 -3.735575e-22 4.923973e-22
1.9856408e-22 -2.3609759e-22 4.93371e-22 4.8960565e-22

exp_avg_sq f4 [4, 1, 3, 3]
00000000: 0b8b 682f d976 e92f 60ee 0c32 2720 e932
00000010: 86d1 d032 740a cb32 8cd1 3232 0c5c cd32
00000020: 98a9 3c32 32ce 3d33 70e7 8533 b162 7131
00000030: 97ac 8131 a4af 2631 527f 522e 7e89 9832
00000040: f278 bb33 1c8a ec32 1e2f b335 afb8 7e35
00000050: 8b4b b135 3c7c 9a35 dd63 9735 656f 8835
00000060: 626e ba35 5587 8b35 078c 9b35 1457 cd32
00000070: 7a9b 1a33 4d02 d430 05f9 4733 77af ad33
00000080: c6fa 6132 6fb5 9f32 b46b ae33 38bb ab33
2.1149675e-10 4.24669e-10 8.203273e-09 2.7139391e-08 2.4309667e-08 2.3637064e-08 1.0408609e-08 2.3906999e-08
1.0981601e-08 4.4192525e-08 6.2353934e-08 3.5126215e-09 3.7740153e-09 2.425602e-09 4.7861555e-11 1.7757653e-08
8.729866e-08 2.753682e-08 1.3350252e-06 9.4891124e-07 1.3209514e-06 1.1510051e-06 1.1279441e-06 1.016521e-06
1.3890206e-06 1.0395694e-06 1.1589153e-06 2.390474e-08 3.5997324e-08 1.5425684e-09 4.655978e-08 8.087857e-08
1.3153743e-08 1.8592543e-08 8.1220975e-08 7.996863e-08

exp_avg f4 [8, 1, 3, 3]
00000000: 7c30 d29a a06c 529a 6140 1b9b 1965 5d9a
00000010: 8b8d 0c9b fc7d 789b 489f 781a 4e6c 9719
00000020: ae85 911a 36ce 4519 a4a7 6b19 4068 fb19
00000030: c345 881a fe8e 721a a1a0 751a 233e f619
00000040: 5cc2 fc19 149d d919 4eca 3d9b ccdf 829b
00000050: eabd 459b d307 1e9b 9c4d 8a9b 55fa 419b
00000060: 7814 bd9a a106 489b 1a27 639b d7aa ff9b
00000070: af54 d09b e317 d99b 6112 849b 3e60 591b
00000080: 3e99 5a9b aa5f f79b c30f 109b e4ce 3d9c
00000090: 529b 1f9b 0663 599b c85a 229b f1ef 689b
000000a0: c72a fc9a d04d 8b9b 0eac 479b 9cce 859b
000000b0: 70c8 f79a a20f 8519 33b9 0218 adb3 391a
000000c0: b49a 551a 141f bc19 cd15 831a 83da 2c1a
000000d0: 94b6 6619 3103 651a bcbf eb1a 8c59 7a9b
000000e0: 646c 459b b9c1 4899 d9b9 799b 900d ce9a
000000f0: 7698 3819 4d69 af9b 299d 329b 7baf 861b
00000100: a5e9 981b 87ce 711a 2fa6 801a 6ed5 481b
00000110: b7c7 439a f5d1 c91a 8d2e 321b 6424 6719
-8.6932295e-23 -4.351473e-23 -1.2842101e-22 -4.5783395e-23 -1.1626264e-22 -2.0554787e-22 5.1413864e-23 1.5656778e-23
6.0186566e-23 1.0226305e-23 1.218307e-23 2.5994898e-23 5.636099e-23 5.0159935e-23 5.0794568e-23 2.54609e-23
2.613469e-23 2.2500717e-23 -1.5699082e-22 -2.1651321e-22 -1.6356823e-22 -1.3071982e-22 -2.288034e-22 -1.6045472e-22
-7.820164e-23 -1.6545754e-22 -1.8789634e-22 -4.2296614e-22 -3.446544e-22 -3.5915075e-22 -2.1849445e-22 1.7980917e-22
-1.8082053e-22 -4.0924544e-22 -1.1916494e-22 -6.2802254e-22 -1.3202358e-22 -1.7981815e-22 -1.3429659e-22 -1.926812e-22
-1.0429387e-22 -2.3045906e-22 -1.6516488e-22 -2.2136522e-22 -1.0248063e-22 1.3758192e-23 1.6895608e-24 3.8402244e-23
4.4172336e-23 1.9451297e-23 5.421555e-23 3.574528e-23 1.1927593e-23 4.7358668e-23 9.7503486e-23 -2.070845e-22
-1.6330481e-22 -1.037888e-23 -2.0656848e-22 -8.5221514e-23 9.543366e-24 -2.901937e-22 -1.4774596e-22 2.2281842e-22
2.529728e-22 5.0004463e-23 5.3208043e-23 1.6612575e-22 -4.0486383e-23 8.3470855e-23 1.4738856e-22 1.1949769e-23

exp_avg_sq f4 [8, 1, 3, 3]
00000000: db34 2d31 eda7 2d30 9a11 bd31 d20e 4030
00000010: 96ee 9a31 7930 7232 3e3f 7230 c2b7 b32e
00000020: 7f3a a630 04b3 192e 33de 582e 28bf 772f
00000030: b686 9130 68d6 6630 c3d3 6c30 3e1c 6e2f
00000040: 402e 7b2f 70a8 392f 1a48 0d32 5e59 8632
00000050: 9862 1932 4dde c331 2904 9632 509e 1332
00000060: 372f 0c31 3cf5 1c32 6a57 4a32 482d 8033
00000070: 6a3b 2a33 49d1 3833 aad0 8832 2a57 3932
00000080: d85e 3b32 e4f7 6f33 19bb a231 504a 0d34
00000090: 4acb c731 ac52 3932 96be ce31 dfc9 5432
000000a0: a858 7931 eb35 9832 2b5a 1c32 336e 8c32
000000b0: a3c4 7031 590f 8b2e d0f6 872b b636 0730
000000c0: cb0f 3330 36f6 0a2f 68c6 8630 d588 ea2f
000000d0: d800 512e 709e 4d30 760c 5a31 0dc9 7532
000000e0: 94dc 1832 a8aa 1d2e 088a 7432 a27a 2631
000000f0: e5cd 042e 7a58 f132 4b31 fa31 e645 8e32
00000100: 326b b732 0a7c 6530 22d2 8130 5625 1e32
00000110: db66 1630 5ecb 1f31 0612 f931 7608 512e
2.5204858e-09 6.317567e-10 5.502625e-09 6.9870254e-10 4.509114e-09 1.4097275e-08 8.812896e-10 8.1726195e-11
1.2094715e-09 3.494717e-11 4.9310066e-11 2.2532431e-10 1.0588426e-09 8.39782e-10 8.615723e-10 2.1656008e-10
2.2844748e-10 1.6885493e-10 8.223674e-09 1.5640293e-08 8.92819e-09 5.7005196e-09 1.746419e-08 8.592522e-09
2.039952e-09 9.136155e-09 1.1777823e-08 5.968701e-08 3.9635246e-08 4.3031182e-08 1.5927373e-08 1.0788236e-08
1.0906398e-08 5.587198e-08 4.736091e-09 1.3158683e-07 5.8147736e-09 1.0787215e-08 6.017056e-09 1.2385924e-08
3.6284664e-09 1.7719648e-08 9.100897e-09 1.6348258e-08 3.5036372e-09 6.3237145e-11 9.660831e-13 4.9190463e-10
6.5142264e-10 1.2638499e-10 9.806174e-10 4.2661577e-10 4.7521848e-11 7.480372e-10 3.1730258e-09 1.4306591e-08
8.897718e-09 3.584924e-11 1.4234054e-08 2.4225888e-09 3.0196196e-11 2.8096327e-08 7.2815616e-09 1.6562762e-08
2.135275e-08 8.3485985e-10 9.445709e-10 9.2053e-09 5.471585e-10 2.3253146e-09 7.248903e-09 4.7528613e-11

exp_avg f4 [16, 1, 3, 3]
00000000: 639a 1e98 be6c 7a9a 4da0 089b dfcc 139b
00000010: 89c2 fc9a ada7 839a e260 fc18 de20 6f1a
00000020: 9272 979a 7640 4699 55aa 021a d30c 9319
00000030: a02a c718 1f2d 0e9a b583 019a a053 269a
00000040: ac55 241a be94 2d9a 2689 be9a 468c ea99
00000050: 65d6 269a 3822 b71a 1cc6 791a 5157 cc17
00000060: 92c5 799a 6bbc ea9a 1f6f 4d9a 70c8 3999
00000070: 4f25 6597 9347 f899 f2c8 1d9a e6f2 8e9a
00000080: 3532 5a9a 4af8 5a9a e7ed f399 7bbb 2199
00000090: 4bf3 d09a 6fd2 fd9a 9d11 b99a acda 1e19
000000a0: 8dd4 bb17 e5fc 9d19 6906 7a1a ef84 b319
000000b0: 5f8d 6d1a 08b8 b49a e947 ab9a f04f 0e9b
000000c0: 66ae 2d1a ca40 2b1a ea46 7a9a 1560 0f1b
000000d0: 3cdf 251a 269f 421a be4d c299 2235 d91a
000000e0: 1b09 8f99 2881 db1a d766 4b1b d2f1 ca1a
000000f0: 7c19 511a 386d 3b1b d6bb 031b 81da 489c
00000100: 79b7 219c 2e43 519c 1f3e 019c 62f4 bc9b
00000110: 530d f39b fa9e 359c c8e9 199c fdf2 bd9b
00000120: 2e0f 3a9c 1791 2c9c 007e 329c 10de 2b9c
00000130: 6255 369c 92bb 229c fb0d 3b9c c29d 2f9c
00000140: 2223 2e9c 6733 351c 36e6 2d1c 48b0 2a1c
00000150: 9f9e 211c 81de 3e1c bbf4 2b1c 9aa4 291c
00000160: f4a6 2d1c 70a8 3b1c 1422 3b9b 2b10 899a
00000170: b713 119b 686c 349b 0563 9e9a e5d5 189b
00000180: 9812 289b 92c0 8c9a 71a7 169b 875e e59b
00000190: 1daa fa9b e068 d19b 8da4 da9b ac87 ee9b
000001a0: 2721 bf9b 2097 c29b 77e0 d49b 363a a79b
000001b0: b7a6 0a1b 1a5d 4d1b e4f7 681b 95fe 101b
000001c0: 8e5d 0b1b f085 301b 72b0 561b 582d 1f1b
000001d0: 67ba fa1a 3c66 de9a e04d 979a ed9e c89b
000001e0: b8a1 989a 96e8 349a c1f8 b49b a622 ac9b
000001f0: 5796 919b 391b 109c 8f38 8698 c59c d099
00000200: 2ac0 e598 3f86 1519 c90a 8d97 621e 3c99
00000210: 410b 8899 e966 3399 9895 2617 7b6c 551a
00000220: e8c3 ba1a c874 0f1a 210e 059a 0539 2a99
00000230: 771c f818 6d1e d71a 50ae b31a 4587 451a
-2.0498967e-24 -5.178663e-23 -1.1301452e-22 -1.2225752e-22 -1.04539046e-22 -5.4451225e-23 6.52383e-24 4.945059e-23
-6.2637235e-23 -1.0249378e-23 2.7020963e-23 1.5204623e-23 5.1483335e-24 -2.940136e-23 -2.6782967e-23 -3.4395547e-23
3.398361e-23 -3.5895714e-23 -7.8803733e-23 -2.4251689e-23 -3.4501182e-23 7.574231e-23 5.1652025e-23 1.3205233e-24
-5.165159e-23 -9.708454e-23 -4.248277e-23 -9.604754e-24 -7.404098e-25 -2.5671508e-23 -3.262916e-23 -5.912225e-23
-4.51219e-23 -4.528191e-23 -2.5221699e-23 -8.361366e-24 -8.6419845e-23 -1.0497832e-22 -7.654266e-23 8.212569e-24
1.2138247e-24 1.6335563e-23 5.1703966e-23 1.8561858e-23 4.912465e-23 -7.4743574e-23 -7.084012e-23 -1.1771794e-22
3.591644e-23 3.5414307e-23 -5.1756072e-23 1.1859729e-22 3.4301528e-23 4.024682e-23 -2.009053e-23 8.983494e-23
-1.4789531e-23 9.078494e-23 1.6824996e-22 8.3935924e-23 4.3240773e-23 1.5503568e-22 1.0896759e-22 -6.645686e-22
-5.3507564e-22 -6.9239127e-22 -4.276281e-22 -3.125992e-22 -4.0209588e-22 -6.009335e-22 -5.092561e-22 -3.1424455e-22
-6.1561857e-22 -5.709755e-22 -5.905811e-22 -5.6866163e-22 -6.0329103e-22 -5.3843733e-22 -6.189118e-22 -5.810654e-22
-5.761718e-22 5.995431e-22 5.753844e-22 5.647612e-22 5.3475444e-22 6.3153306e-22 5.689546e-22 5.613015e-22
5.745668e-22 6.209081e-22 -1.5479289e-22 -5.668799e-23 -1.2000489e-22 -1.4924279e-22 -6.550724e-23 -1.2642258e-22
-1.3902642e-22 -5.821376e-23 -1.2461812e-22 -3.794596e-22 -4.1468964e-22 -3.4643923e-22 -3.6171413e-22 -3.9461473e-22
-3.1619724e-22 -3.219227e-22 -3.5217515e-22 -2.766545e-22 1.1468961e-22 1.6987285e-22 1.9270688e-22 1.1993661e-22
1.152804e-22 1.4601656e-22 1.7758678e-22 1.3166823e-22 1.03698726e-22 -9.1982217e-23 -6.257795e-23 -3.3189928e-22
-6.3127e-23 -3.741101e-23 -2.9939255e-22 -2.8477404e-22 -2.4085393e-22 -4.768079e-22 -3.4695298e-24 -2.1570015e-23
-5.938915e-24 7.73023e-24 -9.114634e-25 -9.725508e-24 -1.4066616e-23 -9.274866e-24 5.3826307e-25 4.4134997e-23
7.72443e-23 2.9666042e-23 -2.751517e-23 -8.800309e-24 6.413524e-24 8.897107e-23 7.431428e-23 4.0847915e-23
