Experiments/Experiments-011/checkpoints/model.pt (torch, 13343 bytes, 15 tensors)

cp.convs.0.weight f4 [2, 1, 3, 3]
0.5411699 0.209046 -0.3872164 -0.21896571 0.26709843 -0.49380764 1.1594427 -0.5394398
-0.5040518 -0.3623782 -0.28121418 -0.1303566 -0.20312135 -0.13930856 -0.13922772 0.020263467
0.04975047 0.1067469
00000000: 1c8a 0a3f 2810 563e 3a41 c6be 8c38 60be
00000010: 20c1 883e 5bd4 fcbe 9e68 943f ba18 0abf
00000020: 8a09 01bf a389 b9be 4efb 8fbe 337c 05be
00000030: 0bff 4fbe e7a6 0ebe b691 0ebe 92ff a53c
00000040: 26c7 4b3d 1e9e da3d

cp.convs.1.weight f4 [4, 1, 3, 3]
0.21800938 -0.84218657 0.6406991 -0.61689436 1.362854 -0.76655483 0.44850594 -0.57720774
0.10233054 -0.63391924 -0.47316024 -0.4175918 -0.29130417 -0.43820634 -0.47335166 0.29783592
0.6898365 0.2594623 0.14485829 -0.30374327 -0.016500069 -0.33737823 -0.2340388 -0.3917889
0.22187361 -0.3290067 0.18817046 0.22448683 -0.09596717 -0.26986232 -0.123123206 -0.19753198
-0.30673856 -0.26022166 -0.052511666 -0.014737878
00000000: da3d 5f3e 8a99 57bf db04 243f caec 1dbf
00000010: 0072 ae3f f03c 44bf 92a2 e53e e3c3 13bf
00000020: ad92 d13d 8848 22bf 0f42 f2be 98ce d5be
00000030: d225 95be 955c e0be 265b f2be f37d 983e
00000040: 2099 303f 3ed8 843e bb55 143e 3d84 9bbe
00000050: 272b 87bc d7bc acbe dea7 6fbe 8e98 c8be
00000060: d632 633e 9173 a8be c2af 403e e0df 653e
00000070: 708a c4bd 652b 8abe 0528 fcbd d345 4abe
00000080: d60c 9dbe c63b 85be 7916 57bd 2477 71bc

_mlp.0.weight f4 [32, 12]
0.43536544 -0.14975125 0.6859027 0.044608463 0.8041482 -0.9457966 -0.051721737 0.081631854
0.54392576 -1.0085071 -0.06883343 -0.10473722 0.67641705 -0.13324925 0.48188344 0.24129431
-0.13538878 0.7896586 -0.24228969 0.31205684 -0.22589837 0.42453554 -0.29509708 0.19779962
0.36092573 0.1817632 0.6946894 0.30474493 -0.0183176 0.18872857 -0.17083028 -0.058137275
-0.5070577 0.67823565 -0.08329381 -0.07990337 -0.5429539 -0.16523136 -0.30481324 -0.12007323
-0.43905023 0.5280632 -0.17910148 0.069850445 -0.5695299 0.5193238 0.0040798066 -0.28145468
0.1439947 -0.14385782 0.37611452 0.28218278 -0.28454956 -0.018719839 0.07593807 0.17630383
0.059112865 0.3635124 -0.1893384 -0.2126974 0.31166315 -0.1121701 0.15457325 -0.07429366
0.12192638 0.023443913 0.13124566 0.36863428 -0.26464123 -0.038585223 -0.20084432 -0.1607455
0.31372842 0.71165067 0.16184545 0.3760648 -0.27048686 0.18785147 -0.27757606 0.04539536
0.16483203 0.5656487 -0.19171123 0.07941031 0.6274336 0.07998648 0.23731641 -0.060489897
-0.17568167 0.47127092 0.4623196 -0.121343 -0.067158855 0.55900913 0.27590594 -0.045069978
0.4536129 0.6509201 0.12397225 0.7757372 -0.11817873 0.6353918 -0.15554844 0.2028276
0.38036135 0.18807228 -0.11474175 0.22478247 0.3449497 0.56355286 0.28435448 0.5016701
-0.19718865 0.6678627 0.03510248 -0.028592208 -0.27553222 0.4910339 -0.059656087 0.11739274
0.6949368 -0.053806614 0.6464294 -0.29169187 -0.26278275 0.812052 0.23925371 0.2611588
-0.19469413 0.4451165 -0.07151884 0.05964796 0.3305535 0.026789567 0.608988 0.06851309
-0.5597063 0.13816111 0.05188411 0.1282695 -0.3397388 0.23260283 -0.087914005 -0.16915193
0.20659657 -0.08233215 -0.016459744 0.069094166 -0.20376974 0.23747139 -0.08044687 -0.02991475
0.07150104 -0.029435603 0.30780447 -0.29054415 0.2504855 0.2975414 0.45230243 0.27315512
-0.50781894 0.6303394 -0.02607902 0.06804138 -0.2520528 0.8206799 -0.027881509 0.2679013
0.9342061 -0.13172722 0.3995448 0.22158006 0.4431451 -0.61166286 0.047979996 -0.07126289
0.28346807 -0.8063879 0.1516602 0.2734475 -0.2680073 0.098575346 0.27472147 0.11155136
-0.22351922 0.09550865 -0.08739915 -0.08422701 0.20832753 0.113153994 0.21921408 -0.08878873
0.36022845 0.09319564 0.10281474 0.2987159 -0.15857662 0.12825137 0.09502862 -0.02616077
-0.012773143 -0.011727098 0.0073492182 -0.09683062 0.2988216 0.058261037 0.46266115 0.18012123
0.35825285 -0.03331296 0.07655253 -0.054630753 0.26977077 -0.15943941 -0.44394585 -0.24542984
0.2596331 0.26062003 0.07852204 0.5564629 -0.17639792 0.30470446 -0.4037495 -0.13321663
-0.067489855 0.34746566 0.082402505 0.023814235 0.052729774 0.077623 -0.010605758 0.024768034
0.26000354 -0.0465829 0.16047859 0.05526546 -0.07806342 0.36444718 0.25607413 -0.14309597
0.57897055 0.22749178 0.2219233 0.14135544 0.09222793 -0.21112524 -0.1308753 0.13811344
0.17161828 -0.28275082 0.08471435 -0.26265907 0.1700643 0.090744264 -0.04348494 0.056797847
00000000: 38e8 de3e 6458 19be 5297 2f3f 5db7 363d
00000010: a8dc 4d3f ba1f 72bf 2cda 53bd 9a2e a73d
00000020: b83e 0b3f c316 81bf 8bf8 8cbd 7880 d6bd
00000030: ab29 2d3f 7e72 08be 6db9 f63e db15 773e
00000040: 5ba3 0abe 1127 4a3f ca1a 78be eac5 9f3e
00000050: e751 67be b95c d93e f716 97be fc8b 4a3e
00000060: 42cb b83e 2220 3a3e 2ad7 313f 8707 9c3e
00000070: cb0e 96bc 1042 413e 22ee 2ebe 5a21 6ebd
00000080: 89ce 01bf daa0 2d3f f295 aabd 61a4 a3bd
00000090: 07ff 0abf 6932 29be 7b10 9cbe f4e8 f5bd
000000a0: 31cb e0be 262f 073f 6166 37be c00d 8f3d
000000b0: b6cc 11bf 68f2 043f e6af 853b d41a 90be
000000c0: 5973 133e 774f 13be 1592 c03e 437a 903e
000000d0: 7bb0 91be 595a 99bc 6b85 9b3d fe88 343e
000000e0: 5520 723d 4c1e ba3e ede1 41be 59cd 59be
000000f0: 5092 9f3e 70b9 e5bd 7348 1e3e 4627 98bd
00000100: 8ab4 f93d 730d c03c 4365 063e a2bd bc3e
00000110: 0e7f 87be 8a0b 1ebd 22aa 4dbe 789a 24be
00000120: 03a1 a03e bd2e 363f d0ba 253e 918b c03e
00000130: 417d 8abe 235c 403e 731e 8ebe 7cf0 393d
00000140: bac9 283e 5ace 103f f34f 44be dfa1 a23d
00000150: 7d9f 203f f4cf a33d 1303 733e 41c4 77bd
00000160: e5e5 33be 6c4a f13e 28b5 ec3e ae82 f8bd
00000170: 958a 89bd 391b 0f3f 8b43 8d3e 4c9b 38bd
00000180: f33f e83e b3a2 263f 2ae5 fd3d b796 463f
00000190: b107 f2bd 09a9 223f 1748 1fbe 0ab2 4f3e
000001a0: b9be c23e 0596 403e b9fd eabd 602d 663e
000001b0: 3f9d b03e 0045 103f e996 913e 746d 003f
000001c0: d2eb 49be 0df9 2a3f 9ec7 0f3d 353a eabc
000001d0: 8f12 8dbe cc68 fb3e f159 74bd 9b6b f03d
000001e0: 61e7 313f 5364 5cbd 667c 253f a358 95be
000001f0: 768b 86be a4e2 4f3f edfe 743e 9bb6 853e
00000200: e65d 47be 4fe6 e33e 7878 92bd 6b51 743d
00000210: 4f3e a93e cb75 db3c a3e6 1b3f 9750 8c3d
00000220: e948 0fbf 1b7a 0d3e 6f84 543d 1459 033e
00000230: 3ef2 adbe 702f 6e3e 420c b4bd 2a36 2dbe
00000240: 0d8e 533e c29d a8bd 96d6 86bc 3e81 8d3d
00000250: 04a9 50be b32b 733e 54c1 a4bd c70f f5bc
00000260: 236f 923d ef22 f1bc 8c98 9d3e 34c2 94be
00000270: a33f 803e 5957 983e 2f94 e73e fdda 8b3e
00000280: 6c00 02bf ec5d 213f aba3 d5bc 4759 8b3d
00000290: 110d 81be 1418 523f c367 e4bc 5c2a 893e
000002a0: 2228 6f3f 80e3 06be 2391 cc3e e2e5 623e
000002b0: eae3 e23e f095 1cbf ac86 443d 47f2 91bd
000002c0: ba22 913e 706f 4ebf d04c 1b3e 5001 8c3e
000002d0: 4138 89be dfe1 c93d 4ba8 8c3e 0a75 e43d
000002e0: 39e2 64be 0a9a c33d 53fe b2bd 367f acbd
000002f0: d053 553e 48bd e73d a879 603e ded6 b5bd
00000300: dd6f b83e 5bdd be3d 8990 d23d 4af1 983e
00000310: e961 22be 5454 033e 5d9e c23d 1c4f d6bc
00000320: 7246 51bc 0423 40bc b6d1 f03b 224f c6bd
00000330: 25ff 983e 20a3 6e3d ece1 ec3e b371 383e
00000340: eb6c b73e 2c73 08bd 93c7 9c3d 7fc4 5fbd
00000350: 651f 8a3e 1644 23be df4c e3be f651 7bbe
00000360: a1ee 843e fd6f 853e 2ad0 a03d 5a74 0e3f
00000370: a8a1 34be 3902 9c3e 41b8 cebe f169 08be
00000380: 1f38 8abd 05e7 b13e a5c2 a83d 1216 c33c
00000390: 2dfb 573d cff8 9e3d c6c3 2dbc 55e6 ca3c
000003a0: 2f1f 853e b6cd 3ebd 8054 243e 095e 623d
000003b0: b7df 9fbd d298 ba3e 261c 833e c087 12be
000003c0: 6a37 143f 9bf3 683e dd3f 633e 7bbf 103e
000003d0: ffe1 bc3d 3731 58be 2d04 06be 9c6d 0d3e
000003e0: b4bc 2f3e b7c4 90be b87e ad3d 407b 86be
000003f0: 5625 2e3e 21d8 b93d 441d 32bd dca4 683d

_mlp.0.bias f4 [32]
0.15385672 -0.61621547 -0.45664483 -0.12845786 -0.2772084 -0.27717102 -1.0317835 -0.79796284
-0.6924059 -1.1447244 -0.6193698 -1.3218031 -0.24810894 -1.1247529 0.42064095 -0.14005741
-0.31348187 -1.3577791 -0.38143295 -0.5253482 -0.30646864 -0.9140621 -0.8029953 -0.5018151
-0.6823421 -0.99295723 -0.25386265 -0.5337943 -0.5763809 -1.1509957 -0.899573 0.31519622
00000000: 9e8c 1d3e 4cc0 1dbf 5acd e9be 758a 03be
00000010: 42ee 8dbe 5ce9 8dbe 7b11 84bf 4b47 4cbf
00000020: 8341 31bf 5486 92bf 058f 1ebf d830 a9bf
00000030: 4510 7ebe e7f7 8fbf 405e d73e 366b 0fbe
00000040: b280 a0be b5cb adbf 2e4b c3be 387d 06bf
00000050: 75e9 9cbe f9ff 69bf 1a91 4dbf f476 00bf
00000060: f9ad 2ebf 7232 7ebf 49fa 81be bea6 08bf
00000070: b38d 13bf d453 93bf 6b4a 66bf 6661 a13e

_mlp.2.weight f4 [1, 32]
-0.33651125 -0.012811015 0.046770774 0.47218215 0.017093703 0.0762311 0.26465863 -0.02775894
0.102310576 0.24247912 -0.00095976033 0.22427751 -0.011738417 0.06403196 -0.19333328 0.01563568
0.0559089 -0.014606955 -0.1680381 0.025743352 -0.051937405 -0.080638625 -0.122419186 -0.18274462
-0.036423765 -0.44736105 -0.022754943 -0.05829627 -0.037306905 -0.06613506 -0.27964622 -0.55724597
00000000: 344b acbe 4be5 51bc b692 3f3d dcc1 f13e
00000010: 1808 8c3c 0d1f 9c3d 5681 873e b766 e3bc
00000020: 3588 d13d 724c 783e 6d98 7bba 01a9 653e
00000030: 7d52 40bc 3023 833d 29f9 45be 6616 803c
00000040: bb00 653d 0352 6fbc 2e12 2cbe b9e3 d23c
00000050: 51bc 54bd dd25 a5bd e9b6 fabd 6821 3bbe
00000060: 1631 15bd 820c e5be 9368 babc 12c8 6ebd
00000070: 20cf 18bd d171 87bd ca2d 8fbe aca7 0ebf

exp_avg f4 [2, 1, 3, 3]
-0.0044089644 -0.0040153097 -0.004383215 -0.0053450055 -0.007526352 -0.0059978142 -0.006929857 -0.0051738084
-0.007102439 -9.691736e-05 -9.674876e-05 -8.7964356e-05 -9.00847e-05 -8.712939e-05 -8.028931e-05 -7.039563e-05
-6.8131056e-05 -6.240405e-05
00000000: 1379 90bb dc92 83bb 13a1 8fbb 2825 afbb
00000010: 9e9f f6bb 5089 c4bb db13 e3bb 0d89 a9bb
00000020: 94bb e8bb 1d40 cbb8 98e5 cab8 8179 b8b8
00000030: dbeb bcb8 3cb9 b6b8 ff60 a8b8 5ea1 93b8
00000040: 95e1 8eb8 ebde 82b8

exp_avg_sq f4 [2, 1, 3, 3]
0.00050279865 0.0005063728 0.0005086226 0.0005228894 0.00059802464 0.00054281537 0.000552439 0.0005070622
0.00058318465 3.4461802e-06 3.4842196e-06 3.3045228e-06 3.4224659e-06 3.4435934e-06 3.2902115e-06 3.1791114e-06
3.1992342e-06 3.0611436e-06
00000000: 3fce 033a 1abe 043a 1655 053a 8312 093a
00000010: c1c4 1c3a b94b 0e3a 8ed1 103a 5eec 043a
00000020: dce0 183a ed44 6736 70d2 6936 45c3 5d36
00000030: 84ad 6536 7c18 6736 67cd 5c36 b858 5536
00000040: 6db2 5636 0c6e 4d36

exp_avg f4 [4, 1, 3, 3]
-0.00015431504 0.00048477488 -0.00028429512 0.00033350204 -0.0008485198 0.0005773729 -0.00032012927 0.00022850471
1.0068729e-05 -0.0023338243 -0.0015830322 -0.001336579 -0.0018879803 -0.001960468 -0.0019795694 -0.0015706529
-0.001008187 -0.0014611625 -4.6145728e-05 -4.8815928e-05 -4.7913116e-05 -5.040897e-05 -5.3070537e-05 -5.160433e-05
-4.3916945e-05 -4.5911238e-05 -4.4185974e-05 -2.0151161e-05 -2.295278e-05 -2.4223105e-05 -2.5076703e-05 -2.7135004e-05
-2.6927142e-05 -2.4672718e-05 -2.4704572e-05 -2.3197948e-05
00000000: a1cf 21b9 6229 fe39 720d 95b9 e3d9 ae39
00000010: 336f 5eba d75a 173a 06d7 a7b9 c49a 6f39
00000020: ddec 2837 13f3 18bb bf7d cfba 2630 afba
00000030: 1b76 f7ba 327b 00bb aabb 01bb 5ede cdba
00000040: 2425 84ba 7a84 bfba 998c 41b8 b4bf 4cb8
00000050: 51f6 48b8 386e 53b8 0e98 5eb8 ba71 58b8
00000060: 7633 38b8 d190 40b8 5454 39b8 4a0a a9b7
00000070: b88a c0b7 b932 cbb7 cf5b d2b7 fa9f e3b7
00000080: 99e1 e1b7 42f8 ceb7 aa3c cfb7 3799 c2b7

exp_avg_sq f4 [4, 1, 3, 3]
9.636723e-06 2.8300323e-05 1.34991515e-05 1.4464873e-05 4.0417373e-05 1.3030271e-05 9.486769e-06 2.2823077e-05
8.442439e-06 0.00012297623 0.00010713918 8.664139e-05 0.00010490034 0.000106721265 8.985573e-05 7.0894894e-05
4.622865e-05 4.8809103e-05 3.1637168e-07 3.2935037e-07 3.236449e-07 3.2991096e-07 3.43156e-07 3.3605826e-07
3.1178362e-07 3.2296774e-07 3.1567976e-07 3.7216364e-07 3.9079856e-07 3.9237705e-07 3.9296665e-07 4.1065346e-07
4.085124e-07 3.8790586e-07 4.0039941e-07 3.9487625e-07
00000000: 69ad 2137 7b66 ed37 6a7a 6237 28ae 7237
00000010: d385 2938 969c 5a37 5d29 1f37 2f74 bf37
00000020: 00a4 0d37 2ef3 0039 e9af e038 3eb3 b538
00000030: f1fd db38 8bcf df38 ed70 bc38 68ad 9438
00000040: a3e5 4138 60b8 4c38 cbd9 a934 92d1 b034
00000050: 6bc1 ad34 9e1e b134 003b b834 7f6b b434
00000060: 3763 a734 5964 ad34 b27a a934 c8cd c734
00000070: f2ce d134 e4a7 d234 edf8 d234 c877 dc34
00000080: 8451 db34 6041 d034 7af6 d634 61ff d334

exp_avg f4 [32, 12]
8.455752e-05 2.3110958e-06 8.455752e-05 2.3110958e-06 -0.00010225068 4.1145347e-05 -1.3527433e-05 -1.4775792e-05
-0.00010225068 4.1145347e-05 -1.3527433e-05 -1.4775792e-05 -4.9375387e-08 4.3450893e-08 -4.9375387e-08 4.3450893e-08
-1.6366754e-07 -5.03126e-08 4.581512e-08 5.210376e-08 -1.6366754e-07 -5.03126e-08 4.581512e-08 5.210376e-08
-6e-45 6e-45 -6e-45 6e-45 6e-45 -6e-45 6e-45 6e-45
6e-45 -6e-45 6e-45 6e-45 -0.0013408012 6.6644556e-05 -0.0013408012 6.6644556e-05
-0.002648028 -0.001698682 0.00012729068 0.00014555259 -0.002648028 -0.001698682 0.00012729068 0.00014555259
6e-45 -6e-45 6e-45 -6e-45 6e-45 6e-45 -6e-45 -6e-45
6e-45 6e-45 -6e-45 -6e-45 0.0 0.0 0.0 0.0
0.0 0.0 0.0 0.0 0.0 0.0 0.0 0.0
6e-45 -6e-45 6e-45 -6e-45 6e-45 6e-45 6e-45 6e-45
6e-45 6e-45 6e-45 6e-45 1.1110045e-11 -2.2401627e-12 1.1110045e-11 -2.2401627e-12
4.723776e-11 1.3040291e-11 9.31678e-12 7.3339754e-12 4.723776e-11 1.3040291e-11 9.31678e-12 7.3339754e-12
4.0038034e-07 -3.9746396e-07 4.0038034e-07 -3.9746396e-07 1.3660637e-06 3.7731397e-07 -4.3581343e-07 -4.774141e-07
1.3660637e-06 3.7731397e-07 -4.3581343e-07 -4.774141e-07 4.5785654e-12 -2.8034254e-11 4.5785654e-12 -2.8034254e-11
5.951416e-11 1.4607322e-11 -5.3652825e-11 -5.683477e-11 5.951416e-11 1.4607322e-11 -5.3652825e-11 -5.683477e-11
2.5829597e-10 -1.9419251e-10 2.5829597e-10 -1.9419251e-10 7.9040036e-10 2.6275296e-10 -5.9569634e-11 -1.0112349e-10
7.9040036e-10 2.6275296e-10 -5.9569634e-11 -1.0112349e-10 -0.00030413625 2.104317e-05 -0.00030413625 2.104317e-05
-0.00065997953 -0.00030214083 4.0842424e-05 4.522648e-05 -0.00065997953 -0.00030214083 4.0842424e-05 4.522648e-05
-6e-45 -6e-45 -6e-45 -6e-45 -6e-45 -6e-45 -6e-45 6e-45
-6e-45 -6e-45 -6e-45 6e-45 2.822809e-13 1.0272885e-14 2.822809e-13 1.0272885e-14
9.096333e-13 2.9576968e-13 2.3720744e-13 1.176577e-13 9.096333e-13 2.9576968e-13 2.3720744e-13 1.176577e-13
4.5293582e-05 1.4918478e-06 4.5293582e-05 1.4918478e-06 -6.182899e-05 1.9478044e-05 -7.5970693e-06 -8.294256e-06
-6.182899e-05 1.9478044e-05 -7.5970693e-06 -8.294256e-06 0.0 0.0 0.0 0.0
0.0 0.0 0.0 0.0 0.0 0.0 0.0 0.0
-6e-45 -6e-45 -6e-45 -6e-45 -6e-45 -6e-45 -6e-45 -6e-45
-6e-45 -6e-45 -6e-45 -6e-45 1.7577594e-07 -1.11823894e-07 1.7577594e-07 -1.11823894e-07
9.773956e-07 3.406091e-07 -2.154775e-08 -7.9478795e-08 9.773956e-07 3.406091e-07 -2.154775e-08 -7.9478795e-08
-6e-45 -6e-45 -6e-45 -6e-45 6e-45 -6e-45 6e-45 6e-45
6e-45 -6e-45 6e-45 6e-45 1.10811034e-10 -1.5570088e-10 1.10811034e-10 -1.5570088e-10
3.217037e-10 7.2869745e-11 -1.7870841e-10 -2.276251e-10 3.217037e-10 7.2869745e-11 -1.7870841e-10 -2.276251e-10
-1.2332162e-06 1.2746821e-06 -1.2332162e-06 1.2746821e-06 -8.659711e-06 -1.6568168e-06 1.0522962e-06 1.1448504e-06
-8.659711e-06 -1.6568168e-06 1.0522962e-06 1.1448504e-06 -7.386161e-07 6.969e-07 -7.386161e-07 6.969e-07
00000000: 7954 b138 5318 1b36 7954 b138 5318 1b36
00000010: 6a6f d6b8 7b93 2c38 e2f3 62b7 8be5 77b7
00000020: 6a6f d6b8 7b93 2c38 e2f3 62b7 8be5 77b7
00000030: d010 54b3 c39e 3a33 d010 54b3 c39e 3a33
00000040: 97bc 2fb4 4a17 58b3 42c6 4433 b1c8 5f33
00000050: 97bc 2fb4 4a17 58b3 42c6 4433 b1c8 5f33
00000060: 0400 0080 0400 0000 0400 0080 0400 0000
00000070: 0400 0000 0400 0080 0400 0000 0400 0000
00000080: 0400 0000 0400 0080 0400 0000 0400 0000
00000090: d3bd afba 86c3 8b38 d3bd afba 86c3 8b38
000000a0: 8a8a 2dbb 4fa6 deba 5579 0539 7a9f 1839
000000b0: 8a8a 2dbb 4fa6 deba 5579 0539 7a9f 1839
000000c0: 0400 0000 0400 0080 0400 0000 0400 0080
000000d0: 0400 0000 0400 0000 0400 0080 0400 0080
000000e0: 0400 0000 0400 0000 0400 0080 0400 0080
000000f0: 0000 0000 0000 0000 0000 0000 0000 0000
00000100: 0000 0000 0000 0000 0000 0000 0000 0000
00000110: 0000 0000 0000 0000 0000 0000 0000 0000
00000120: 0400 0000 0400 0080 0400 0000 0400 0080
00000130: 0400 0000 0400 0000 0400 0000 0400 0000
00000140: 0400 0000 0400 0000 0400 0000 0400 0000
00000150: 3273 432d 2fa3 1dac 3273 432d 2fa3 1dac
00000160: fdc0 4f2e 4068 652d 0ce7 232d 4a05 012d
00000170: fdc0 4f2e 4068 652d 0ce7 232d 4a05 012d
00000180: dbf3 d634 0863 d5b4 dbf3 d634 0863 d5b4
00000190: 9759 b735 a391 ca34 bef9 e9b4 a627 00b5
000001a0: 9759 b735 a391 ca34 bef9 e9b4 a627 00b5
000001b0: 0d18 a12c 8797 f6ad 0d18 a12c 8797 f6ad
000001c0: 7edf 822e c47c 802d b6f7 6bae 43f6 79ae
000001d0: 7edf 822e c47c 802d b6f7 6bae 43f6 79ae
000001e0: edff 8d2f 5584 55af edff 8d2f 5584 55af
000001f0: 7b43 5930 3173 902f b9fe 82ae 775f deae
00000200: 7b43 5930 3173 902f b9fe 82ae 775f deae
00000210: 7a74 9fb9 dd85 b037 7a74 9fb9 dd85 b037
00000220: 7a02 2dba a868 9eb9 384e 2b38 90b1 3d38
00000230: 7a02 2dba a868 9eb9 384e 2b38 90b1 3d38
00000240: 0400 0080 0400 0080 0400 0080 0400 0080
00000250: 0400 0080 0400 0080 0400 0080 0400 0000
00000260: 0400 0080 0400 0080 0400 0080 0400 0000
00000270: f7e8 9e2a 520f 3928 f7e8 9e2a 520f 3928
00000280: fe04 802b e780 a62a 3289 852a 8678 042a
00000290: fe04 802b e780 a62a 3289 852a 8678 042a
000002a0: 9df9 3d38 803b c835 9df9 3d38 803b c835
000002b0: 30aa 81b8 c864 a337 54ea feb6 8f27 0bb7
000002c0: 30aa 81b8 c864 a337 54ea feb6 8f27 0bb7
000002d0: 0000 0000 0000 0000 0000 0000 0000 0000
000002e0: 0000 0000 0000 0000 0000 0000 0000 0000
000002f0: 0000 0000 0000 0000 0000 0000 0000 0000
00000300: 0400 0080 0400 0080 0400 0080 0400 0080
00000310: 0400 0080 0400 0080 0400 0080 0400 0080
00000320: 0400 0080 0400 0080 0400 0080 0400 0080
00000330: ecbc 3c34 d623 f0b3 ecbc 3c34 d623 f0b3
00000340: 0f2f 8335 f5dc b634 0118 b9b2 eead aab3
00000350: 0f2f 8335 f5dc b634 0118 b9b2 eead aab3
00000360: 0400 0080 0400 0080 0400 0080 0400 0080
00000370: 0400 0000 0400 0080 0400 0000 0400 0000
00000380: 0400 0000 0400 0080 0400 0000 0400 0000
00000390: 11ad f32e e731 2baf 11ad f32e e731 2baf
000003a0: c5db b02f 053e a02e f27d 44af c546 7aaf
000003b0: c5db b02f 053e a02e f27d 44af c546 7aaf
000003c0: fc84 a5b5 be15 ab35 fc84 a5b5 be15 ab35
000003d0: 2d49 11b7 cb5f deb5 9f3c 8d35 c3a8 9935
000003e0: 2d49 11b7 cb5f deb5 9f3c 8d35 c3a8 9935
000003f0: 5045 46b5 9a12 3b35 5045 46b5 9a12 3b35

exp_avg_sq f4 [32, 12]
1.0827914e-07 9.192529e-09 1.0827914e-07 9.192529e-09 6.776453e-08 6.363861e-08 3.2775162e-08 2.911645e-08
6.776453e-08 6.363861e-08 3.2775162e-08 2.911645e-08 1.523672e-10 6.5829564e-11 1.523672e-10 6.5829564e-11
3.7539727e-10 3.701026e-11 2.3280361e-10 2.7071642e-10 3.7539727e-10 3.701026e-11 2.3280361e-10 2.7071642e-10
5.019863e-11 9.072969e-12 5.019863e-11 9.072969e-12 1.9304441e-10 3.36205e-11 8.241161e-11 6.1305225e-11
1.9304441e-10 3.36205e-11 8.241161e-11 6.1305225e-11 7.5122356e-05 5.3257884e-07 7.5122356e-05 5.3257884e-07
0.00018185792 5.854235e-05 1.8569547e-06 1.6642874e-06 0.00018185792 5.854235e-05 1.8569547e-06 1.6642874e-06
9.027093e-11 2.5460905e-12 9.027093e-11 2.5460905e-12 5.886005e-10 6.178666e-11 5.22366e-12 2.4543349e-14
5.886005e-10 6.178666e-11 5.22366e-12 2.4543349e-14 0.0 0.0 0.0 0.0
0.0 0.0 0.0 0.0 0.0 0.0 0.0 0.0
1.7240464e-13 4.989862e-15 1.7240464e-13 4.989862e-15 1.3121464e-12 1.2245645e-13 7.407222e-15 7.249224e-16
1.3121464e-12 1.2245645e-13 7.407222e-15 7.249224e-16 4.369828e-11 5.8180557e-12 4.369828e-11 5.8180557e-12
3.4424374e-10 4.0602976e-11 8.808712e-12 9.0214815e-12 3.4424374e-10 4.0602976e-11 8.808712e-12 9.0214815e-12
6.976514e-09 1.0047272e-10 6.976514e-09 1.0047272e-10 9.882115e-09 5.413423e-09 6.697286e-10 6.932115e-10
9.882115e-09 5.413423e-09 6.697286e-10 6.932115e-10 1.9515098e-11 1.032684e-11 1.9515098e-11 1.032684e-11
2.4014218e-10 3.2946812e-11 4.009949e-11 4.1503016e-11 2.4014218e-10 3.2946812e-11 4.009949e-11 4.1503016e-11
1.7668715e-10 7.804684e-11 1.7668715e-10 7.804684e-11 3.6860517e-10 1.4320559e-11 2.918314e-10 3.4496303e-10
3.6860517e-10 1.4320559e-11 2.918314e-10 3.4496303e-10 3.7691912e-06 2.1198009e-08 3.7691912e-06 2.1198009e-08
1.580064e-05 3.4517511e-06 7.957354e-08 7.161939e-08 1.580064e-05 3.4517511e-06 7.957354e-08 7.161939e-08
1.6634491e-10 4.369008e-12 1.6634491e-10 4.369008e-12 5.5912175e-10 1.5800496e-10 9.716937e-12 8.126973e-13
5.5912175e-10 1.5800496e-10 9.716937e-12 8.126973e-13 1.854166e-12 3.3488663e-13 1.854166e-12 3.3488663e-13
1.2701212e-11 1.6931776e-12 9.880914e-13 1.0363017e-12 1.2701212e-11 1.6931776e-12 9.880914e-13 1.0363017e-12
7.780419e-07 2.351963e-08 7.780419e-07 2.351963e-08 6.447985e-07 5.8136504e-07 6.60296e-08 5.3055683e-08
6.447985e-07 5.8136504e-07 6.60296e-08 5.3055683e-08 0.0 0.0 0.0 0.0
0.0 0.0 0.0 0.0 0.0 0.0 0.0 0.0
1.4140661e-10 3.2512155e-12 1.4140661e-10 3.2512155e-12 7.227117e-10 1.2757143e-10 6.7312397e-12 3.737239e-13
7.227117e-10 1.2757143e-10 6.7312397e-12 3.737239e-13 1.5531866e-10 5.2963387e-11 1.5531866e-10 5.2963387e-11
7.7634565e-10 2.0436612e-10 1.3220659e-10 1.1848465e-10 7.7634565e-10 2.0436612e-10 1.3220659e-10 1.1848465e-10
6.452827e-14 7.152661e-16 6.452827e-14 7.152661e-16 1.4784501e-14 1.0044511e-13 8.778228e-15 7.93184e-15
1.4784501e-14 1.0044511e-13 8.778228e-15 7.93184e-15 2.5043578e-10 1.162485e-11 2.5043578e-10 1.162485e-11
7.704642e-10 2.1419229e-10 1.4108727e-11 6.7891886e-12 7.704642e-10 2.1419229e-10 1.4108727e-11 6.7891886e-12
5.1237197e-09 2.2389579e-10 5.1237197e-09 2.2389579e-10 4.040364e-09 5.570539e-09 7.463001e-10 6.7706785e-10
4.040364e-09 5.570539e-09 7.463001e-10 6.7706785e-10 1.0881913e-09 8.114215e-11 1.0881913e-09 8.114215e-11
00000000: 1687 e833 2ced 1d32 1687 e833 2ced 1d32
00000010: f285 9133 b2a9 8833 acc4 0c33 c01b fa32
00000020: f285 9133 b2a9 8833 acc4 0c33 c01b fa32
00000030: 8e87 272f c0c2 902e 8e87 272f c0c2 902e
00000040: 7860 ce2f d9c5 222e 64f8 7f2f f3d3 942f
00000050: 7860 ce2f d9c5 222e 64f8 7f2f f3d3 942f
00000060: a2c6 5c2e 059d 1f2d a2c6 5c2e 059d 1f2d
00000070: 2c41 542f 51dd 132e 9d39 b52e c6cf 862e
00000080: 2c41 542f 51dd 132e 9d39 b52e c6cf 862e
00000090: 028b 9d38 8af6 0e35 028b 9d38 8af6 0e35
000000a0: 1db1 3e39 5f8b 7538 7a3c f935 7b60 df35
000000b0: 1db1 3e39 5f8b 7538 7a3c f935 7b60 df35
000000c0: 0482 c62e 4a2a 332c 0482 c62e 4a2a 332c
000000d0: 14cb 2130 ccde 872e 8cca b72c 1c11 dd28
000000e0: 14cb 2130 ccde 872e 8cca b72c 1c11 dd28
000000f0: 0000 0000 0000 0000 0000 0000 0000 0000
00000100: 0000 0000 0000 0000 0000 0000 0000 0000
00000110: 0000 0000 0000 0000 0000 0000 0000 0000
00000120: 411c 422a 5bc7 b327 411c 422a 5bc7 b327
00000130: 0eab b82b abdf 092a c86f 0528 d5f1 5026
00000140: 0eab b82b abdf 092a c86f 0528 d5f1 5026
00000150: e42f 402e 63b4 cc2c e42f 402e 63b4 cc2c
00000160: 0040 bd2f e392 322e e9f6 1a2d 24b5 1e2d
00000170: 0040 bd2f e392 322e e9f6 1a2d 24b5 1e2d
00000180: 11b6 ef31 1df1 dc2e 11b6 ef31 1df1 dc2e
00000190: 00c6 2932 f900 ba31 f617 3830 6c8c 3e30
000001a0: 00c6 2932 f900 ba31 f617 3830 6c8c 3e30
000001b0: 18a8 ab2d f4ab 352d 18a8 ab2d f4ab 352d
000001c0: 0205 842f d0e6 102e 035c 302e 3e88 362e
000001d0: 0205 842f d0e6 102e 035c 302e 3e88 362e
000001e0: 0345 422f 77a0 ab2e 0345 422f 77a0 ab2e
000001f0: 91a4 ca2f 10ee 7b2d 9e6f a02f 3ba5 bd2f
00000200: 91a4 ca2f 10ee 7b2d 9e6f a02f 3ba5 bd2f
00000210: 36f2 7c36 ea16 b632 36f2 7c36 ea16 b632
00000220: 9e8b 8437 a2a4 6736 04e2 aa33 2dcd 9933
00000230: 9e8b 8437 a2a4 6736 04e2 aa33 2dcd 9933
00000240: eee5 362f 87b8 992c eee5 362f 87b8 992c
00000250: b2b0 1930 71ba 2d2f 32f1 2a2d 03c1 642b
00000260: b2b0 1930 71ba 2d2f 32f1 2a2d 03c1 642b
00000270: af79 022c 4086 bc2a af79 022c 4086 bc2a
00000280: 2c71 5f2d 274b ee2b bf0f 8b2b b4d8 912b
00000290: 2c71 5f2d 274b ee2b bf0f 8b2b b4d8 912b
000002a0: a2da 5035 3708 ca32 a2da 5035 3708 ca32
000002b0: 3716 2d35 1a0f 1c35 28cc 8d33 57df 6333
000002c0: 3716 2d35 1a0f 1c35 28cc 8d33 57df 6333
000002d0: 0000 0000 0000 0000 0000 0000 0000 0000
000002e0: 0000 0000 0000 0000 0000 0000 0000 0000
000002f0: 0000 0000 0000 0000 0000 0000 0000 0000
00000300: 6c7a 1b2f b1c8 642c 6c7a 1b2f b1c8 642c
00000310: 51a8 4630 2a44 0c2f 9ed5 ec2c 4a63 d22a
00000320: 51a8 4630 2a44 0c2f 9ed5 ec2c 4a63 d22a
00000330: 51c6 2a2f 79ef 682e 51c6 2a2f 79ef 682e
00000340: 7866 5530 f3b3 602f d95c 112f 7746 022f
00000350: 7866 5530 f3b3 602f d95c 112f 7746 022f
00000360: 044e 9129 5329 4e26 044e 9129 5329 4e26
00000370: bd2a 8528 aa2e e229 6e22 1e28 28e3 0e28
00000380: bd2a 8528 aa2e e229 6e22 1e28 28e3 0e28
00000390: b4ad 892f ac81 4c2d b4ad 892f ac81 4c2d
000003a0: 99c8 5330 c581 6b2f 0f34 782d 93df ee2c
000003b0: 99c8 5330 c581 6b2f 0f34 782d 93df ee2c
000003c0: b70c b031 102d 762f b70c b031 102d 762f
000003d0: 6bd3 8a31 fb66 bf31 3324 4d30 6a1c 3a30
000003e0: 6bd3 8a31 fb66 bf31 3324 4d30 6a1c 3a30
000003f0: 548f 9530 f86e b22e 548f 9530 f86e b22e

exp_avg f4 [32]
-0.00015375584 -6.381942e-08 6e-45 0.0005012426 6e-45 0.0 6e-45 2.1288016e-11
4.5674554e-07 5.0411966e-11 4.0176767e-10 0.00015638387 6e-45 5.5867556e-13 -8.850012e-05 0.0
6e-45 6.236684e-07 6e-45 8.586407e-11 -4.305759e-06 -7.6608643e-07 9.994216e-13 2.0140434e-12
2.69365e-40 -4.578729e-05 1.1695688e-12 7.579893e-18 -2.6973855e-06 -6.037305e-07 1.9373971e-11 -0.0005191589
00000000: 8539 21b9 190d 89b3 0400 0000 d265 033a
00000010: 0400 0000 0000 0000 0400 0000 5a40 bb2d
00000020: a136 f534 d4b6 5d2e c6df dc2f fafa 2339
00000030: 0400 0000 d140 1d2b 2499 b9b8 0000 0000
00000040: 0400 0000 2b6a 2735 0400 0000 2dd1 bc2e
00000050: 307a 90b6 0fa5 4db5 f5a7 8c2b c8b9 0d2c
00000060: e1ee 0200 ba0b 40b8 289a a42b 08d3 0b23
00000070: bb04 35b6 0b10 22b5 4e6a aa2d 2a18 08ba

exp_avg_sq f4 [32]
1.479533e-07 6.418208e-10 3.0670236e-10 1.25278675e-05 1.1213117e-11 0.0 1.6067245e-13 2.907887e-11
1.2985005e-09 5.2167635e-11 7.551752e-10 4.7540192e-07 1.6560678e-11 1.8725885e-12 3.5594502e-07 0.0
1.4516749e-11 3.6197892e-10 1.3073613e-13 3.8461647e-11 2.5375098e-09 3.439742e-10 5.3724646e-11 3.2405557e-11
3.135661e-11 3.400003e-08 5.2863213e-12 3.1509237e-10 3.4441178e-10 2.3435925e-10 8.201175e-10 1.7050283e-05
00000000: 18dd 1e34 206c 3030 859c a82f c82e 5237
00000010: 6443 452d 0000 0000 aee6 342a cbc7 ff2d
00000020: ed76 b230 896f 652e bb94 4f30 be3a ff34
00000030: 55ab 912d 8ec5 032c b618 bf34 0000 0000
00000040: a061 7f2d 0100 c72f 2032 132a f727 292e
00000050: 5860 2e31 111a bd2f 9348 6c2e 6a85 0e2e
00000060: 67e8 092e 6e07 1233 f3fe b92c 4f39 ad2f
00000070: a657 bd2f 22d7 802f a36e 6130 3407 8f37

exp_avg f4 [1, 32]
0.00042749484 2.0226057e-06 6e-45 0.0042824144 6e-45 0.0 -6e-45 -1.8375901e-11
-3.9761204e-07 -2.0897302e-10 9.051106e-07 0.00027571968 6e-45 2.2825708e-13 0.00027668968 0.0
6e-45 1.9127281e-05 6e-45 8.1352297e-10 1.4686343e-05 6.2229133e-06 5.7226806e-12 -2.0999664e-13
9.93345e-40 0.000118318516 -1.6181862e-12 3.055607e-17 1.782401e-05 1.567224e-05 2.8312375e-11 0.001955264
00000000: 6321 e039 1abc 0736 0400 0000 7f53 8c3b
00000010: 0400 0000 0000 0000 0400 0080 daa2 a1ad
00000020: 6277 d5b4 adc4 65af baf6 7235 788e 9039
00000030: 0400 0000 507f 802a a910 9139 0000 0000
00000040: 0400 0000 8673 a037 0400 0000 979e 5f30
00000050: 5d65 7637 6bce d036 5359 c92c 696f 6caa
00000060: 0bd1 0a00 c521 f838 4dbd e3ab 3dea 0c24
00000070: c584 9537 e177 8337 cd09 f92d e323 003b

exp_avg_sq f4 [1, 32]
9.538554e-07 7.7696277e-10 7.4374173e-11 0.0008175965 5.796016e-11 0.0 5.56933e-13 1.9840844e-11
6.15519e-09 4.1547518e-10 6.117723e-09 4.8720635e-06 6.5819314e-09 6.227603e-13 1.3474703e-06 0.0
1.08021744e-10 4.9803672e-09 3.7948817e-15 7.518982e-09 3.0457098e-08 2.886261e-08 7.492938e-10 1.8438857e-10
1.4511761e-09 6.8326585e-08 7.0263617e-09 1.2835013e-09 1.4063826e-07 3.8455017e-09 1.5865758e-09 9.070303e-05
00000000: 3906 8035 e591 5530 f08c a32e f953 563a
00000010: 57e9 7e2e 0000 0000 41c3 1c2b 9c85 ae2d
00000020: a07d d331 ef68 e42f 1034 d231 b57a a336
00000030: 4827 e231 9c4a 2f2b bada b435 0000 0000
00000040: d68a ed2e c61f ab31 9bb9 8827 d52c 0132
00000050: efcf 0233 8ded f732 ddf6 4d30 c5bc 4a2f
00000060: b872 c730 f0ba 9233 886c f131 3067 b030
00000070: 5a02 1734 6421 8431 ac0e da30 d237 be38
