Experiments/Experiments-017/checkpoints/model.pt (torch, 163559 bytes, 33 tensors)

cp.convs.0.weight f4 [2, 1, 3, 3]
00000000: 194c 41bf 4f23 bf3e b42f c63e d5c5 573e
00000010: 35fe 3dbf 4c30 083f 5f6e 03bf 0268 56bd
00000020: 3054 0f3f 6027 0fbf a1f6 1fbf 7b9a 8dbe
00000030: 1c79 dbbe bac5 bcbe 2808 edbd 0f03 493f
00000040: 9d4e 0e3f 7d2c c43e
-0.7550674 0.37331626 0.3870827 0.2107156 -0.74216014 0.53198695 -0.5134029 -0.052345283
0.55987835 -0.55919456 -0.624857 -0.27656922 -0.42865837 -0.36869603 -0.11573821 0.7852029
0.55588704 0.38315192

cp.convs.1.weight f4 [4, 1, 3, 3]
00000000: b5b0 b2be 64c5 87be 9bf7 d1be e1c5 0abf
00000010: 4692 e7be a970 07bf 32fc 0abe ffbf 5ebe
00000020: 9bc5 9cbe 9b2a 75be 2284 04bf 789b aabe
00000030: ef64 a4bd 11b5 403f 6f94 c73d 2422 403e
00000040: 6a39 9abf cdaf e13e c302 18bf 2aaa 593e
00000050: 7847 d93e afda 14bf d239 9ebc 2cd4 233f
00000060: 51ba 2abf ec0a debc e572 393f fcc4 23be
00000070: a5a1 e1be b637 83be 49f6 303e 7f31 ffbe
00000080: 6fa0 173e c73b 21be bcfb 76be 1b4f b13d
-0.34900442 -0.26517785 -0.4100922 -0.5420819 -0.45228785 -0.5290628 -0.13572767 -0.21752928
-0.3061951 -0.23942034 -0.5176412 -0.33321738 -0.08027064 0.75276285 0.09745108 0.18763024
-1.2048771 0.44079438 -0.59379214 0.21256319 0.4243734 -0.58146185 -0.01931468 0.63995624
-0.66690546 -0.027104817 0.7244094 -0.15993112 -0.44068637 -0.25628442 0.1728145 -0.4984245
0.14807294 -0.1574546 -0.24119467 0.08657666

cp.convs.2.weight f4 [8, 1, 3, 3]
00000000: d338 7fbb c197 33be 06a9 0dbf 9f53 703e
00000010: fe08 9ebe 063f 0cbf 19ed 513f e033 f43e
00000020: e83d 1abe e111 8b3e e8d3 abbd e4fc 403e
00000030: 9053 83bd 7a3f b5be 793d ecbe d144 22bf
00000040: cc11 2bbe d1ce 19bf 8268 a4bd 34cc e7bd
00000050: 267d bbbd a977 7f3d 08b9 48be 3c59 603f
00000060: 41f5 a2bd fb4c a73e 051b 47bf d4b8 c7bd
00000070: 5902 0b3c 74b3 57be aefe bbbe 25d8 d0be
00000080: 8991 febe 7884 94be 47ae b8be b2ba b4be
00000090: 3b13 c93e 4e09 0a3f ed5b 023f ddc2 973d
000000a0: 64ea 723e e245 843e ed7a 9cbd a88a cc3e
000000b0: 4029 053f 436c 45bd d75f cabe 874d 16bf
000000c0: 7cd1 06bc b96d 1c3b f007 bdbe 4048 82bd
000000d0: b2bb c5be c32a 83be e427 703e 614b a6be
000000e0: 16ac e3bd ed69 f5bd eb11 a13e e126 e03c
000000f0: 1c66 c53e 55f3 b33e 8384 82bc 6ec1 f2be
00000100: bde1 7bbc 3263 573f 0927 40bf 9ecb b53e
00000110: ad39 043f 58ab 8dbe 6c66 513e 2e53 ac3e
-0.0038943782 -0.17538358 -0.55336034 0.23469399 -0.30866235 -0.54783666 0.8200241 0.47695827
-0.15062678 0.27162078 -0.08390027 0.1884647 -0.06412423 -0.3539999 -0.4614065 -0.63386256
-0.16706008 -0.600812 -0.08027746 -0.113182455 -0.091547295 0.062369976 -0.19601834 0.8763616
-0.07956935 0.3267592 -0.77775604 -0.0975205 0.008484446 -0.2106455 -0.36717743 -0.40789905
-0.4972041 -0.29007316 -0.36070463 -0.35298687 0.39272484 0.5392045 0.5092152 0.07410214
0.23722225 0.25834566 -0.07640634 0.39949536 0.5201607 -0.04819895 -0.39526245 -0.5871205
-0.008228656 0.002386911 -0.36920118 -0.06361437 -0.38619763 -0.25618562 0.23452717 -0.32479385
-0.11116807 -0.11983094 0.31458983 0.027362289 0.38554466 0.35146585 -0.015932327 -0.474132
-0.015373644 0.84135735 -0.7505956 0.3550691 0.51650506 -0.27669787 0.20449227 0.3365721

cp.convs.3.weight f4 [16, 1, 3, 3]
00000000: 7fcd edbe 34f7 09bf f22b f63e 8fa5 e5be
00000010: 9cc6 23bd 85a7 0a3f c8cf d0be 903d cf3e
00000020: e3e4 163f fee6 0a3f 7776 cf3e e67d 0b3f
00000030: 3a91 d53e 06f1 9d3e 2381 043f 3ecd 05be
00000040: d694 afbe edea e63c 91a1 eebe bcfa 183e
00000050: f314 1abf af8c 0ebe dc37 743e 7e7b 6bbd
00000060: 3d07 afbe 6bfe 6e3c 3f1e 4a3d e1b5 ca3e
00000070: 48d2 92bd ed1e 293e 0269 a63d 914c 913e
00000080: 28af d93d 53f7 653e 49bf ea3c 837e 0a3f
00000090: 5fa2 103f 8178 be3d 00a8 d63e 26a6 ed3b
000000a0: 863e 1cbf 2a7c c43e d2eb 8a3c ac03 353f
000000b0: b79c 61bf 9431 0b3f 929d 61bf 83fe 393d
000000c0: e404 033f 6445 5c3f 79dc aa3e c831 70bf
000000d0: 2152 d1be e711 3ebf 8842 d53d e22c 9b3e
000000e0: 284b 2f3e 30e4 ec3e c0b8 d03e a003 d33e
000000f0: 06fe 073e 5eab 883c 8f84 b6bd f95d 8bbe
00000100: d517 ecbd c4dc 05bf 8970 06bf c45f ebbe
00000110: 1129 d8be 8487 05bf db2d 83be d6b0 9fbe
00000120: f20f 353e 952a ef3e bcb7 0dbe 81af d33e
00000130: ee6d 883e 9458 8d3e 0cdf e93e e95a 06bc
00000140: 5951 c23e f472 d0be dc04 b1be 6b34 2f3d
00000150: f479 303e d4b8 dbbd 9539 17be 4a2f d1be
00000160: 4d90 b5be 3d12 31be 028f 0e3f f837 f73e
00000170: b6f9 203f 4ccb 8fbe b54e d8bd 4429 55be
00000180: cd71 8fbe 78e3 bfbe 76b7 d2be a54a c23d
00000190: 257f 3b3e 6cc4 11be 1784 ce3e 24fa c0bc
000001a0: 4ac2 d63e cc96 3c3e 1cdb c23e a447 6f3e
000001b0: d20b 16be 7c6b 8cbd 2758 59be 6dea 5bbe
000001c0: 4005 343c bbeb 913d 184b f8bc 2fc2 3abe
000001d0: 16d4 343e 496a 473e 180e b03e bd38 1dbe
000001e0: 224f 9ebd c824 80be a404 8ebe de48 2bbe
000001f0: 6787 e33d 0716 d8be 7ae9 c6be cf99 58bf
00000200: a41e ccbe a7ea dbbe 9a93 54be d09f 8fbd
00000210: 52c6 1a3f dc26 693f 07cc 5c3f a3ae ac3e
00000220: 7a97 bfbe fe41 ddbe 1a3c 713d 9ffe 01bf
00000230: 0985 e9be c060 fbbd cdfd cf3e d01f 943e
-0.46445844 -0.5389283 0.48080403 -0.44852874 -0.03998433 0.54161865 -0.40783525 0.40476656
0.58943003 0.54258716 0.4052007 0.5448898 0.41712362 0.3084795 0.51759547 -0.13066575
-0.3429324 0.028188193 -0.4660764 0.14939398 -0.60188216 -0.13920854 0.23849434 -0.05749082
-0.3418521 0.014587025 0.04934525 0.39591888 -0.07169014 0.16515703 0.081254974 0.28378728
0.106291115 0.22457628 0.028655665 0.5409929 0.5649776 0.09300328 0.4192505 0.0072524725
-0.61032903 0.3837598 0.016958151 0.7070873 -0.8812975 0.54372525 -0.8813106 0.045408737
0.5117934 0.8604338 0.33371332 -0.9382596 -0.40882972 -0.74246067 0.104130805 0.3030768
0.17118514 0.46267843 0.40765953 0.41213703 0.13280496 0.016683277 -0.08912002 -0.27220133
-0.11527983 -0.52289987 -0.52515465 -0.459715 -0.4221883 -0.52159905 -0.25620922 -0.31189603
0.17681864 0.46712175 -0.1383962 0.41344836 0.2664637 0.27606642 0.45677984 -0.008200386
0.37952688 -0.40712702 -0.3457402 0.0427746 0.17234021 -0.107286125 -0.1476806 -0.4085639
-0.35461655 -0.17292114 0.5568696 0.48284888 0.6288103 -0.2808479 -0.10561887 -0.20816523
-0.2801651 -0.37478232 -0.41155595 0.094868936 0.1831022 -0.14235085 0.40335152 -0.023556776
0.41945106 0.184169 0.38057792 0.23367172 -0.14652947 -0.068564385 -0.21225034 -0.21476145
0.01098758 0.0712504 -0.030309245 -0.18238138 0.1765903 0.19474138 0.34385753 -0.15353675
-0.07729937 -0.25028062 -0.27737916 -0.16727015 0.1110981 -0.42204306 -0.38850003 -0.84609693
-0.39867127 -0.42952463 -0.2075943 -0.07012904 0.6045886 0.9107492 0.8624882 0.33726987
-0.37420255 -0.4321441 0.058895208 -0.50779146 -0.4560931 -0.12274313 0.40623322 0.2893052

_mlp.0.weight f4 [64, 60]
00000000: 66d0 3cbe 4b85 e53d 3c58 54be 8d95 c63d
00000010: 4114 823e c91c 52be 2033 a3bd a9cf 253d
00000020: 8a9f 2e3e a12b 28be 7a86 bdbd 5b63 8e3d
00000030: b795 e83d d709 90bc 4bc8 54be 1755 22bd
00000040: fd6b aa3d b0c8 25be 9359 b53c 3f6e 81bd
00000050: 9e21 0abc 0a99 003e 013b d2be 577f 893d
00000060: 6951 fc3d e360 70be 7e7f 39bd be49 c53c
00000070: fa83 ad3b 6b5c 39bc 72e1 bcbd ebe8 54bd
00000080: 55d6 ebbe 98d8 e7be 42f0 b43c 2e1d c33d
00000090: 22e9 ed3d b31f dc3c d7eb e43e 22b2 a1bd
000000a0: e377 10bd 180f 29be 395b 323e 13d1 2fbd
000000b0: 267a ba3c c9f5 483e c1ac 3fbd 6eac 0c3e
000000c0: dd4e debe 943d 85be 3fe9 e0bd bae5 a23d
000000d0: 8cf9 183e 65f2 743e 2269 083f 313a 393c
000000e0: 4282 f4bd 1dcd 133d f0ae 8c3e 89aa 8bbc
000000f0: fd7f a83c 0d79 06be 9dd3 423e 7918 78bd
00000100: 6035 263c c421 a53c 266d 46bc 7575 fd3d
00000110: b953 133e 3c34 743d 772a 4f3e 939c 0b3b
00000120: 94a8 3dbd 00a8 e93c 7842 a8bd 7d54 023e
00000130: f0e8 8fbe 507e 44bd 9803 a43d 39c3 38bd
00000140: a533 a1bc 1189 1dbe 7810 ea3d 5d91 fb3d
00000150: bccf 0bbe 4ab5 d1bd fc84 40bd 9f49 fabd
00000160: 14e1 9c3d d05d 533d fb90 e13d 7847 cb3c
00000170: 782d fa3d aa49 c6bb f43c f33a 796d 8ebd
00000180: c63a c3bd c294 54bd ec14 1dbd a156 f33d
00000190: 3488 023e 545d 823d 7e9e 213d b75b 0e3e
000001a0: ef1e 29be 8550 52bd 8c1d 77bd ccae 94bc
000001b0: a1f3 093e 58cb 1a3e 50ca a6bd 6fec 07be
000001c0: d9e4 23be 0d4b cabd 97cc ba3d 14db 643c
000001d0: 58be 7abc f758 0b3e 9bf6 733c 474e 40bd
000001e0: 217a d13d 0fc2 66be 2908 df3d d4f2 89bc
000001f0: ed91 d33b fb11 563d f87d 9e3d a268 3ebd
00000200: 1541 333d 5c31 39bd 5cc6 0a3e aab3 0bbe
00000210: e0a8 10bc 8f86 2a3d 603a 373e 8c24 31bd
00000220: 54ad b5bd e6cd a73d 96df 46bc 2d64 6fbe
00000230: 80c9 023d 1ca5 da3d 2d9b 2abd d469 9a3d
00000240: dbef 03be 4fee 463d 5b23 b93d 5ef5 42bc
00000250: 922b 6dbd bd38 a9bd 2c56 40bc becb 19be
00000260: f3c5 143d 3186 1f3e e45a c8bc 7f3a c83d
00000270: 4f32 9ebe a19c ffbd ae2f 1b3e 48fe c63d
00000280: 2ba7 52bc 2af3 4c3e 3087 643d 56a4 063d
00000290: 9f20 ec3c 0d98 18bd 3d14 db3d b30e 0ebe
000002a0: 6d9c ecbc 1996 e5bc b8c4 093e 143b 283c
000002b0: fa22 9fbd 3e24 4abe c8c5 fd3d 806f 8b3d
000002c0: 340c d83b 9ca6 133e 6957 dc3c 732c d73d
000002d0: 029c 023f 3737 93be 1d04 ef3e 9a31 bcbe
000002e0: 722f 863e e8e9 333e 4de3 373a a31f b8be
000002f0: 6828 b33e 7c56 293e 0342 bebb a30c b0be
00000300: 50ae 6c3e abb0 533e cfe6 513e 6022 d83e
00000310: 4319 92be bd22 77be c840 623e e8ca 83be
00000320: 7e5b 803d 772f 243e fcad e43d 9aee f53e
00000330: 6b95 88be 3b0c 01be a431 bc3d 750e 61be
00000340: 9a3b 7cbd ea4b 71bd 48e0 603e 2be0 87bd
00000350: d26d 413d 6108 233d e852 a13e 42fa 09bc
00000360: cb8a b0be e8fe c8be 83b3 ad3e 9763 fc3d
00000370: c30a d63e 3be0 a83e 95b3 aa3d c52a 0abe
00000380: 3b4e 91bd a2bf 2e3d 8a4f 5b3e a8a0 18be
00000390: 9729 9bbd 9831 d93d 4027 a63e 35a3 c0bb
000003a0: af67 a8be 40d2 33be d9e1 9e3e 5808 d43d
000003b0: 60db 9e3e 701e 793e 137e 2c3d 2df0 7abe
000003c0: c907 053f 7067 09be 17ed c93e fd83 81be
000003d0: 9888 1f3e fb7f 9a3e 2a54 fb3d 8abb 3b3d
000003e0: 83bf 033c 4dd8 973e 085e 363e a5ca 85bd
000003f0: c98b 1bbd 433c 59be c551 bf3e 55be d53e
-0.18438873 0.11207064 -0.20736784 0.09696493 0.25406078 -0.20518793 -0.07968736 0.040481243
0.17053047 -0.16422893 -0.09254165 0.06952544 0.11356681 -0.017582817 -0.2077953 -0.03963193
0.083213784 -0.16189837 0.022137439 -0.06319856 -0.0084308665 0.1255838 -0.4106064 0.06713741
0.12320215 -0.2347446 -0.0452876 0.024083015 0.005295274 -0.011313538 -0.09222688 -0.05197994
-0.4606196 -0.45282435 0.02208722 0.0952705 0.11616732 0.026870584 0.44711182 -0.07895304
-0.035270583 -0.16509664 0.17417611 -0.042923998 0.022763323 0.1962501 -0.04679561 0.13737652
-0.43419543 -0.26023543 -0.10981988 0.07953973 0.14938945 0.23920591 0.5328542 0.011305378
-0.11938907 0.036084283 0.27477217 -0.017049091 0.020568842 -0.13132115 0.19026037 -0.060570214
0.0101445615 0.020157702 -0.012110984 0.12375919 0.14387406 0.059620127 0.20231043 0.0021303042
-0.046303347 0.028522491 -0.08215803 0.12727542 -0.28107405 -0.047972023 0.08008498 -0.045108054
-0.019677946 -0.15384318 0.114289224 0.12283585 -0.13653463 -0.10239656 -0.047001824 -0.12221073
0.07660118 0.05160314 0.11013981 0.024814352 0.12215704 -0.006051262 0.0018557594 -0.06954474
-0.095326945 -0.05189968 -0.03835003 0.118817575 0.1274727 0.06365457 0.03945779 0.13902174
-0.16515706 -0.05134632 -0.060330912 -0.018149756 0.13471843 0.15116632 -0.08144057 -0.13273786
-0.16005267 -0.09877596 0.09121054 0.013968248 -0.015304171 0.13608156 0.014890338 -0.04694965
0.10228372 -0.22534965 0.10890228 -0.016839422 0.0064566047 0.05226324 0.077388704 -0.046486504
0.04376324 -0.04521309 0.1355223 -0.13642755 -0.008829325 0.04163223 0.17893362 -0.043247744
-0.0887095 0.08193569 -0.012138268 -0.23378058 0.031930447 0.10676023 -0.041651893 0.07539716
-0.12884466 0.048567113 0.09039947 -0.01189932 -0.05790288 -0.08262775 -0.011739295 -0.15019128
0.03632159 0.15578534 -0.024457403 0.09776782 -0.30897757 -0.124810465 0.15154907 0.09716469
-0.012857239 0.20014635 0.055792987 0.032871567 0.028824149 -0.037254382 0.106972195 -0.13872795
-0.028883183 -0.028025674 0.13453948 0.010267992 -0.07770343 -0.19740388 0.123912394 0.06808376
0.0065932516 0.14419025 0.02689715 0.10506525 0.510193 -0.28753063 0.46682826 -0.36756593
0.26208073 0.17569697 0.00070147665 -0.35961637 0.34991765 0.16536897 -0.005806209 -0.3438464
0.2311337 0.20672862 0.20498203 0.42213726 -0.28534898 -0.24134345 0.22095025 -0.25740743
0.06267451 0.16033731 0.111659974 0.480336 -0.26676497 -0.12602322 0.09189156 -0.21978171
-0.061580278 -0.058910288 0.21960557 -0.066345535 0.047223873 0.039802913 0.31508565 -0.0084214825
-0.3448089 -0.39256978 0.3392602 0.12323683 0.41805086 0.32983574 0.08335034 -0.13492878
-0.070949994 0.042663224 0.2141706 -0.14905035 -0.07576292 0.106051624 0.3245182 -0.005878831
-0.32891604 -0.17560673 0.31031683 0.10353154 0.31026745 0.24328017 0.04211242 -0.24505682
0.51965004 -0.13418365 0.39438698 -0.25296012 0.1557945 0.30175766 0.122719124 0.045833148
0.008041265 0.29657212 0.17809308 -0.06532792 -0.037975106 -0.21214394 0.37367073 0.41746774

_mlp.0.bias f4 [64]
00000000: c398 b4bd b30c c7bd 614d 0ebe e89d f5be
00000010: 590f 1abf 2659 88be 9c00 ecbe 8be9 24bf
00000020: c7f7 2ebf c72a c1be dee3 49be 416b bdbe
00000030: ab20 2cbf aadb 1dbf 0b55 45bf 9997 a5be
00000040: c0e3 16bf d9a0 c7be 6861 20bf 2386 16bf
00000050: 8152 d8be 9203 4dbe 28d3 02bf b0cd 96be
00000060: e875 c5be 6bb5 ee3e 24a9 ecbd 30cc 9abe
00000070: d073 29be adb2 81be cf2b 5cbf 7145 b9be
00000080: db6a 7fbf 7ed6 7cbf c9b1 17bf f7b5 b4be
00000090: e4c2 14bf b094 4cbf 7d8a e6be 5a72 10bf
000000a0: 7e9f 0dbf f447 7cbe 2725 b6be 1409 d8be
000000b0: 5d45 d1be eec5 04be 8e80 93be 339d 1abf
000000c0: 181b 53be f0fc 0fbf 9ddd d8be c5e2 16bf
000000d0: efff c53d cb70 3abe dcbd 07be ea03 a6be
000000e0: 4c6c 97be 0e56 6bbe 744d bcbe fa21 c9be
000000f0: 2eac 49bf 626e cabe a74f 0cbf 255c ccbe
-0.088181995 -0.09719219 -0.13896705 -0.47972035 -0.6017967 -0.26630515 -0.46094215 -0.6441886
-0.6834683 -0.3772795 -0.1971583 -0.3699589 -0.6723735 -0.61663306 -0.7708289 -0.32342222
-0.5894127 -0.38989905 -0.6264863 -0.58798426 -0.42250445 -0.20020893 -0.5110345 -0.29453802
-0.38566518 0.46622786 -0.115556985 -0.30233908 -0.16548085 -0.2533163 -0.86004347 -0.36185792
-0.99772424 -0.9876479 -0.59255654 -0.35295078 -0.5810988 -0.7991438 -0.45027533 -0.56424487
-0.5532149 -0.24636823 -0.3557522 -0.42194426 -0.40873232 -0.12966129 -0.28809017 -0.60396117
-0.20615804 -0.56245327 -0.42356578 -0.5893977 0.09667956 -0.1820709 -0.1325602 -0.3242486
-0.2957481 -0.22982046 -0.36777842 -0.39283735 -0.7877835 -0.3953734 -0.5480904 -0.3991405

_mlp.2.weight f4 [64, 64]
00000000: 2b2f d5be 45c1 78bd 7215 2d3e 5353 823d
00000010: aed6 f33e b75d 863c 07e6 d73c 36ac a4be
00000020: 68e5 9fbd bdfe 11be 4a52 d4ba cae5 96be
00000030: d839 90bd 2430 f3bb 0707 10be c16f 253e
00000040: c087 183e 3ce4 ed3d 481a adbb ed69 5a3e
00000050: b9dc 72bc 4fd6 80bc 83d2 eb3d 56e4 293d
00000060: a190 8b3e 47ab 853e 6c71 c8bd 6f86 8dbc
00000070: da5e 00bd 6c20 8b3e 32e4 54be ed66 993d
00000080: 381c e43d 4f9e 85be 80e5 643e d5e5 983c
00000090: cb46 883d 919d 473d 614a 8c3e 25e1 9bbc
000000a0: c99e a7bd 68eb 313d 28ba 073e b693 193d
000000b0: 8bec 1bbd 429c d3bd ddb1 b83c ef16 a23e
000000c0: 91a0 b13e 024d 243e 1520 0c3e 6ea3 953c
000000d0: 8d99 0e3e dea1 5ebb a986 c53d 4eef e33d
000000e0: 8b75 40be 123a e73d b1c9 5e3d f525 3f3e
000000f0: 4ec5 babd f1bb 543e 2ab7 273d ca17 c93b
00000100: 623e f3be e3b0 3ebb db32 e03d 525a 26bd
00000110: 66c4 0a3f aad5 cb3b 4905 42bc 8931 af3d
00000120: b83d 0abd 9d39 d13c 5c2f 953e 6073 de3b
00000130: f268 0a3d 8821 143c de1d 20be 2cb7 6f3e
00000140: 3107 803e 213c 543e d0cf a43c 2f01 72bd
00000150: ccb9 043c 3171 34bd 0c9d cdbe 3612 673d
00000160: cb13 a6bd c67c 733e bdf6 99be 3936 f33d
00000170: 2c71 003d 16bf 8abd aebe 20bf d52c babe
00000180: 9f26 d43b e7aa 40bf bfd9 c23e 6a41 2dbd
00000190: 5457 82be c74f 3cbe f272 f13d b5c4 51be
000001a0: 2d0c 633c 33e7 33bd 8925 37be 9364 4bbe
000001b0: 9b9e e03d 7e22 8dbd 17aa aabd af28 d53d
000001c0: cf18 4a3e c4a2 ee3d c1d3 00bf 771a 45bd
000001d0: 06fd 94be 4262 09be 4a7f 393e 637f 87bc
000001e0: e2d0 423b c992 f6be c769 1d3e f7df 473e
000001f0: 33a8 5f3d 1c22 dcbd 8b34 843e e916 0e3e
00000200: fcf9 03bc 6964 1a3e f442 1cbd 60ff 583c
00000210: 7859 b6bd ae6a 42bd 6a53 5abe 6d32 55bd
00000220: b875 a03d 1ef1 953d e458 3abd b45d 6e3d
00000230: 3085 54bd 36bf 6a3d c2bd 2c3d 0e58 853d
00000240: f891 88bd d040 cc3c 161b 6abe c428 3b3e
00000250: 5675 743d aae5 25be ea16 a63e 7795 a6bc
00000260: 733c 82bd 695d 39be 055f 08be ce62 f9bd
00000270: 1a78 85bd a84f 8fbd 3ac4 ed3d c0ac acbd
00000280: f09c 933d 2c06 d3bd b06c 31bd fdf1 74bb
00000290: cbff 2fbd 8ae0 abbd 3959 13be 649f 713d
000002a0: c5d5 a3bc decb 13bd 1595 27be d8ba 993c
000002b0: 0daf aebc 623c 253d c5df 41be d4b7 9cbd
000002c0: 72c9 9fbd 7a0d f2bd 9a00 70be 5260 3ebd
000002d0: d055 02bd f2f8 8dbe c80d 163d 4c9c a8bd
000002e0: e986 2dbd 0b17 17be dea4 6bbd 5865 cdbd
000002f0: ed81 a03c d4e5 9c3c 0015 903c 8a59 fdbd
00000300: 08d4 c7be 3a23 6f3d a031 acbd dbff c3bb
00000310: 8090 cf3e cf9c b93d 0bb4 353d c65f 473e
00000320: 5eae 42bd ea38 0e3e eda7 123d 5fad 573e
00000330: a77b 8b3d d555 2b3d e5ec 8c3e ba15 0b3e
00000340: aa6b ffbd 03bd c7bd 37f3 1f3e 606f a23e
00000350: 3dcc 8d3e beab ab3d bf66 293e 44e1 913d
00000360: 0f4b eb3d 1fd4 993e f2ce 3fbe 757f 653d
00000370: 6439 1d3e 21a8 723e 4a70 3fbe ec1d 503e
00000380: 8a50 bd3d b5b4 533e c745 0f3f a0b7 ed3c
00000390: e743 b7bd b832 0f3e 2e30 5e3e 0ba9 e0bd
000003a0: 7a5f 4fbd 0048 c9bd 9635 bcbe 6ac2 6a3e
000003b0: bd1b 763e 7457 873d f6cf 05bc ef73 283e
000003c0: 2148 a93e 4f52 603d fb60 fa3c 6ac9 783e
000003d0: d0cc ed3e e729 df3d 0cb6 92bd 0741 6c3d
000003e0: 2f3b 273d 7e15 af3d 1124 333e 8047 453e
000003f0: cf47 6c3d a41c 7cbe a607 423e d7da fc3d
-0.4163755 -0.06073119 0.16902712 0.06363549 0.47624725 0.016402109 0.026354803 -0.32162637
-0.07807428 -0.14257331 -0.001619884 -0.2947219 -0.07042283 -0.0074215103 -0.1406518 0.16155912
0.14895535 0.11615798 -0.005282674 0.2132947 -0.014823132 -0.01572719 0.11514761 0.041477524
0.2725878 0.26107237 -0.097872585 -0.017276017 -0.031340457 0.27173173 -0.20790175 0.07490335
0.11138195 -0.26097342 0.22353172 0.01866428 0.06654128 0.04873425 0.27400497 -0.019028256
-0.08184583 0.04343739 0.13254607 0.037494384 -0.03806738 -0.10332538 0.02254575 0.31658122
0.34692815 0.16045001 0.13684113 0.018266406 0.13925762 -0.0033970992 0.09644825 0.11129628
-0.18794839 0.11290373 0.054391567 0.18666823 -0.09119664 0.20774819 0.040946163 0.006136869
-0.47508532 -0.0029097132 0.109472 -0.04061348 0.5420593 0.006220539 -0.01184208 0.0855437
-0.033750266 0.025540167 0.29137695 0.006788656 0.03379149 0.009041198 -0.15636393 0.23409718
0.25005487 0.20726062 0.020118624 -0.05908316 0.008100938 -0.04405326 -0.4015888 0.05641385
-0.08109244 0.23778066 -0.3007106 0.118755765 0.03135793 -0.06774728 -0.62790954 -0.3636233
0.0064743306 -0.75260776 0.38056752 -0.04229871 -0.2545725 -0.18389808 0.11789502 -0.20485194
0.013857883 -0.04392166 -0.17885412 -0.19862585 0.109677516 -0.068913445 -0.08333223 0.104081504
0.19736026 0.11652139 -0.5032311 -0.048120942 -0.29099292 -0.13416389 0.18114963 -0.016540235
0.0029726555 -0.48158863 0.15372382 0.1951903 0.054603767 -0.10748693 0.25821337 0.13875927
-0.008055206 0.15077366 -0.03814979 0.01324448 -0.089037836 -0.04746502 -0.21320882 -0.052050043
0.07834953 0.0732138 -0.04549493 0.05819483 -0.05188483 0.05731126 0.042173155 0.06510936
-0.06668466 0.024933249 -0.22861895 0.1827727 0.059682213 -0.16200891 0.32439357 -0.020334942
-0.06359186 -0.1810204 -0.13317497 -0.121770486 -0.06517048 -0.06997615 0.11609693 -0.08431387
0.07207668 -0.103039116 -0.043316543 -0.0037375682 -0.042968553 -0.08392437 -0.14389504 0.058989897
-0.019999394 -0.036083095 -0.16365464 0.018765852 -0.021323705 0.04034079 -0.18933018 -0.0765225
-0.078020945 -0.11818977 -0.2343773 -0.046478577 -0.03182012 -0.27728993 0.036634237 -0.08232936
-0.04236499 -0.14754884 -0.057530276 -0.100290954 0.019593203 0.01915256 0.017588139 -0.12370594
-0.39028955 0.058383204 -0.08407903 -0.005981428 0.40539932 0.09063112 0.044361155 0.19470128
-0.04752957 0.13888898 0.035804678 0.2106223 0.06810694 0.041829903 0.27524486 0.13582507
-0.12471707 -0.09752848 0.15620123 0.31725597 0.27694884 0.083823666 0.16543101 0.07123044
0.11488926 0.30044648 -0.18731287 0.056029756 0.15353924 0.23696949 -0.18695179 0.20323914
0.09243877 0.20674403 0.55965847 0.029018223 -0.08948498 0.13984191 0.21698067 -0.109697424
-0.050628163 -0.09828186 -0.36759633 0.22925726 0.24034019 0.06608477 -0.0081672575 0.16450475
0.33062842 0.054765996 0.030563822 0.24295583 0.46445322 0.10896664 -0.07163629 0.057679202
0.040827926 0.08549021 0.17494227 0.19265556 0.05768567 -0.246203 0.1894823 0.12346428

_mlp.2.bias f4 [64]
00000000: 09f5 c33e 9644 613e ded5 92be 8981 0a3f
00000010: 9c57 51be dc18 923e 4990 38be 733d 43be
00000020: 00d7 f6bc 0654 05be affb 3ebd fdef 6dbd
00000030: 4319 fcbe 0547 aebe b1ab c53e 18c7 8fbc
00000040: 5a30 b6be 0328 dfbd 8ba9 643e 2538 37be
00000050: 62d0 79be 1ff3 d6be bfdd 7bbe a82e 063d
00000060: cde8 07be da24 e0be bf8d acbe 7548 863d
00000070: 5556 01bf 250d 6abe 2614 cfbe e952 27be
00000080: db14 1bbd afea 60be 9499 b4be e6a7 cbbe
00000090: ffab e5bd 46cd 42be 196a 57be aeda 9bbe
000000a0: 2c43 65be 672d 3abe a8ce 04be 708f 89be
000000b0: 4d88 50be 815d 84be 1afe 3dbe 6a5e f5be
000000c0: c280 9abe 7a40 a13a 6892 68be 959d 28be
000000d0: c0a3 1cbe 896d 07bf 8674 68be 587c a03e
000000e0: 0b60 f8be 095d 41be aa95 e43c aaf8 41be
000000f0: 89d2 f0be 5043 9cbe ea2e 46be e3c0 8abe
0.38272884 0.2199882 -0.28678793 0.54103905 -0.20443577 0.2853459 -0.1802379 -0.1906641
-0.030131817 -0.13020334 -0.046626743 -0.0580902 -0.49238023 -0.3403856 0.38607553 -0.01755099
-0.35583764 -0.108963035 0.223303 -0.17892511 -0.24395898 -0.41982362 -0.24596308 0.03275934
-0.132724 -0.43778116 -0.33701894 0.06556789 -0.5052236 -0.22856577 -0.4044506 -0.16340221
-0.037861686 -0.21964525 -0.3527342 -0.39776534 -0.11214446 -0.19023618 -0.21036567 -0.30440277
-0.22388905 -0.18181382 -0.12969458 -0.26867247 -0.20364495 -0.25852588 -0.18553963 -0.47923595
-0.3017636 0.0012302541 -0.227121 -0.16466363 -0.1529684 -0.5290151 -0.227007 0.31344867
-0.48510775 -0.18883146 0.027903397 -0.18942514 -0.47035626 -0.30520105 -0.19353834 -0.27100286

_mlp.4.weight f4 [64, 64]
00000000: 83e1 7e3c 1153 11be 9a67 243d 41ec eebd
00000010: 2b9c c7bb f537 5cbe c0b9 ccbb 824f 89bd
00000020: cd4b 3abe bfa2 8d3d 601c b93d bde8 dfbc
00000030: d5a9 fdbd f4ed fa3d 2925 d1bc 6e86 d8bd
00000040: aa5a a73d 94c6 bfbd 1165 7dbe 93db a2bd
00000050: d071 d2bc 2727 a0bd 44f0 04be bf3c f6bd
00000060: e0bb dfbc 270a a9bc 50fe 8c3c 2021 163d
00000070: 3fdc 9f3c 0092 3eba 808b 10bd 4e78 8cbd
00000080: 435c 403d 0e56 ea3a bce3 83bd a09c f2bb
00000090: 6898 3cbc 4aec 6a3d 06f8 58bd 1cdb e63c
000000a0: 43be d63d b0a8 4ebd 5ca3 b3bd ba75 b1bd
000000b0: 880b ca3c f414 013f e125 d93c 4926 233d
000000c0: 8691 98bb 126a 77bd d906 85bd 838c 463d
000000d0: a80a c7bd 33a3 30be 20f4 223d fc83 2cbd
000000e0: 1bcc 33bd a032 d93d b20a 8fbd 787f f8bd
000000f0: a6fb b63d 28e1 71bd d653 96bd f8a1 8fbd
00000100: fafe 8dbd ef01 b6bd 53dc 21bd 85bc 1dbe
00000110: a040 f2bd 782b c4be a789 97bd 33a2 1fbc
00000120: 1b46 e13c f075 a4bd 1499 1f3d 5c38 18bd
00000130: e861 633d 806d b2bc 81b3 c73c c6d1 9dbb
00000140: f0fb 3abd 648a 79bd 3ab9 a4be e356 b9bc
00000150: b845 e3bd 90fa f2bd 0bd4 5abc 56af 09be
00000160: a88b 28be e8af eebc ac47 cdbc 9f6f 6a3d
00000170: c503 47bd a6eb a93d b2ba 34be 77a5 673d
00000180: 397c 94bd ae7f efbd 600e 3dbd 3a0f 91bd
00000190: 9370 0ebe a13f 06ba 6e1e bbbd d508 34be
000001a0: 01a0 3dbd 07ed d1bd 202e 1e3d 3bf2 6abd
000001b0: b467 1abd b253 b1bc abce cebd 3a55 bb3c
000001c0: d2d2 123b 1491 fbbd 5bcf 7bbd 2933 dfbd
000001d0: 546b e2bc 50e4 cabd 24f6 503d 5da8 d5bd
000001e0: e7b7 65be 687b 78bd 8f88 d03c e75e 2abe
000001f0: 1256 10bd 74e6 663d f0bd 713d 503e 86bc
00000200: a9e2 82bc 279c 0abe b062 3b3c 5a60 d7bd
00000210: 26fb e33d b6c5 59be 982b f9bc 2082 59bd
00000220: 97cc 12be cc21 c1bc a60f fa3d e08b 3a3d
00000230: f27b ffbd 4e2a 8b3d b6ce 8339 6c25 24bd
00000240: b089 c43d 5809 5bbd 694a bdbd 4060 1bbd
00000250: a4e4 c4bd 3612 e43d 0ebb 2abe 82b2 28be
00000260: 8020 acbc 8e0d d53d c027 293d 2c37 903d
00000270: 2453 793d f0ff 46bd c8a8 29bd d6c9 fb3d
00000280: 866a e4bd 9115 033c fc35 6c3d da3f f5bd
00000290: 10f5 cd3d f009 8d3c bf19 f9bd dd08 95bd
000002a0: e0e2 fe3b 8615 bebd b0b0 c2bc 464e d4bd
000002b0: 2a95 f7bd 5ea7 943d c76a c7bd a162 c7bd
000002c0: c08c 5d3d 8a65 613b b620 3ebd 9061 8fbd
000002d0: 405b 213b 0d84 91bc a0c4 bdbd 6a04 2b3c
000002e0: e0ef e8bc 04a0 9d3d bcca c0bd 38ba dc3d
000002f0: 8593 b3bc 7011 343d f00d 893c 7a0b 8e3d
00000300: 35df 8fbe 9ef5 3cbe d554 78bb f01f aabd
00000310: d403 a5bc cc3d 6abe 6c19 8c3d dff3 2cbe
00000320: eedd 38bd d44c 9bbd 5630 fa3d b491 d93b
00000330: 5085 f0bd c0d1 8f3c 7ef4 bd3d d179 a03d
00000340: fc3c 07bd b918 44be 5539 503d 8ba5 0fbe
00000350: 78e0 133e 1152 f1bd 36c5 9dbd 9a6a 36bd
00000360: 3d04 143e 80b7 1b3d 9935 3a3e bab3 153d
00000370: 5ffd 23be c69e ebbd b568 7f3d e321 083c
00000380: baa2 f8bd 4b3d 83bd aee0 813d 1898 f23c
00000390: 3b5d a4bd 22f7 f4bd e335 d5bd 0129 f53c
000003a0: 3dfc 3abd 22c4 b53c 1caf 6abd 471e 85bc
000003b0: ca4d fabd 1fac 4ebc f4ee e6bd 9f68 adbd
000003c0: 4eb6 91bd aca0 19be 61c2 43be ba51 0fbe
000003d0: 3e7f ac3d e5d2 a0bd 384c 7abd 25e3 93be
000003e0: 4ded d0bd 3000 8ebc cb92 0cbd 10a3 c8bd
000003f0: 0f1a 04be d835 e83d e465 463d d83e a2bc
0.015556696 -0.14191844 0.040137865 -0.116661556 -0.0060916147 -0.21505721 -0.006247729 -0.06704618
-0.18192978 0.06915807 0.09038615 -0.027332658 -0.123859085 0.12252417 -0.025530415 -0.105725154
0.0817159 -0.09364048 -0.24745585 -0.07952037 -0.025689036 -0.07819968 -0.12982279 -0.12023305
-0.027311265 -0.020634724 0.01721111 0.036652684 0.019514201 -0.00072696805 -0.035289288 -0.06858884
0.046962988 0.001787843 -0.06439921 -0.007403925 -0.011510946 0.05735425 -0.05297091 0.028180651
0.10485508 -0.05045384 -0.08771393 -0.08665033 0.024663702 0.50422597 0.02650732 0.039831433
-0.0046560196 -0.06040389 -0.06495447 0.048473846 -0.097188294 -0.17249756 0.039783597 -0.042118058
-0.043895822 0.10605359 -0.06984462 -0.12133688 0.08934717 -0.059052616 -0.07340209 -0.07013315
-0.069333985 -0.088870876 -0.03951676 -0.15403946 -0.118287325 -0.38314414 -0.07399302 -0.009743261
0.02749925 -0.08030307 0.038964346 -0.037163123 0.055513293 -0.02178073 0.024377586 -0.0048162667
-0.045650423 -0.060922995 -0.32172567 -0.022624439 -0.11097282 -0.11864197 -0.013356219 -0.13445792
-0.16459525 -0.029136613 -0.02505859 0.057235356 -0.04858758 0.082968995 -0.17649344 0.056554284
-0.07250256 -0.11694275 -0.046156287 -0.07082982 -0.13910131 -0.0005121176 -0.091366634 -0.17581494
-0.04629517 -0.102502875 0.038618207 -0.057359915 -0.037696555 -0.021646354 -0.100980125 0.022867788
0.002240349 -0.12283531 -0.061477046 -0.1089843 -0.027639069 -0.099068284 0.051015988 -0.10432503
-0.22433434 -0.060664564 0.025455741 -0.16637765 -0.035238333 0.05637212 0.05901903 -0.016387135
-0.01597722 -0.1353613 0.011437103 -0.105164245 0.11131887 -0.21266827 -0.030416295 -0.053102612
-0.14335857 -0.023575686 0.12210016 0.04554355 -0.124748126 0.06795178 0.0002514028 -0.04007475
0.09596574 -0.053475708 -0.09242708 -0.037933588 -0.09613922 0.11136286 -0.16672918 -0.16474345
-0.021011591 0.10402976 0.041297674 0.07041773 0.060870305 -0.048583925 -0.041420728 0.122943565
-0.1115313 0.008000747 0.05766867 -0.11975069 0.100565076 0.017216653 -0.12163114 -0.07277081
0.0077785105 -0.09281449 -0.023765892 -0.10366492 -0.12088998 0.07258485 -0.09737163 -0.09735609
0.054089308 0.0034392797 -0.046417914 -0.070010304 0.002462104 -0.017763162 -0.09266019 0.010438064
-0.028434694 0.07696536 -0.094136685 0.10777706 -0.021920929 0.043961942 0.016730279 0.06935783
-0.2809998 -0.1845307 -0.003789236 -0.08306873 -0.020143427 -0.22875136 0.06840786 -0.16889904
-0.045133524 -0.07583013 0.122162506 0.0066396836 -0.11744177 0.017556071 0.09275149 0.07835735
-0.033017144 -0.19150056 0.050835926 -0.14027993 0.14441097 -0.11783231 -0.077036306 -0.044535257
0.14454742 0.038016796 0.18184508 0.036548354 -0.16014622 -0.11504893 0.062355716 0.0083088605
-0.12140413 -0.06408175 0.063416824 0.02961354 -0.08025595 -0.11961199 -0.10410669 0.029926779
-0.04565071 0.02218825 -0.057295904 -0.016249789 -0.12221868 -0.012614279 -0.112760454 -0.084672205
-0.0711485 -0.15002698 -0.19117118 -0.1399602 0.08422707 -0.07852725 -0.061107844 -0.28884235
-0.102015115 -0.017334074 -0.03431968 -0.09796727 -0.12900566 0.11338395 0.048437014 -0.019805357

_mlp.4.bias f4 [64]
00000000: 6773 c7bc 60c8 81bd cc81 0abd 1b5e 8ebc
00000010: f1a2 743d d673 6b3e 83e3 08be d000 9e3e
00000020: 2d94 3ebe 86e6 24be 1310 eabc fa13 92bd
00000030: a92f 34bd c606 41be 1718 5a3d e5c6 8fbb
00000040: 07a3 adbe 1b6c a7bd b0a3 cc3e 66ae 32be
00000050: f101 ffbd 1f6a 14bf ba15 853d 64a3 3bbe
00000060: 8297 b2be 7fc0 e7be d7f7 84bd 64af 80be
00000070: 0320 eabd 3acc c0bd 8268 adbe 87fd 14be
00000080: 387a d6bd d948 02be 2801 d8be 5557 2cbe
00000090: fc75 37be 4d07 da3d d0f3 f4bd 1aac 5abe
000000a0: 038e 85bd 822a 47be d284 41bc 0fb9 40be
000000b0: eaa3 a1bd f564 e1be 6b86 e2be d515 71be
000000c0: 1af3 84be c76f 403d 81ab 1d3e cba4 34be
000000d0: 64ba e5be 642b 90be f110 babe 404d b1be
000000e0: 1d5e 0ebe 7a80 3cbe f480 19bd 04bf 1dbe
000000f0: 2bca 76bd 0ae9 8cbd 9597 a43c 9c51 0d3c
-0.02434702 -0.063370466 -0.03381519 -0.017378857 0.059725706 0.22993407 -0.13368039 0.30859995
-0.18611212 -0.16103563 -0.028572118 -0.071327165 -0.043990765 -0.1885024 0.05324563 -0.0043877237
-0.33913442 -0.08174916 0.39968634 -0.1744934 -0.12451542 -0.5797443 0.06498285 -0.18324047
-0.34881216 -0.4526405 -0.06492584 -0.25133812 -0.11431887 -0.09413953 -0.33868796 -0.14549838
-0.1047253 -0.12723102 -0.42188382 -0.1683019 -0.17916101 0.10645924 -0.11960566 -0.21354714
-0.06521227 -0.19449809 -0.011811452 -0.18820594 -0.07892592 -0.44022337 -0.44243178 -0.23543485
-0.25966722 0.0469816 0.15397455 -0.17640989 -0.44868767 -0.28158104 -0.3634105 -0.3462925
-0.13903089 -0.18408385 -0.037476495 -0.15404898 -0.060251396 -0.06880386 0.020091811 0.008625414

_mlp.6.weight f4 [1, 64]
00000000: a1a4 813d 0253 80bb 575b a63c 2066 153d
00000010: 2c52 c5bb bc13 30be 3fb3 4fbe 30a9 49be
00000020: a2a6 b73c 43b2 2bbd a433 10bc c316 313e
00000030: 643f 833c f1d2 0a3c 5864 48bc 1565 8ebd
00000040: 593a ffba a5c5 3d3d c5a2 1bbe 2537 5abd
00000050: ece4 ea3c 3aec 003d 8396 03bc 4cc8 2a3d
00000060: 5464 a23d 64ea 23be 0683 cd3c 44fd a63c
00000070: c234 f6bc 8854 b9bc 78f0 923c 48dc 033c
00000080: f29e 94bb a514 8b3d 3418 d23c 4bd3 473b
00000090: 358e dc3c d069 8fbc 28e8 78bc 937f 993c
000000a0: a81c 96bb bc23 cd3c e84c 7d3b da8f 6e3d
000000b0: a334 12bd 502c 513c bcb0 2d3c 67e1 a4bc
000000c0: a081 32be 6681 c9bc 932a d5bd d223 ba3c
000000d0: 8a66 bfbd b3d3 d13b 78db 0e3d d15f 913c
000000e0: c5d0 853c 5e07 af3e e969 bcbc 7746 dd3c
000000f0: e0c4 21bc a806 23ba e60a c8bb a422 93b8
0.063302286 -0.0039161453 0.020307226 0.036474347 -0.0060217585 -0.17195028 -0.2028322 -0.19693446
0.022418324 -0.04191805 -0.008801375 0.17293839 0.016021438 0.008473144 -0.012230955 -0.069528736
-0.0019472345 0.046331067 -0.1519881 -0.053275246 0.028673612 0.031475283 -0.00803149 0.041694924
0.07929292 -0.16007382 0.02508689 0.020384438 -0.030054454 -0.022623315 0.01793693 0.008048125
-0.0045355493 0.06791047 0.025646307 0.003049093 0.026923278 -0.01750651 -0.015192069 0.01873759
-0.004581053 0.025041454 0.0038650576 0.058242656 -0.03569473 0.012766913 0.010601219 -0.020127011
-0.1743226 -0.024597835 -0.10408511 0.022722159 -0.0934573 0.0064034103 0.03487727 0.017745884
0.0163349 0.34185308 -0.02299972 0.02701114 -0.009873599 -0.00062189484 -0.006104815 -7.0159585e-05

exp_avg f4 [2, 1, 3, 3]
00000000: 4e7c 6fb8 7e57 0db8 c959 0739 77d2 9737
00000010: 1af5 25b8 6994 10b9 fce2 78b8 d03a 0b38
00000020: 928a e438 78b0 6bb8 e515 1cb8 9032 f0b8
00000030: 4918 d6b8 62cc 94b8 75c4 d5b8 78e0 3db9
00000040: e419 3fb9 b736 55b9
-5.7097808e-05 -3.3698503e-05 0.00012908051 1.8098608e-05 -3.9567334e-05 -0.00013788197 -5.9339203e-05 3.3194956e-05
0.00010897698 -5.6192715e-05 -3.721369e-05 -0.0001145351 -0.00010208839 -7.095259e-05 -0.000101932244 -0.00018108066
-0.00018224824 -0.00020333646

exp_avg_sq f4 [2, 1, 3, 3]
00000000: d2e9 3f39 f035 3539 42d1 2739 435e 6039
00000010: 1328 6139 2a60 1a39 b44d 1939 eb1a 1439
00000020: 33df 0e39 51df 7c37 1e44 8737 c59b 1437
00000030: 63e5 ea36 4020 ca36 9e5d a636 f425 c836
00000040: 7396 bc36 9bf9 ba36
0.00018302284 0.00017281598 0.00016004316 0.0002139742 0.00021472601 0.00014722408 0.00014620164 0.00014124408
0.00013625323 1.5072365e-05 1.6124974e-05 8.857755e-06 7.0004476e-06 6.0238235e-06 4.958084e-06 5.964883e-06
5.620351e-06 5.57229e-06

exp_avg f4 [4, 1, 3, 3]
00000000: 2f36 6c37 33c6 8b37 ef9b 2038 6649 9e37
00000010: e7a9 9537 0167 1e38 cf12 9d37 a110 5137
00000020: 75af 0b38 db7e d435 dad2 6338 43f6 67b8
00000030: e81c ff37 3c0f d538 6c80 af38 6123 4fb8
00000040: 927d eeb8 a7cd 0d39 5525 de39 7bbf b939
00000050: 13d7 a939 89a0 033a 5385 e539 1dde b939
00000060: 3239 8c39 52a7 4e39 fa49 d738 bc44 26b7
00000070: 0b07 82b6 b10e adb7 de69 46b7 69e8 9436
00000080: 3da0 1d35 905d 08b8 faa0 41b7 8b32 eab6
1.4079312e-05 1.6662385e-05 3.8292197e-05 1.8869247e-05 1.7841301e-05 3.7766065e-05 1.8724617e-05 1.24612425e-05
3.330359e-05 1.5832151e-06 5.431739e-05 -5.530404e-05 3.041183e-05 0.00010159469 8.368571e-05 -4.9385595e-05
-0.00011372114 0.0001352342 0.00042370954 0.00035428614 0.00032394435 0.0005021175 0.00043777618 0.00035451437
0.00026745495 0.00019708023 0.00010265778 -9.9103745e-06 -3.875122e-06 -2.0630048e-05 -1.1826369e-05 4.4378e-06
5.8720235e-07 -3.2512064e-05 -1.1541177e-05 -6.9796274e-06

exp_avg_sq f4 [4, 1, 3, 3]
00000000: 63d2 5e36 02a0 c136 6b8b 4636 bbc9 6136
00000010: c7f1 d036 ea3d 6736 4d2d 2c36 c749 bb36
00000020: 3347 5c36 603b d635 7842 5536 f405 7836
00000030: 4e4a df35 54fa 7438 c3c2 0836 281d ef37
00000040: e2d6 1d38 07b1 1638 6d27 4437 8a28 2137
00000050: b6fc 4a37 0d07 8837 8352 2e37 7d7d a437
00000060: d249 0f37 aa97 a636 4108 2637 0dd0 2f36
00000070: 97a2 5736 f2cd 4f36 9a4e 4536 b8cf 5a36
00000080: db63 3336 5dc6 1636 fb88 1f36 55d7 2c36
3.320304e-06 5.7704756e-06 2.958545e-06 3.3645035e-06 6.2270296e-06 3.445772e-06 2.5656366e-06 5.581623e-06
3.2823998e-06 1.5961523e-06 3.1778163e-06 3.6958345e-06 1.663642e-06 5.840727e-05 2.0378945e-06 2.8504597e-05
3.7631842e-05 3.5927656e-05 1.169169e-05 9.6057865e-06 1.2098977e-05 1.6215747e-05 1.0390419e-05 1.9608759e-05
8.540652e-06 4.9648415e-06 9.896293e-06 2.6198134e-06 3.2132136e-06 3.096528e-06 2.940104e-06 3.260544e-06
2.6731202e-06 2.2467204e-06 2.377258e-06 2.5755337e-06

exp_avg f4 [8, 1, 3, 3]
00000000: 2ad1 2f38 b7a3 0f38 376e 65b7 7d7d 2338
00000010: abc1 f537 eda4 aab7 e2ee 0838 1f37 c437
00000020: f1d6 d3b7 a462 e637 ac3f d737 6d28 df37
00000030: e8dc e837 aa73 e337 8800 ea37 6dbb e137
00000040: ea16 e737 de82 ed37 5168 6138 d452 d6b6
00000050: 5576 0ab8 476d 1bb9 2323 73b8 f0c5 e338
00000060: bb12 5237 253a d937 e18e 6bb9 8042 4936
00000070: 56b7 8c37 86a1 2e38 9705 0f37 1a9a c737
00000080: 240c 3b38 5190 0d37 ccf9 be37 57c0 2a38
00000090: 68c1 a235 068a e036 2936 a736 22cb e935
000000a0: fae5 2237 d0ea 1937 789c d9b5 ecb8 a836
000000b0: 7206 c936 a962 0439 5313 f638 cad7 1a38
000000c0: edae bc36 3a5d 8938 4ae2 d438 4094 f7b8
000000d0: 400d 6eb7 878e b738 90f4 97b5 c245 3bb6
000000e0: 81bf d9b6 1ee4 f4b6 09d8 2fb7 b260 4ab7
000000f0: 5f22 63b7 12ed 6cb7 3cff 4ab7 a5f6 5538
00000100: 8fd6 1538 8637 e637 0121 0b38 7fb4 9837
00000110: 4f26 b536 6537 3438 d5d4 0c38 6f3a c637
4.191805e-05 3.4246328e-05 -1.3675125e-05 3.89791e-05 2.929646e-05 -2.0342379e-05 3.2647404e-05 2.3390689e-05
-2.525325e-05 2.746407e-05 2.5659647e-05 2.6602496e-05 2.7759423e-05 2.7114369e-05 2.7895221e-05 2.6909367e-05
2.7548016e-05 2.8313541e-05 5.3741333e-05 -6.3873395e-06 -3.301197e-05 -0.00014822661 -5.796844e-05 0.00010861072
1.2521336e-05 2.5895491e-05 -0.00022464573 2.9990042e-06 1.6774673e-05 4.1635263e-05 8.524766e-06 2.3794408e-05
4.459558e-05 8.437856e-06 2.2766086e-05 4.071029e-05 1.2126229e-06 6.6917883e-06 4.983293e-06 1.7418972e-06
9.709498e-06 9.174182e-06 -1.6213298e-06 5.028318e-06 5.991017e-06 0.00012625255 0.000117337935 3.691743e-05
5.6232007e-06 6.550034e-05 0.000101510974 -0.000118054915 -1.41889905e-05 8.752668e-05 -1.1321554e-06 -2.7905776e-06
-6.489398e-06 -7.298323e-06 -1.0481112e-05 -1.2062652e-05 -1.3538257e-05 -1.4121893e-05 -1.2099565e-05 5.1012863e-05
3.572419e-05 2.7443992e-05 3.317092e-05 1.8203862e-05 5.39868e-06 4.2966934e-05 3.3576816e-05 2.363065e-05

exp_avg_sq f4 [8, 1, 3, 3]
00000000: 7163 bb34 4a3d 9334 2032 8434 cf07 a434
00000010: fff0 5634 52fa 6534 39a6 9834 d350 2e34
00000020: 3b7d 3234 ad97 eb34 1f9a 4635 6483 1d35
00000030: 5b6e 0835 ab18 6635 49df 3a35 b730 0b35
00000040: f8d7 6735 5714 4135 73f0 d636 1631 8736
00000050: 58d0 1b37 4bba 8b36 63d8 f537 7bae 9e38
00000060: 1cd6 8b36 c140 e937 1fcf ab38 67e3 9f35
00000070: 0192 ef35 9339 c435 85a6 ae35 f514 0c36
00000080: e9ef ca35 13a7 a835 ee24 0a36 5ac8 bd35
00000090: 2eba 8835 3f45 a035 7967 9035 08fe 8935
000000a0: 5fad a435 ce4d 9635 e086 8235 ef93 9a35
000000b0: 62b0 8f35 ac77 f436 8ff3 7a37 241b 8237
000000c0: 8867 1937 a962 b137 ea83 c137 0161 c836
000000d0: d18c 0b37 5feb 0837 7e6e 6536 26f2 5e36
000000e0: 9d07 4f36 0191 7c36 4b6f 7d36 c04c 6536
000000f0: 61b6 8636 4399 8636 ace2 6f36 54a5 a234
00000100: e3d0 4634 d7fe 2534 7962 4334 a444 8034
00000110: aabb c234 3afb 9034 d03c b434 ab83 9234
3.4903817e-07 2.7425477e-07 2.4623387e-07 3.0553062e-07 2.0017977e-07 2.1418353e-07 2.843315e-07 1.6234416e-07
1.66231e-07 4.388252e-07 7.3985024e-07 5.8678256e-07 5.0824536e-07 8.5717573e-07 6.961532e-07 5.1852425e-07
8.636848e-07 7.19277e-07 6.405689e-06 4.029028e-06 9.287229e-06 4.16421e-06 2.9307039e-05 7.5665266e-05
4.1674484e-06 2.7805918e-05 8.192495e-05 1.1912606e-06 1.784938e-06 1.4619894e-06 1.3012474e-06 2.0873824e-06
1.5119996e-06 1.25656e-06 2.0585098e-06 1.4139907e-06 1.0186975e-06 1.1941082e-06 1.075895e-06 1.0281228e-06
1.226941e-06 1.1198515e-06 9.725009e-07 1.1516948e-06 1.0705664e-06 7.2856983e-06 1.4957869e-05 1.5509846e-05
9.143616e-06 2.1145986e-05 2.306882e-05 5.971757e-06 8.317832e-06 8.161033e-06 3.4187974e-06 3.3221527e-06
3.0849835e-06 3.763533e-06 3.7764719e-06 3.4168334e-06 4.014743e-06 4.011353e-06 3.5745716e-06 3.0295143e-07
1.851618e-07 1.5459533e-07 1.8196614e-07 2.38918e-07 3.627186e-07 2.7004882e-07 3.357186e-07 2.729042e-07

exp_avg f4 [16, 1, 3, 3]
00000000: e6bc 84b7 a43c d535 d51f 1b38 e967 9cb7
00000010: 06cf 5db4 9119 1d38 fa56 9cb7 c413 08b6
00000020: f82f 1138 d199 75b6 c22d 26b7 f246 58b7
00000030: aa95 79b6 49be 20b7 e504 51b7 3365 94b5
00000040: 8fb4 d7b6 35c6 18b7 e14a a634 1c3a 96b5
00000050: 9954 edb5 b2c9 0033 d4de 8cb5 f1bb a7b5
00000060: 36e6 5a34 5e8a 43b5 35da f7b4 c520 99b7
00000070: c430 97b7 1836 82b7 5d4b 90b7 a12a 93b7
00000080: 9b00 85b7 ab56 88b7 d9e4 91b7 df72 89b7
00000090: ac0f 9138 081c 86b7 ac77 d237 684c e7b7
000000a0: 4256 b4b6 bb71 7c37 5d5b 0a38 bf61 0838
000000b0: 0955 ceb7 2ae6 46b6 6511 f9b7 41dd f8b7
000000c0: def5 1f37 de07 f736 70a2 b337 804d c8b7
000000d0: 8a08 f2b7 e0d8 e5b7 3840 82b7 04df 9bb7
000000e0: 279e 87b7 5987 8bb7 b38c a0b7 a2f2 85b7
000000f0: 656f 85b7 63fc 92b7 da23 6db7 81e8 82b6
00000100: b2c2 a9b6 3abb 99b6 aada 96b6 dbb2 b5b6
00000110: 0a09 99b6 26be 98b6 ef86 aeb6 58f5 87b6
00000120: ba65 9d36 17df cc36 f0a0 8336 1323 e236
00000130: 1d94 1737 610f db36 ba4f 9736 1531 eb36
00000140: 71f3 c236 df67 4637 fc48 5637 8e05 2237
00000150: 034d 3a37 96e1 4837 d7cf 1937 bcf6 3e37
00000160: c46a 5137 9e3a 2237 5a16 13b8 9a92 1cb8
00000170: 62af 1cb8 afaf d737 4f31 5f37 d8c1 f435
00000180: cd18 2638 24bf 7238 c1ee cd38 52de e735
00000190: 70e4 bb35 6faf 3336 e4b6 7a35 b17c 9c35
000001a0: 7292 5036 cb4c 1334 cb90 9635 463d 8336
000001b0: 40c2 d236 4a59 fa36 ed3c fd36 9d83 e436
000001c0: 1749 cd36 a6c4 9736 6022 8036 60d4 0d36
000001d0: 18e3 7e35 be54 dd36 4422 f536 b0c4 1337
000001e0: 540a 4337 3f03 5c37 4f87 6937 b908 6c37
000001f0: 8a4a 7337 aa7a 6d37 fc72 8337 349b c437
00000200: a711 c736 43ac 4fb6 fa6e 7035 4481 1bb7
00000210: 0f8b 0cb7 446b 59b7 f810 b0b7 df2a 49b6
00000220: 72a6 b9b6 6d03 d3b6 0d13 84b6 09bc c1b6
00000230: 43f9 b5b6 7809 95b6 0633 9db6 4c6e 81b6
-1.5823589e-05 1.5887385e-06 3.6984526e-05 -1.8645036e-05 -2.0657544e-07 3.7455527e-05 -1.863715e-05 -2.0277084e-06
3.461537e-05 -3.6597378e-06 -9.905025e-06 -1.28911215e-05 -3.7191007e-06 -9.581047e-06 -1.245851e-05 -1.1056312e-06
-6.428519e-06 -9.106055e-06 3.097439e-07 -1.1192783e-06 -1.7682497e-06 2.9985763e-08 -1.0495664e-06 -1.2497168e-06
2.0386582e-07 -7.284451e-07 -4.6166102e-07 -1.825428e-05 -1.8023311e-05 -1.5522397e-05 -1.7201231e-05 -1.7543616e-05
-1.5855117e-05 -1.6252821e-05 -1.7391912e-05 -1.6385164e-05 6.917058e-05 -1.5987098e-05 2.5089677e-05 -2.7572925e-05
-5.3744598e-06 1.504685e-05 3.2986853e-05 3.251596e-05 -2.4596711e-05 -2.9638272e-06 -2.9691213e-05 -2.9666933e-05
9.534384e-06 7.3620895e-06 2.1414104e-05 -2.3877947e-05 -2.8852624e-05 -2.7399918e-05 -1.5527112e-05 -1.858129e-05
-1.61669e-05 -1.6633117e-05 -1.9139005e-05 -1.596782e-05 -1.5906708e-05 -1.7522083e-05 -1.4134648e-05 -3.901369e-06
-5.059258e-06 -4.5815514e-06 -4.495804e-06 -5.415042e-06 -4.5608076e-06 -4.552089e-06 -5.2013124e-06 -4.0518753e-06
4.690807e-06 6.105645e-06 3.92284e-06 6.739408e-06 9.034787e-06 6.528499e-06 4.509432e-06 7.0092597e-06
5.809991e-06 1.1825904e-05 1.2772387e-05 9.657246e-06 1.1104395e-05 1.1973452e-05 9.167902e-06 1.138233e-05
1.2482229e-05 9.6696e-06 -3.5068348e-05 -3.732983e-05 -3.7356636e-05 2.5711806e-05 1.3303316e-05 1.8235833e-06
3.960058e-05 5.787531e-05 9.819633e-05 1.7275545e-06 1.399907e-06 2.6775194e-06 9.33984e-07 1.1659196e-06
3.1079658e-06 1.3718379e-07 1.1218011e-06 3.9112374e-06 6.2811014e-06 7.460975e-06 7.5470803e-06 6.8102513e-06
6.117985e-06 4.5230436e-06 3.818699e-06 2.1134256e-06 9.495284e-07 6.5961785e-06 7.305558e-06 8.807678e-06
1.162531e-05 1.3113778e-05 1.3919386e-05 1.4068727e-05 1.4501284e-05 1.4154861e-05 1.566996e-05 2.3437293e-05
5.932717e-06 -3.0945673e-06 8.956846e-07 -9.268817e-06 -8.377027e-06 -1.2959183e-05 -2.0988737e-05 -2.9976288e-06
-5.5328064e-06 -6.288689e-06 -3.9361244e-06 -5.7737384e-06 -5.4232382e-06 -4.4416483e-06 -4.6849045e-06 -3.85734e-06

exp_avg_sq f4 [16, 1, 3, 3]
00000000: 65a3 bd34 f809 2232 942e e834 686e d734
00000010: 7d62 4e32 510e e634 4b2c d734 ef98 9c32
00000020: 52fc c834 0e9e 6934 b12a f034 1444 de34
00000030: 90ef 1b34 1bf1 d534 f88e 0135 0b0e a933
00000040: 782b 8b34 55f1 dc34 9044 a933 5988 9b33
00000050: d828 6033 509a a633 c8bd 9d33 f540 6b33
00000060: d7f2 9433 8296 8e33 71ad 5e33 9093 7333
00000070: edde 9a33 60da 6a33 d1f7 7f33 27c2 a633
00000080: 4521 7e33 7fd1 7233 b98e 9e33 1181 7633
00000090: 7f2a 6835 4b51 8d34 f2ed e034 73f1 8734
000000a0: 4d30 9436 e54e 9136 f6d2 4f35 af0d 0337
000000b0: bff3 0337 f13c 2436 bf8c c136 b171 ee34
000000c0: 12be 9234 f822 0e36 c3f5 1b34 6d75 2635
000000d0: 3db2 0f34 0f75 a835 d845 ca34 60fb 0135
000000e0: 9598 9d34 ba9d d634 6695 0235 37d9 a034
000000f0: bd72 ca34 50f7 f234 faf2 9034 06ed 5333
00000100: be56 8a33 c80a 4933 cef4 6733 0d09 9433
00000110: b0bb 4d33 8afd 6133 ca66 8c33 6d83 3d33
00000120: fd14 6034 ef8c 6834 2eba 3a34 e823 6834
00000130: 8caf 7634 d181 4634 3767 5e34 34aa 6f34
00000140: e3f5 4534 ab22 c733 78ae d533 ed7c a533
00000150: 0d5d cd33 ef73 e433 208d b233 310c c533
00000160: ebac df33 6a22 b433 a25f 2237 ff62 8137
00000170: 0335 1d37 4cf1 6736 f82b 1436 9891 1736
00000180: b5db 5c37 0d9f a237 3bcc 5737 7c14 ca33
00000190: a461 d833 3a61 bc33 f179 e733 db35 fb33
000001a0: 5e36 dd33 6ee5 e333 4636 fb33 fbe5 dc33
000001b0: 10df 3d36 3ee8 3b36 d913 2b36 22d4 3636
000001c0: 8287 3636 7de2 2136 ff93 2636 e979 2836
000001d0: 2190 1236 f9d7 9234 ce1a a234 4eae b534
000001e0: 577f ab34 f8c0 c134 eb7b d634 1cf4 ae34
000001f0: 5569 c034 a8be d834 bb66 5335 95a7 3635
00000200: 4cf8 b034 b85c 9c34 9698 2334 866c 2834
00000210: b8cf a234 ca6e 2d35 9239 5735 2213 3f33
00000220: cc06 8333 2a08 8c33 b262 3f33 b88a 7333
00000230: f61a 6f33 8273 3e33 9916 4833 66d0 3c33
3.5322878e-07 9.431908e-09 4.3247258e-07 4.0127202e-07 1.2013172e-08 4.2851255e-07 4.0079098e-07 1.8230336e-08
3.743649e-07 2.1757316e-07 4.4734546e-07 4.1400256e-07 1.4522652e-07 3.984977e-07 4.826429e-07 7.87223e-08
2.5922395e-07 4.1153785e-07 7.882147e-08 7.2425514e-08 5.219121e-08 7.758047e-08 7.345403e-08 5.477428e-08
6.9359594e-08 6.6397675e-08 5.1846147e-08 5.6712054e-08 7.211734e-08 5.468098e-08 5.9597202e-08 7.7652935e-08
5.9169242e-08 5.653555e-08 7.3834094e-08 5.7393724e-08 8.6488575e-07 2.6322445e-07 4.189638e-07 2.5321387e-07
4.4163667e-06 4.3305213e-06 7.74205e-07 7.811394e-06 7.86496e-06 2.4473377e-06 5.768233e-06 4.4413676e-07
2.7332914e-07 2.1180003e-06 1.4524907e-07 6.2010696e-07 1.3382756e-07 1.2551044e-06 3.767625e-07 4.8422044e-07
2.9354547e-07 3.9975367e-07 4.864618e-07 2.9960367e-07 3.7708915e-07 4.5255956e-07 2.699888e-07 4.9342837e-08
6.441904e-08 4.6808765e-08 5.4006527e-08 6.8934334e-08 4.7900983e-08 5.2617487e-08 6.537955e-08 4.4124523e-08
2.0869261e-07 2.1657955e-07 1.7390332e-07 2.1619746e-07 2.2974399e-07 1.8487414e-07 2.071291e-07 2.2320529e-07
1.8436508e-07 9.272966e-08 9.950321e-08 7.706135e-08 9.562982e-08 1.06381655e-07 8.3144414e-08 9.175745e-08
1.04157e-07 8.388163e-08 9.678219e-06 1.5424097e-05 9.370272e-06 3.4562136e-06 2.2079312e-06 2.25855e-06
1.3164176e-05 1.9385969e-05 1.286255e-05 9.410084e-08 1.00760445e-07 8.7721176e-08 1.0778957e-07 1.16978946e-07
1.0301004e-07 1.0612244e-07 1.16979706e-07 1.02863815e-07 2.8293034e-06 2.8000354e-06 2.5492538e-06 2.724359e-06
2.719899e-06 2.4122703e-06 2.4822073e-06 2.5104912e-06 2.183959e-06 2.735176e-07 3.0194354e-07 3.38407e-07
3.1943884e-07 3.6089455e-07 3.9950768e-07 3.2587639e-07 3.5839426e-07 4.0371856e-07 7.875312e-07 6.804415e-07
3.2963214e-07 2.9124726e-07 1.5236068e-07 1.56857e-07 3.0325987e-07 6.460874e-07 8.017752e-07 4.4488054e-08
6.101399e-08 6.520743e-08 4.4560416e-08 5.670401e-08 5.5671045e-08 4.4342876e-08 4.658668e-08 4.39617e-08
