Experiments/Experiments-015/checkpoints/model.pt (torch, 163559 bytes, 33 tensors)

cp.convs.0.weight f4 [2, 1, 3, 3]
0.059964657 0.39483553 -0.11385039 0.30617413 -1.676158 0.35519126 -0.20305441 0.2541312
0.2907989 0.7946356 0.78039545 0.6284835 -0.17052938 -0.26271555 -0.47569618 -0.6445262
-0.5744759 -0.16978076
00000000: 809d 753d e227 ca3e 652a e9bd dbc2 9c3e
00000010: 588c d6bf a1db b53e 7fed 4fbe 7c1d 823e
00000020: 98e3 943e 3d6d 4b3f ffc7 473f 4be4 203f
00000030: 419f 2ebe a782 86be 738e f3be abff 24bf
00000040: da10 13bf 02db 2dbe

cp.convs.1.weight f4 [4, 1, 3, 3]
0.3018483 -0.43564844 -0.036419775 -0.54277515 -0.5290485 0.8075311 0.014101818 1.022786
-1.2312309 -0.08168973 -0.22200634 -0.08216938 0.015209121 -0.4895909 -0.2848528 -0.3726917
-0.23068225 -0.26444006 0.50314206 -0.062089726 -0.6350424 0.21851629 0.3303092 -0.028284099
0.15180522 0.6784129 0.45831424 0.6094264 -0.6312591 -0.1896595 -0.07370965 -0.4332408
-0.1578612 -0.5245109 -0.9336272 -0.25941265
00000000: dc8b 9a3e 500d dfbe e72c 15bd 50f3 0abf
00000010: b96f 07bf 5cba 4e3f 500b 673c a7ea 823f
00000020: f998 9dbf f24c a7bd a155 63be 6b48 a8bd
00000030: ad2f 793c a9ab fabe 3ad8 91be 72d1 bebe
00000040: f837 6cbe b064 87be ebcd 003f cc51 7ebd
00000050: 2492 22bf bcc2 5f3e 4a1e a93e 0eb4 e7bc
00000060: d472 1b3e 78ac 2d3f 2aa8 ea3e 5e03 1c3f
00000070: 329a 21bf 1a36 42be 16f5 96bd bdd1 ddbe
00000080: 5ea6 21be 5946 06bf 3102 6fbf bcd1 84be

cp.convs.2.weight f4 [8, 1, 3, 3]
-0.50644684 0.99025285 -0.6546708 -1.0982887 -0.06054762 -0.2994705 0.38555166 0.43068382
-0.15948083 -0.044660427 0.7976524 -0.84104204 -0.47067544 -0.43156374 0.7193776 0.50961596
-0.31068787 0.0588299 0.41251034 0.10748098 -0.2647505 0.1844728 -0.2269719 -0.246714
-0.1193484 -0.40942755 -0.23474948 -0.13690871 -0.20669699 -0.39817086 -0.21814965 0.04952111
0.14860861 -0.19596995 -0.14946969 0.30747148 -0.42954883 -0.5226501 -0.02937558 0.1881387
-0.46490267 -0.22936127 0.1506144 -0.36190966 -0.5231 -0.27750793 -0.31692395 0.34869868
-0.47702652 -0.48663482 -0.29658943 0.2624904 -0.3551813 0.31853917 -0.19430265 -0.12254196
-0.25801784 0.33132464 -0.2614018 -0.55916196 0.49668002 -0.33948332 -0.48930508 0.62017226
0.057496764 -0.7124285 0.6891292 -0.2393891 -0.47106734 0.61588806 -0.06800309 -0.48805732
00000000: 80a6 01bf 3681 7d3f 8198 27bf b994 8cbf
00000010: c800 78bd 3354 99be 0767 c53e 9782 dc3e
00000020: f14e 23be daed 36bd f332 4c3f 884e 57bf
00000030: 5ffc f0be ecf5 dcbe 2129 383f 3176 023f
00000040: 7b12 9fbe 9ff7 703d 8e34 d33e fd1e dc3d
00000050: 618d 87be 70e6 3c3e 526b 68be 98a2 7cbe
00000060: ef6c f4bd 7da0 d1be 2b62 70be cc31 0cbe
00000070: 60a8 53be 0ddd cbbe 9f62 5fbe a6d6 4a3d
00000080: db2c 183e 59ac 48be 950e 19be e76c 9d3e
00000090: d3ed dbbe 66cc 05bf 0ea5 f0bc 6ea7 403e
000000a0: b907 eebe aedd 6abe a93a 1a3e 394c b9be
000000b0: e2e9 05bf 8515 8ebe db43 a2be a288 b23e
000000c0: d23c f4be 3328 f9be 92da 97be 2465 863e
000000d0: 53da b5be 9117 a33e 46f7 46be 47f7 fabd
000000e0: ea1a 84be 62a3 a93e 75d6 85be 3d25 0fbf
000000f0: d84c fe3e c2d0 adbe 3286 fabe 9cc3 1e3f
00000100: ba81 6b3d b761 36bf c56a 303f 6b22 75be
00000110: bd2f f1be d7aa 1d3f 3445 8bbd a6e2 f9be

cp.convs.3.weight f4 [16, 1, 3, 3]
0.5600341 0.25905344 0.236618 0.75619996 0.060873248 0.71056604 0.57794166 0.027855877
0.8344645 -0.29051515 -0.6150239 0.77494514 0.4793497 -0.43657866 0.1599204 0.55833703
-0.5372278 -0.08298072 -0.052456304 0.7913357 -1.1455199 -0.072513364 -0.5823615 1.0385301
0.4318773 0.08163424 -0.6084461 0.38390005 -0.78999984 1.0555351 0.07498361 0.35096115
-0.8190933 -0.58150446 0.11033505 0.21957417 -0.18070346 -0.43451667 0.09619654 -0.29608563
0.34080186 -0.036682904 -0.0073517226 0.28608194 0.48594007 0.33010244 0.15784931 0.16996592
0.13694377 -0.32035923 -0.46181083 0.14984071 0.13862902 -0.35582355 0.2569036 -0.008292653
0.05219975 0.11643105 -0.019283129 0.28676617 0.37623873 0.35147303 0.15249273 0.04413718
0.33697465 -0.02932899 0.37976292 0.40210086 0.40513793 -0.14423274 -0.21244954 -0.05966378
0.041278787 -0.41426787 0.17373645 0.5885967 -0.18676114 -0.3011103 0.74079996 -0.013997781
-0.66598207 0.049053174 -0.23019679 -0.23228577 -0.16888747 -0.42083994 -0.11187315 -0.5126873
-0.2745319 -0.3046047 -0.17831935 -0.03441689 -0.07807696 0.21010032 -0.2754011 -0.4355604
-0.10837997 0.353306 -0.040571306 0.13941844 -0.4229491 -0.32732713 -0.483292 -0.3896214
-0.20361319 0.120293476 -0.012935014 0.24720381 0.09413229 0.28155088 -0.29263055 0.40587574
-0.113748156 0.3056795 0.38581195 -0.095107354 -0.00806922 0.48574877 -0.30042797 -0.36993048
0.4167856 0.08213033 -0.46274292 0.5305545 0.14371218 -0.56619614 -5.6751996e-05 -0.054437384
0.92593825 -0.071127504 0.22183448 0.48787478 0.69201255 0.3587256 0.058457635 0.6060367
0.17586054 0.41178602 0.18137586 0.15163006 0.5377153 0.42972806 0.04936688 0.6959294
00000000: 655e 0f3f a7a2 843e fd4b 723e 5296 413f
00000010: 3a56 793d a8e7 353f fcf3 133f 0232 e43c
00000020: 779f 553f 67be 94be 3572 1dbf ce62 463f
00000030: 536d f53e 3d87 dfbe 2cc2 233e 2def 0e3f
00000040: c387 09bf ccf1 a9bd 6cdc 56bd fa94 4a3f
00000050: 65a0 92bf e381 94bd a515 15bf 8eee 843f
00000060: 051f dd3e da2f a73d 20c3 1bbf 8c8e c43e
00000070: 6e3d 4abf c61b 873f 0291 993d 2eb1 b33e
00000080: 19b0 51bf 7add 14bf 58f7 e13d 0dd8 603e
00000090: 540a 39be f878 debe b102 c53d 8998 97be
000000a0: 957d ae3e d040 16bd b8e6 f0bb 5579 923e
000000b0: 23cd f83e 3003 a93e 40a3 213e 8c0b 2e3e
000000c0: fd3a 0c3e 2006 a4be 7872 ecbe d86f 193e
000000d0: c4f4 0d3e 812e b6be de88 833e e8dd 07bc
000000e0: 68cf 553d 6773 ee3d a7f7 9dbc 04d3 923e
000000f0: 5da2 c03e 46f4 b33e 0e27 1c3e 30c9 343d
00000100: f187 ac3e 5a43 f0bc 4970 c23e 2ae0 cd3e
00000110: 3d6e cf3e bfb1 13be 5f8c 59be 0262 74bd
00000120: f213 293d eb1a d4be f8e7 313e 46ae 163f
00000130: 503e 3fbe 212b 9abe 11a5 3d3f f356 65bc
00000140: cd7d 2abf fbeb 483d b5b8 6bbe 52dc 6dbe
00000150: d6f0 2cbe 5578 d7be c01d e5bd 7a3f 03bf
00000160: 728f 8cbe 26f5 9bbe 5999 36be baf8 0cbd
00000170: d0e6 9fbd 8a24 573e 5f01 8dbe c601 dfbe
00000180: 51f6 ddbd 86e4 b43e 192e 26bd b5c3 0e3e
00000190: c98c d8be 6c97 a7be 0d72 f7be 757c c7be
000001a0: fa7f 50be 6d5c f63d 62ed 53bc ff22 7d3e
000001b0: 6ec8 c03d 7027 903e acd3 95be f2ce cf3e
000001c0: cbf4 e8bd 0682 9c3e 2589 c53e a5c7 c2bd
000001d0: c334 04bc 10b4 f83e b2d1 99be 8767 bdbe
000001e0: ec64 d53e f233 a83d a4ec ecbe 6bd2 073f
000001f0: 4929 133e 3bf2 10bf fe08 6eb8 bcf9 5ebd
00000200: 4a0a 6d3f 4cab 91bd 9428 633e b9ca f93e
00000210: bc27 313f e2aa b73e 4671 6f3d 3925 1b3f
00000220: c914 343e 9ed5 d23e 98ba 393e e944 1b3e
00000230: b6a7 093f 5105 dc3e ed34 4a3d 6e28 323f

_mlp.0.weight f4 [64, 60]
-0.1565568 0.04185665 -0.1401404 -0.11358739 0.011236044 -0.11704692 -0.051238075 -0.1914455
0.1851872 0.04640473 -0.08154399 -0.17499606 0.01992588 0.23023774 -0.027289007 0.19480297
-0.12226912 -0.1657907 -0.2291906 0.07201833 -0.21142706 0.14856899 -0.052631985 0.22192538
-0.18321416 -0.05601449 -0.14644004 0.111320205 -0.057660785 0.02973679 0.15319456 0.21605709
0.23510042 0.35899654 0.17623274 0.1569106 0.13106948 -0.057086967 0.23892398 -0.22575043
-0.14371148 -0.01571364 -0.011041269 0.0061974856 -0.17630757 0.13082851 0.03381938 -0.0002892325
0.4278149 0.49326086 0.0017500876 0.20245546 0.1374999 -0.24375865 0.3191563 -0.18808134
-0.064845614 -0.1975092 -0.0912667 -0.1475078 -0.019213049 -0.100257084 -0.13853663 -0.052161746
-0.042147588 -0.004302664 -0.13974959 -0.19158429 -0.037516195 -0.19855809 -0.21945962 -0.1353628
0.0077641583 0.17362173 0.02994589 0.18688017 -0.06525255 -0.060275905 -0.2445586 0.27279165
-0.11874939 0.16643654 -0.023297502 0.11799368 -0.21714152 -0.11866268 -0.017988645 0.2726567
-0.14811614 -0.024959847 -0.043078505 0.09448083 0.1787277 0.355291 0.16175456 0.18978794
-0.017991958 -0.16445343 0.19536573 -0.30418435 0.04522776 -0.13287961 -0.08069038 -0.04580165
-0.23616415 0.0079457285 0.09370934 -0.076879464 0.17424217 0.385804 0.17224059 0.16701946
-0.091946594 -0.10326038 0.20168126 -0.11781971 -0.025498696 -0.011691268 -0.083938316 0.053898536
-0.1400918 -0.06984092 -0.15802658 -0.06798896 -0.28757465 0.15660465 0.0804185 -0.12991756
-0.10786514 0.19713748 0.08725342 -0.02763202 -0.24161202 -0.55252224 -8.215231e-05 0.012856456
-0.005148009 0.14114964 0.13918892 0.15349278 -0.23442255 -0.4368103 -0.06898873 0.08563301
0.013636332 0.062353402 -0.068201326 0.21307856 0.13656934 -0.24519557 -0.50001854 -0.6464941
-0.031561036 0.13260655 0.114373334 0.08921034 0.3641474 0.056900617 -0.08794454 -0.00782965
-0.03632252 0.070771426 0.5115293 0.33315834 0.10572161 -0.36537066 -0.57786816 -0.57204765
0.037733223 0.017844003 0.024715107 -0.11236856 0.3641406 0.0667516 0.010543117 0.16687077
-0.023913292 0.085813135 0.32510766 0.29625735 0.0705043 -0.024659667 0.1299787 0.07754567
0.055900965 0.039762348 -0.016007716 0.054131772 0.14229557 0.07347004 0.008849718 -0.022619653
-0.032606598 0.24241821 0.07140258 0.12735142 -0.12946208 -0.17729382 -0.11464331 -0.1121259
-0.024015568 0.07836504 -0.042493876 -0.030569723 -0.20844582 -0.12601826 -0.14323945 0.081564054
-0.26117787 0.11867906 0.02003733 0.10670687 0.020498488 0.08535394 0.17984572 0.025398312
-0.01092724 -0.1300659 -0.0017768957 -0.034818623 -0.059781067 0.03746467 0.03216443 -0.11691153
-0.102828756 0.19969086 -0.0379815 0.008917945 0.10770745 0.10145976 0.14616033 0.15652606
0.1245539 -0.082494676 0.03953819 0.01842752 0.053920414 -0.102470584 -0.018168744 -0.010261047
0.10796843 0.0881523 0.061366938 -0.027885942 -0.07514012 0.15112293 0.102402344 -0.0086045135
0.012863871 -0.012617292 0.03976925 -0.04652106 -0.025424166 0.10659412 -0.06570662 0.02847547
00000000: 6d50 20be e171 2b3d f780 0fbe 81a0 e8bd
00000010: 6217 383c 4cb6 efbd 04df 51bd 4a0a 44be
00000020: b7a1 3d3e e312 3e3d 8900 a7bd 2b32 33be
00000030: 993b a33c 71c3 6b3e 328d dfbc 6e7a 473e
00000040: 3b68 fabd 0ac5 29be f1b0 6abe 597e 933d
00000050: 5680 58be 7822 183e a394 57bd 6840 633e
00000060: 7e9c 3bbe 736f 65bd 61f4 15be d9fb e33d
00000070: b72d 6cbd 929a f33c 09df 1c3e 123e 5d3e
00000080: 2abe 703e 65ce b73e 5b76 343e 2cad 203e
00000090: 1437 063e 06d4 69bd 7da8 743e 1f2b 67be
000000a0: 1a29 13be e4b9 80bc 70e6 34bc 4714 cb3b
000000b0: f989 34be e9f7 053e 3186 0a3d 21a4 97b9
000000c0: 8e0a db3e b08c fc3e 3263 e53a 7c50 4f3e
000000d0: c6cc 0c3e de9b 79be 7468 a33e 6598 40be
000000e0: c7cd 84bd da3f 4abe 09ea babd 490c 17be
000000f0: af64 9dbc 9653 cdbd 8cdc 0dbe 8ea7 55bd
00000100: f3a2 2cbd 5dfd 8cbb 841a 0fbe ac2e 44be
00000110: 95aa 19bd d052 4bbe 06ba 60be 8c9c 0abe
00000120: 7b6a fe3b e5c9 313e 1551 f53c 845d 3f3e
00000130: 21a3 85bd dee3 76bd 926d 7abe 59ab 8b3e
00000140: e132 f3bd 576e 2a3e 67da bebc aca6 f13d
00000150: 595a 5ebe 6b05 f3bd ec5c 93bc a999 8b3e
00000160: c2ab 17be 9878 ccbc 1673 30bd 2a7f c13d
00000170: 6504 373e b4e8 b53e fda2 253e c557 423e
00000180: df63 93bc 7b66 28be f40d 483e 0dbe 9bbe
00000190: be40 393d 9811 08be ff40 a5bd 839a 3bbd
000001a0: 04d5 71be cd2e 023c afea bf3d fb72 9dbd
000001b0: 8a6c 323e 1a88 c53e d65f 303e 2607 2b3e
000001c0: 7f4e bcbd 2e7a d3bd 8885 4e3e 764b f1bd
000001d0: a4e2 d0bc bb8c 3fbc dae7 abbd b6c4 5c3d
000001e0: 3a74 0fbe c208 8fbd b8d1 21be cc3d 8bbd
000001f0: fc3c 93be f85c 203e 74b2 a43d 1c09 05be
00000200: 66e8 dcbd 68de 493e ecb1 b23d 8c5c e2bc
00000210: 2469 77be 1972 0dbf 3049 acb8 e3a3 523c
00000220: a1b0 a8bb 8889 103e 8a87 0e3e 362d 1d3e
00000230: 770c 70be 9aa5 dfbe f749 8dbd 5c60 af3d
00000240: ec6a 5f3c 4866 7f3d 23ad 8bbd 4431 5a3e
00000250: d5d8 0b3e 8c14 7bbe 3701 00bf a380 25bf
00000260: 2546 01bd 03ca 073e 913c ea3d e9b3 b63d
00000270: 8771 ba3e 9f10 693d 441c b4bd ef47 00bc
00000280: ecc6 14bd 9cf0 903d 96f3 023f bb93 aa3e
00000290: 9284 d83d dd11 bbbe 2bef 13bf b771 12bf
000002a0: 278e 1a3d 962d 923c 5677 ca3c 7d21 e6bd
000002b0: a370 ba3e 10b5 883d 0abd 2c3c 2ce0 2a3e
000002c0: cfe5 c3bc ccbe af3d 8374 a63e 0baf 973e
000002d0: 8f64 903d 1203 cabc 2319 053e 44d0 9e3d
000002e0: 69f8 643d d8dd 223d 9d22 83bc 47b9 5d3d
000002f0: eeb5 113e 7677 963d 68fe 103c da4c b9bc
00000300: 7f8e 05bd 7b3c 783e 843b 923d 6968 023e
00000310: b591 04be 838c 35be 1dca eabd 44a2 e5bd
00000320: 4cbc c4bc da7d a03d 0f0e 2ebd 5b6d fabc
00000330: d272 55be ee0a 01be 5dad 12be 0e0b a73d
00000340: 1bb9 85be 020e f33d 5425 a43c 2289 da3d
00000350: 72ec a73c 0cce ae3d 7a29 383e 1f10 d03c
00000360: 2b08 33bc ff2f 05be bae6 e8ba f99d 0ebd
00000370: fedc 74bd 8e74 193d d9be 033d 506f efbd
00000380: e297 d2bd c37b 4c3e 7d92 1bbd 931c 123c
00000390: b995 dc3d 22ca cf3d 0eab 153e 5e48 203e
000003a0: 1d16 ff3d f8f2 a8bd ccf2 213d 4ff5 963c
000003b0: a7db 5c3d 19dc d1bd 9ed6 94bc f31d 28bc
000003c0: 8d1e dd3d 3189 b43d e65b 7b3d 0f71 e4bc
000003d0: 10e3 99bd f8bf 1a3e 52b8 d13d f2f9 0cbc
000003e0: fcc2 523c c2b8 4ebc 15e5 223d de8c 3ebd
000003f0: 5746 d0bc 054e da3d 3191 86bd 6445 e93c

_mlp.0.bias f4 [64]
-0.27408904 -0.39557168 0.1261285 -0.46343878 -0.29853353 -0.6827862 -0.9489229 -0.3921518
-0.8604358 -0.6027904 -0.63273257 -0.097881295 -1.0139335 -0.36406663 -0.65047973 -0.6252427
-0.3162911 -0.32076925 -0.2540488 -0.5298105 -0.46049553 0.16507317 -0.25608715 -0.5620263
-0.84458464 -0.63781285 -0.1387388 -0.45526358 -0.32986054 0.071279764 -0.51237243 -0.31374454
-0.5888541 -0.32208675 -0.45670295 0.29141897 -0.4522649 0.06660356 -0.71838063 -0.66952556
-0.52890325 -0.8335466 -0.16246405 -0.6373946 -0.6660751 -0.4282651 -0.14068712 -0.49355078
-0.6637265 -0.35666505 -0.29600862 -0.103784256 -0.5557148 -0.09986681 -0.14490342 -0.85086507
0.36122918 0.17358562 -0.21151237 -0.7144665 -0.25214967 -0.60461247 -0.072167195 -0.25947553
00000000: 6655 8cbe 5f88 cabe d427 013e d947 edbe
00000010: 63d9 98be 14cb 2ebf 9cec 72bf 1fc8 c8be
00000020: 8545 5cbf 7950 1abf c3fa 21bf fd75 c8bd
00000030: 93c8 81bf f166 babe d785 26bf e80f 20bf
00000040: e8f0 a1be de3b a4be af12 82be a9a1 07bf
00000050: 12c6 ebbe f108 293e db1d 83be f5e0 0fbf
00000060: b336 58bf b447 23bf 8b11 0ebe 4f18 e9be
00000070: 7be3 a8be 20fb 913d d72a 03bf 20a3 a0be
00000080: 24bf 16bf 8ee8 a4be f8d4 e9be de34 953e
00000090: 448f e7be 7267 883d cbe7 37bf 0766 2bbf
000000a0: 3466 07bf 4f63 55bf fa5c 26be 4b2c 23bf
000000b0: e683 2abf 9045 dbbe 4910 10be b0b2 fcbe
000000c0: fbe9 29bf cd9c b6be 718e 97be d78c d4bd
000000d0: 5343 0ebf f886 ccbd 9061 14be 4bd2 59bf
000000e0: 08f3 b83e 6ec0 313e b396 58be 47e7 36bf
000000f0: c319 81be e2c7 1abf 65cc 93bd fad9 84be

_mlp.2.weight f4 [64, 64]
-0.1061204 -0.1143136 -0.08324521 0.02162531 0.07239731 0.013153877 -0.11450148 -0.07327079
-0.027573554 0.016253853 -0.06403436 -0.095996164 -0.004515192 0.00489361 0.04371104 -0.15605764
-0.09426673 -0.0883303 0.030332038 0.035322066 0.081272066 0.030346058 -0.02834273 -0.09752002
-0.21143068 -0.13681261 -0.014630834 -0.08432031 0.17051257 -0.33791846 -0.21899913 0.005384203
-0.04313923 0.015861606 0.020567808 -0.2879749 0.031979233 -0.14948657 0.066715576 -0.04661201
0.017084705 0.076006934 -0.12033762 -0.01987737 -0.039398134 0.035077136 0.022963226 -0.1956049
0.13507867 0.054318115 -0.08977178 0.0073802485 0.0997906 -0.121446475 -0.027583238 0.0057415366
-0.3645839 -0.10069309 -0.15229587 0.01787673 0.019711075 0.026364535 -0.102038346 0.027932702
-0.062303472 0.22454423 -0.30564365 -0.14584744 0.12414787 -0.21243703 0.06379194 -0.12376368
-0.2275993 0.070220955 -0.08507791 -0.06186937 -0.044164922 -0.03646687 -0.020597657 -0.11674235
0.0892754 0.15481637 -0.04342814 -0.028072538 0.30404934 -0.023690183 -0.012704187 -0.008535138
0.42209157 -0.15566209 -0.061332133 -0.010440882 0.06392277 0.09850124 -0.09225428 -0.21240312
-0.08470973 -0.16143712 0.011189538 0.05147717 -0.0317302 0.03196263 -0.057186127 -0.18925554
-0.03937725 -0.25593027 -0.29622495 0.1556988 -0.1687475 -0.034776036 0.08643311 0.031775735
0.08009885 -0.11846281 -0.022651909 -0.040954005 0.008763225 0.032086845 -0.10627813 -0.29394785
-0.15891893 0.04265324 -0.070293844 0.07547662 -0.08876499 0.079911634 -0.046036914 -0.020651078
-0.08745876 0.033862963 -0.10988008 -0.14839181 0.08632642 -0.0774236 -0.05111347 -0.13382779
0.031378817 -0.108819254 -0.050588302 -0.13309386 -0.06440942 0.12404089 -0.21788374 -0.03318607
-0.18054149 0.05207996 -0.0068067657 0.05139859 0.24587476 -0.14611444 -0.09378966 -0.40557528
-0.14740434 -0.12607963 -0.17104647 -0.042664364 -0.022582069 -0.06646571 -0.27695176 -0.029602574
0.069231585 -0.08270006 0.1876094 -0.26256788 -0.0876434 -0.0737219 -0.03763643 -0.0428233
-0.08959243 0.15112418 -0.10427847 -0.06251335 0.0072428016 -0.0914775 -0.030189091 -0.13598716
-0.055227995 -0.20226724 -0.03799866 -0.02105004 -0.12761874 -0.036240593 0.020260813 0.06191115
0.005334823 -0.17057772 -0.09363104 0.077442825 -0.0304237 -0.048557222 -0.21740586 -0.08348012
-0.13364272 -0.30586416 -0.0569454 0.023794023 -0.016806277 0.09618744 -0.10142753 0.003977771
-0.17214286 0.13114813 0.07739327 -0.15830947 0.042170882 0.038712434 0.083484516 -0.03108229
0.07014164 0.06299235 0.04176112 0.00015216712 -0.3165389 0.059653938 -0.091970325 -0.060996898
0.1240526 0.105486855 0.012489873 -0.06285208 -0.017311519 0.093919985 0.13423762 -0.027247345
-0.035544742 0.03414641 -0.019819312 0.0036809912 0.03330884 -0.10837477 0.03422809 -0.053815972
0.07053749 0.0027741895 0.10169183 0.039260563 0.22288159 0.003437066 0.07966356 -0.028631385
0.08261479 -0.04554953 0.09360301 0.014201112 -0.12243009 -0.1022946 0.039678607 -0.0015313528
-0.36434942 -0.1406706 0.056561206 0.13583662 -0.06383062 0.065755084 -0.15665792 -0.022113966
00000000: a755 d9bd 401d eabd 777c aabd 9027 b13c
00000010: 0a45 943d 5c83 573c c07f eabd ff0e 96bd
00000020: efe1 e1bc cd26 853c 7224 83bd a399 c4bd
00000030: 2df4 93bb 935a a03b 590a 333d 93cd 1fbe
00000040: ea0e c1bd 84e6 b4bd e57a f83c dfad 103d
00000050: f871 a63d 4c98 f83c 032f e8bc 94b8 c7bd
00000060: 4981 58be 9b18 0cbe 2ab6 6fbc 20b0 acbd
00000070: d99a 2e3e a603 adbe 4f41 60be f86d b03b
00000080: c3b2 30bd 33f0 813c d27d a83c 7271 93be
00000090: a8fc 023d 0213 19be 2da2 883d 3cec 3ebd
000000a0: 39f5 8b3c 86a9 9b3d 9273 f6bd ded5 a2bc
000000b0: f05f 21bd 0bad 0f3d 601d bc3c a74c 48be
000000c0: 1052 0a3e ac7c 5e3d 44da b7bd 03d6 f13b
000000d0: 045f cc3d eeb8 f8bd 3ef6 e1bc 8023 bc3b
000000e0: beaa babe 2e38 cebd 73f3 1bbe 3872 923c
000000f0: 1f79 a13c 70fa d73c 7bf9 d0bd 1fd3 e43c
00000100: ed31 7fbd ecee 653e 537d 9cbe 0859 15be
00000110: 3d41 fe3d 1889 59be 59a5 823d d077 fdbd
00000120: ca0f 69be 01d0 8f3d 543d aebd bd6a 7dbd
00000130: 47e6 34bd 495e 15bd 6bbc a8bc 9d16 efbd
00000140: 05d6 b63d 2f88 1e3e b5e1 31bd 61f8 e5bc
00000150: 5bac 9b3e ea11 c2bc 3925 50bc f7d6 0bbc
00000160: 631c d83e e265 1fbe 6737 7bbd 3c10 2bbc
00000170: f1e9 823d 05bb c93d d0ef bcbd 3480 59be
00000180: 4c7c adbd c64f 25be 5354 373c bad9 523d
00000190: 87f7 01bd 3feb 023d 003c 6abd 34cc 41be
000001a0: 0a4a 21bd 4b09 83be ccaa 97be 826f 1f3e
000001b0: 25cc 2cbe 5171 0ebd d803 b13d 4627 023d
000001c0: de0a a43d a19c f2bd 7f90 b9bc 63bf 27bd
000001d0: a193 0f3c 7f6d 033d 59a8 d9bd 5580 96be
000001e0: a5bb 22be 2ab5 2e3d 38f6 8fbd 7c93 9a3d
000001f0: 6bca b5bd b6a8 a33d 3491 3cbd 732c a9bc
00000200: 941d b3bd e4b3 0a3d cf08 e1bd 06f4 17be
00000210: e8cb b03d 4490 9ebd 5c5c 51bd 270a 09be
00000220: 1387 003d a1dc debd ae35 4fbd c249 08be
00000230: 16e9 83bd 2609 fe3d ea1c 5fbe 1eee 07bd
00000240: dedf 38be cc51 553d 4a0b dfbb 5487 523d
00000250: 98c6 7b3e 069f 15be cb14 c0bd 90a7 cfbe
00000260: 2af1 16be 051b 01be ce26 2fbe d4c0 2ebd
00000270: 08fe b8bc 2d1f 88bd 9fcc 8dbe 1981 f2bc
00000280: 4ac9 8d3d a65e a9bd ae1c 403e 4c6f 86be
00000290: 627e b3bd 82fb 96bd a828 1abd 7c67 2fbd
000002a0: 3c7c b7bd 4cc0 1a3e f38f d5bd 0007 80bd
000002b0: 0655 ed3b 8e58 bbbd 1d4f f7bc 3840 0bbe
000002c0: c036 62bd 251f 4fbe 7ca4 1bbd 2271 acbc
000002d0: 7dae 02be 0471 14bd 01fa a53c 8c96 7d3d
000002e0: bdcf ae3b edab 2ebe a1c1 bfbd 589a 9e3d
000002f0: 203b f9bc f0e3 46bd a49f 5ebe a0f7 aabd
00000300: a3d9 08be 3a9a 9cbe 943f 69bd afeb c23c
00000310: 51ad 89bc ecfd c43d 3db9 cfbd f657 823b
00000320: 3846 30be b24b 063e 5d80 9e3d e11b 22be
00000330: 60bb 2c3d ee90 1e3d eef9 aa3d 49a0 febc
00000340: 6ca6 8f3d 2202 813d b50d 2b3d 0d8f 1f39
00000350: 6311 a2be b057 743d f05a bcbd e2d7 79bd
00000360: 4a0f fe3d 7e09 d83d 53a2 4c3c 97b8 80bd
00000370: e3d0 8dbc 1f59 c03d 9675 093e d335 dfbc
00000380: 5d97 11bd 1bdd 0b3d 1c5c a2bc c93c 713b
00000390: da6e 083d 97f3 ddbd c132 0c3d 236e 5cbd
000003a0: f675 903d 2dcf 353b ce43 d03d afcf 203d
000003b0: 123b 643e 6640 613b a626 a33d 5e8c eabc
000003c0: f131 a93d 2592 3abd efb2 bf3d c8ab 683c
000003d0: a1bc fabd d57f d1bd 0986 223d acb7 c8ba
000003e0: 028c babe f40b 10be b9ac 673d c118 0b3e
000003f0: a1b9 82bd 9aaa 863d ef6a 20be 5928 b5bc

_mlp.2.bias f4 [64]
-0.037096426 0.02343498 -0.2149112 -0.43532726 -0.28953245 -0.36435038 -0.18637589 -0.13975756
-0.1806314 -0.18352084 -0.4427421 -0.19922127 -0.08933694 -0.28839257 -0.27080035 -0.15076844
-0.18266948 -0.17903402 0.19224851 -0.15655468 -0.28892866 -0.15072255 -0.4491868 -0.055768702
-0.027383832 0.03593537 -0.41887543 -0.27404818 -0.62106293 -0.45675555 -0.14604065 -0.33617875
-0.27431318 -0.22159962 -0.2889963 -0.15242994 -0.3486766 -0.2526022 -0.2921319 -0.2786742
-0.23810837 -0.24753673 -0.12551615 -0.27582908 -0.11973081 -0.30625752 -0.23612097 -0.27361572
-0.26679844 -0.14807618 -0.24755895 0.060140613 -0.25611794 -0.6025752 -0.2056207 -0.47188145
-0.12539126 0.11406368 -0.19661699 -0.11698037 -0.24141961 -0.08931973 -0.31150723 -0.25163886
00000000: 6cf2 17bd b7fa bf3c ae11 5cbe 37e3 debe
00000010: 993d 94be 228c babe 52d9 3ebe 9b1c 0fbe
00000020: 70f7 38be e3ec 3bbe 18af e2be a900 4cbe
00000030: 49f6 b6bd 31a8 93be 58a6 8abe 0b63 1abe
00000040: b50d 3bbe b254 37be cbdc 443e df4f 20be
00000050: 75ee 93be 0357 1abe d0fb e5be b96d 64bd
00000060: 0f54 e0bc f730 133d d776 d6be 0b50 8cbe
00000070: fbfd 1ebf dddb e9be ae8b 15be 9f1f acbe
00000080: c772 8cbe 03eb 62be 53f7 93be 9816 1cbe
00000090: bd85 b2be 1355 81be 5092 95be 62ae 8ebe
000000a0: aed2 73be 457a 7dbe 4e87 00be 7839 8dbe
000000b0: 6d35 f5bd c9cd 9cbe b2c9 71be 5c17 8cbe
000000c0: ce99 88be 48a1 17be 1880 7dbe 0156 763d
000000d0: e421 83be 5e42 1abf 3c8e 52be 729a f1be
000000e0: 9166 00be 389a e93d f755 49be 6793 efbd
000000f0: b436 77be 43ed b6bd e07d 9fbe cfd6 80be

_mlp.4.weight f4 [64, 64]
-0.20234656 0.08126271 -0.09203421 0.04199564 -0.042415034 0.048736323 0.01954387 -0.015936447
-0.115464956 0.116242394 -0.12215899 -0.14106052 -0.24804917 0.1907044 -0.12854096 -0.099008135
0.04457052 -0.034689073 -0.03869553 -0.035125393 -0.08097733 0.08339796 -0.20128293 -0.22416838
0.10675618 -0.26509547 -0.057711467 -0.093963176 -0.047321543 -0.19888811 -0.15768428 -0.053308845
-0.063177206 0.16609472 -0.122639135 -0.26086977 -0.08384539 -0.15312222 0.05352904 -0.18478101
-0.09697373 -0.21630852 -0.1196565 0.148748 0.04490473 -0.06760133 0.3221737 0.078212105
-0.26539788 -0.062024277 0.009728046 -0.037861712 -0.11021458 0.08279844 -0.054645933 -0.015725423
-0.20220186 -0.07054752 -0.10126672 0.075344004 -0.07228397 0.011175001 -0.600823 -0.1897388
-0.10858947 0.027142499 -0.09594645 -0.16547295 -0.12906644 0.0282427 -0.028054016 -0.17101096
-0.09795191 -0.1256696 0.07278426 -0.03634911 -0.105535336 0.022435293 -0.1375478 0.04447694
0.123217076 0.10811472 -0.18489249 -0.3438965 0.050559614 -0.15678626 -0.20604396 -0.18970974
-0.11902025 -0.02393757 -0.08490895 -0.11456255 -0.04538822 0.055564083 0.09863382 -0.059644695
-0.13371696 -0.16651793 -0.31074837 0.053478062 -0.0036832732 -0.40770862 -0.01990728 -0.14859776
0.05943662 0.1562937 0.23680823 -0.3359369 -0.084527 -0.07714471 -0.07997559 0.029884115
-0.010889087 0.041441128 -0.16067378 -0.055507828 0.32238057 -0.026784405 0.19694467 0.0134727
-0.08716257 0.040923484 0.037133932 0.002660107 -0.0767378 0.07397932 0.15156485 -0.07808693
0.14918412 -0.49498767 -0.17217097 0.038138982 -0.016506575 0.10596511 -0.25098652 0.030881356
0.035573132 0.012673963 -0.05634883 0.057085946 0.033945836 -0.08004288 -0.057803113 0.16276428
-0.16532621 -0.123130396 -0.069111355 -0.08706998 -0.23170695 -0.0500585 -0.24703333 -0.16875279
-0.11467385 -0.08330411 -0.0556397 0.025296004 0.036516592 0.09245751 -0.035430923 -0.043972015
0.024691686 0.09261267 -0.12259313 -0.1764121 0.16405298 -0.07441418 -0.0900588 0.18171471
0.116190426 0.11027799 -0.12302245 -0.04627 0.09372003 -0.023834357 -0.06101744 -0.10319583
-0.15887241 -0.041935056 -0.075698756 -0.0430782 -0.27309528 -0.3955219 -0.045473553 0.13043508
-0.41968596 -0.14210458 -0.082414396 -0.004561821 -0.13500218 0.18273102 0.05662829 -0.24174249
0.04793638 -0.047506154 0.08003236 -0.034096263 -0.25313917 -0.048691288 -0.074757844 -0.08468537
0.028128525 0.09761098 -0.13847078 -0.10461998 0.11987007 -0.029020816 0.0060938597 -0.05146189
-0.10233486 0.03986661 -0.048568573 -0.14553502 -0.09989011 0.07754387 0.045460314 -0.11158456
-0.0805489 0.08236757 0.053025827 0.010892749 -0.009090707 -0.10034926 -0.06286198 0.0069328994
-0.06056297 -0.09838219 -0.08926913 0.0776771 -0.064941645 -0.021004394 -0.1086081 -0.080626905
0.0063871294 -0.07512386 0.02030699 0.065702006 -0.00876508 -0.07302922 -0.0044469833 -0.03844556
-0.07211371 -0.116806194 -0.1915689 -0.15341702 0.06324735 -0.024996072 -0.029839903 0.095237225
-0.11916981 -0.002100507 0.028919308 -0.09651759 0.1062593 -0.1819293 -0.2576606 -0.06410252
00000000: f033 4fbe 106d a63d 6f7c bcbd 9f03 2c3d
00000010: 63bb 2dbd bd9f 473d 771a a03c 278d 82bc
00000020: e478 ecbd 7e10 ee3d 7e2e fabd 2b72 10be
00000030: 9a00 7ebe 0448 433e 3ea0 03be c7c4 cabd
00000040: 948f 363d 2116 0ebd 347f 1ebd a5df 0fbd
00000050: 71d7 a5bd 8dcc aa3d 1d1d 4ebe 658c 65be
00000060: fca2 da3d 98ba 87be dc62 6cbd c46f c0bd
00000070: 3cd4 41bd 53a9 4bbe fd77 21be 605a 5abd
00000080: 0d63 81bd bc14 2a3e 3a2a fbbd b990 85be
00000090: 22b7 abbd 12cc 1cbe 4441 5b3d 3c37 3dbe
000000a0: 2a9a c6bd fb7f 5dbe 780e f5bd 6551 183e
000000b0: 06ee 373d 9172 8abd f4f3 a43e ab2d a03d
000000c0: 3be2 87be 2b0d 7ebd 6262 1f3c e214 1bbd
000000d0: 2fb8 e1bd 3a92 a93d 6ad4 5fbd 9ad2 80bc
000000e0: 010e 4fbe 387b 90bd ed64 cfbd f54d 9a3d
000000f0: 9e09 94bd 5a17 373c 89cf 19bf e34a 42be
00000100: 2864 debd f259 de3c 937f c4bd be71 29be
00000110: fe29 04be 3c5d e73c 89d1 e5bc 7f1d 2fbe
00000120: 039b c8bd 88af 00be ea0f 953d cee2 14bd
00000130: e922 d8bd 38ca b73c 55d9 0cbe 742d 363d
00000140: 3c59 fc3d 406b dd3d 7554 3dbe 3413 b0be
00000150: 9917 4f3d 948c 20be 30fd 52be 4543 42be
00000160: e4c0 f3bd b918 c4bc bee4 adbd c59f eabd
00000170: 00e9 39bd 2a97 633d 8700 ca3d ff4d 74bd
00000180: 19ed 08be ad83 2abe 691a 9fbe d00b 5b3d
00000190: 1263 71bb 2fbf d0be 9814 a3bc 032a 18be
000001a0: d073 733d 750b 203e db7d 723e ecff abbe
000001b0: 7e1c adbd 0cfe 9dbd 3eca a3bd 88cf f43c
000001c0: 2468 32bc 2cbe 293d ab87 24be 2d5c 63bd
000001d0: 110f a53e f86a dbbc ddab 493e 99bc 5c3c
000001e0: 4a82 b2bd 629f 273d c019 183d 3155 2e3b
000001f0: b528 9dbd 7882 973d d133 1b3e 0aec 9fbd
00000200: b9c3 183e 066f fdbe 964d 30be 9f37 1c3d
00000210: cc38 87bc 3c04 d93d 4e81 80be e6fa fc3c
00000220: 22b5 113d 74a6 4f3c 08ce 66bd f4d2 693d
00000230: ca0a 0b3d 85ed a3bd f5c2 6cbd aeab 263e
00000240: 464b 29be ca2b fcbd 418a 8dbd bf51 b2bd
00000250: 9644 6dbe 240a 4dbd 4ef6 7cbe 88cd 2cbe
00000260: 20da eabd 589b aabd 74e6 63bd 9139 cf3c
00000270: 6c92 153d 5d5a bd3d 0420 11bd 001c 34bd
00000280: 3846 ca3c b6ab bd3d 1b12 fbbd 60a5 34be
00000290: 81fd 273e 7666 98bd c070 b8bd 6c13 3a3e
000002a0: 3ff5 ed3d 6dd9 e13d 32f3 fbbd 9d85 3dbd
000002b0: 49f0 bf3d 4540 c3bc 6ced 79bd 5658 d3bd
000002c0: 73af 22be 18c4 2bbd f307 9bbd c472 30bd
000002d0: 25d3 8bbe d981 cabe 7a42 3abd c690 053e
000002e0: 14e1 d6be dd83 11be e1c8 a8bd 547b 95bb
000002f0: 033e 0abe d71d 3b3e 11f3 673d 588b 77be
00000300: f058 443d d095 42bd 02e8 a33d 86a8 0bbd
00000310: 759b 81be 8470 47bd a41a 99bd 866f adbd
00000320: cb6d e63c 44e8 c73d 49cb 0dbe 0043 d6bd
00000330: 707e f53d 10bd edbc 00af c73b b4c9 52bd
00000340: f094 d1bd 2c4b 233d d7ef 46bd 2207 15be
00000350: 3093 ccbd 52cf 9e3d 9834 3a3d 7286 e4bd
00000360: d2f6 a4bd 54b0 a83d 9c31 593d 8077 323c
00000370: 30f1 14bc ea83 cdbd c8bd 80bd 602d e33b
00000380: e010 78bd 9a7c c9bd bcd2 b6bd 2c15 9f3d
00000390: 2000 85bd 6811 acbc ec6d debd b81f a5bd
000003a0: 204b d13b 8ada 99bd d85a a63c c68e 863d
000003b0: 699b 0fbc 5890 95bd 00b8 91bb 1779 1dbd
000003c0: 5ab0 93bd 1638 efbd a32a 44be 5a19 1dbe
000003d0: d487 813d 90c4 ccbc d072 f4bc bc0b c33d
000003e0: 4d0f f4bd a9a8 09bb 2fe8 ec3c 04ab c5bd
000003f0: 7a9e d93d ad4b 3abe 17ec 83be 2f48 83bd

_mlp.4.bias f4 [64]
0.009278444 -0.24292192 -0.28714195 -0.16439787 -0.09963249 -0.32488438 -0.3728654 -0.2001239
-0.23691227 -0.07612903 0.14700209 -0.17350015 -0.21062496 -0.10374728 -0.47568431 -0.39789897
0.06533873 -0.11097341 0.06006645 -0.012126013 -0.014892144 -0.14789274 -0.08562815 -0.16657668
-0.003457861 0.152403 -0.006311442 -0.1721271 -0.022864789 -0.03641692 -0.01693926 -0.17282747
-0.3575492 -0.089206204 0.042973313 -0.11942656 -0.14601938 0.0021925936 -0.37627822 0.0385394
-0.12927046 -0.004434813 -0.09199537 -0.1314358 0.017470049 -0.061589953 -0.066002734 -0.039341066
-0.058794346 -0.00014770844 -0.17645164 -0.06259242 -0.16784477 -0.116855375 -0.04328901 -0.2523824
-0.34638745 0.042522952 -0.2009106 -0.08645436 -0.0046154237 0.015445845 0.06860682 -0.023097685
00000000: 9d04 183c 86c0 78be 4504 93be ea57 28be
00000010: 1e0c ccbd 3f57 a6be 37e8 bebe 48ed 4cbe
00000020: 2199 72be 89e9 9bbd b787 163e 06aa 31be
00000030: 12ae 57be 7479 d4bd e58c f3be 6ab9 cbbe
00000040: 50d0 853d 0746 e3bd 3d08 763d 2fac 46bc
00000050: 2efe 73bc 3271 17be d05d afbd 1493 2abe
00000060: 489d 62bb 880f 1c3e 36d0 cebb 1642 30be
00000070: f04e bbbc e929 15bd 34c4 8abc aff9 30be
00000080: b010 b7be beb1 b6bd c904 303d ea95 f4bd
00000090: 1b86 15be 9eb1 0f3b 8aa7 c0be 7ddb 1d3d
000000a0: 7a5f 04be e851 91bb 1268 bcbd 1b97 06be
000000b0: 591d 8f3c bf45 7cbd 712c 87bd 1924 21bd
000000c0: 57d2 70bd 2fe2 1ab9 bdaf 34be 7430 80bd
000000d0: 80df 2bbe df51 efbd d14f 31bd 4438 81be
000000e0: b259 b1be 8c2c 2e3d 82bb 4dbe fc0e b1bd
000000f0: fb3c 97bb 9210 7d3c bc81 8c3d 5b37 bdbc

_mlp.6.weight f4 [1, 64]
-0.014817566 0.011878889 0.0808005 0.16481294 0.024035051 0.073194444 0.051409893 0.008815637
-0.16287147 -0.030449234 -0.12794791 -0.010410599 0.0028275775 0.2562072 -0.047405485 0.018679645
0.026926346 -0.027245969 0.20209259 -0.0037062746 -0.00027100864 0.0021546031 0.0014315177 0.07962075
-0.03775254 -0.16030274 -0.11123503 0.06169208 -0.011948662 -0.053346425 -0.024582228 0.033209637
-0.06235697 0.046392217 0.0056035104 -0.010426296 0.11911833 0.01685727 0.017657958 0.19040613
0.0020456756 0.0011427068 0.01916911 0.08419894 -0.0071660173 0.0040138094 0.11767088 -0.0017774806
-0.044417668 -0.009975488 0.0038219069 -0.0008802652 -0.08355083 0.0077712806 0.016605472 -0.14801419
0.04005638 -0.018300425 0.07000036 0.051865548 0.04842452 -0.0012325534 -0.0062307315 -0.009891812
00000000: 60c5 72bc ac9f 423c bc7a a53d b9c4 283e
00000010: 28e5 c43c f8e6 953d 2e93 523d 766f 103c
00000020: c7c7 26be ac70 f9bc c704 03be 3891 2abc
00000030: e14e 393b 972d 833e 412c 42bd 0e06 993c
00000040: a494 dc3c f032 dfbc 5cf1 4e3e f8e4 72bb
00000050: 2a16 8eb9 3e34 0d3b c3a1 bb3a 3410 a33d
00000060: 68a2 1abd 6726 24be 31cf e3bd d6b0 7c3d
00000070: 52c4 43bc c881 5abd ab60 c9bc d406 083d
00000080: 066a 7fbd c405 3e3d a79d b73b 0ed3 2abc
00000090: 50f4 f33d 4218 8a3c 6ca7 903c d3f9 423e
000000a0: be10 063b e1c6 953a 8a08 9d3c 7e70 ac3d
000000b0: e9d0 eabb 4686 833b 6efd f03d 5afa e8ba
000000c0: 4def 35bd 3b70 23bc f578 7a3b 99c1 66ba
000000d0: b31c abbd 3aa6 fe3b 3308 883c 0891 17be
000000e0: 2912 243d c6ea 95bc 595c 8f3d f870 543d
000000f0: ca58 463d a18d a1ba 2a2b ccbb 4411 22bc

exp_avg f4 [2, 1, 3, 3]
0.0007755912 0.00014269352 -0.00029218371 7.874749e-05 0.0011370447 -0.00032775637 0.00018445542 -8.5866304e-05
0.00048904965 0.0012594984 0.0008277004 0.0012202428 0.0011511034 0.00075122906 0.0010887394 0.0008583008
0.0005459651 0.00081929803
00000000: 0b51 4b3a 00a0 1539 3c30 99b9 3d25 a538
00000010: e408 953a b7d6 abb9 606a 4139 1f13 b4b8
00000020: 9133 003a c115 a53a 09fa 583a 8ef0 9f3a
00000030: 9fe0 963a 21ee 443a 08b4 8e3a 97ff 603a
00000040: 191f 0f3a 29c6 563a

exp_avg_sq f4 [2, 1, 3, 3]
1.1436297e-05 6.342625e-06 3.7922814e-06 8.529943e-06 5.0605748e-05 9.513835e-06 7.06748e-06 7.335228e-06
4.3098485e-06 3.470895e-05 2.6306332e-05 3.4841578e-05 3.2110624e-05 2.3474307e-05 3.2395605e-05 3.3585955e-05
2.6824693e-05 3.124623e-05
00000000: 86de 3f37 bcd2 d436 e67e 7e36 d41b 0f37
00000010: 8241 5438 9c9d 1f37 3125 ed36 2121 f636
00000020: 519d 9036 7494 1138 6bac dc37 dc22 1238
00000030: 85ae 0638 b1ea c437 84e0 0738 a5de 0c38
00000040: 9705 e137 620e 0338

exp_avg f4 [4, 1, 3, 3]
0.0002902901 -0.00051472324 0.0009183805 3.01991e-07 0.00016721856 0.0005197418 0.00025910672 -0.000843223
0.0014471443 -6.291151e-05 -5.307554e-05 -8.9721725e-05 -7.7247576e-05 -6.324677e-05 -0.00010321558 -8.2972314e-05
-7.78568e-05 -9.948268e-05 1.853401e-05 -7.966169e-05 -0.00015087794 4.466629e-05 1.1839471e-05 -3.4882632e-05
-4.9155635e-05 -5.4763095e-06 2.585965e-05 -3.5870708e-05 -0.000117057534 -0.00023266934 -0.00015261774 -0.00017593354
-0.00025858535 -0.0002088871 -0.00014515838 -0.00015908826
00000000: 1432 9839 7eee 06ba 79bf 703a 5421 a234
00000010: 6457 2f39 483f 083a b7d8 8739 bd0b 5dba
00000020: 1bae bd3a 5cef 83b8 6d9d 5eb8 fc28 bcb8
00000030: faff a1b8 5aa3 84b8 7175 d8b8 6c01 aeb8
00000040: 0d47 a3b8 5ba1 d0b8 7c79 9b37 0b10 a7b8
00000050: fd34 1eb9 1058 3b38 24a2 4637 f14e 12b8
00000060: 762c 4eb8 24c1 b7b6 2ded d837 e173 16b8
00000070: c97c f5b8 b3f8 73b9 0308 20b9 cd7a 38b9
00000080: bd92 87b9 b408 5bb9 a835 18b9 eed0 26b9

exp_avg_sq f4 [4, 1, 3, 3]
1.2532911e-06 1.8166395e-06 1.219123e-05 2.797675e-06 6.4165542e-06 3.6443168e-06 3.8533262e-06 1.3550282e-05
4.3553748e-05 1.1739965e-06 1.5335021e-06 1.8612716e-06 1.4674664e-06 2.1019632e-06 2.044908e-06 1.8141865e-06
1.9841734e-06 1.7417007e-06 4.991611e-07 2.2697836e-07 3.0524401e-07 1.2431204e-06 1.2441711e-06 5.9501815e-07
4.6546808e-07 9.817393e-07 8.4537135e-07 7.171509e-07 1.5943699e-06 2.143478e-06 1.7240086e-06 3.0438953e-06
2.6773544e-06 2.0788075e-06 2.494814e-06 1.5364217e-06
00000000: c136 a835 42d3 f335 ef88 4c37 b1bf 3b36
00000010: c84d d736 e390 7436 d24b 8136 0556 6337
00000020: 7bad 3638 3692 9d35 bbd2 cd35 ced0 f935
00000030: c3f5 c435 740f 0d36 403b 0936 f97e f335
00000040: d727 0536 61c4 e935 17fe 0535 56b7 7334
00000050: 6be0 a334 4bd9 a635 65fd a635 56b9 1f35
00000060: 72e5 f934 4ec4 8335 7aed 6235 3c82 4035
00000070: 22fe d535 acd8 0f36 7c64 e735 b945 4c36
00000080: 99ac 3336 a481 0b36 946c 2736 0c37 ce35

exp_avg f4 [8, 1, 3, 3]
2.243533e-05 -7.722665e-05 4.4584947e-05 7.044728e-05 -3.5369474e-05 1.0278417e-05 4.9944658e-05 -0.000103609884
4.3136137e-05 0.00015996858 -0.0005257107 0.0007017278 8.553032e-05 0.00047969676 -0.0005569797 -0.00027633412
8.1224825e-05 0.0001246493 5.7246205e-05 4.0643758e-05 -1.0113843e-05 -2.2718292e-05 -4.8091893e-05 -9.028386e-05
-7.4114185e-05 -8.9088106e-05 -0.00011546121 -8.062309e-06 -6.2496106e-06 -7.5805983e-06 -9.18594e-06 -1.1681086e-05
-1.6696558e-05 -1.4236622e-05 -1.922311e-05 -2.283904e-05 -2.3131868e-05 -1.9287389e-05 5.9545066e-05 5.8971422e-05
-3.362854e-05 -3.295659e-05 0.00010292511 3.2129836e-05 -3.348061e-05 -8.121419e-06 -2.6739092e-06 3.7853379e-06
6.8069317e-06 3.3663393e-06 5.5451596e-06 1.3650689e-06 -5.1481575e-06 -9.690166e-06 5.0858675e-05 6.888417e-05
9.078466e-05 6.6892586e-05 9.563189e-05 0.00011181581 4.3424498e-05 6.978075e-05 6.9003305e-05 0.00034861264
0.00016012562 -0.00010299681 0.00023422932 -8.220139e-05 -0.00037038804 1.8761191e-05 -0.00019671755 -0.00035571808
00000000: 8133 bc37 bef4 a1b8 b900 3b38 18bd 9338
00000010: af59 14b8 7771 2c37 ab7b 5138 2249 d9b8
00000020: 13ed 3438 3dbd 2739 d9cf 09ba 28f4 373a
00000030: be5e b338 cf7f fb39 4602 12ba f0e0 90b9
00000040: 3f57 aa38 4bb4 0239 a51b 7038 e778 2a38
00000050: a0ae 29b7 2993 beb7 47b6 49b8 c756 bdb8
00000060: c06d 9bb8 d0d4 bab8 c423 f2b8 5a43 07b7
00000070: bfb3 d1b6 d85c feb6 501d 1ab7 e2f9 43b7
00000080: 960f 8cb7 d3d9 6eb7 5041 a1b7 7796 bfb7
00000090: 4f0b c2b7 5acb a1b7 07c0 7938 1558 7738
000000a0: 5f0c 0db8 de3a 0ab8 7fd9 d738 26c3 0638
000000b0: 886d 0cb8 3b41 08b7 6971 33b6 9c07 7e36
000000c0: 1967 e436 45e9 6136 8f10 ba36 6937 b735
000000d0: 56be acb6 f292 22b7 1651 5538 e875 9038
000000e0: a563 be38 af48 8c38 fb8d c838 a87e ea38
000000f0: b322 3638 4157 9238 deb5 9038 ffc5 b639
00000100: 65e7 2739 feff d7b8 749b 7539 8963 acb8
00000110: a430 c2b9 5a61 9d37 f745 4eb9 ac7f bab9

exp_avg_sq f4 [8, 1, 3, 3]
5.185059e-07 5.3592254e-07 9.2848575e-07 8.243034e-07 1.050524e-07 3.0116678e-07 1.8208854e-07 1.4300674e-07
1.9658437e-07 9.976854e-07 8.296231e-06 1.804761e-05 1.8877016e-06 9.688862e-06 1.2959023e-05 3.670599e-06
1.4390854e-06 1.5207074e-06 2.0135614e-07 2.4021105e-07 5.9152734e-07 2.3801027e-07 6.9940324e-07 1.1981476e-06
4.3293028e-07 9.753625e-07 1.3018156e-06 1.4146163e-06 1.449592e-06 1.273066e-06 1.3125988e-06 1.3051686e-06
1.109027e-06 1.1035341e-06 1.092881e-06 9.149226e-07 7.181114e-07 7.6516153e-07 2.7513008e-07 2.74031e-07
8.774619e-07 8.341437e-07 1.6735439e-07 2.569884e-07 6.657334e-07 3.1355256e-08 3.0698146e-08 2.5544413e-08
5.698025e-08 6.261596e-08 5.3011384e-08 1.8066963e-08 2.0232356e-08 1.927613e-08 4.5793655e-08 5.9268977e-08
7.1377535e-08 5.8190015e-08 8.756384e-08 1.1131272e-07 3.1255173e-08 5.1755357e-08 6.3710246e-08 4.0304653e-06
1.6100759e-06 2.2782651e-06 3.6054353e-06 1.3298172e-06 4.146806e-06 1.4766217e-06 1.7120448e-06 3.7413495e-06
00000000: 742f 0b35 51dc 0f35 0e3d 7935 b345 5d35
00000010: 2b99 e133 0cb0 a134 1e84 4334 658d 1934
00000020: b314 5334 36e8 8535 0a30 0b37 f364 9737
00000030: ef5c fd35 588d 2237 946a 5937 6954 7636
00000040: 9926 c135 1c1b cc35 5b34 5834 5bf6 8034
00000050: 73c9 1e35 c48f 7f34 a0be 3b35 0ad0 a035
00000060: 7c6d e834 33e9 8235 0bba ae35 d9dd bd35
00000070: 9a8f c235 37de aa35 8d2c b035 402d af35
00000080: e1d9 9435 251d 9435 1baf 9235 0199 7535
00000090: 3dc4 4035 8065 4d35 97b5 9334 891e 9334
000000a0: b98a 6b35 ebe9 5f35 06b2 3334 37f8 8934
000000b0: dab4 3235 78ab 0633 f8d8 0333 c26c db32
000000c0: 73ba 7433 7d77 8633 a2ae 6333 ac31 9b32
000000d0: 6ccb ad32 a894 a532 a8ae 4433 ee8e 7e33
000000e0: 3748 9933 99ec 7933 bb0a bc33 d10a ef33
000000f0: 6d3d 0633 9e49 5e33 14d1 8833 6f3d 8736
00000100: c919 d835 4ce4 1836 e8f4 7136 2c7c b235
00000110: cb24 8b36 5630 c635 69c9 e535 e513 7b36

exp_avg f4 [16, 1, 3, 3]
2.4448476e-05 1.1343268e-05 2.015171e-05 2.982209e-05 2.335613e-06 3.0866446e-05 2.8663613e-05 5.352823e-06
3.186568e-05 -1.5607215e-05 8.935051e-05 -8.2170176e-05 -6.746705e-05 8.4127954e-05 -5.5049557e-05 -4.768631e-05
7.1651506e-05 -3.2880023e-05 5.5704146e-05 -0.00015349041 0.00015883463 -7.5862263e-06 0.00015543615 -0.0001993918
-8.377306e-05 -8.101746e-06 8.709288e-05 -9.812462e-05 0.00020293053 -0.00019981609 -1.04084e-05 -0.00013603007
0.00019788805 0.00014481362 -5.787413e-05 -4.8064838e-05 -6.0170564e-06 3.148207e-05 4.56825e-05 3.892425e-05
9.1811475e-05 0.00010231756 5.9550028e-05 0.00010734294 0.00010451345 9.99899e-05 3.4767796e-05 1.2908096e-05
-1.7308419e-05 -9.876045e-05 -0.00011587937 -1.9075609e-05 -8.821385e-05 -9.178075e-05 -1.9040418e-06 -4.5716924e-06
-6.6213142e-06 -5.499797e-06 -8.9640625e-06 -9.33433e-06 -9.63834e-06 -1.0533865e-05 -5.891543e-06 -2.5160567e-05
-3.2887303e-05 -2.9410945e-05 -3.3217497e-05 -3.4537876e-05 -2.7339702e-05 -2.4872656e-05 -2.1541813e-05 -1.5836778e-05
-7.820269e-05 -0.00018119902 -0.00011216639 0.00012127919 -6.430968e-05 -0.0001100445 0.00021291146 9.5557196e-05
-4.2881533e-05 5.6345245e-05 5.29064e-05 3.988111e-05 8.782404e-05 9.2539885e-05 7.979899e-05 8.0282436e-05
9.2590635e-05 8.88842e-05 -8.299224e-06 -1.2285693e-05 -6.914714e-06 5.851953e-06 -4.435471e-06 -1.0074299e-05
9.770152e-06 9.3583885e-06 1.650337e-06 6.7003016e-06 7.965377e-06 6.51405e-06 8.58215e-06 1.078205e-05
1.0438749e-05 -2.4026203e-06 -1.6101804e-06 -6.193387e-07 -2.2854534e-05 -2.0778718e-05 -1.6960117e-05 -3.614496e-05
-3.280603e-05 -2.881408e-05 -2.8696304e-05 -2.6007401e-05 -2.3269517e-05 -7.787039e-06 -1.7547669e-05 -4.700725e-06
8.270259e-06 -2.876587e-07 4.363876e-06 1.9023268e-05 2.0531355e-05 1.9061918e-05 -2.6270496e-07 9.2339644e-05
0.000121827376 7.106967e-05 0.00017870203 0.00014631246 0.00010774396 0.00016172531 8.461633e-05 5.349894e-05
8.432895e-05 7.437623e-05 9.258955e-05 0.00013048845 0.000108245586 7.0433874e-05 9.5689444e-05 7.903678e-05
00000000: b416 cd37 f74e 3e37 780b a937 732a fa37
00000010: 87bd 1c36 9876 0138 a472 f037 669c b336
00000020: 83a7 0538 3dec 82b7 b161 bb38 c752 acb8
00000030: 197d 8db8 da6d b038 03e5 66b8 c902 48b8
00000040: 9c43 9638 a8e8 09b8 dfa3 6938 45f2 20b9
00000050: d98c 2639 308d feb6 93fc 2239 d413 51b9
00000060: 52af afb8 bcec 07b7 a2a5 b638 41c8 cdb8
00000070: c0c9 5439 b985 51b9 bd9f 2eb7 4ba3 0eb9
00000080: 2b80 4f39 1cd9 1739 e0bd 72b8 3a99 49b8
00000090: 1fe6 c9b6 9e0b 0438 369b 3f38 9842 2338
000000a0: e98a c038 5293 d638 5bc5 7938 4d1d e138
000000b0: 3b2e db38 abb1 d138 a3d3 1138 da8f 5837
000000c0: 8c31 91b7 9d1d cfb8 4304 f3b8 8f04 a0b7
000000d0: 73ff b8b8 6a7a c0b8 618e ffb5 8a66 99b6
000000e0: a82c deb6 e68a b8b6 5b64 16b7 a49a 1cb7
000000f0: 5bb4 21b7 9bba 30b7 f8af c5b6 e80f d3b7
00000100: 79f0 09b8 86b7 f6b7 0453 0bb8 c3dc 10b8
00000110: 9057 e5b7 9fa5 d0b7 b1b4 b4b7 39d9 84b7
00000120: c000 a4b8 3e00 3eb9 df3a ebb8 4557 fe38
00000130: ffdd 86b8 b1c7 e6b8 fc40 5f39 e165 c838
00000140: b2db 33b8 3f54 6c38 d0e7 5d38 0446 2738
00000150: 2c2e b838 f911 c238 c259 a738 4e5d a838
00000160: 382d c238 5767 ba38 e53c 0bb7 a61e 4eb7
00000170: f104 e8b6 e55b c436 68d4 94b6 c904 29b7
00000180: 7cea 2337 f901 1d37 2681 dd35 27d3 e036
00000190: 09a3 0537 4393 da36 0efc 0f37 8de4 3437
000001a0: 1622 2f37 b43c 21b6 611d d8b5 a240 26b5
000001b0: bdb7 bfb7 f54d aeb7 9345 8eb7 5b9a 17b8
000001c0: 3599 09b8 c4b5 f1b7 d8b8 f0b7 782a dab7
000001d0: e832 c3b7 14a5 02b7 5533 93b7 ecba 9db6
000001e0: 7ec0 0a37 836f 9ab4 696d 9236 2894 9f37
000001f0: c03a ac37 28e7 9f37 e509 8db4 78a6 c138
00000200: 937d ff38 3d0b 9538 f661 3b39 746b 1939
00000210: 99f4 e138 cf94 2939 0c74 b138 0d64 6038
00000220: c3d9 b038 6ffa 9b38 a32c c238 bad3 0839
00000230: e801 e338 e6b5 9338 e1ac c838 8cc0 a538

exp_avg_sq f4 [16, 1, 3, 3]
4.7820152e-09 4.186609e-09 4.890814e-09 8.662217e-09 4.71762e-09 7.956255e-09 5.975706e-09 3.835526e-09
8.956475e-09 4.292081e-08 3.0922547e-07 3.2180506e-07 4.196614e-07 3.900684e-07 2.4370237e-07 1.0404982e-07
2.8710994e-07 1.0607419e-07 4.3704567e-08 4.279057e-07 8.592103e-07 8.1702346e-08 8.149761e-07 1.2094457e-06
2.0646017e-07 2.406651e-07 3.838334e-07 1.9271725e-07 1.2870678e-06 1.582362e-06 2.8124404e-07 9.841928e-07
1.2113129e-06 5.4382144e-07 7.882104e-08 1.4936184e-07 3.8474576e-07 1.3769692e-07 8.4384276e-08 1.7398374e-07
1.3740598e-07 2.087003e-07 9.9018905e-08 2.2887687e-07 2.9598857e-07 1.9107574e-06 4.3778044e-07 1.8465047e-07
7.7204277e-07 2.2909128e-07 6.088401e-07 4.7308785e-07 3.3824043e-07 6.830411e-07 2.9196146e-08 3.3110542e-08
3.1588364e-08 3.451509e-08 3.887414e-08 3.6589338e-08 3.762323e-08 4.1118263e-08 3.6357992e-08 2.9642013e-08
3.576253e-08 3.247065e-08 3.4081072e-08 3.769061e-08 3.3386062e-08 2.6004514e-08 2.7319464e-08 2.4190605e-08
3.159034e-07 9.85423e-07 8.2338374e-07 3.6347836e-07 3.254232e-07 9.534635e-07 1.3233818e-06 2.7598315e-07
3.2234672e-07 7.911271e-08 8.0846604e-08 7.117555e-08 1.17402855e-07 1.2452082e-07 1.1012826e-07 1.1119308e-07
1.2385e-07 1.1545736e-07 3.321722e-07 4.0064768e-07 4.3892518e-07 3.3527292e-07 4.2346704e-07 4.912599e-07
2.322513e-07 2.8343507e-07 3.3310448e-07 3.2404053e-08 3.601328e-08 3.273681e-08 3.8080692e-08 4.378126e-08
4.1658712e-08 1.7764583e-08 1.987535e-08 1.9092228e-08 4.18859e-08 3.914786e-08 3.1467927e-08 5.9007704e-08
5.2785513e-08 4.293232e-08 4.5555748e-08 4.0910408e-08 3.4484046e-08 2.2672097e-08 2.2130717e-08 3.3124707e-08
4.9432465e-08 1.9685647e-08 2.901088e-08 5.5562747e-08 1.9282e-08 1.3776329e-08 4.9775476e-08 3.675513e-07
4.6268295e-07 1.9252981e-07 8.0150096e-07 5.214924e-07 3.2110844e-07 6.427211e-07 2.0886954e-07 1.6234044e-07
3.6415162e-07 2.8392347e-07 3.038652e-07 6.080251e-07 3.9850372e-07 2.6104036e-07 4.239328e-07 2.2737407e-07
00000000: 0d4f a431 cdd9 8f31 0e0c a831 d5d0 1432
00000010: a018 a231 fbaf 0832 de52 cd31 a5c9 8331
00000020: fede 1932 ee57 3833 a003 a634 8dc4 ac34
00000030: d34d e134 986a d134 33d6 8234 fe71 df33
00000040: 1724 9a34 e7ca e333 aeb5 3b33 e9ba e534
00000050: 7ba4 6635 5774 af33 bbc4 5a35 3d54 a235
00000060: 57af 5d34 c234 8134 a911 ce34 b7ed 4e34
00000070: 50bf ac35 8b61 d435 e3fd 9634 9b18 8435
00000080: 6594 a235 20fb 1135 5344 a933 4560 2034
00000090: 0e8f ce34 d7d9 1334 bf36 b533 49d0 3a34
000000a0: de89 1334 1a17 6034 38a4 d433 32c1 7534
000000b0: 5ce8 9e34 903a 0036 1608 eb34 5644 4634
000000c0: 603e 4f35 22fc 7534 2c6f 2335 b3fc fd34
000000d0: 6997 b534 3a5a 3735 01cb fa32 6d35 0e33
000000e0: c6ab 0733 be3d 1433 92f6 2633 6726 1d33
000000f0: 2e97 2133 029a 3033 0928 1c33 7a9f fe32
00000100: 5199 1933 db75 0b33 8960 1233 44e1 2133
00000110: 5d64 0f33 8860 df32 23ac ea32 b4cb cf32
00000120: 6f99 a934 e042 8435 8006 5d35 1624 c334
00000130: d3b5 ae34 83f1 7f35 0d9f b135 d62a 9434
00000140: ff0e ad34 ace4 a933 e49d ad33 2cd9 9833
00000150: e71e fc33 06b4 0534 a77f ec33 0bc9 ee33
00000160: a1fb 0434 5bf1 f733 6655 b234 9918 d734
00000170: 6ba5 eb34 8fff b334 de58 e334 20df 0335
00000180: c060 7934 052b 9834 88d5 b234 a22c 0b33
00000190: 05ad 1a33 819a 0c33 2a8e 2333 010a 3c33
000001a0: 3dec 3233 bb98 9832 5bba aa32 4100 a432
000001b0: 09e6 3333 8723 2833 5a27 0733 a86f 7d33
000001c0: 49b6 6233 9664 3833 13a9 4333 78b5 2f33
000001d0: 9c1b 1433 78c0 c232 f619 be32 0045 0e33
000001e0: 924f 5433 3219 a932 9a33 f932 e3a3 6e33
000001f0: 91a1 a532 f0ac 6c32 b7c8 5533 de53 c534
00000200: a966 f834 31ba 4e34 ba26 5735 affc 0b35
00000210: cf64 ac34 7587 2c35 9f45 6034 cd4f 2e34
00000220: 9e80 c334 256e 9834 ea22 a334 2b37 2335
00000230: eff1 d534 1d25 8c34 e198 e334 1c24 7434
