Experiments/Experiments-008/checkpoints/model.pt (torch, 307663 bytes, 27 tensors)

cp.convs.0.weight f4 [2, 1, 3, 3]
00000000: a85b 023c 01ce ecbd 13c8 d9be c5f4 74bb
00000010: bd6a 04be 78d5 cbbe 639f 02be 6981 d9be
00000020: 250e 9cbe b8ac 233b b2ae a73e edb3 133e
00000030: 9804 403e b711 443d 03c3 e93e c3ed 003e
00000040: 5628 873e 8457 c7bc
0.007956423 -0.115627296 -0.42535457 -0.003737734 -0.12931342 -0.398113 -0.12756114 -0.42481545
-0.3047954 0.0024974775 0.3275047 0.14424105 0.18751752 0.047868457 0.45656595 0.12590699
0.2639796 -0.024333723

cp.convs.1.weight f4 [4, 1, 3, 3]
00000000: ee2b cabe f77a 363e 0f99 b7be 02dd a53d
00000010: 8f14 57bd 2775 4d3d db24 d7be f160 36be
00000020: 8d19 70be 88e7 d83d 71ed f2be fca0 38be
00000030: 0986 bcbe aa67 f8bc a024 123e 1a8c d2be
00000040: 4a8e ff3c c025 c2be 4d68 b9be 9776 8dbe
00000050: 5bad 05be 20ed 48be c1e8 e5be 036a 133c
00000060: 3545 d2bd 640e a33d 1442 0ebe 9702 013e
00000070: f8c4 55be 1fb3 51be d398 043e ad10 49be
00000080: 9beb bebe ffe7 2cbe 7715 c2be d4da d7be
-0.3948664 0.17820345 -0.35858962 0.080987945 -0.05250984 0.050160553 -0.42020306 -0.17810418
-0.23447247 0.10591036 -0.47446778 -0.1803016 -0.3682101 -0.030322868 0.14271784 -0.41122514
0.031195778 -0.37919426 -0.36212388 -0.2762954 -0.13054411 -0.19621706 -0.4490414 0.008997443
-0.102671064 0.07961729 -0.13892394 0.12598644 -0.20875919 -0.20478486 0.12948923 -0.19635268
-0.37289128 -0.16885374 -0.37907 -0.4215914

cp.convs.2.weight f4 [8, 1, 3, 3]
00000000: f111 be3e 4716 52be c0e5 7bbc b06d ac3e
00000010: dcc8 983e 0ef7 643e 67b7 8e3e d66d 873e
00000020: 069f a83c 6288 953c ab86 0f3e 5dae cdbd
00000030: c849 6f3d 0034 3f3e 78de c23e 7c32 763e
00000040: 629d 883e 2c20 8f3d 6ec6 03be 849c e7be
00000050: 48c2 ccbd 6699 b6bd cd0b d83c 87a7 a2be
00000060: 6404 abbd 2c92 9dbe bd21 20be 0178 ab3e
00000070: 42ae c33d 8ab2 c33e 9a00 12be 0bf2 d93d
00000080: 982b c53e 40be e23c 9650 383e aedf 533e
00000090: 9cad 883e 7e4d d33e 18b2 ae3e 55a6 cd3e
000000a0: 476f cabd 23fb 8c3e b47b b73d f88e 953e
000000b0: 9944 293d 8cdf 55be ff90 163e 3e1b 15be
000000c0: d714 aebe 5503 11be 033b 9ebe cba1 81be
000000d0: ed26 3fbe 02cf 83bd 59bb 98bb 980a df3e
000000e0: 3228 283e ea55 693e 141a bf3e c38d 8a3b
000000f0: ba78 03be 04c3 813e f3db c13e 5104 27bc
00000100: 4d64 e0be 59b0 d3be b0cf 49bd 2366 dfbe
00000110: 69ae 133e 5e99 3d3e bae7 d9be 6f68 403e
0.37123063 -0.2051631 -0.015374601 0.33677435 0.29840744 0.22359869 0.278743 0.26450986
0.02058364 0.018253509 0.14016216 -0.10043023 0.058419973 0.1867218 0.38060355 0.24042696
0.26682574 0.06988558 -0.12868664 -0.452366 -0.09997994 -0.08915977 0.026372815 -0.31768438
-0.08350447 -0.30775583 -0.1563787 0.33489993 0.095547214 0.38222152 -0.14258042 0.10641869
0.38509822 0.027678609 0.17999491 0.20690796 0.26694953 0.4127006 0.3412025 0.40165964
-0.09884506 0.27535352 0.089591414 0.2921064 0.041325185 -0.20886058 0.14703749 -0.14561173
-0.34000275 -0.14161427 -0.30904397 -0.2531875 -0.18667193 -0.06435968 -0.0046610055 0.4356277
0.16421583 0.2278668 0.37324584 0.004228325 -0.12839022 0.25344098 0.3786312 -0.0101939
-0.43826523 -0.4134548 -0.04927033 -0.43632612 0.14422001 0.18515536 -0.42559606 0.18789838

cp.convs.3.weight f4 [16, 1, 3, 3]
00000000: baad bb3d a781 80be d91f 5abe ab5a 563e
00000010: e55b 343d e628 b0be 2a15 90be 887d 003e
00000020: 9ccd 2cbe a0d9 8b3d 5830 2cbe cadb aa3e
00000030: 1c19 cebd 14bb 3dbe cd4a 2a3e 5a0b 323e
00000040: cb87 993e ceb7 403e 1125 df3e 2d77 96bd
00000050: 4bb6 483e 6a06 df3d 81b9 5a3d 4bd2 4fbe
00000060: c4c2 dd3e 1153 313e 4859 a83e 8233 623e
00000070: a3a8 57bb b033 cd3d 27b8 803e 92de 2e3d
00000080: 29c0 303e c4ff 863e ab16 013e 3762 8a3e
00000090: 33bf a0be 0136 85be 694f 5dbd e723 bbbe
000000a0: 091d a9be 0869 edbd 3296 793e 3084 40bd
000000b0: 1420 8fbe 1fca 4ebe ae67 60be f015 773d
000000c0: f125 15be f16f 7f3d faee bfbe e4e8 893d
000000d0: 1556 6ebe 8a9a c8be 9ad1 7fbe 2ff7 403e
000000e0: 0a8b 423e a99d 1fbe 29b1 993e 0c4e 953e
000000f0: bfd9 b3bd fcc6 913e 911d 993e fd28 6d3e
00000100: 5a93 a63e b9ac ae3d f45c 513d 1b11 61be
00000110: c17f c23e 7ebb 363e f5cc 863d e084 b23e
00000120: 8452 7b3d 4967 c03d 02b4 d6be 2ae3 9d3c
00000130: 5a06 febd 876b 94be 88c8 c4be e9f3 5dbe
00000140: d14a 4ebd 8467 983e 7739 943e cf58 c53d
00000150: 8f37 0fbe e150 0c3e 22a1 ca3e 1135 1d3e
00000160: 2b42 29be 6a32 16be 63ff 83be f6ea 44bd
00000170: 06a2 29be d2b9 c4bd 25da ba3c 1e53 adbe
00000180: 607d e9bd 5416 29be df94 a5be b26a bb3d
00000190: 7a52 60be 9218 c2be bff7 5cbe 0f98 46be
000001a0: e37c d3bd 3e60 54be 7cc6 4bbd 58b0 26be
000001b0: 02ca 47be 2610 74be 376b 41be 783d 8abe
000001c0: 71e2 fa3d 314e a2bd 8986 cf3d 2c07 cbbe
000001d0: 20e7 853c 4d07 2ebe 050f 923d 8db9 4bbd
000001e0: afc2 03bd 3725 68be 34dd 0a3d 6ee1 24be
000001f0: 2a50 9cbe 4fb8 abbe 5198 ee3d 4ca7 a2bd
00000200: f225 00bd 6aea 613d 6f8c 873e 929d 9b3e
00000210: 01fc ac3d 38c1 993e d364 b53d 77b1 b13e
00000220: 9427 0b3e 2d71 01be 039e 07be 95d0 51bd
00000230: af0a 683e deb6 c33e cd90 9bbd c6dd e43e
0.09163995 -0.25098917 -0.21301211 0.20933025 0.04403295 -0.34406203 -0.28141147 0.12547886
-0.16875309 0.06828618 -0.16815317 0.3337081 -0.10063383 -0.18528396 0.16630097 0.17387143
0.29986414 0.18820116 0.43582967 -0.0734695 0.19600789 0.10889895 0.053399567 -0.20295064
0.43312657 0.17316844 0.32880616 0.22089961 -0.0032906912 0.10019624 0.25140497 0.04269273
0.17260803 0.2636701 0.12606303 0.27028057 -0.31395873 -0.26017764 -0.05403081 -0.3655083
-0.33029965 -0.11592299 0.24373701 -0.047001064 -0.2795416 -0.2019429 -0.2191455 0.060323656
-0.14565255 0.062362615 -0.37487012 0.067338735 -0.23275025 -0.39180404 -0.249823 0.18844293
0.18998352 -0.15587486 0.30017975 0.29161108 -0.08781766 0.28472126 0.2990537 0.23160167
0.32534295 0.08529038 0.051114038 -0.21979181 0.37988093 0.1784496 0.06582061 0.34867
0.06135799 0.093947 -0.4193421 0.01927336 -0.12403555 -0.28988287 -0.38434243 -0.21675076
-0.05036432 0.29766476 0.28950092 0.096360795 -0.13986038 0.13702728 0.3957606 0.15352274
-0.16529147 -0.14667669 -0.25780782 -0.04807564 -0.16565713 -0.09605755 0.022809098 -0.33852476
-0.114008665 -0.16512424 -0.32340142 0.0915121 -0.21906462 -0.3790937 -0.21578883 -0.19393943
-0.103265546 -0.20739838 -0.049749836 -0.16278207 -0.19510654 -0.23834285 -0.18888555 -0.27000022
0.122502215 -0.0792507 0.101330824 -0.3965391 0.01634556 -0.16994973 0.07131771 -0.049737502
-0.032168087 -0.22670446 0.033902362 -0.1610162 -0.3052991 -0.33539054 0.11650146 -0.079420656
-0.031286187 0.055155195 0.2647433 0.30393654 0.084465034 0.30030227 0.08857121 0.34705707
0.13589317 -0.1264083 -0.1324387 -0.05122431 0.22660325 0.38225454 -0.07595978 0.4470045

_mlp.0.weight f4 [128, 60]
00000000: 4158 77be 7bd2 d83d b52a fdbd 9b9c fd3c
00000010: 931a c1bc 78ff 33be 48b3 93bd 988a cf3c
00000020: c1db a7bc 4f35 cabd e932 e63d 0eb5 7a3d
00000030: 4ad3 943d 73d2 1e3d a483 90bd 5c4b 0dbd
00000040: ead2 babc c96c 0cbe 8aaf e2bd 3e80 babd
00000050: b84c b83a 2150 8cbb 70e1 85bd c5b9 083d
00000060: d017 c1bd ae7c 0dbe 8d30 5abd 7452 20be
00000070: 0006 dfbd 121b e73c 6706 033e 724b 66bd
00000080: 4c46 62bc 8ee7 01be afe8 d1bd 1a21 f4ba
00000090: 2cca 1bbe 9318 3fbd 91c9 e1bc 002e a53d
000000a0: 6c02 d93d 8a21 12be acc6 16be 4a3e 3ebc
000000b0: fe8a a23c cc52 48bc b2e0 f83c 95ff 273e
000000c0: 0cf6 813d 1a69 b43c 9077 34be 2bf9 14be
000000d0: a175 8e3d faf3 a2bd 24f8 d03d 26ff 2cbd
000000e0: e25b 3dbd 96fe debd b5b1 f8bd 2f21 55ba
000000f0: 9bb4 423d 9151 babd 772d de3d 7157 3e3d
00000100: 2830 fdbd 212d 393d 4e91 e5bb e424 aebc
00000110: e2c0 9a3c 5bd0 7d3d 0a1e 9a3d 07eb 3abd
00000120: 30e7 09bd 1bb0 58bc 146b 31be d3fd ab3d
00000130: 4f5f f5bd 92dc 1cbc 5e2c 993c 414d 17be
00000140: 154f cabd 4d37 e43d c622 14be cb1f 723d
00000150: 36bd 433d 2f07 ec3c 7da7 483d 576b a5ba
00000160: 02be 1bbe eabf b83d 62f5 913d c4c3 a4bd
00000170: d97b 2bbd 7fc4 9abc 2f0f a4bd f8b8 a0bd
00000180: f788 b2bc b168 1b3d efea e3bd f305 1ebe
00000190: 3709 bfbd af98 19be cc99 87bd 3d4c 063d
000001a0: c5ae 873c 58fa d13d b2bc acbd 2ae3 0bbe
000001b0: 7ae2 00be 7b7c a83d f671 e83d e37b dbbd
000001c0: 8f74 e73c 45de ca3d 18d7 f3bd 02a5 84bd
000001d0: d6ef 493d bab7 aa3c 8e7b 30bd 3377 c23c
000001e0: c04b 1ebd f558 103d 5da5 e2bb 2a5c 573c
000001f0: df30 a13d dda9 71bd 203d 2e3d bb8d 153d
00000200: 2b0e 043e a777 07be 6644 813c 3fc2 803d
00000210: 114d 3dbe c22f a73d b179 de3d 1db6 88bc
00000220: 393b ffbd e177 b73d d949 0cbe 4211 dbba
00000230: 4830 1c3c b65d 7a3d c35a 85bd f6a0 f4bb
00000240: 9fff 7e3d c6d4 743d 3bad 32be f0ca 583d
00000250: 4303 d7bd 3b90 c2bd a5df 663e cef9 e43d
00000260: 3011 e9bd 4965 d6bc 118f 2b3d 730f bc3d
00000270: fc44 63bd ae53 3fbd 6f10 1ebc 3f3b 0d3c
00000280: 55c6 c8bd 2e23 a23c 9379 00be 0a31 f6bc
00000290: 9245 c9bb 76a5 b1bb 0bb2 783e 988c df3d
000002a0: 29d3 873d 70d2 583c 5c0b f73c 488b 38bd
000002b0: d73b e1bd 922f 483c 10a8 063e f337 b03b
000002c0: 0cc8 d3bd c165 46bd 8c06 40be 8178 27bd
000002d0: 35e2 1e3e 4139 cabd ad28 1e3e 3bd6 67bd
000002e0: 8d2b 12bd 5fdb 4abd a010 46bd 0c1b 59be
000002f0: 7e96 ab3c 9262 76bd 39d7 c3bd eb37 03bc
00000300: 00ba 22bd 5502 ddbc 332f 14be ff74 1cbe
00000310: 7c4c e4bd 5f65 7a3d edd4 733d 6b32 48be
00000320: 47fb d7ba 2169 08be 43e6 0abd 6acf 27be
00000330: b95f 65bb 371b 54bd 32af 973d f26a 37be
00000340: 2d8e 39be 2fc5 93bc 9b26 0cbe 5ac7 26be
00000350: 48fc b93c a108 773d 8d74 1bbe 5abf b039
00000360: 900e 0ebe 03f1 2dbe bc7a f53c ddad 33be
00000370: 24f2 e03c f3a3 fcbc dfc5 d03c 45d9 88bd
00000380: 6e46 02be ae67 483a 456e 2bbe 3625 073d
00000390: d1f3 83bd 8d39 f6bd 472a 9abd a6a9 38be
000003a0: 03c7 1fbd e0dc f8bc e53e 99bd e8b8 1bbe
000003b0: 2a27 4cbe 520b 1dbd 9548 0bbe 7105 0abe
000003c0: 744f 8836 4ca0 e6bc edba 513c 6774 253e
000003d0: b841 98bd 5347 c2bd 5c13 963b 8751 b6bd
000003e0: 6f07 e93d e6cb 7bbd 089d 093d b53e 7ebd
000003f0: 6a9d 283d 2ca1 aa3d 250b 143d 8b78 41be
-0.2415476 0.10587021 -0.12361661 0.030958464 -0.023572242 -0.17577922 -0.072119296 0.025334641
-0.020490529 -0.09873449 0.11240179 0.061207823 0.07266863 0.03877492 -0.070563585 -0.034495696
-0.02280565 -0.13713373 -0.11068638 -0.091064915 0.001406095 -0.004282013 -0.065371394 0.03338029
-0.0942837 -0.13817093 -0.053268958 -0.15656453 -0.10889816 0.02821115 0.12795411 -0.056224294
-0.013810705 -0.12685987 -0.10249459 -0.0018625588 -0.15213841 -0.046654295 -0.027561935 0.080654144
0.10596165 -0.14270607 -0.14724225 -0.011611531 0.019841667 -0.012226772 0.03038058 0.1640609
0.06345758 0.022022773 -0.17623734 -0.14548175 0.0695603 -0.07956691 0.10203579 -0.042235516
-0.046230204 -0.10888402 -0.1214327 -0.000813025 0.04753552 -0.09097589 0.108485155 0.04647011
-0.12362701 0.045209054 -0.007005847 -0.021257825 0.018890802 0.06196628 0.07525261 -0.045634296
-0.033667743 -0.013225581 -0.17326003 0.083980225 -0.11981069 -0.009574072 0.018697914 -0.14775564
-0.09878365 0.1114336 -0.1446639 0.05911235 0.047787867 0.02881202 0.048987854 -0.0012620491
-0.15209201 0.0902098 0.07126881 -0.08045152 -0.041866157 -0.018892525 -0.080107085 -0.0784778
-0.021793826 0.03794164 -0.111287944 -0.15431957 -0.093279295 -0.1499965 -0.06621131 0.03278755
0.016562829 0.102528274 -0.08434428 -0.13660875 -0.12586394 0.08226868 0.11349861 -0.10716989
0.028253822 0.09905676 -0.1190626 -0.06476785 0.04930099 0.02083956 -0.04308658 0.02373848
-0.03864646 0.035241086 -0.0069166855 0.013144532 0.078706495 -0.058999885 0.042538762 0.036512118
0.1289603 -0.13229237 0.015779685 0.062870495 -0.1848643 0.08163406 0.108630545 -0.0166884
-0.12462468 0.08958412 -0.13700046 -0.0016713517 0.0095329955 0.061124526 -0.06511452 -0.007465477
0.062255498 0.05977323 -0.17448895 0.05292791 -0.10498669 -0.09500166 0.22546251 0.11180459
-0.113802314 -0.026171343 0.041884486 0.09182634 -0.05548571 -0.046710663 -0.009647473 0.008620082
-0.09803454 0.019792166 -0.12546377 -0.03005268 -0.0061423266 -0.005421336 0.24286668 0.10915488
0.066320725 0.013233766 0.030156784 -0.045054704 -0.10997742 0.012218373 0.13150048 0.0053777634
-0.1034089 -0.048436884 -0.18752497 -0.040886406 0.15515979 -0.098742016 0.15445204 -0.05660079
-0.035686065 -0.049525615 -0.0483557 -0.21201724 0.020945784 -0.060152598 -0.09562535 -0.008008937
-0.039728165 -0.026978651 -0.1447113 -0.15279005 -0.11147401 0.06113183 0.059529234 -0.19550483
-0.0016478085 -0.13321353 -0.033911 -0.16387716 -0.0034999682 -0.051783767 0.07406463 -0.1791189
-0.18120642 -0.01803836 -0.13686602 -0.16286984 0.022703305 0.060310964 -0.1518118 0.00033711904
-0.13872743 -0.1698647 0.02996575 -0.17546792 0.027459212 -0.030839896 0.025484977 -0.06682066
-0.1272218 0.0007644844 -0.16741283 0.03299447 -0.06442989 -0.12022696 -0.07527595 -0.18033466
-0.03900815 -0.030378759 -0.07482699 -0.15207255 -0.19936815 -0.038340874 -0.13601907 -0.13478638
4.0623654e-06 -0.028152607 0.012800914 0.16157685 -0.0743441 -0.0948626 0.0045799445 -0.08902269
0.11378371 -0.06147375 0.033597022 -0.06207152 0.041165747 0.08331522 0.03614344 -0.1889364

_mlp.0.bias f4 [128]
00000000: 7ffa 4dbe 06b8 b4bc 7b11 73be e61d e6bc
00000010: 3a08 5dbe 4387 78bc 519c bfbd a818 41bd
00000020: 5427 54be b7b7 86be 52ec 0abe e1f8 0ebe
00000030: 7b77 93bb 6254 2abd 01fc 98be 5c60 53bd
00000040: 2a0b c5bd 89b4 843d 7476 12be e0ed 38be
00000050: 82e9 e7bd cc1e 4cbe 740a 14be 9600 68be
00000060: 4fc6 1a3d b561 a5bd 8907 0ebe cccf b7bd
00000070: 9a4a a43d 1e30 433d ce40 5abd 8476 42be
00000080: d342 073c 7960 8abd d4aa 8dbe ae80 52be
00000090: c3e4 22be 44f4 d3be 4980 ddbc f8c4 ccbd
000000a0: 7adc f1bd 6049 72be e80e bebd 04f5 f4bd
000000b0: e1aa 85be 3503 41be 39e5 b8be 805f a7bc
000000c0: bf3a 163c bf89 a93d cc6d 24be 1ecb b1be
000000d0: e79e a9bd b130 63be 66a2 23bd 66ef 1bbe
000000e0: dd8a cdbd e651 20be f333 10be ac54 873c
000000f0: 912d 1abb e6cf 743d dc61 3fbe 30f5 44be
00000100: 5f45 c7b9 82cf 6bbd 6cf3 b8be f677 e0bd
00000110: cb90 eabc b60e bbbd b7ce 833d 6e57 1fbe
00000120: 0583 8ebc bb71 51bd db4e 79be 4ffd 773c
00000130: 41a1 0fbe 9948 f13c e8ca 89bd b502 6abc
00000140: 44bb f93e 70ae db3d 12ef 8fbe 7650 42be
00000150: 766c 59be 7b65 abbb 3b6d 6fbd 033d 71be
00000160: 92f7 5c3a 1046 dfbd 5a68 12be 6401 f1bd
00000170: c4d0 a03d 947f fb3d 4f2d 00be 350b fcbc
00000180: c106 78be 8e02 44be 6a38 bb3b 1d0b 71be
00000190: c768 8dbd b5b8 8abe d74d f2bd f159 38be
000001a0: 4cf2 23be bacc 9dbd 3c93 5dbe ad54 1cbe
000001b0: 2026 b3bd f078 d3bd 2c03 adbe b7e3 a7bd
000001c0: 3501 bfbc ce54 4d3d d26c 9dbc 3eb1 0cbe
000001d0: e81a 81be de3d abbd 12e6 b1bc 4e1e 57be
000001e0: 2f1c 9e3b 9432 dd3b 5831 b1bd 5894 30bd
000001f0: afaa 6dbd 3666 0dbc f6a6 093d 529c 17be
-0.20115088 -0.022060405 -0.23737137 -0.028090429 -0.2158517 -0.015168968 -0.09355987 -0.047142655
-0.20718127 -0.26312038 -0.13566712 -0.13962127 -0.004500327 -0.04158438 -0.29879764 -0.051605567
-0.0962127 0.06479747 -0.14302999 -0.18059492 -0.11323835 -0.19933623 -0.14457113 -0.22656474
0.037786778 -0.08075277 -0.13870062 -0.08975181 0.080220416 0.04765331 -0.05328446 -0.18990523
0.008255678 -0.06756682 -0.27669394 -0.205569 -0.15907578 -0.41397297 -0.02703871 -0.09998506
-0.11809631 -0.23660803 -0.09280187 -0.119607955 -0.26106933 -0.1884888 -0.36112383 -0.02043128
0.00916928 0.08278226 -0.16057509 -0.3472528 -0.08282261 -0.22186543 -0.039949797 -0.15228042
-0.10036252 -0.15656242 -0.14082317 0.016519867 -0.0023525695 0.05976858 -0.18689674 -0.19234157
-0.00038007923 -0.05757094 -0.36123216 -0.10960381 -0.028633496 -0.09133665 0.06435912 -0.15560696
-0.01739646 -0.051133852 -0.24346487 0.015136077 -0.14026357 0.029453563 -0.067281544 -0.014282872
0.48775685 0.10726631 -0.28112084 -0.18976006 -0.21232781 -0.0052306033 -0.05845378 -0.2355843
0.0008429225 -0.10902035 -0.1429762 -0.11767843 0.07852319 0.12280193 -0.12517284 -0.030767063
-0.24221326 -0.191416 0.005713512 -0.23539396 -0.0690475 -0.27094045 -0.11831253 -0.1800306
-0.16010398 -0.07705064 -0.21638197 -0.15266676 -0.08747506 -0.10325801 -0.33791482 -0.0819773
-0.023316005 0.050129704 -0.019216929 -0.13739488 -0.2521584 -0.083614096 -0.021716151 -0.21007654
0.004825137 0.006750414 -0.0865199 -0.04311022 -0.058024105 -0.008630326 0.033606492 -0.14805725

_mlp.2.weight f4 [128, 128]
00000000: 404f 6e3d 37df cd3d 259d f83d ca1f 963d
00000010: c74f a6bd 56d1 04bd 2708 3f3d 3d30 223d
00000020: 3b96 5abc ad3b ce3d fb32 9ebc e963 a83b
00000030: 35fd 04be 3eac e03d fc33 72bd 5775 ba3d
00000040: b8ee 1fbd cc5f 453d 2af1 633d d761 c8bd
00000050: eb6c 973d 698f 213b 0132 063d 1dd7 bb3b
00000060: f865 083d d0a3 d03c 9453 d23c 6cfb f53c
00000070: c453 a2bd 751e e5bd c7fb 83bd 8ba0 063e
00000080: 5de5 663c 5c35 f1bd e825 00bd e424 a73d
00000090: fb2e bcbd 1ee9 2cbd 783b e0bd 1a95 ae3d
000000a0: 44c9 04bc 75a6 253e 46dd 00be bef6 b43c
000000b0: da48 7bbc 4a99 b5bb 7ea2 bdbd bebd f9bc
000000c0: 29f7 173e 85fc 61bb 3541 8cbb 3c04 fb3d
000000d0: d722 33bd 623d 213d 0b61 833d c14f d4bc
000000e0: 96be fc3d f3d5 b13d 5e09 573d c37c bdbd
000000f0: 44af 383d 1369 94bc 4a93 4e3d 24a5 b93d
00000100: 488e 70bc ee0d 14be 39e2 00bb 8c12 6abd
00000110: 322c d1bd f691 5e3c 4db2 b1bd bf7c 97bc
00000120: 8ffe a8ba d7bf 083e 7709 c93d b473 f23d
00000130: 169b 54bd 8dca 2a3d a9df 22bd c336 ed3c
00000140: 4e40 8a3d ffb4 293e 083b 65bd 1c78 48bc
00000150: 92cc 0ebd 2d78 1cbe ad11 44bb f851 9ebc
00000160: 1649 073d 533f 223d cc46 1bbd 584a 04be
00000170: ae12 ad3d 4639 1abc f799 5cbc fec6 11bd
00000180: 1fe2 e03d 769d edbd 6413 8b3d 9b9b f4bd
00000190: 209a 2b3e 1ab9 ee3d 2346 46ba cc68 32bd
000001a0: dc86 aabd fb27 e73b 6c5a 93bd b61a 62bd
000001b0: 347d 7bbd 8646 0b3e f864 c63c ee43 bf3d
000001c0: 6168 16bb 8ed9 563d bc7d 87bc 51bf 843d
000001d0: 734a 0f3c d770 a9bc 57b8 b2bd ccd9 163e
000001e0: 9fe3 203d 2110 df3d d5a5 443d c503 b6bd
000001f0: b90a dcbc 12df acbd 77c5 e13d c45f 233d
00000200: c31b cfbc 9834 e4bb 3d8b bfbc 0328 1d3e
00000210: bc93 ee3b c360 e63d af55 013e 18cd 1f3c
00000220: 7a72 f13c 9c54 7b3d 6070 453c 02f3 e43d
00000230: 2b05 80bd 0d44 cb3d 9fa0 273d f99a b63d
00000240: 301b e1bc abef 373d df4c cb3d b3f7 abbc
00000250: 7402 453d d419 8b3d fdc0 283d 35be 10bd
00000260: e121 cdbd 41b2 91bc 7bb2 9f3c 9a3a 2b3d
00000270: e5e9 8cbd dc00 8d3b cb82 55bd 8d36 cb3d
00000280: 53c7 dab8 796a 143b 0a7d 83be a167 b23d
00000290: 9266 a5bd 9f9b 28bc e382 dcbd 6475 d13c
000002a0: 9a44 ff3c 7daf 7ebc 1cbc 74bd 8dec 57bc
000002b0: 8ef2 cb3d eb9b 213c 9f23 06bd 36be 0ebb
000002c0: c7ad 42bc 90d2 893b 176d d23c 2af3 6cbc
000002d0: 3b5f 0a3d 0a1b 853d 80a6 413d 4d35 c8bd
000002e0: 303b 7abd bcce bd3d 5f0c f93c d390 b9bd
000002f0: 5cf9 873c b8a9 afbc ad42 82bd 4311 663d
00000300: 2be4 a9bd 00bb 95bd 375e e1bc 9582 663d
00000310: f0f9 133d 81d3 6e3d 0b5b 013d 153d 2fbb
00000320: 232e c63c 3336 9a3d f430 5cbc ae9b 603d
00000330: 78c2 8e3d c774 c3bd 9a38 dbbd 99d4 8fbd
00000340: 5ff8 d6bd 0990 7a3d 5ce0 b5bd 0072 20bd
00000350: 7653 833d 7238 adbd ecc7 89bd ac40 503d
00000360: 03cd 06be bac7 d13c 6eb6 d33b 7ce4 ecbd
00000370: 8dd6 553d ab14 ddbc 8b94 89bd 5105 813d
00000380: d2b4 4a3b 1809 93bd 0fbb 053e 266a cdbd
00000390: 9d69 0b3e 9404 873d d4dc dbbc 6415 ae3b
000003a0: df34 a43d 36d8 67bc 78ba 2ebd a4a8 753d
000003b0: c3e7 fa3c b306 ec3d 46fa 7f3d 4345 3b3c
000003c0: a830 03be 97bb 41bc a085 edbc fc84 c53d
000003d0: b772 2f3c 3db6 67bd 0746 1d3d db0b 513d
000003e0: 40ae 2e3d f144 38bd 3c85 2a3c 2f8b 92bd
000003f0: e636 efbc 2c35 02be c1a2 903d 2900 a1bc
0.058181047 0.100523405 0.12139348 0.07330282 -0.08120685 -0.0324262 0.046638634 0.039596785
-0.013341482 0.10069976 -0.019311419 0.0051388633 -0.12987216 0.109703526 -0.059131607 0.09104412
-0.03904602 0.048187062 0.055649914 -0.097842865 0.07393821 0.002465213 0.03276253 0.0057324306
0.03330037 0.025468737 0.025674619 0.030027114 -0.07926133 -0.1118745 -0.06444507 0.1314718
0.01409277 -0.117777556 -0.03128615 0.08161333 -0.09188648 -0.042214505 -0.10948843 0.085245326
-0.008104626 0.1617678 -0.12584409 0.022090312 -0.015337193 -0.005541955 -0.092595086 -0.030485984
0.14840378 -0.0034482789 -0.004280234 0.12256667 -0.043734398 0.03936518 0.06414994 -0.025916936
0.12341039 0.08683386 0.052499168 -0.09252312 0.04508902 -0.01811651 0.050433435 0.09064701
-0.01468236 -0.14458439 -0.001966609 -0.057146594 -0.10213508 0.0135846045 -0.08676586 -0.0184921
-0.0012893247 0.13354431 0.098162584 0.11838475 -0.051905714 0.041697074 -0.03976408 0.028956776
0.067505464 0.16572951 -0.0559645 -0.012235668 -0.034863062 -0.15280218 -0.0029917762 -0.019326195
0.033028685 0.039611172 -0.037909314 -0.12918985 0.084508285 -0.009413069 -0.013464442 -0.035590164
0.10980629 -0.11602299 0.06790808 -0.11943742 0.16758013 0.11656399 -0.0007563552 -0.043556973
-0.08326504 0.0070543266 -0.07194981 -0.055201255 -0.0613987 0.13601121 0.024218068 0.093391284
-0.0022950398 0.05245357 -0.016539447 0.06481803 0.008745777 -0.020683689 -0.08726566 0.1473152
0.039279576 0.10891748 0.048009712 -0.08887438 -0.026860582 -0.08440985 0.110239916 0.03988625
-0.025281793 -0.0069642775 -0.023381824 0.15347295 0.007280795 0.112489246 0.12630342 0.009753488
0.029473532 0.061359987 0.012050718 0.111791626 -0.06250986 0.09925089 0.040924665 0.089162774
-0.027478784 0.0449063 0.099267714 -0.020992136 0.048098043 0.06792036 0.041199673 -0.035337646
-0.100162275 -0.017785193 0.019494286 0.041803934 -0.06880549 0.004303081 -0.052126687 0.09922514
-0.00010432177 0.002264647 -0.25681335 0.08711172 -0.08076204 -0.010291009 -0.10767152 0.025568672
0.031160641 -0.015544769 -0.059749708 -0.013178957 0.09958373 0.009863834 -0.032748815 -0.0021780855
-0.011882252 0.004206009 0.025686784 -0.014462272 0.033782225 0.06499298 0.047277927 -0.09775791
-0.0610916 0.09267947 0.030401407 -0.09060826 0.016598396 -0.021443233 -0.06360374 0.056168806
-0.08295473 -0.07311058 -0.027510745 0.056276876 0.03612703 0.058307175 0.031580966 -0.0026739289
0.024191922 0.07529869 -0.013439406 0.054835968 0.06970686 -0.09543758 -0.10704155 -0.07022972
-0.10496592 0.06117252 -0.08880684 -0.03917122 0.06412403 -0.08458032 -0.06727585 0.050842926
-0.13164143 0.025607932 0.0064609563 -0.115670174 0.052206565 -0.026987394 -0.067177854 0.06299842
0.0030930531 -0.07179469 0.13059638 -0.10030012 0.13614507 0.0659267 -0.026838697 0.0053126086
0.08017897 -0.01415067 -0.0426583 0.05997528 0.03062809 0.11524715 0.06249454 0.0114300875
-0.1281153 -0.01182451 -0.028994381 0.096445054 0.0107085025 -0.05657028 0.03839686 0.051036697
0.042646646 -0.044987623 0.010407742 -0.071554534 -0.029200982 -0.12715596 0.07062293 -0.019653397

_mlp.2.bias f4 [128]
00000000: a56a bebc f4ac e3bc 556e adbd e59f 33bc
00000010: 4c51 f2bd d231 443d c936 83bd b522 1ebe
00000020: ffb9 11be 9a45 38bd e1db 32be 3424 d93c
00000030: a0d0 4cbe eee0 21bc 6678 44bd 00ac a0be
00000040: 6063 57bd f724 babd 3e3e 14be 2324 41be
00000050: 04f5 7cbe 9390 a13d f46a b6bd feb4 30bd
00000060: 6313 923d 7e96 2ebe 704f cebd a4a1 8e3d
00000070: 1c58 16be 5e6a 98bc 4f1a f5bc a38a 1cbe
00000080: 94bc d2bd b7f3 bb3b 43fc d13b e9c6 61be
00000090: 531d 19be 21c9 c3bd 178d 13be 79e1 14bd
000000a0: ab07 93bd 0ba7 b3bd 3a69 12be 456e 05be
000000b0: 5913 edbd d62d 20bd a429 9a3d 4243 80bd
000000c0: bb84 94bd 42bb 80be 461c 34be 6fce dc3d
000000d0: df56 8abd c9ed abbd 5d3e 52bc d676 54bd
000000e0: 0ea8 29be 1cc5 483c a7ea 9abd 59d9 a0bc
000000f0: 2349 c53b baab 58bd 17cc 393c 67ce 41bd
00000100: 7d78 35bd 8bb4 ebbb 3de1 efbd 300e 043e
00000110: d97a efbd 397f f2bd 74b8 3abd b689 d9bd
00000120: 0456 0fbe e6c6 203e 4f46 c53e 5f04 bfbd
00000130: 49de a23c 0bc7 5a3d 05f4 a4bd 9ac0 16be
00000140: 4696 18be fab0 dfbd 7091 503c 94c6 1fbe
00000150: 0ad9 dfbd 4ba0 38bd 581a 2dbe 8de0 3b3e
00000160: 3526 a13d 65da 0cbe 54ab e3bc 8eb5 003c
00000170: e105 ae3c 6cc2 29bd 8c34 37be a5f6 ab3c
00000180: d904 13be 200d 16be a089 dbbb dc16 23be
00000190: eec6 b9bd f2f5 88bd e1f4 e1bb aaa9 82bd
000001a0: 9ade 15be 8a4e e9bc 442f 3cbe 0b49 44be
000001b0: 276e 7ebc d74b 83bd e073 aabc 6ba5 80bd
000001c0: 1c51 2bbe eb7e e1ba 19b3 d13c 8bbc e7bd
000001d0: 7d9d babe e40f c03d dc32 93bd 50df b03b
000001e0: 5dff 3ebc a4fa 9b3d 1c41 92bc b223 0dbe
000001f0: 4751 dd3d bb29 09be 9428 79bd 3804 5cbd
-0.023244211 -0.027792431 -0.0846831 -0.010963415 -0.118319124 0.047899075 -0.06406934 -0.15442927
-0.14231108 -0.044988252 -0.1746669 0.02650652 -0.20001459 -0.009880288 -0.047966383 -0.31381226
-0.052585006 -0.09089082 -0.14476869 -0.18861441 -0.24702841 0.078889035 -0.089071184 -0.043141358
0.07132604 -0.17049596 -0.10073745 0.06964424 -0.14682049 -0.018605407 -0.029919771 -0.1528726
-0.10289875 0.00573584 0.006408246 -0.22048534 -0.14952593 -0.09559847 -0.1440929 -0.03634784
-0.07179197 -0.08772095 -0.14297953 -0.13030346 -0.11575956 -0.039106213 0.075274736 -0.062628284
-0.07251879 -0.25142866 -0.1758891 0.107815616 -0.067548506 -0.08394963 -0.012832251 -0.051871143
-0.16568014 0.012254026 -0.07564288 -0.01963489 0.0060206815 -0.052898146 0.011340163 -0.04731598
-0.04430436 -0.0071931533 -0.11712883 0.12896037 -0.11693353 -0.11840672 -0.045586064 -0.106219694
-0.13997656 0.15700874 0.38530204 -0.093270056 0.019881384 0.05341248 -0.080543555 -0.14721909
-0.14901075 -0.109224275 0.0127299875 -0.15603095 -0.10930069 -0.045074742 -0.1690458 0.18347378
0.078686155 -0.13755186 -0.027791657 0.007855786 0.021243038 -0.04144518 -0.17891139 0.020991633
-0.14357318 -0.14653444 -0.006699756 -0.15926689 -0.09071146 -0.06687535 -0.006895647 -0.06380017
-0.14635697 -0.028479833 -0.18377405 -0.19168489 -0.015529192 -0.0641095 -0.020807207 -0.06281551
-0.1673016 -0.0017203962 0.025598096 -0.113152586 -0.3644828 0.09378031 -0.07187435 0.0053977147
-0.011657563 0.07616165 -0.017853312 -0.13783148 0.10806518 -0.13394825 -0.060829714 -0.05371496

_mlp.4.weight f4 [1, 128]
00000000: b596 3abd 7430 873a 32e8 d7bc d8fc 1e3d
00000010: 4228 0abe bc08 a9bd ea53 f5bb 7c7e c1bc
00000020: 911e 453d e949 ba3d 369c 20bd 2252 1bbe
00000030: df4a b33c 934c 663c cd0a 483b 7040 883d
00000040: bba0 18bd cb94 323d f007 583d 3149 103e
00000050: 2b8b 283c 36fb 7bbd afd5 2ebd 1238 9f3c
00000060: 0a6b 913d f148 a03d 98ab b93d 9187 09be
00000070: 833e 1f3d ef81 afbd 24fc 173d faba 95bc
00000080: f6e4 b9bd 2d7a 643c a6aa 5f3d be94 0d3c
00000090: ed70 0c3c 1f10 90bc dc9a 2dbc c03c 453c
000000a0: e442 62ba cf44 2cbe 6bdc 34bd d2bc 1fbd
000000b0: f059 b4ba 8d78 f53c 5fd7 203c 310d d33d
000000c0: 9101 27bd 3f5e b63d 6a6a 91bd 1fc5 25be
000000d0: 892f 12bc 8a2f 353d 817c 633d a7be c2bc
000000e0: 6204 cebe 28f2 0dbd 98e9 043b ffe6 603d
000000f0: af8e 613c b35c 483b 47b7 c0bd e4e6 76ba
00000100: 0b62 1fba feaa ed3a 41dc 0e3d 4301 d9bd
00000110: cc6a d0bc dc92 5a3c 979d 623d 342e 44bd
00000120: a885 fabc 0496 853c 5fe9 2bbe d0f0 9cbc
00000130: 3108 a6bd 2bdf 37bd a524 5a3b e369 c5bd
00000140: 829b 7c3c 30a0 1ebd 654a 003b 27ef feba
00000150: 5f58 843c 2ce1 a63c 2601 b8bc d90e 1bbe
00000160: 9aae 06be fde2 643c 974d 0abd e562 c1bd
00000170: cd1b d33c f01d acbc 4fa3 34bd c532 323c
00000180: 00d7 3ebd 5a53 b73c 88e0 183d a78e 87bc
00000190: 8b4d bb3c 05c5 2cbd 9328 223c b4e7 8bbd
000001a0: c2c0 51bb 59c4 103c 25b5 45ba 4e51 9dbd
000001b0: b538 bcbd 9536 953b 42af cf3c 295b a03b
000001c0: 7a7b cfbe 3399 3339 97f1 d3bc a9c8 5f3d
000001d0: 767c 13bd 6c0f a93d f190 9d3c cfdf 183d
000001e0: 9f1e 893c d121 0dbe bb94 0d3d 9be3 bb3c
000001f0: 1092 07be d2b0 c43c c94d b53c 8232 0d3c
-0.04555388 0.0010314123 -0.026355837 0.03881535 -0.1349192 -0.08253619 -0.00748681 -0.023619883
0.048124854 0.090961285 -0.039211474 -0.1516805 0.021886287 0.014056343 0.0030524016 0.066529155
-0.03726266 0.04359893 0.052741945 0.1409042 0.0102870865 -0.06151887 -0.042684253 0.019435916
0.07100494 0.078264125 0.09065932 -0.1343062 0.038877975 -0.08569705 0.037105694 -0.018277634
-0.09076874 0.013945145 0.054606102 0.00864142 0.0085718455 -0.017585812 -0.010596003 0.01203841
-0.00086311833 -0.16823123 -0.04415552 -0.038998432 -0.0013759714 0.02996471 0.0098169735 0.103052504
-0.04077298 0.08904695 -0.07100375 -0.16188477 -0.008922466 0.04423479 0.055538658 -0.02377255
-0.4023772 -0.034654766 0.0020280834 0.054907795 0.013766929 0.0030572831 -0.094099574 -0.00094185607
-0.0006079978 0.0018132625 0.03487802 -0.10595944 -0.02544155 0.013340678 0.05532607 -0.047895625
-0.03058131 0.016306885 -0.16788243 -0.019157797 -0.08107031 -0.044890564 0.0033286002 -0.09639337
0.015417935 -0.038726985 0.0019575593 -0.0019449935 0.01615542 0.020371042 -0.022461485 -0.15142383
-0.13152543 0.013970134 -0.0337654 -0.09442691 0.025770092 -0.021010369 -0.044101056 0.010876362
-0.04659176 0.022378612 0.037323505 -0.016547514 0.022864124 -0.04218008 0.009897369 -0.06831303
-0.0032005762 0.008835875 -0.0007541946 -0.07681523 -0.091905035 0.004553626 0.025352124 0.0048936796
-0.40523893 0.00017127841 -0.025872035 0.054634724 -0.036007367 0.082548946 0.019234153 0.037322816
0.016738234 -0.13782431 0.03456567 0.02293568 -0.13239312 0.024010096 0.022131817 0.008617999

exp_avg f4 [2, 1, 3, 3]
00000000: 0400 0000 0400 0000 0400 0000 0400 0000
00000010: 0400 0000 0400 0000 0400 0000 0400 0000
00000020: 0400 0000 0400 0080 0400 0080 0400 0080
00000030: 0400 0080 0400 0080 0400 0080 0400 0080
00000040: 0400 0080 0400 0080
6e-45 6e-45 6e-45 6e-45 6e-45 6e-45 6e-45 6e-45
6e-45 -6e-45 -6e-45 -6e-45 -6e-45 -6e-45 -6e-45 -6e-45
-6e-45 -6e-45

exp_avg_sq f4 [2, 1, 3, 3]
00000000: ebeb 823a d1c0 863a 4c3a 873a cf14 853a
00000010: de3d 893a ce7e 893a 2913 843a 71c2 883a
00000020: b79e 873a e0fc 183b a758 1e3b 81e4 1b3b
00000030: 30d0 1c3b d7c8 203b d9c3 1f3b a3bc 193b
00000040: 00d5 1d3b 9476 1a3b
0.0009988522 0.0010280852 0.0010317056 0.0010153296 0.0010470708 0.0010490061 0.0010076511 0.0010433925
0.0010346983 0.0023344085 0.0024161728 0.0023787322 0.00239278 0.0024533772 0.002437821 0.0023458384
0.0024083257 0.0023569213

exp_avg f4 [4, 1, 3, 3]
00000000: 0400 0000 0400 0000 0400 0000 0400 0000
00000010: 0400 0000 0400 0000 0400 0000 0400 0000
00000020: 0400 0000 0400 0000 0400 0000 0400 0000
00000030: 0400 0000 0400 0000 0400 0000 0400 0000
00000040: 0400 0000 0400 0000 0400 0000 0400 0000
00000050: 0400 0000 0400 0000 0400 0000 0400 0000
00000060: 0400 0000 0400 0000 0400 0000 0400 0000
00000070: 0400 0000 0400 0000 0400 0000 0400 0000
00000080: 0400 0000 0400 0000 0400 0000 0400 0000
6e-45 6e-45 6e-45 6e-45 6e-45 6e-45 6e-45 6e-45
6e-45 6e-45 6e-45 6e-45 6e-45 6e-45 6e-45 6e-45
6e-45 6e-45 6e-45 6e-45 6e-45 6e-45 6e-45 6e-45
6e-45 6e-45 6e-45 6e-45 6e-45 6e-45 6e-45 6e-45
6e-45 6e-45 6e-45 6e-45

exp_avg_sq f4 [4, 1, 3, 3]
00000000: 3281 1e3a 195f 1e3a 3a2e 1b3a f6cf 203a
00000010: b6ed 203a 294d 1d3a 6bba 1f3a 08a8 1f3a
00000020: c9b6 1b3a ef91 013a 680c 023a 2f15 fc39
00000030: d980 043a 2f44 043a aa12 003a 8f2b 033a
00000040: b8a8 023a 2cc7 fd39 ca8c b939 ba60 ba39
00000050: 12fc b539 da4c ba39 5abc bc39 9aa7 b639
00000060: 80f9 b439 fd6c b539 e5c1 b139 76a7 1339
00000070: edfc 1939 3b8b 1939 c967 1839 15ec 1e39
00000080: c3bd 1e39 8f9f 1839 2cba 1e39 9eea 1d39
0.0006046473 0.00060413923 0.0005919669 0.0006134504 0.00061389373 0.00060005725 0.0006093147 0.0006090407
0.0005940018 0.0004942705 0.0004960955 0.0004808097 0.00050546 0.00050455605 0.00048855937 0.0005003744
0.00049842475 0.00048404315 0.00035390846 0.00035548751 0.00034710817 0.00035533943 0.00035998487 0.00034838618
0.00034518167 0.00034604213 0.00033904533 0.00014081397 0.00014685439 0.00014643084 0.00014534513 0.00015156002
0.00015138746 0.0001455529 0.00015137409 0.00015060088

exp_avg f4 [8, 1, 3, 3]
00000000: 0400 0000 0400 0000 0400 0000 0400 0000
00000010: 0400 0000 0400 0000 0400 0000 0400 0000
00000020: 0400 0000 0400 0080 0400 0080 0400 0080
00000030: 0400 0080 0400 0080 0400 0080 0400 0080
00000040: 0400 0080 0400 0080 0400 0000 0400 0000
00000050: 0400 0000 0400 0000 0400 0000 0400 0000
00000060: 0400 0000 0400 0000 0400 0000 0400 0080
00000070: 0400 0080 0400 0080 0400 0080 0400 0080
00000080: 0400 0080 0400 0080 0400 0080 0400 0080
00000090: 0400 0080 0400 0080 0400 0080 0400 0080
000000a0: 0400 0080 0400 0080 0400 0080 0400 0080
000000b0: 0400 0080 0400 0000 0400 0000 0400 0000
000000c0: 0400 0000 0400 0000 0400 0000 0400 0000
000000d0: 0400 0000 0400 0000 0400 0080 0400 0080
000000e0: 0400 0080 0400 0080 0400 0080 0400 0080
000000f0: 0400 0080 0400 0080 0400 0080 0400 0000
00000100: 0400 0000 0400 0000 0400 0000 0400 0000
00000110: 0400 0000 0400 0000 0400 0000 0400 0000
6e-45 6e-45 6e-45 6e-45 6e-45 6e-45 6e-45 6e-45
6e-45 -6e-45 -6e-45 -6e-45 -6e-45 -6e-45 -6e-45 -6e-45
-6e-45 -6e-45 6e-45 6e-45 6e-45 6e-45 6e-45 6e-45
6e-45 6e-45 6e-45 -6e-45 -6e-45 -6e-45 -6e-45 -6e-45
-6e-45 -6e-45 -6e-45 -6e-45 -6e-45 -6e-45 -6e-45 -6e-45
-6e-45 -6e-45 -6e-45 -6e-45 -6e-45 6e-45 6e-45 6e-45
6e-45 6e-45 6e-45 6e-45 6e-45 6e-45 -6e-45 -6e-45
-6e-45 -6e-45 -6e-45 -6e-45 -6e-45 -6e-45 -6e-45 6e-45
6e-45 6e-45 6e-45 6e-45 6e-45 6e-45 6e-45 6e-45

exp_avg_sq f4 [8, 1, 3, 3]
00000000: d713 df36 636f e036 2cf2 db36 eb5e e236
00000010: aeba e336 80ce de36 d3f9 df36 532c e136
00000020: 5b06 dc36 48c0 dd39 dcd1 e239 c75c df39
00000030: 354c e439 75ac e939 264b e639 5060 e439
00000040: 849b e939 19c5 e539 76c3 e338 45b0 e838
00000050: 304e e638 c2cd e538 0e8d ea38 459a e838
00000060: 1fee e138 7bd8 e638 5f53 e438 163b d037
00000070: a907 d637 0167 d737 52b8 d037 78b5 d737
00000080: 6e97 d837 d31d cd37 de4c d437 7c6c d337
00000090: 5e7d 9136 59df 9636 ae45 9336 23a5 9636
000000a0: c29f 9636 9f76 9536 ab07 9236 3573 9536
000000b0: 18f1 8f36 e7d9 7138 cac9 7438 b296 7038
000000c0: cb19 7938 6714 7c38 c438 7738 a925 7738
000000d0: 30f9 7938 d9d1 7438 c4d8 8937 57ba 8d37
000000e0: 58cf 8a37 4ba3 8b37 e76b 8f37 3b24 8c37
000000f0: a9e0 8837 a346 8c37 c1f3 8837 dbb6 f137
00000100: a7ca fa37 ea71 f437 bdd1 f037 d8f6 f837
00000110: b1ae f037 cb90 e837 cda6 ef37 8559 e737
6.6482276e-06 6.6886873e-06 6.554901e-06 6.7463748e-06 6.7868596e-06 6.6401553e-06 6.6750013e-06 6.7106826e-06
6.557251e-06 0.00042295665 0.00043262437 0.00042603 0.00043544327 0.00044569714 0.00043925009 0.00043559307
0.0004455709 0.00043825133 0.00010860611 0.00011095455 0.00010981818 0.00010957896 0.00011184263 0.00011091357
0.000107731896 0.00011007577 0.00010887416 2.4823046e-05 2.5514355e-05 2.5677962e-05 2.4881363e-05 2.57145e-05
2.5819721e-05 2.4451792e-05 2.5308163e-05 2.5203677e-05 4.3359314e-06 4.4963494e-06 4.389053e-06 4.489573e-06
4.4889466e-06 4.4543553e-06 4.3520317e-06 4.453958e-06 4.289799e-06 5.7661815e-05 5.8362064e-05 5.7360805e-05
5.9390248e-05 6.0100483e-05 5.8942256e-05 5.8924463e-05 5.95983e-05 5.836957e-05 1.6432612e-05 1.6895281e-05
1.6547434e-05 1.664613e-05 1.7097174e-05 1.6706172e-05 1.6317079e-05 1.6722193e-05 1.632597e-05 2.8814587e-05
2.989669e-05 2.9140112e-05 2.8707896e-05 2.967885e-05 2.8691577e-05 2.772398e-05 2.8568693e-05 2.7579032e-05

exp_avg f4 [16, 1, 3, 3]
00000000: 0400 0080 0400 0080 0400 0080 0400 0080
00000010: 0400 0080 0400 0080 0400 0080 0400 0080
00000020: 0400 0080 0400 0000 0400 0000 0400 0000
00000030: 0400 0000 0400 0000 0400 0000 0400 0000
00000040: 0400 0000 0400 0000 0400 0080 0400 0080
00000050: 0400 0080 0400 0080 0400 0080 0400 0080
00000060: 0400 0080 0400 0080 0400 0080 0400 0080
00000070: 0400 0080 0400 0080 0400 0080 0400 0080
00000080: 0400 0080 0400 0080 0400 0080 0400 0080
00000090: 0400 0000 0400 0000 0400 0000 0400 0000
000000a0: 0400 0000 0400 0000 0400 0000 0400 0000
000000b0: 0400 0000 0400 0000 0400 0000 0400 0000
000000c0: 0400 0000 0400 0000 0400 0000 0400 0000
000000d0: 0400 0000 0400 0000 0400 0000 0400 0000
000000e0: 0400 0000 0400 0000 0400 0000 0400 0000
000000f0: 0400 0000 0400 0000 0400 0000 0400 0080
00000100: 0400 0080 0400 0080 0400 0080 0400 0080
00000110: 0400 0080 0400 0080 0400 0080 0400 0080
00000120: 0400 0000 0400 0000 0400 0000 0400 0000
00000130: 0400 0000 0400 0000 0400 0000 0400 0000
00000140: 0400 0000 0400 0080 0400 0080 0400 0080
00000150: 0400 0080 0400 0080 0400 0080 0400 0080
00000160: 0400 0080 0400 0080 0400 0000 0400 0000
00000170: 0400 0000 0400 0000 0400 0000 0400 0000
00000180: 0400 0000 0400 0000 0400 0000 0400 0080
00000190: 0400 0080 0400 0080 0400 0080 0400 0080
000001a0: 0400 0080 0400 0080 0400 0080 0400 0080
000001b0: 0400 0000 0400 0000 0400 0000 0400 0000
000001c0: 0400 0000 0400 0000 0400 0000 0400 0000
000001d0: 0400 0000 0400 0000 0400 0000 0400 0000
000001e0: 0400 0000 0400 0000 0400 0000 0400 0000
000001f0: 0400 0000 0400 0000 0400 0000 0400 0000
00000200: 0400 0000 0400 0000 0400 0000 0400 0000
00000210: 0400 0000 0400 0000 0400 0000 0400 0080
00000220: 0400 0080 0400 0080 0400 0080 0400 0080
00000230: 0400 0080 0400 0080 0400 0080 0400 0080
-6e-45 -6e-45 -6e-45 -6e-45 -6e-45 -6e-45 -6e-45 -6e-45
-6e-45 6e-45 6e-45 6e-45 6e-45 6e-45 6e-45 6e-45
6e-45 6e-45 -6e-45 -6e-45 -6e-45 -6e-45 -6e-45 -6e-45
-6e-45 -6e-45 -6e-45 -6e-45 -6e-45 -6e-45 -6e-45 -6e-45
-6e-45 -6e-45 -6e-45 -6e-45 6e-45 6e-45 6e-45 6e-45
6e-45 6e-45 6e-45 6e-45 6e-45 6e-45 6e-45 6e-45
6e-45 6e-45 6e-45 6e-45 6e-45 6e-45 6e-45 6e-45
6e-45 6e-45 6e-45 6e-45 6e-45 6e-45 6e-45 -6e-45
-6e-45 -6e-45 -6e-45 -6e-45 -6e-45 -6e-45 -6e-45 -6e-45
6e-45 6e-45 6e-45 6e-45 6e-45 6e-45 6e-45 6e-45
6e-45 -6e-45 -6e-45 -6e-45 -6e-45 -6e-45 -6e-45 -6e-45
-6e-45 -6e-45 6e-45 6e-45 6e-45 6e-45 6e-45 6e-45
6e-45 6e-45 6e-45 -6e-45 -6e-45 -6e-45 -6e-45 -6e-45
-6e-45 -6e-45 -6e-45 -6e-45 6e-45 6e-45 6e-45 6e-45
6e-45 6e-45 6e-45 6e-45 6e-45 6e-45 6e-45 6e-45
6e-45 6e-45 6e-45 6e-45 6e-45 6e-45 6e-45 6e-45
6e-45 6e-45 6e-45 6e-45 6e-45 6e-45 6e-45 -6e-45
-6e-45 -6e-45 -6e-45 -6e-45 -6e-45 -6e-45 -6e-45 -6e-45

exp_avg_sq f4 [16, 1, 3, 3]
00000000: 46f1 5536 166a 5e36 e041 6236 7232 5836
00000010: 3f64 6036 2b5c 6436 a48f 5536 86ef 5c36
00000020: 9a92 6036 0d04 3a36 97cc 3e36 7974 3f36
00000030: bbb5 3d36 f98d 4236 6314 4336 63ad 3c36
00000040: 2660 4136 73b3 4136 e81f a637 549d a537
00000050: 36b6 a137 6e40 a837 5e0f a837 1acf a337
00000060: 9ce2 a637 1c6e a637 7379 a237 efa4 b137
00000070: 74d5 b237 9181 b037 c1ff b537 641e b737
00000080: c5b6 b437 64b8 b337 f9bb b437 b83d b237
00000090: 8844 1037 8880 1237 4fc5 0f37 5997 1037
000000a0: bf65 1237 4bce 0f37 2905 0c37 0f45 0e37
000000b0: 1b3e 0c37 1c97 a037 3c32 a537 e9a3 a437
000000c0: 0f6a a337 9b18 a837 a1ca a737 985f a237
000000d0: 0647 a737 08c2 a637 8435 b235 bac6 bc35
000000e0: a81f be35 12f7 b535 2811 c135 baea c135
000000f0: a4da b535 8cac c035 eef2 c035 d714 0137
00000100: a0a0 0337 9042 0237 9295 0237 4c16 0537
00000110: e218 0437 20e2 0037 22a1 0337 d38e 0237
00000120: 8add d936 b4a8 e136 cb1f e336 72b2 e136
00000130: 866d e936 c6a8 ea36 8398 e336 af16 eb36
00000140: 7e92 eb36 c7de 3837 5855 3c37 4574 3737
00000150: ee0a 3437 0263 3837 24d5 3637 bc1c 2c37
00000160: ea04 2c37 52f9 2937 f2d0 0237 c4b2 0537
00000170: 6f52 0537 808d 0537 a293 0837 d243 0837
00000180: bb35 0437 e42b 0737 25c0 0637 e9fd 1936
00000190: 1031 1d36 4d19 1c36 b4c0 1c36 9ddb 1f36
000001a0: 5089 1e36 373a 1a36 160e 1d36 5fa2 1b36
000001b0: f1f1 3037 7758 3337 c300 2e37 f562 3137
000001c0: 359a 3337 040c 2e37 0fcf 2c37 43d9 2e37
000001d0: 2f62 2937 ebd1 0037 1342 0337 e3de ff36
000001e0: c8c0 0537 8a8b 0837 9bd1 0437 9fb3 0637
000001f0: 438f 0937 b3a1 0537 51a5 8035 b5cb 8435
00000200: e646 8135 f733 8535 5e68 8935 a3b5 8435
00000210: 5004 8535 c35d 8835 33b6 8235 6412 4c37
00000220: a279 4a37 60ac 4537 7bc5 5137 f579 5037
00000230: 24f1 4b37 5242 5337 abdc 5137 9e6f 4d37
3.1879913e-06 3.3142328e-06 3.3714969e-06 3.2215871e-06 3.3436952e-06 3.4028296e-06 3.1823083e-06 3.2921976e-06
3.3463934e-06 2.7718518e-06 2.8431293e-06 2.8529014e-06 2.8268976e-06 2.8990892e-06 2.906913e-06 2.8115107e-06
2.8815207e-06 2.8863694e-06 1.98036e-05 1.9742794e-05 1.9277544e-05 2.0057163e-05 2.0034317e-05 1.9527553e-05
1.9894265e-05 1.9840016e-05 1.936846e-05 2.1176847e-05 2.131865e-05 2.1041169e-05 2.1695976e-05 2.1829452e-05
2.154278e-05 2.1424326e-05 2.1545204e-05 2.1247994e-05 8.599025e-06 8.732204e-06 8.569404e-06 8.618307e-06
8.725968e-06 8.5714955e-06 8.345852e-06 8.4799385e-06 8.35911e-06 1.9143852e-05 1.9692925e-05 1.962665e-05
1.9480502e-05 2.0038618e-05 2.0002308e-05 1.935642e-05 1.9941024e-05 1.9879095e-05 1.3277609e-06 1.4064929e-06
1.4165316e-06 1.3557458e-06 1.4384614e-06 1.4447935e-06 1.3549184e-06 1.4355332e-06 1.4375817e-06 7.693851e-06
7.845607e-06 7.764102e-06 7.783428e-06 7.932609e-06 7.873607e-06 7.682043e-06 7.845725e-06 7.781858e-06
6.4928945e-06 6.725162e-06 6.7688284e-06 6.7262963e-06 6.9566913e-06 6.9933913e-06 6.782882e-06 7.0061865e-06
7.0205997e-06 1.1019124e-05 1.1225544e-05 1.0934721e-05 1.0731381e-05 1.0990307e-05 1.0897671e-05 1.0258689e-05
1.0253143e-05 1.0131234e-05 7.797253e-06 7.96904e-06 7.946611e-06 7.960363e-06 8.140605e-06 8.122022e-06
7.880323e-06 8.056846e-06 8.0317595e-06 2.2946572e-06 2.3423381e-06 2.3260538e-06 2.335798e-06 2.3820678e-06
2.362376e-06 2.2981674e-06 2.3403022e-06 2.3191312e-06 1.0546749e-05 1.0689829e-05 1.03713855e-05 1.0573062e-05
1.07051355e-05 1.0374006e-05 1.03002085e-05 1.0421793e-05 1.0096045e-05 7.67827e-06 7.823593e-06 7.6255396e-06
7.972303e-06 8.138721e-06 7.916616e-06 8.028844e-06 8.199192e-06 7.965066e-06 9.584857e-07 9.894053e-07
9.631883e-07 9.924396e-07 1.023767e-06 9.88763e-07 9.910527e-07 1.0160078e-06 9.738782e-07 1.2163629e-05
1.2068458e-05 1.1782249e-05 1.250335e-05 1.2426161e-05 1.2155888e-05 1.2592021e-05 1.2508749e-05 1.224494e-05

exp_avg f4 [128, 60]
00000000: 0400 0000 0400 0000 0400 0000 0400 0000
00000010: 0400 0000 0400 0000 0400 0000 0400 0000
00000020: 0400 0000 0400 0000 0400 0000 0400 0000
00000030: 0400 0080 0400 0000 0400 0000 0400 0000
00000040: 0400 0080 0400 0000 0400 0080 0400 0080
00000050: 0400 0080 0400 0000 0400 0000 0400 0000
00000060: 0400 0080 0400 0000 0400 0080 0400 0080
00000070: 0400 0080 0400 0080 0400 0000 0400 0000
00000080: 0400 0000 0400 0000 0400 0000 0400 0000
00000090: 0400 0000 0400 0080 0400 0000 0400 0080
000000a0: 0400 0000 0400 0000 0400 0080 0400 0000
000000b0: 0400 0080 0400 0080 0400 0000 0400 0000
000000c0: 0400 0000 0400 0000 0400 0000 0400 0000
000000d0: 0400 0000 0400 0080 0400 0000 0400 0080
000000e0: 0400 0000 0400 0000 0400 0080 0400 0000
000000f0: 0400 0080 0400 0000 0400 0080 0400 0000
00000100: 0400 0000 0400 0000 0400 0000 0400 0000
00000110: 0400 0000 0400 0000 0400 0000 0400 0000
00000120: 0400 0080 0400 0000 0400 0000 0400 0000
00000130: 0400 0080 0400 0000 0400 0080 0400 0080
00000140: 0400 0080 0400 0000 0400 0000 0400 0000
00000150: 0400 0080 0400 0000 0400 0080 0400 0080
00000160: 0400 0080 0400 0080 0400 0000 0400 0000
00000170: 0400 0000 0400 0000 0400 0000 0400 0000
00000180: 0400 0000 0400 0080 0400 0000 0400 0080
00000190: 0400 0000 0400 0000 0400 0080 0400 0080
000001a0: 0400 0080 0400 0080 0400 0000 0400 0000
000001b0: 0400 0000 0400 0000 0400 0000 0400 0000
000001c0: 0400 0000 0400 0080 0400 0000 0400 0080
000001d0: 0400 0000 0400 0000 0400 0080 0400 0080
000001e0: 0400 0000 0400 0080 0400 0000 0400 0080
000001f0: 0400 0000 0400 0000 0400 0080 0400 0000
00000200: 0400 0000 0400 0000 0400 0080 0400 0000
00000210: 0400 0000 0400 0080 0400 0000 0400 0000
00000220: 0400 0000 0400 0000 0400 0000 0400 0000
00000230: 0400 0000 0400 0080 0400 0000 0400 0000
00000240: 0400 0000 0400 0000 0400 0000 0400 0000
00000250: 0400 0000 0400 0000 0400 0080 0400 0080
00000260: 0400 0000 0400 0000 0400 0000 0400 0000
00000270: 0400 0000 0400 0000 0400 0000 0400 0000
00000280: 0400 0000 0400 0000 0400 0000 0400 0000
00000290: 0400 0000 0400 0000 0400 0080 0400 0080
000002a0: 0400 0000 0400 0000 0400 0000 0400 0000
000002b0: 0400 0000 0400 0000 0400 0000 0400 0000
000002c0: 0400 0000 0400 0000 0400 0000 0400 0000
000002d0: 0400 0000 0400 0000 0400 0000 0400 0000
000002e0: 0400 0000 0400 0000 0400 0000 0400 0000
000002f0: 0400 0000 0400 0000 0400 0000 0400 0000
00000300: 0400 0080 0400 0000 0400 0000 0400 0000
00000310: 0400 0080 0400 0000 0400 0080 0400 0080
00000320: 0400 0080 0400 0000 0400 0000 0400 0000
00000330: 0400 0080 0400 0000 0400 0080 0400 0080
00000340: 0400 0080 0400 0080 0400 0000 0400 0000
00000350: 0400 0000 0400 0000 0400 0000 0400 0000
00000360: 0400 0000 0400 0080 0400 0000 0400 0080
00000370: 0400 0000 0400 0000 0400 0080 0400 0080
00000380: 0400 0080 0400 0080 0400 0000 0400 0000
00000390: 0400 0000 0400 0000 0400 0000 0400 0000
000003a0: 0400 0000 0400 0080 0400 0000 0400 0080
000003b0: 0400 0000 0400 0000 0400 0080 0400 0080
000003c0: 0400 0000 0400 0000 0400 0000 0400 0000
000003d0: 0400 0000 0400 0000 0400 0000 0400 0000
000003e0: 0400 0000 0400 0000 0400 0000 0400 0000
000003f0: 0400 0000 0400 0000 0400 0000 0400 0000
6e-45 6e-45 6e-45 6e-45 6e-45 6e-45 6e-45 6e-45
6e-45 6e-45 6e-45 6e-45 -6e-45 6e-45 6e-45 6e-45
-6e-45 6e-45 -6e-45 -6e-45 -6e-45 6e-45 6e-45 6e-45
-6e-45 6e-45 -6e-45 -6e-45 -6e-45 -6e-45 6e-45 6e-45
6e-45 6e-45 6e-45 6e-45 6e-45 -6e-45 6e-45 -6e-45
6e-45 6e-45 -6e-45 6e-45 -6e-45 -6e-45 6e-45 6e-45
6e-45 6e-45 6e-45 6e-45 6e-45 -6e-45 6e-45 -6e-45
6e-45 6e-45 -6e-45 6e-45 -6e-45 6e-45 -6e-45 6e-45
6e-45 6e-45 6e-45 6e-45 6e-45 6e-45 6e-45 6e-45
-6e-45 6e-45 6e-45 6e-45 -6e-45 6e-45 -6e-45 -6e-45
-6e-45 6e-45 6e-45 6e-45 -6e-45 6e-45 -6e-45 -6e-45
-6e-45 -6e-45 6e-45 6e-45 6e-45 6e-45 6e-45 6e-45
6e-45 -6e-45 6e-45 -6e-45 6e-45 6e-45 -6e-45 -6e-45
-6e-45 -6e-45 6e-45 6e-45 6e-45 6e-45 6e-45 6e-45
6e-45 -6e-45 6e-45 -6e-45 6e-45 6e-45 -6e-45 -6e-45
6e-45 -6e-45 6e-45 -6e-45 6e-45 6e-45 -6e-45 6e-45
6e-45 6e-45 -6e-45 6e-45 6e-45 -6e-45 6e-45 6e-45
6e-45 6e-45 6e-45 6e-45 6e-45 -6e-45 6e-45 6e-45
6e-45 6e-45 6e-45 6e-45 6e-45 6e-45 -6e-45 -6e-45
6e-45 6e-45 6e-45 6e-45 6e-45 6e-45 6e-45 6e-45
6e-45 6e-45 6e-45 6e-45 6e-45 6e-45 -6e-45 -6e-45
6e-45 6e-45 6e-45 6e-45 6e-45 6e-45 6e-45 6e-45
6e-45 6e-45 6e-45 6e-45 6e-45 6e-45 6e-45 6e-45
6e-45 6e-45 6e-45 6e-45 6e-45 6e-45 6e-45 6e-45
-6e-45 6e-45 6e-45 6e-45 -6e-45 6e-45 -6e-45 -6e-45
-6e-45 6e-45 6e-45 6e-45 -6e-45 6e-45 -6e-45 -6e-45
-6e-45 -6e-45 6e-45 6e-45 6e-45 6e-45 6e-45 6e-45
6e-45 -6e-45 6e-45 -6e-45 6e-45 6e-45 -6e-45 -6e-45
-6e-45 -6e-45 6e-45 6e-45 6e-45 6e-45 6e-45 6e-45
6e-45 -6e-45 6e-45 -6e-45 6e-45 6e-45 -6e-45 -6e-45
6e-45 6e-45 6e-45 6e-45 6e-45 6e-45 6e-45 6e-45
6e-45 6e-45 6e-45 6e-45 6e-45 6e-45 6e-45 6e-45
