Experiments/Experiments-003/checkpoints/model.pt (torch, 904767 bytes, 39 tensors)

cp.convs.0.weight f4 [2, 1, 3, 3]
000000 a7 a3 b0 be 9f e2 93 be 85 09 93 bd 4f ed 81 3e
       -0.34499857 -0.28883836 -0.0717955 0.25376365
000010 f8 19 a4 be e1 39 8e 3d c0 55 95 bd 70 3b 8a be
       -0.32051063 0.06944633 -0.07291746 -0.26998472
000020 ea a1 5d be e0 a8 58 3e 45 ba 2e 3c cc b4 9c 3e
       -0.21643797 0.2115817 0.010664527 0.30606687
000030 6d be 39 bd 44 83 17 bd fa ac a8 3e 95 4b bf 3e
       -0.04534762 -0.03699042 0.3294447 0.37362352
000040 a9 09 72 be c3 71 ed bd
       -0.23636498 -0.11593964

cp.convs.1.weight f4 [4, 1, 3, 3]
000000 3d 1d 4a 3e c0 42 5d 3c be 5d 7e 3e b7 35 01 be
       0.19737716 0.013504684 0.24840447 -0.12618147
000010 da d4 c9 3e 38 2a 80 bd ac 1d 75 3e c1 3f 9a 3e
       0.39420205 -0.062580526 0.239371 0.30126765
000020 04 35 55 bd 43 4e 36 3b 73 01 7d 3e 85 8f 8c 3e
       -0.052052513 0.0027817644 0.24707584 0.27453247
000030 2b 79 9a 3d 41 d6 8c 3c 19 b1 9f be 74 b3 69 3e
       0.07542642 0.017192008 -0.31189802 0.22822362
000040 18 9f 8c be 4e b7 a2 be 73 7d d7 3d 27 d8 29 be
       -0.2746513 -0.31780475 0.105219744 -0.16586362
000050 b3 8b 6e 3e 8b e5 29 3e b3 a4 55 bd 01 cf 9f 3d
       0.23295479 0.1659147 -0.052159023 0.07803155
000060 0f 3b 9e bd aa a9 3a be b5 33 e2 bd b0 90 47 3d
       -0.07726108 -0.18228784 -0.110450186 0.04872197
000070 f1 bc 41 3e ab 7c d1 bc d3 fa 9a 3d ac 53 87 3d
       0.18919732 -0.025572142 0.07567372 0.06607756
000080 16 7c 93 3e be 97 29 3e bf 74 5b 3e f9 4b b6 bd
       0.28805608 0.16561791 0.21431254 -0.089012094

cp.convs.2.weight f4 [8, 1, 3, 3]
000000 89 30 07 3e 80 4b 8e 3d 70 ed bd 3d aa 72 82 be
       0.13202108 0.06947994 0.09273803 -0.25478107
000010 5f 1e bb bd 92 35 13 3e 30 1f 83 3e 13 db 89 be
       -0.09136652 0.14375904 0.25609732 -0.26924953
000020 5c 02 9a 3e 5d da da 3d 1b 82 25 3e ad 3d 66 3e
       0.30079925 0.10686181 0.16162913 0.22484465
000030 55 5e 03 bd e1 49 89 3e 6e 67 a7 3e d3 fe cb 3a
       -0.032072384 0.26814178 0.32696098 0.0015563614
000040 66 07 90 bc 9d 56 05 be 30 97 b4 be 08 cd 11 be
       -0.017581653 -0.13021322 -0.35271597 -0.1423837
000050 a4 e1 af 3e 0c 84 0d be 80 50 b3 be 52 b4 ad be
       0.34351838 -0.13819903 -0.35022354 -0.33926636
000060 ef 7c 15 bc 40 fd 8c 3c 8d 49 01 bc bc 40 0d 3d
       -0.009124025 0.017210603 -0.007891071 0.034485564
000070 16 14 15 3e 80 1d a3 3e 5e 62 0c be 2a 1c 1a be
       0.14558443 0.31858444 -0.13709399 -0.15049806
000080 41 a8 60 be e5 00 c9 be 04 6c 91 3e df bf c5 3b
       -0.21939184 -0.39258495 0.28402722 0.0060348357
000090 42 84 82 bd 5a 86 79 be 14 da 86 3e 0b c1 ee bd
       -0.063728824 -0.24367657 0.26338255 -0.11657914
0000a0 6c a5 8b be 9b 01 81 bd db f5 ea 3d 62 e0 82 3e
       -0.27274644 -0.06299134 0.114726745 0.25561816
0000b0 0c 41 48 be 26 d8 dd 3d b8 a8 79 3e 4b a0 42 be
       -0.19556063 0.10832243 0.24380767 -0.1900646
0000c0 48 2e 26 3d 4b 09 93 3e f4 8d 5c 3e 94 84 40 be
       0.04057148 0.28718027 0.21538526 -0.18800575
0000d0 ed c6 21 be 28 43 75 3e 18 79 dc bd c2 34 c6 bc
       -0.1579854 0.239514 -0.10765284 -0.024195079
0000e0 f6 b6 f6 bd c9 2f b3 be 7f 38 af be 6a fa 01 3d
       -0.12046616 -0.34997395 -0.3422279 0.031732954
0000f0 57 17 e0 bd 04 0f 99 be 9e b6 ff 3d 87 8a 63 3e
       -0.10941952 -0.2989427 0.12486003 0.22220813
000100 44 0a fa 3d 2a e7 8f 3e 47 3f 98 be 1f 8f 67 be
       0.12208989 0.28106052 -0.29735777 -0.2261319
000110 82 dc f9 3c bf 52 31 3e b4 7d aa 3e d9 d2 0e 3d
       0.030500654 0.17316721 0.3329903 0.03486905

cp.convs.3.weight f4 [16, 1, 3, 3]
000000 92 ca 2c be ee e1 56 3e d1 6e a4 3d 27 d1 b7 bd
       -0.1687415 0.20984623 0.08028949 -0.089754395
000010 d8 8a a5 be e2 03 9f bd 1f 38 9b be 5e ec 7c 3d
       -0.32332492 -0.077644125 -0.30316254 0.061748855
000020 02 8e 40 bd 9b ba a2 3e 98 b9 38 3e ac d9 43 3e
       -0.04701043 0.31782994 0.18039548 0.19126004
000030 cf f7 8b 3c 83 5a d5 3d ba 0a 95 3e fd 0f 5e be
       0.017085938 0.10417654 0.29109746 -0.21685787
000040 f4 89 af bc 58 e8 23 3e c5 95 2e 3e 3c 22 87 be
       -0.021428086 0.16006601 0.1704932 -0.26393306
000050 93 0a c4 be 04 94 b2 3b e6 25 75 3e 29 00 9f be
       -0.38289317 0.0054497737 0.23940238 -0.3105481
000060 75 4b 95 be 76 80 9a bd 46 64 17 be 73 61 93 3e
       -0.29159132 -0.07544033 -0.14784345 0.28785285
000070 f2 8e 40 be d0 26 a2 be 0e 09 4b 3d 38 e0 d1 bd
       -0.1880453 -0.31670237 0.049569182 -0.102478445
000080 3f 0d 37 3e 6f 67 05 3e 76 53 41 3d 87 c9 ad be
       0.17876147 0.13027738 0.047198735 -0.33942816
000090 95 e1 47 3e ab a1 d1 bd 29 4f 5f 3e e9 81 fe bd
       0.19519646 -0.10235914 0.21807541 -0.12427122
0000a0 db f5 9d bd 86 a7 0f 3c 3d a7 5b be 91 40 87 3e
       -0.07712909 0.008767968 -0.21450515 0.26416448
0000b0 0f 2b 88 3e 1e 98 de 3c b7 97 58 be ec ef 21 be
       0.2659535 0.027172145 -0.21151625 -0.15814179
0000c0 47 d8 13 be 32 44 6c 3e 12 96 91 3e 84 02 93 be
       -0.14437972 0.2307289 0.28434807 -0.28712857
0000d0 21 ed 14 be 34 7f 63 3e 62 32 19 bd e8 81 b3 be
       -0.14543582 0.22216493 -0.037401564 -0.35060048
0000e0 6d 1d b4 3e 73 58 bc 3d f8 85 97 be 83 0d 15 3e
       0.351787 0.09196558 -0.29594398 0.14555936
0000f0 25 20 a8 3e 6d 04 6e 3e ba 6d d3 be 1b 73 d3 bc
       0.32837024 0.23243876 -0.41294652 -0.025811723
000100 10 27 a1 3d f7 64 9f 3e 2c 96 93 be 01 99 88 3d
       0.07868779 0.31131718 -0.2882551 0.06669808
000110 44 37 d0 be 4b 65 78 be 43 ae f5 bd 0e e5 1c be
       -0.40667164 -0.2425739 -0.119961284 -0.15321752
000120 f4 7a 8b 3e 0b 52 ce bd 77 96 82 be fd 91 a3 3e
       0.27242243 -0.10074242 -0.2550542 0.31947318
000130 c5 55 12 be 41 09 a2 bd 91 7d 67 bc 6d 60 a9 3d
       -0.14290531 -0.07911921 -0.014129058 0.08270345
000140 3b b7 63 3e 10 11 b6 be f5 65 88 be 80 68 83 be
       0.22237866 -0.35559893 -0.26640287 -0.25665665
000150 a7 5e 72 3e a5 ce 9a be f5 25 02 3e 51 7f ad be
       0.2366892 -0.30235782 0.12709792 -0.33886197
000160 99 c8 f3 3d 2e 93 1a 3e be fd cb 3e ec 71 35 3e
       0.11903495 0.15095207 0.39842027 0.17719239
000170 00 5c 74 3e 10 4a 37 3e 56 b4 61 be 64 ee fd bd
       0.2386322 0.17899346 -0.22041449 -0.12398985
000180 23 81 99 3e 31 84 7b be a4 4b 3a 3e 60 cc 82 3d
       0.29981336 -0.24562146 0.18192917 0.06386638
000190 4c 1c 3d 3e d8 35 6b be 11 a4 63 bd 73 ca 88 be
       0.18467826 -0.22969759 -0.055576388 -0.26716956
0001a0 99 9c 93 be e7 6d 05 bd 20 fe b1 bd 50 04 65 bd
       -0.28830412 -0.032575514 -0.086910486 -0.055912316
0001b0 f5 00 a1 3e 9d 05 12 be d0 4f 68 bd ba 20 d5 bd
       0.31446043 -0.14259954 -0.05671674 -0.10406633
0001c0 9f f2 96 3b d2 b8 1a 3e 24 a2 5b be f4 91 1e bb
       0.0046065594 0.15109566 -0.2144857 -0.0024195882
0001d0 89 7c 6c be 80 8d 57 be ea ec 85 3d 50 d4 43 3e
       -0.23094381 -0.21050072 0.065393284 0.1912396
0001e0 5e c4 26 bc d0 2c 96 3e 07 93 8c bc 05 91 aa 3e
       -0.0101786535 0.29331064 -0.017159952 0.33313766
0001f0 f3 53 cf 3e 72 10 0e 3e c4 6b 83 3d 7a 38 41 3e
       0.40493736 0.13873461 0.06417039 0.188692
000200 46 2f 0d be b4 2f 2b be 59 8c 45 be 2f 86 a6 3e
       -0.13787565 -0.16717416 -0.1929182 0.3252425
000210 0f 69 83 3e b9 3c 74 be bf 12 ae 3e 16 84 1e 3e
       0.2566609 -0.23851289 0.33998677 0.15480074
000220 28 f5 b8 3e 00 24 f8 bd 5a e5 8a 3d db 14 84 3e
       0.3612454 -0.121162415 0.067820266 0.2579716
000230 77 87 99 bd 29 2b 47 3e b8 a4 8f 3e aa e9 25 be
       -0.07496541 0.19450058 0.28055358 -0.16202417

cp.convs.4.weight f4 [32, 1, 3, 3]
000000 a1 3a cf bd 40 53 12 be be 2d 13 be fa 48 1e 3d
       -0.101186045 -0.1428957 -0.14372918 0.038643815
000010 fb 61 64 3e 46 d3 51 3d 70 90 1c 3e a8 e1 94 3e
       0.22303002 0.051226877 0.15289474 0.29078412
000020 f2 80 4f 3e 1c bc ad be f0 ab d3 ba 2f 81 a0 3e
       0.20264032 -0.3393258 -0.0016149264 0.3134856
000030 7a d0 05 be b9 2e 12 bd 54 97 08 3d d0 b4 8f bd
       -0.13067809 -0.03568909 0.033347443 -0.07016909
000040 b9 c3 96 be 96 ce 76 3e 57 5e e8 bd 16 e3 2d be
       -0.294462 0.24102244 -0.11346119 -0.16981158
000050 cd 92 33 be 8a 5f 99 be 67 a5 57 3d 0c 87 21 3d
       -0.17536469 -0.29955703 0.052647974 0.03943543
000060 bb 1f 24 be b6 e3 11 be dc 98 f5 bd ca 34 41 3e
       -0.16027729 -0.14247021 -0.11992046 0.18867794
000070 7b 1a 89 3e 3c c1 2e 3e 8e 98 81 be 17 81 88 be
       0.26778015 0.170659 -0.25311702 -0.26660988
000080 39 a3 05 be e1 73 82 3e ab 18 89 be 18 4a 83 3d
       -0.13050546 0.25479034 -0.26776633 0.06410617
000090 38 bb a0 3e 50 22 31 3e b8 fc 6b 3e ab 5b 54 bd
       0.31392837 0.17298245 0.23045623 -0.051845234
0000a0 98 14 81 3e 0b 50 84 3e e4 a0 69 be d7 d5 b0 3e
       0.25211024 0.25842318 -0.22815281 0.34538147
0000b0 dd 15 6e be da 90 0d 3e 25 30 25 be bf 37 13 be
       -0.23250528 0.13824788 -0.16131647 -0.14376734
0000c0 c6 e3 45 3e 79 6e 27 3a 0d 63 36 3e 81 23 e4 3d
       0.1932517 0.0006387006 0.17811222 0.11139584
0000d0 33 8e 45 be 0b 97 4c bd 96 6e b4 3e 28 58 b9 be
       -0.19292526 -0.049948733 0.3524062 -0.3620007
0000e0 9d cb a4 3e 0b 86 60 3e 1e 7d 8d be e3 5a a6 be
       0.32186595 0.21926133 -0.2763452 -0.32491216
0000f0 26 13 0a bc 31 73 6b 3e ab d4 56 3e cb 5e c4 3d
       -0.008427417 0.22993161 0.20979564 0.09588393
000100 0b e1 8e 3e 34 18 78 3e 85 07 38 be 1d d5 fc bd
       0.2790607 0.24227983 -0.17971618 -0.12345336
000110 fe 00 eb 3d 84 84 60 be 7e 13 b6 be 7f 93 16 be
       0.114747986 -0.2192555 -0.35561746 -0.14704703
000120 0e db ea 3d f2 d4 93 be 0a f3 d5 3c 98 b7 73 be
       0.114675626 -0.28873402 0.026116867 -0.23800504
000130 1f 9a 16 be 30 cb 83 3e f7 7f ec 3d 02 63 50 3e
       -0.1470723 0.25740957 0.11547845 0.20350268
000140 83 9d 2c 3e 1b 28 15 be a5 94 1a be d2 b8 8f 3d
       0.16856961 -0.1456608 -0.15095766 0.070176736
000150 94 de 48 be f6 5f ae be 19 dc 99 be f4 7d 71 be
       -0.19616157 -0.34057587 -0.30050734 -0.23583204
000160 27 8f 22 3e 0d 11 a3 3e 95 64 0e 3e 1d c8 93 be
       0.15874921 0.31848946 0.13905556 -0.28863612
000170 b2 10 88 be 46 b9 55 be 23 8f a6 3e 47 cf db 3d
       -0.26575238 -0.20871457 0.3253108 0.107328944
000180 16 af e3 bd 1b 76 c5 3d 77 c4 c8 be 17 39 e8 3d
       -0.11117379 0.096416675 -0.3921239 0.11339014
000190 f9 7c f8 3d 3d 4e 10 be aa 9f 46 3e e1 56 93 be
       0.12133212 -0.14092346 0.19396845 -0.2877722
0001a0 92 90 62 be 71 46 8c be da 4c 8f 3e 06 b6 07 bc
       -0.22125462 -0.27397493 0.2798832 -0.008283144
0001b0 fa 62 af bc 86 2f 7c 3c 4a 96 c7 3e e9 64 79 3e
       -0.0214095 0.01539219 0.3898185 0.243549
0001c0 6b cb 03 3e 92 45 8f 3d e0 4f 50 3d 3a fc 63 be
       0.12870567 0.06995691 0.050857425 -0.22264186
0001d0 2f fc 82 3e c9 26 bb 3e ae cd 2c be 7f 69 c6 bd
       0.25583026 0.36553028 -0.16875336 -0.096880905
0001e0 ec 07 49 be 72 62 80 3e f2 fe 0a be e6 b1 5d be
       -0.19631928 0.25075108 -0.13573816 -0.21649894
0001f0 27 73 55 bd 1a c8 89 be 4f 90 09 be b0 00 da 3d
       -0.05211177 -0.26910478 -0.13433956 0.106446624
000200 ac e0 86 be f0 be fa bc a8 10 46 3e 74 00 d1 3d
       -0.26343286 -0.030608624 0.19342291 0.102051646
000210 92 f7 17 3c f0 14 91 3e 12 32 a0 3d 75 e2 a7 3e
       0.009275334 0.28336287 0.0782205 0.3278996
000220 57 f8 30 be d5 51 67 be 51 11 b3 3e d2 19 a5 bd
       -0.17282234 -0.2258981 0.3497415 -0.080615655
000230 68 76 70 be 40 2a 02 bd 91 ec 15 be 71 9b 8b 3e
       -0.23482668 -0.031778574 -0.14641024 0.2726703
000240 9d 88 80 bd ac 92 26 3e de 7b 31 3e 29 b7 16 be
       -0.06276057 0.16266888 0.17332408 -0.14718308
000250 cf c5 9f be 61 f4 c4 3d 4f 3a 8c 3c 04 25 f4 3d
       -0.31205603 0.09616924 0.017117647 0.11921123
000260 bc 2b a8 3d 7e 3d dc bd e7 22 1f bc 63 bb 09 3e
       0.08211467 -0.10753916 -0.009712911 0.13450389
000270 84 47 fe bb 47 ba 57 be a9 6d 38 bc da ce 88 be
       -0.00775999 -0.21067153 -0.011256614 -0.26720315
000280 5c 4b 9d 3d 20 01 9d 3c 66 98 30 3e 7e 89 3e 3d
       0.07680389 0.019165576 0.17245635 0.04651784
000290 fe e7 2b be e5 2c 8e 3e f6 93 89 3c 02 01 87 bd
       -0.16787717 0.27768627 0.016794186 -0.06591989
0002a0 eb e1 5d 3e 92 1b 73 be 09 ff 1c be 85 7b 89 be
       0.21668212 -0.23740986 -0.15331663 -0.2685205
0002b0 62 95 b8 3d 3d 38 8a bd a5 79 07 be e6 44 0f be
       0.090128675 -0.06749008 -0.13229997 -0.13991126
0002c0 46 17 8c bc ce 4d 93 be b8 74 b3 3d 6c 3c 20 be
       -0.017100941 -0.28770298 0.08762497 -0.15648049
0002d0 b5 71 59 3e f5 c4 73 3e aa e5 af bd 63 66 7e bc
       0.21234782 0.23805602 -0.08588727 -0.015527341
0002e0 69 b9 14 3e d5 59 ae 3e 63 3b 94 3d b5 ef c7 3d
       0.14523853 0.3405291 0.072378896 0.09762517
0002f0 55 fb 11 3d 8a f6 6a 3e 00 ca 75 3e 76 7f 83 bb
       0.03564008 0.2294561 0.24002838 -0.0040129973
000300 cc 18 2c 3e c7 a1 8d bd 6e 56 ed bd a9 cb 23 be
       0.16806334 -0.06915622 -0.11588751 -0.15995659
000310 0b c0 53 be 3b a7 c2 3d 5c 4a 26 3e d6 34 75 3e
       -0.20678727 0.09504553 0.16239303 0.23945937
000320 70 c9 06 3c 97 c9 33 3d 09 56 93 be e7 1b 9a bd
       0.008226737 0.043893423 -0.28776577 -0.07524853
000330 9e fa c0 bd 69 f2 03 bc 91 3f 92 3e d8 94 47 3d
       -0.094228014 -0.008053401 0.28564122 0.048725933
000340 c2 5c 87 3e 54 17 8c 3e 96 19 ab 3e a5 9a c1 3c
       0.26437956 0.27361548 0.33417958 0.02363331
000350 f3 92 22 3e 34 38 4f 3e 63 0c 33 3e b6 79 f5 3d
       0.15876369 0.20236284 0.17485194 0.11986105
000360 a8 d6 6c 3d 03 11 61 3e 20 ce 38 be 73 3c 6b 3e
       0.0578219 0.21979146 -0.1804738 0.22972278
000370 9a ed 9d be 00 63 aa be 0f 6e 0d be 9a c4 b5 be
       -0.30845338 -0.33278656 -0.13811515 -0.35501558
000380 72 91 27 bd 30 6b 6c bd fc a8 f5 3d 87 1e 7a 3e
       -0.04091019 -0.05771941 0.11995122 0.24425708
000390 e1 d2 f7 bd 83 8a e2 3d 05 61 04 3e 04 d0 87 be
       -0.12100769 0.11061575 0.12927635 -0.2652589
0003a0 1f c3 c2 be 4a 94 d7 bd 32 e8 b5 bd b5 fa 86 3d
       -0.3803949 -0.10526331 -0.08882178 0.06590787
0003b0 fb fd d1 3c a9 7e 64 be b2 a6 ab be 5b 44 5d 3e
       0.025633803 -0.22313942 -0.33525616 0.21608107
0003c0 b0 b5 5b be 0a 40 23 bc ee cb 20 be 0b f7 2e 3d
       -0.21456027 -0.009963999 -0.15702793 0.042716067
0003d0 63 3e 8c 3d 76 65 68 be 03 96 bf 3e 5f ca fa bd
       0.06847837 -0.22694954 0.37419137 -0.122456305
0003e0 7c 6e d1 3e 3d 5d 90 3e 02 ca c9 bd 1d a1 12 3e
       0.40904605 0.28196135 -0.09852983 0.14319272
0003f0 70 c5 60 be e0 b4 8c be f7 c7 40 3e 76 3c 65 3e
       -0.21950316 -0.27481747 0.1882628 0.22386345

cp.convs.5.weight f4 [64, 1, 3, 3]
000000 54 ee 70 3e 37 83 59 be 35 5e 16 3e f3 0c 0f 3d
       0.23528415 -0.2124146 0.14684375 0.03492446
000010 65 09 06 3d 27 05 95 bd 1c f2 45 be 1e c9 84 3b
       0.032723803 -0.07276373 -0.19330639 0.0040522953
000020 a6 56 80 be 79 20 fa 3d b7 68 e2 3d 3b 03 c8 3e
       -0.25066108 0.12213225 0.11055129 0.39064965
000030 73 64 2c 3e 41 20 a9 3e 9d fb 18 be fd fc 2a 3e
       0.16835193 0.3303242 -0.14939733 0.1669807
000040 5f b6 83 3e 18 d7 52 3d 60 cd 2d be 1a bd c1 bc
       0.25725076 0.05147466 -0.16972876 -0.023649741
000050 8e 60 b2 3e 57 74 bf be c5 ca 8d bd cd 8d 61 3e
       0.3483929 -0.37393448 -0.06923441 0.22026749
000060 1f e1 43 3e e7 98 6f bd 22 23 ae 3e bc f0 15 3e
       0.19128846 -0.05849543 0.3401118 0.14642614
000070 b9 e9 91 be bb f8 8d 3e c4 73 90 be 77 98 66 3e
       -0.2849863 0.2772883 -0.28213322 0.22519098
000080 f9 85 74 be fd cf 1e 3e 5d f9 4a 3e a8 72 81 bd
       -0.23879232 0.15509029 0.19821687 -0.06320697
000090 e4 f2 5e be a4 8e 78 be 77 7f ef bc 53 19 86 be
       -0.21772343 -0.24273163 -0.029235585 -0.26191196
0000a0 f9 8d af 3e 9c c6 b3 3e 7f c6 b0 bd f4 58 a7 bd
       0.34288004 0.35112464 -0.0863161 -0.08171263
0000b0 a8 ac 47 be 20 28 8f be f9 eb e7 bd ec 0b 18 3d
       -0.19499457 -0.279603 -0.11324305 0.037120745
0000c0 04 45 34 3d db 41 ac be 9a 12 ad 3d 5f dd 63 be
       0.04401113 -0.33643994 0.084508136 -0.22252415
0000d0 b3 ee 1c 3e 0a 59 39 bd 53 5a 4c 3e 28 b3 38 3e
       0.15325432 -0.04525093 0.19956331 0.18037093
0000e0 bd 73 45 3e 42 f6 b2 be e7 38 36 3e 0e a1 64 bd
       0.19282432 -0.34953505 0.17795144 -0.055817656
0000f0 a3 51 18 be b8 51 a4 be 50 06 18 3e 00 42 c5 be
       -0.14874892 -0.32093596 0.14846158 -0.38526917
000100 ab 9a 0e be 8b 34 32 bc 0b 5a 48 bd 11 8d c0 3d
       -0.13926189 -0.010876785 -0.048913997 0.09401906
000110 60 b6 c9 3e 1b 7e 92 bd ed fa 23 bd 48 af c8 3e
       0.39396954 -0.07152959 -0.040034223 0.3919623
000120 a0 1c 61 3d 41 0f 5f be 8d f3 a1 3e 65 cb 78 3d
       0.05495894 -0.21783163 0.31631127 0.060740847
000130 5c 0f c5 3e 9b f9 af 3e 66 26 1a bd df 58 a9 3e
       0.3848828 0.3437012 -0.037634276 0.33075616
000140 86 36 d5 bd 42 3d 25 3e 76 36 74 be 35 dd b6 3e
       -0.1041079 0.16136649 -0.238489 0.35715643
000150 83 8f cd bc e7 18 3b 3e b1 f9 b7 3e a7 a4 78 3d
       -0.025092846 0.18271218 0.35932687 0.0607039
000160 85 e3 6b bc 56 a4 a9 bc 96 e9 9f be 2b e4 d6 3d
       -0.014397507 -0.020708244 -0.312329 0.10492738
000170 a9 23 42 3b 36 d0 3b bd fd 65 27 3e 5f ad 1a be
       0.0029623306 -0.045852862 0.16347499 -0.15105198
000180 08 16 0d be f4 53 e8 3d ff e4 26 3e 2e b7 96 bd
       -0.13777936 0.11344138 0.16298293 -0.073591575
000190 32 be fb bd 9c b2 53 3e 57 d2 c7 3d 79 0b 29 3e
       -0.12292136 0.20673603 0.09756916 0.16508283
0001a0 32 d7 8a 3e 7b 95 c7 3e 73 aa d5 3d a2 1e 37 3e
       0.27117306 0.38981232 0.10432901 0.17882779
0001b0 7c bb 01 be 51 a4 bb be 90 e2 17 3c 5e 02 86 be
       -0.12669176 -0.366488 0.009270325 -0.2617368
0001c0 5f 9d 72 3d a4 e6 aa 3e 79 0f 76 3e bb 0d ac be
       0.059232112 0.3337909 0.2402934 -0.33604226
0001d0 b3 ce b3 3b 0e cf 50 3e 4d 22 9b be ed 46 a1 3e
       0.005487287 0.20391485 -0.30299607 0.31499425
0001e0 6f 21 c7 3d fa 1f 8a be 1c 40 b6 3d 01 20 0d 3e
       0.09723174 -0.2697752 0.08898947 0.1378174
0001f0 58 02 80 be 18 42 61 3e 69 f7 ae 3e c6 87 b0 bd
       -0.25001788 0.21997869 0.34173134 -0.08619647
000200 2d a2 59 bd 94 fe 21 be 81 cc 1b be ec 06 76 be
       -0.05313318 -0.1581977 -0.15214731 -0.24026078
000210 28 ec 30 3e 5c c3 13 bd 1d ab b1 3d 59 e4 76 3e
       0.17277586 -0.03607498 0.086752154 0.24110545
000220 04 18 a3 3d 47 13 0c 3d 88 7d 7d 3e 83 45 ab 3e
       0.07963565 0.03419807 0.24754918 0.3345147
000230 d7 6d ad bd 11 56 8c 3d a0 ae 11 3e 1b 87 60 3d
       -0.08468216 0.06852353 0.1422677 0.054816347
000240 14 64 1e bd 92 d0 66 3d a3 d6 03 3e dd d5 01 bd
       -0.03866966 0.056351252 0.12874846 -0.031698097
000250 a8 41 df bd 47 27 6f 3e 15 09 22 3d 69 62 de 3d
       -0.10901195 0.23354827 0.039559443 0.10858614
000260 9b fa 95 be 85 06 5f be 92 20 86 bc 35 c8 86 3e
       -0.2929276 -0.21779831 -0.016372953 0.2632462
000270 6d 90 94 3d c1 4c 59 be 4c 99 1e be 7d 82 0a 3e
       0.072541095 -0.21220686 -0.15488166 0.1352634
000280 47 b3 81 3e 6c 80 77 be e4 9a b5 3e 5f c8 07 3e
       0.2533209 -0.24170083 0.35469735 0.1326003
000290 45 d6 79 3e cb 31 72 be f0 39 67 be b1 e0 b1 be
       0.24398144 -0.23651807 -0.22580695 -0.34741738
0002a0 c1 13 ad 3e df d9 35 be 2c 35 0c bd 2a 86 66 be
       0.33804134 -0.17758892 -0.034230396 -0.22512117
0002b0 3a 5a b2 3e e8 d3 72 3d 91 e9 57 3e e0 b6 81 3e
       0.34834462 0.05928412 0.21085192 0.25334835
0002c0 08 9c b7 3e 05 28 bb 3e 2e 59 8e 3d 24 7f 99 3d
       0.3586123 0.3655397 0.069506034 0.07494953
0002d0 8a b4 d0 3d ed d5 30 3e d5 37 7c 3d ff 30 b2 3d
       0.10190685 0.17269106 0.061576683 0.087007515
0002e0 c3 1c 63 3e 1c 12 83 be fd ca 8d be 6f 24 cd 3e
       0.2217894 -0.25599754 -0.2769393 0.4006686
0002f0 ec f3 ed 3b 67 17 9f 3e c2 b1 8f 3e 1e 95 b2 bc
       0.007261744 0.31072542 0.28065306 -0.02179962
000300 5a bb 1d 3e 08 db b0 be ae 41 c9 be c3 7d b7 3e
       0.154035 -0.34542108 -0.39307922 0.35838136
000310 82 6b 30 3e bb fd 48 3d e0 97 08 3e d1 6f 85 be
       0.17228511 0.0490701 0.13339186 -0.26061872
000320 a1 bb 67 3d f8 88 83 3d 36 88 73 be f4 f9 05 3e
       0.05657542 0.06422609 -0.23782429 0.13083631
000330 83 45 64 be 27 d9 33 3e 21 41 29 be 85 62 54 be
       -0.22292142 0.17563306 -0.16528751 -0.20740707
000340 11 b4 91 bc e3 5e bb 3d 69 5a b2 bc de 75 04 3e
       -0.017786058 0.091489576 -0.021771627 0.12935588
000350 60 e8 9a be d7 9e 7f bd f1 ba 0b 3e 5a a9 39 3e
       -0.30255413 -0.06240734 0.13645531 0.18131009
000360 ce d5 57 be 22 0b 98 be 8f 8e 9a 3e 92 4f 06 3e
       -0.21077654 -0.29695994 0.3018689 0.13116291
000370 bb 69 ef bd b8 8a ba 3e db be 2a be 3a f9 7a be
       -0.11690088 0.3643396 -0.16674368 -0.24509135
000380 ed 7f ac be 43 8c ee bd ec 5d 58 3e 3a e7 c1 3e
       -0.3369135 -0.116478465 0.21129578 0.37871724
000390 48 2f ad 3c 7c 38 82 3d aa 01 a4 be 47 8b 4c be
       0.02114071 0.0635843 -0.3203252 -0.19975005
0003a0 7b 40 8e be f3 8e 93 3d e5 21 35 3e 72 6a 4b bd
       -0.2778357 0.07205 0.17688711 -0.04966206
0003b0 03 26 ae 3e 53 c8 de 3d 01 b6 b9 bc e4 cc 8c be
       0.34013376 0.108780526 -0.022669794 -0.2750007
0003c0 70 4a d0 3d 74 4b 8c be 1c 5b 15 be 06 45 c7 3e
       0.10170448 -0.27401316 -0.14585537 0.38919848
0003d0 d3 08 f1 3d c2 3a 4a bd ee da 94 be f4 86 0b 3e
       0.11769261 -0.049372442 -0.2907328 0.136257
0003e0 f5 e2 ed bc 43 e0 c9 be de 75 f0 3d d1 bb b5 be
       -0.029038886 -0.3942891 0.117412314 -0.35494855
0003f0 3b 02 7b 3e 90 1d b8 3e 74 c2 91 3e 1b ea 92 be
       0.2451257 0.35960054 0.28468668 -0.28694233

cp.convs.6.weight f4 [128, 1, 3, 3]
000000 0d 49 4d 3c 94 a2 08 be 77 76 5c be 1a da 54 bc
       0.012529624 -0.13343269 -0.21529566 -0.012991453
000010 fe e7 57 be 67 4a 96 3e fb 35 39 be f4 88 be 3c
       -0.21084592 0.2935364 -0.18086998 0.023258664
000020 3b 23 03 3e 2e 0a 66 3e 07 17 a4 be 17 5b 6f be
       0.12806408 0.2246482 -0.32048818 -0.23374592
000030 c0 9a 1f 3e 2d ce 01 be 0b f5 80 3e 88 95 74 3e
       0.15586376 -0.12676306 0.25186953 0.23885167
000040 58 e7 06 be 45 c4 3e 3e 54 d3 42 3e 21 df ed bd
       -0.13174188 0.18629558 0.19025928 -0.11614824
000050 0e c9 85 3d a7 0d a5 be 2b 5a 8d bd 8b ca a6 be
       0.06532489 -0.32236978 -0.06901964 -0.32576403
000060 a4 af a0 be 9e e5 82 3e f5 19 1a be 16 e7 27 be
       -0.31384003 0.2556581 -0.15048964 -0.16396746
000070 e3 39 aa 3e 46 b8 62 be c5 73 96 3e 80 dc 90 3e
       0.3324729 -0.22140607 0.293852 0.28293228
000080 50 6a b9 3e 14 09 a6 bd 12 fb 68 be 08 d6 91 bd
       0.36213923 -0.081072 -0.22752026 -0.07120901
000090 6a bc d5 3c 1f 97 de bd 1b cd 91 3e 07 16 75 3e
       0.02609082 -0.10868668 0.28476796 0.23934184
0000a0 58 b3 5f be a8 f3 ba 3e b1 52 b7 bd 87 80 2f 3e
       -0.21845758 0.3651402 -0.08951319 0.17138873
0000b0 a0 19 96 3d 98 0b 57 3e 34 c0 00 be a0 5b ca be
       0.07329106 0.21000516 -0.1257332 -0.3952303
0000c0 de bf 98 3e 17 8e 88 3d c0 28 5b 3e 65 fc a9 be
       0.29833883 0.066677265 0.21402264 -0.33200374
0000d0 e7 70 32 3e 2b 4b 3b be 93 1d 6a be 59 72 04 be
       0.17425881 -0.18290393 -0.22862844 -0.12934245
0000e0 44 24 fa 3b c7 cc 78 3d 86 5b 90 3e 97 02 79 3e
       0.0076337177 0.060742166 0.28194827 0.24317394
0000f0 42 5f 00 be b6 19 10 3e f5 0a 70 be b3 14 b8 3c
       -0.12536338 0.14072308 -0.2344168 0.022470808
000100 f4 e2 ad bd 58 71 77 bd 38 0a fe bd 6c 0f 96 be
       -0.084905535 -0.060410827 -0.12404293 -0.2930864
000110 f6 38 1b be 00 8b 22 be ca 41 a0 be 02 b4 a5 3e
       -0.15158448 -0.15873337 -0.31300193 0.32363898
000120 cd 65 6b 3e 89 cb 98 3e 36 4f c0 bd c6 b4 e1 bd
       0.22988053 0.29842785 -0.09390108 -0.11020808
000130 cd 06 2d 3e 8f 48 aa 3b 15 29 e0 bd 86 a1 96 be
       0.16897126 0.005196638 -0.10945336 -0.29420108
000140 2f 9f 82 be 41 c9 73 3e 36 c6 83 3e fb 78 69 3e
       -0.25512072 0.23807241 0.2573716 0.22800057
000150 cc 4e 76 3e 52 dc 6d 3e fd 26 09 be 67 64 a0 be
       0.24053496 0.23228577 -0.13393779 -0.313266
000160 16 41 a2 be 65 7c ab 3d 25 f6 8b 3e 4b 28 9e 3e
       -0.31690282 0.08373336 0.2733623 0.30890116
000170 75 f6 5f 3e a0 bc 3a be b7 48 44 3e 8a 61 63 be
       0.2187136 -0.18236017 0.19168364 -0.22205177
000180 33 3a 3a 3d f0 f3 92 3e 1b 64 66 3e da 0f 2c 3e
       0.04546566 0.28701735 0.22499125 0.16802922
000190 54 b6 b4 bd af 96 71 3e 7e 78 e1 3d 76 47 ab 3e
       -0.08823839 0.23592637 0.1100931 0.33452958
0001a0 21 be b8 bd eb 63 a8 3e 2a db 1c be 8c 19 97 3e
       -0.09020639 0.3288873 -0.1531798 0.29511678
0001b0 a5 91 8d 3e 2e 94 62 3e 20 29 78 be 9f 7e c6 bd
       0.2765018 0.22126839 -0.24234438 -0.0969212
0001c0 5f 67 f6 bd d1 ae 83 be 0b 32 1d 3e a0 83 44 bd
       -0.12031435 -0.25719312 0.15351121 -0.04797709
0001d0 49 65 3c be bd 31 8b 3e 58 11 27 3e b4 45 11 be
       -0.18398012 0.27186385 0.1631521 -0.14186746
0001e0 8e 5e b8 be 5e 58 ce bc 3f 49 82 3e 32 90 08 3e
       -0.3600964 -0.025188621 0.25446507 0.13336256
0001f0 cf 5d 85 bd 03 d3 d1 3d f6 e9 3c 3d ad c1 84 bc
       -0.06512033 0.102453254 0.04612156 -0.016205633
000200 7c 0d 99 3c 64 3e 9f bd 65 96 92 be 4f 64 09 be
       0.018683188 -0.07775572 -0.28630367 -0.13417171
000210 34 68 06 bd 01 e9 29 bd 7e c3 84 bd 90 db 88 be
       -0.03281422 -0.041481975 -0.064826 -0.26730013
000220 51 39 54 be 4a 33 c9 bd 61 c1 10 be 52 20 56 3e
       -0.2072499 -0.09824236 -0.14136268 0.20910767
000230 0e a6 57 3d fb 2c e6 3d 98 c0 38 be fb 55 a4 3d
       0.052648596 0.11239048 -0.18042219 0.08024212
000240 24 70 c1 bd dc dd c6 3d 5f 01 84 3e 13 af 3e be
       -0.09445217 0.09710285 0.25782296 -0.18621473
000250 40 0b 6a be ff ec 4f 3e e5 a4 3a be 4c 79 ac 3c
       -0.22855854 0.2030525 -0.18226965 0.021053933
000260 2d 94 29 be 93 7d 60 be 59 88 bb 3d 32 5a 1a be
       -0.16560431 -0.21922903 0.091568656 -0.1507347
000270 3f 54 64 be 12 8c a6 be 4f 83 5f 3e d0 62 79 be
       -0.22297762 -0.3252874 0.21827434 -0.243541
000280 08 4f 1e be fe 85 be bd 49 2c df 3d 2f c3 90 3e
       -0.15459836 -0.09302901 0.108971186 0.28273913
000290 a8 bf 1f be 32 b2 a1 3c 95 5c c0 be 7f d0 9d 3d
       -0.15600455 0.01973829 -0.37570634 0.07705783
0002a0 d8 28 ad 3e 04 27 7c be f2 d0 3a be df 18 d7 bd
       0.33820224 -0.24624258 -0.18243769 -0.10502791
0002b0 0c 2a af bd 9f 1e a0 3e e0 c2 a7 3e e0 3e ff 3d
       -0.08552942 0.31273362 0.32765865 0.12463164
0002c0 96 89 c8 3c 54 15 b2 3e ed a0 d1 bb ea dc 4d be
       0.024479669 0.34781897 -0.0063973577 -0.20103803
0002d0 e3 ba 05 3e aa ba 76 3e 6a e4 51 3e e2 fe a6 be
       0.13059573 0.24094644 0.2049729 -0.32616335
0002e0 e7 85 0f 3d 9a e2 23 bc c7 e4 37 3d dc ca 9a be
       0.03503981 -0.0100027565 0.044895913 -0.30232894
0002f0 ad 26 b8 be 53 5a 62 bd 0f 9c 06 bb 81 9a 55 3e
       -0.35967007 -0.05526192 -0.0020539796 0.2085972
000300 93 08 c9 3e 66 94 8e be cc 49 36 3e 64 8d 93 3e
       0.39264354 -0.27847594 0.17801589 0.2881881
000310 35 5c ff bd 7b d1 8f 3d ce 24 46 3e 15 b8 88 3e
       -0.12468759 0.07022377 0.19349977 0.26702943
000320 6e c9 34 be 12 0c b4 3d 97 0e 79 3e d1 d1 0d be
       -0.17654964 0.08791365 0.24321972 -0.1384957
000330 44 84 f0 3d 0e a1 2f bd df 77 ab 3e f7 47 15 3e
       0.11743978 -0.042878203 0.33489892 0.14578234
000340 d1 13 4c 3e 58 b3 97 3d e5 c8 e9 3c 47 ce 6a be
       0.19929434 0.07407254 0.028538177 -0.22930251
000350 e8 41 45 3e 9c ce 34 3e e8 b6 7d 3e 17 6e ac 3d
       0.19263422 0.1765694 0.24776804 0.084194355
000360 23 84 36 3e ca 0f 03 3e 13 5b 0b 3e 1c bd 30 be
       0.17823844 0.12798992 0.13608961 -0.1725964
000370 9c a3 f3 3d 80 ec 62 be 76 d6 27 3e 80 af 5e bc
       0.118964404 -0.2216053 0.16390404 -0.013591647
000380 dd 0a a0 3b 70 e0 a1 be 5b 0c 9c bd 58 65 a4 3e
       0.0048841075 -0.31616545 -0.07619544 0.3210857
000390 0b f7 c1 be 15 52 36 3a 24 33 86 be 0d 66 13 be
       -0.3788379 0.000695498 -0.26210892 -0.14394398
0003a0 e3 f5 86 3d 5b 8a c8 bc 49 b5 4a 3d e3 3b 21 3e
       0.06589868 -0.024480036 0.049489293 0.15745501
0003b0 ba ea 90 bd d1 b8 43 3e 11 0a 22 be 5c 3f bd 3d
       -0.070760205 0.1911347 -0.15824153 0.092406005
0003c0 05 4b 33 3e e9 68 74 be 71 07 9c 3e f9 91 52 3e
       0.17509086 -0.23868145 0.30474427 0.20563497
0003d0 5a a2 91 be 95 85 86 3e ad bf 92 3e 1d de 7d bd
       -0.28444177 0.2627379 0.28661862 -0.0619794
0003e0 36 8a 4e 3e 4b b4 67 bd 1b 50 39 3e 5f 96 05 be
       0.20169911 -0.056568425 0.18096964 -0.13045643
0003f0 2f 3e a4 bd 44 2f 39 3e c5 e3 30 3e ac d4 b3 3c
       -0.08019673 0.18084437 0.17274387 0.021951996

cp.convs.7.weight f4 [256, 1, 3, 3]
000000 81 30 83 3e 9c a4 9f 3d 6f 07 77 3e 57 5a c2 be
       0.25622943 0.077950686 0.2412393 -0.3795955
000010 ad 09 85 3e 85 fc df 3d 86 fb 28 3b bb 82 93 3e
       0.25983945 0.10936836 0.0025784685 0.28810677
000020 7f 25 4a 3e f8 df 7d be 4e a5 41 3e b6 89 76 3d
       0.19740866 -0.24792469 0.18910715 0.060189925
000030 47 7f e3 bd 61 01 5b 3d cf 25 00 3d 2c 45 bc bd
       -0.111082606 0.053468112 0.031286057 -0.09192881
000040 98 cf d9 3d 53 6d 59 3e 6f b1 11 be 0d 74 7a be
       0.106352985 0.2123311 -0.14227842 -0.24458332
000050 e8 ed 90 be 68 1d 4b be 7f fb 9b be df 6c 95 3d
       -0.28306508 -0.19835436 -0.30465314 0.07296156
000060 71 e7 6f 3e f4 1d 7a 3e 78 06 81 ba 7f a3 95 3e
       0.23428132 0.24425489 -0.0009843847 0.292263
000070 1c d8 50 be e1 80 2f 3e 86 3c 89 be 1a b3 4a be
       -0.20394939 0.17139007 -0.26803988 -0.19794884
000080 11 2f a3 bd 3d d4 88 3e da 1a e0 3d aa 19 02 be
       -0.079679616 0.26724425 0.109426215 -0.12705103
000090 bf 2e b8 3e 77 2e 7d 3e 5c 42 aa bc 43 63 5a bd
       0.35973164 0.24724756 -0.020783596 -0.05331732
0000a0 40 e3 80 bd 81 e4 68 bd ec c5 30 bd 8a 6d b3 be
       -0.062933445 -0.056858543 -0.043157503 -0.3504451
0000b0 78 10 a9 be 9f ef 58 3e 30 d4 1a 3c 5e 2b 3c 3e
       -0.33020377 0.21185158 0.0094500035 0.18375918
0000c0 32 69 82 3e c0 ac 4b 3e e1 76 cb bd a9 31 43 be
       0.25470883 0.19890118 -0.09934784 -0.19061913
0000d0 23 ef 0d 3e a6 c4 54 3d eb be b4 3e 44 12 5f 3e
       0.13860755 0.05194535 0.3530191 0.21784312
0000e0 9a 1c 50 3c 01 91 3a 3e 91 fa ba 3d f2 42 07 3e
       0.012702132 0.18219377 0.09129823 0.13209131
0000f0 5b 79 9f be a5 7a f5 bd 7a c7 17 3e 20 c9 a5 3e
       -0.31147274 -0.11986283 0.14822188 0.3238001
000100 8b 23 d3 3e 6c 4c 96 be f8 ae 47 3e 96 6a 40 be
       0.41238055 -0.2935518 0.19500339 -0.1879066
000110 8a 63 a6 be cc d0 a5 3e 16 4d 23 3b 81 8f e2 bd
       -0.32497817 0.32385862 0.0024917773 -0.110625274
000120 76 e1 93 3e 1b c8 6e be 7b 66 32 ba df 9d 9d be
       0.2888295 -0.23318522 -0.0006805432 -0.3078451
000130 22 81 93 bd 3f ca 9d 3e 73 8b 26 be fb fa 7b be
       -0.072023645 0.30818364 -0.16264133 -0.2460746
000140 b7 bc 08 3d 7b 13 85 bd 95 fb 51 be 5e 6d 48 3e
       0.033383097 -0.06497856 -0.20506127 0.1957297
000150 32 21 6e be c6 41 2f be 12 ee 09 be 2e d9 6f 3e
       -0.2325485 -0.17114934 -0.13469723 0.23422691
000160 2f e9 fc bd ce 3d 1e be 48 69 89 3e 0b 25 82 bc
       -0.12349164 -0.15453264 0.26838136 -0.015886804
000170 23 d5 ad 3e 0b 21 7a be f0 9f 22 3d 2a 85 1b bd
       0.33951673 -0.24426667 0.03970331 -0.037968792
000180 a4 40 3f 3e 3f 8d 48 be 6a 38 aa 3e 75 fe 07 be
       0.18677002 -0.19585131 0.33246166 -0.13280661
000190 5b cd 82 be 61 52 ed bd ca 02 90 be 30 86 c6 3c
       -0.255473 -0.11587978 -0.28127128 0.024233907
0001a0 2f ae c3 bd a6 f5 43 3d 40 88 8c bc 79 55 a9 3e
       -0.09554707 0.04784169 -0.017154813 0.33073023
0001b0 be 24 03 be 13 47 11 be 01 b1 8e 3d 61 62 d2 bb
       -0.12806985 -0.14187269 0.069673546 -0.006420419
0001c0 c8 37 8b 3e 45 25 f7 bd cf 41 9a bc 50 fa 02 be
       0.27190995 -0.120676555 -0.018830208 -0.12790799
0001d0 52 98 ff 3d 85 8f ef bc 72 ec 46 3e 95 cc 93 bd
       0.12480225 -0.02924324 0.19426134 -0.07216755
0001e0 2c 90 97 be 31 06 89 be d5 11 a5 bd 1c ca 0b 3e
       -0.29602182 -0.26762536 -0.08060042 0.13651317
0001f0 af 16 7f 3e cc 58 ad 3d dd 4f a2 3e 1d 17 b0 be
       0.24910997 0.08464202 0.31701556 -0.34392634
000200 4c 59 71 be 04 f8 a9 3e 39 1e a1 be b9 6e 41 bd
       -0.2356922 0.33197033 -0.3146837 -0.047224734
000210 1b 56 7e 3e d6 dc 0a be d2 ca f0 bb 29 a0 5c be
       0.24837534 -0.13560805 -0.007348397 -0.21545471
000220 e8 3a 88 be a1 f0 88 bd 04 fa 80 be b2 6d 9e 3e
       -0.26607442 -0.06686521 -0.25190747 0.30943066
000230 26 7c 7f be 43 dd c5 3e 82 e9 2e 3e 7f c8 99 3e
       -0.24949703 0.38645372 0.17081264 0.3003578
000240 33 a0 fb bd ff 95 bf 3a 11 6b 96 be ac e0 a1 bd
       -0.12286415 0.0014616846 -0.2937856 -0.07904181
000250 65 d9 2f 3e b8 9e 47 be 0d c1 fa 3d c2 02 68 be
       0.17172773 -0.1949414 0.12243853 -0.22657302
000260 26 7e 12 3e a5 82 7a 3e 09 ad 30 be 64 46 93 3e
       0.14305934 0.244639 -0.17253508 0.2876464
000270 b0 cc eb bd 39 a8 51 be 53 c1 45 3e 12 88 48 3e
       -0.115136504 -0.20474328 0.19312029 0.19583157
000280 ce 2a 4e 3c 62 22 98 3c 7b da 66 be bd 2b 4e 3e
       0.012583448 0.018571083 -0.22544281 0.20133872
000290 18 6b ff bd d1 a0 14 bb c7 ae a9 bd de d8 50 3e
       -0.124715984 -0.0022678862 -0.08285289 0.20395228
0002a0 dd 5a b6 3e db c9 b0 3e 26 fa c3 3d c5 71 8c 3e
       0.35616198 0.34529004 0.095691964 0.2743055
0002b0 06 eb 3d 3e b5 c8 f6 3c 7c 3d 6a be 90 f7 0b 3e
       0.18546686 0.030125001 -0.22875017 0.13668656
0002c0 33 96 65 3e 8b 14 2a 3e b7 bb 27 be dc 27 90 bd
       0.22420578 0.16609399 -0.16380201 -0.070388526
0002d0 62 a9 36 be 0e b5 50 be d2 70 f5 3d 2e 50 97 be
       -0.17838052 -0.20381567 0.119844094 -0.2955336
0002e0 7b 3f 28 be 75 ae 71 3e 03 4f 6e 3e 65 4f b9 3e
       -0.16430466 0.23601706 0.23272328 0.36193386
0002f0 6c 59 24 bd 63 8f 95 be 4f 98 df bd 73 1d 6d be
       -0.04012434 -0.29210958 -0.109177224 -0.23155765
000300 e6 f3 7a 3e 5d 5e 2a be 4e bc 50 3d ba 86 36 3e
       0.24507102 -0.16637559 0.05096083 0.17824832
000310 d8 a8 3f 3e e7 df 6f 3d d0 63 65 bc 86 9d 1f be
       0.18716753 0.05856314 -0.014000848 -0.15587434
000320 9d fe d9 3c 2f 23 37 3d 55 41 fd 3b 23 17 23 3e
       0.026610667 0.044711288 0.0077287355 0.15926795
000330 69 53 1d be 76 2c bc 3d 6c 24 75 be 04 f0 a8 3e
       -0.1536385 0.09188168 -0.23939675 0.32995617
000340 e3 e6 a3 3e 2e 3d be 3e 38 c8 69 bd 8a 34 75 3e
       0.3201209 0.3715605 -0.05707571 0.23945823
000350 88 fb 35 3e 17 31 c9 3c c7 f9 f8 bd fc 8e 31 3c
       0.17771733 0.02455954 -0.12157016 0.010837313
000360 43 76 81 be 36 60 eb 3d 0d da 6f 3e 39 0b 59 bb
       -0.2528554 0.1149296 0.23423024 -0.0033118261
000370 c4 69 8f bd d7 e6 98 be 30 7b 88 3e 75 17 27 be
       -0.07002595 -0.29863617 0.26656485 -0.16317542
000380 54 35 04 bc 25 3d 99 3e 34 a2 85 bd 56 40 a3 3e
       -0.008069355 0.29929462 -0.065250784 0.31885022
000390 07 1d 7b bd 54 14 b1 3e cc 74 5f be 72 2f 6f be
       -0.06130698 0.34585822 -0.21821898 -0.23357943
0003a0 d3 c7 b3 bd b4 88 31 be 47 ce bd be b5 e5 39 be
       -0.08778348 -0.17337304 -0.3707144 -0.18154033
0003b0 82 08 c4 3d f5 23 80 3e 78 21 67 bb 35 71 d6 bd
       0.09571935 0.25027433 -0.0035267752 -0.10470811
0003c0 c1 1a 42 3d 67 82 24 3e 38 44 95 bd 31 e1 9a bd
       0.047388796 0.1606537 -0.07288402 -0.07562483
0003d0 d7 b0 9f be 92 90 84 3d 09 c8 bc 3c 54 62 93 3d
       -0.31189606 0.06472887 0.023044603 0.07196489
0003e0 f8 da 9c 3d 89 24 de bd 7c 07 38 3e 0f 3c d6 bc
       0.076589525 -0.10846812 0.17971605 -0.026151685
0003f0 2d 07 84 be 6e bb a6 bd 80 17 0d be a3 0a 6d be
       -0.25786725 -0.08141218 -0.13778496 -0.23148589

_mlp.0.weight f4 [64, 1020]
000000 3e 2b e2 bd 4a 5d d3 bd 69 0f 9e bd 18 6d b5 bd
       -0.11043404 -0.10320528 -0.07717783 -0.088586986
000010 2f 97 cf bd 48 d1 c2 bd 30 2f c9 bd 2a a8 cc bd
       -0.10136258 -0.095125735 -0.098234534 -0.09993012
000020 8a 37 ba bd f7 91 c4 bd db 35 7f bd 16 c4 7a bd
       -0.090926245 -0.09598153 -0.06230722 -0.06122216
000030 71 37 8b bd 58 8f 64 bd cc 48 e5 bd 51 28 4c bd
       -0.06797684 -0.055800766 -0.111955255 -0.049843136
000040 de aa 56 bd 48 bb c0 bd 7f bd 75 bd f0 13 8f bd
       -0.052409045 -0.09410721 -0.05999517 -0.06986225
000050 73 e2 d6 bd 11 c5 ac bd 51 3c c4 bd 2b 5a bc bd
       -0.104924105 -0.08436025 -0.09581817 -0.09196886
000060 80 cd ae bd d2 17 bc bd d4 fc bf bd 02 d5 aa bd
       -0.0853529 -0.09184231 -0.09374395 -0.08341409
000070 b8 46 aa bd 67 50 86 bd 1f 2f 9f bd da d4 a8 bd
       -0.0831427 -0.06558304 -0.077726595 -0.08243723
000080 e8 4b 66 bd 21 b4 9e bd 51 ff cf bd 8e ad ce bd
       -0.056224734 -0.077492006 -0.101561196 -0.10091697
000090 be fb 53 bd f1 e2 8a bd 2a 79 32 bd 95 76 97 bd
       -0.051753752 -0.06781567 -0.043572582 -0.073956646
0000a0 85 54 d5 bd 3d be 88 bd e7 98 cc bd b2 cc b7 bd
       -0.104165114 -0.0667691 -0.09990101 -0.089745894
0000b0 fb 94 c5 bd de eb d7 bd c5 73 81 bd e6 ca d9 bd
       -0.096475564 -0.10543035 -0.063209094 -0.10634403
0000c0 34 53 5d bd 12 46 bc bd 60 c4 96 bd ca 5a b1 bd
       -0.054034427 -0.09193052 -0.07361674 -0.08659895
0000d0 cc 42 bf bd be 32 cf bd e2 64 6c bd b5 b6 b6 bd
       -0.09338912 -0.101171 -0.057713397 -0.08921567
0000e0 f4 df a6 bd 4f 8d c8 bd f9 a6 83 bd 03 ee d2 bd
       -0.081481844 -0.097925775 -0.06428332 -0.102993034
0000f0 97 4a de bd 95 80 94 bd e9 1c 83 bd 71 f0 b9 bd
       -0.10854071 -0.072510876 -0.064019985 -0.09079064
000100 f1 53 b0 bd 2c d3 d6 bd 2b 0e 3b bd 5f 92 a2 bd
       -0.086097606 -0.104894966 -0.04566781 -0.07938074
000110 8a a6 6a bd bb c3 6f bd 10 84 b5 bd dd 8d 6d bd
       -0.05728773 -0.058536272 -0.088630795 -0.05799662
000120 31 69 d9 bd d7 3e 9a bd c4 77 c7 bd a1 78 cb bd
       -0.10615767 -0.07531517 -0.0973964 -0.099351175
000130 f8 00 ab bd e2 1e b6 bd f1 1a c4 bd d2 16 c4 bd
       -0.08349794 -0.08892609 -0.09575451 -0.09574665
000140 bb 8e a0 bd 01 ad 4e bd 05 d6 bc bd 58 9f d9 bd
       -0.07839724 -0.050457958 -0.092205085 -0.106260955
000150 1d 4b b2 bd b4 cf e6 bd a7 61 a4 bd a1 59 61 bd
       -0.08705733 -0.11270085 -0.08026438 -0.055017117
000160 9e d4 3c bd d7 e0 8a bd 8c d2 c0 bd ba bd 8c bd
       -0.046101205 -0.06781166 -0.09415159 -0.06872125
000170 15 30 b6 bd 2b 91 90 bd a3 ab 88 bd a2 8e 81 bd
       -0.0889589 -0.070589386 -0.06673362 -0.06326033
000180 a5 ce c6 bd bb e2 a8 bd 10 90 bd bd a3 78 53 bd
       -0.09707383 -0.082463704 -0.09255993 -0.05162872
000190 e7 50 52 bd 18 7c ba bd 5a 29 b6 bd ed 4c 9e bd
       -0.051346686 -0.091057 -0.08894606 -0.07729516
0001a0 db fa b9 bd 7f e4 c8 bd 64 78 68 bd dd 53 68 bd
       -0.0908105 -0.09809207 -0.05675544 -0.056720603
0001b0 fd 6f 99 bd 4b 42 cd bd e8 ed 7f bd 66 c3 9b bd
       -0.07492063 -0.1002241 -0.062482744 -0.07605629
0001c0 81 d5 9d bd 86 8f 91 bd b1 ea d4 bd 1f 03 d3 bd
       -0.07706738 -0.07107453 -0.10396326 -0.1030333
0001d0 89 f2 82 bd 1d 88 cd bd 33 b5 9d bd 2b 6f a0 bd
       -0.06393916 -0.10035727 -0.07700577 -0.078337036
0001e0 2a 42 d5 bd 0c 2a 50 bd d1 d9 9c bd 87 69 74 bd
       -0.104130104 -0.05082135 -0.07658733 -0.05967095
0001f0 1c 1c a2 bd 90 ed 65 bd cb 13 62 bd da 98 7f bd
       -0.07915518 -0.05613476 -0.055194657 -0.06240163
000200 f6 cd 64 bd f8 05 9d bd a7 9a a9 bd 50 3b 8d bd
       -0.055860482 -0.07667154 -0.08281451 -0.068960786
000210 78 23 cd bd c1 4a dc bd 07 10 d3 bd 85 15 dd bd
       -0.10016531 -0.10756446 -0.10305791 -0.1079512
000220 07 e1 7e bd 8e 76 a3 bd aa f1 90 bd 80 05 87 bd
       -0.06222632 -0.07981597 -0.07077344 -0.06592846
000230 29 91 91 bd 97 96 a8 bd 6a 5c 7f bd fc 5c 8d bd
       -0.07107765 -0.08231848 -0.062343992 -0.06902501
000240 77 29 db bd 4f 76 52 bd 42 f7 a2 bd 11 28 a1 bd
       -0.10701268 -0.05138236 -0.07957317 -0.0786897
000250 8a 21 c9 bd c8 52 d1 bd e0 02 85 bd 0c 6d cb bd
       -0.0982085 -0.102208674 -0.06494689 -0.099329084
000260 f5 0a bc bd bd ae db bd 01 07 c4 bd ee 1e c2 bd
       -0.091817774 -0.10726688 -0.095716484 -0.094785556
000270 3f 74 5a bd 15 65 49 bd 13 90 58 bd 12 31 6f bd
       -0.053333517 -0.049168665 -0.052871775 -0.058396406
000280 8b 51 d1 bd 36 de cf bd 3b c9 e0 bd 09 96 36 bd
       -0.10220631 -0.10149805 -0.10975882 -0.04457668
000290 97 b1 b1 bd 9e b4 47 bd bb 5d 5e bd 11 bf 7c bd
       -0.08676451 -0.048756234 -0.054288607 -0.061705653
0002a0 15 35 8e bd 9c 9f 55 bd bd 05 d2 bd 36 a4 d4 bd
       -0.06943718 -0.05215417 -0.10255001 -0.10382883
0002b0 31 bc 91 bd 81 c3 9c bd 2d d1 a5 bd 59 e0 75 bd
       -0.07115973 -0.07654477 -0.08096538 -0.060028408
0002c0 36 59 ab bd e5 64 c5 bd 3a 11 b9 bd 75 d6 d4 bd
       -0.08366625 -0.09638385 -0.09036489 -0.10392467
0002d0 af 8a b4 bd 82 f3 8a bd 37 e4 dc bd b6 2f a0 bd
       -0.08815514 -0.06784727 -0.10785716 -0.078216
0002e0 1c 3d ac bd 6a f4 b1 bd 98 ad 81 bd bd 4f b5 bd
       -0.08410093 -0.086891964 -0.063319385 -0.088530995
0002f0 8d b2 7e bd 39 4f 87 bd c9 8d 8d bd 40 10 7a bd
       -0.062181998 -0.066069074 -0.06911809 -0.061050653
000300 55 3b 7b bd 2b e1 b9 bd 57 8f b0 bd 73 b5 c5 bd
       -0.06133588 -0.090761505 -0.0862109 -0.09653749
000310 a7 b9 94 bd 6e 77 a7 bd 2d 32 d0 bd 0a 7d a2 bd
       -0.07261973 -0.08177076 -0.1016582 -0.079340056
000320 52 9c c8 bd 2a 27 b1 bd 9d 1e 98 bd e7 e1 71 bd
       -0.09795441 -0.08650048 -0.07427714 -0.059053328
000330 e0 ba aa bd f8 51 61 bd b7 60 96 bd 92 2e 79 bd
       -0.08336425 -0.055009812 -0.07342666 -0.06083543
000340 4a 84 9f bd fc b7 83 bd af db b2 bd 16 b8 c6 bd
       -0.07788904 -0.064315766 -0.087333076 -0.0970308
000350 44 f3 c6 bd c7 d6 9f bd d6 69 82 bd dc c3 b7 bd
       -0.09714368 -0.078046374 -0.06367843 -0.08972904
000360 6f 40 6f bd 54 91 9f bd 22 1b aa bd 2b dc aa bd
       -0.058411058 -0.07791391 -0.083059564 -0.08342775
000370 0d 6f ab bd 2e 59 87 bd 32 24 cf bd fc 6b 65 bd
       -0.08370791 -0.066088066 -0.101143256 -0.056011185
000380 8e b2 86 bd 8b 76 98 bd cb 03 a1 bd 8f d7 d0 bd
       -0.06577025 -0.07444485 -0.078620516 -0.101973645
000390 46 38 a2 bd ea ec d7 bd 18 e2 85 bd 37 6f 84 bd
       -0.079208896 -0.10543235 -0.065372646 -0.06466525
0003a0 85 e6 82 bd f1 2f 92 bd 9d 40 94 bd 7e 3d a7 bd
       -0.06391624 -0.0713805 -0.072388865 -0.081660256
0003b0 9c c8 c3 bd 30 6b b8 bd 79 29 e2 bd 18 2b 58 bd
       -0.095597476 -0.090048194 -0.110430665 -0.052775472
0003c0 c0 83 7f bd d3 1c 8d bd 90 c4 af bd 83 76 76 bd
       -0.062381506 -0.068902634 -0.08582413 -0.060171615
0003d0 21 cc 95 bd 79 eb 4c bd 33 cf 9a bd 28 55 b1 bd
       -0.07314325 -0.05002925 -0.07559051 -0.086588204
0003e0 91 97 54 bd e3 79 8c bd 8b aa 52 bd 73 e6 c4 bd
       -0.051902357 -0.068591855 -0.051432174 -0.09614267
0003f0 74 62 95 bd 0c e3 bd bd 96 ca ce bd 10 47 84 bd
       -0.07294169 -0.092718214 -0.10097234 -0.064588666

_mlp.0.bias f4 [64]
000000 b1 97 76 3d 77 df 5e bd cb 3f 7b bc 37 a9 85 3c
       0.060203258 -0.05441233 -0.015335034 0.01631604
000010 98 17 d5 3d 2a 9d 9b bc b2 ea 6a bc f2 14 02 bd
       0.10404891 -0.01899584 -0.014338182 -0.031758256
000020 c7 5c d7 bc 9f 0e 81 3b d4 66 06 3b 5c 82 54 ba
       -0.026289357 0.0039385105 0.0020508068 -0.0008106583
000030 8a aa e0 bc 63 1c ef 3c 0f 70 1a bd ef e8 c7 bc
       -0.02742507 0.02918834 -0.037704524 -0.024403064
000040 d5 e2 c1 3c ff ed ae bc 2b 80 fb 3c 22 e6 1e bd
       0.023667732 -0.02135372 0.030700764 -0.03879369
000050 04 9e b5 3c 70 9c af bc b5 76 b2 bd 0a e4 c1 b9
       0.022170074 -0.0214369 -0.08714048 -0.0003698173
000060 30 be 64 3d 6c 0c 4c bc 4e eb a3 3c 26 82 d1 3d
       0.05584544 -0.0124541335 0.020009663 0.10229902
000070 56 a4 d3 3c 95 1f 49 bd d8 e1 d7 bc 73 ce 62 3b
       0.025835197 -0.049102385 -0.026352808 0.0034607917
000080 3d dc 58 bd 56 8e d6 bb 2b 1d 68 3b 8e 40 5c bd
       -0.05294441 -0.0065477295 0.0035417776 -0.0537725
000090 73 60 d9 bb 06 4b b9 bc 2b 81 a5 3c e7 6a 10 3c
       -0.006633812 -0.022618782 0.020203194 0.00881455
0000a0 02 c6 b4 bd 42 d9 c9 3c 64 13 a5 bc 22 a2 6a bd
       -0.088268295 0.02463973 -0.020150848 -0.05728353
0000b0 c8 8c 31 bc 95 e8 52 bc 29 81 04 bc 96 53 c0 3d
       -0.0108367875 -0.012872835 -0.008087435 0.09390943
0000c0 58 09 98 3d 36 ec 8d bd 40 34 a8 bd 07 26 c2 bc
       0.07423657 -0.06929819 -0.08213091 -0.023699773
0000d0 b8 60 d1 3d 82 36 8a 3d 32 2d 5f 3b 32 71 35 3c
       0.10223526 0.06748678 0.0034054038 0.011074351
0000e0 7f 21 93 bd 34 e0 b3 3c c3 8e c1 3d 1c 51 4d bd
       -0.07184123 0.021957494 0.09451058 -0.05012618
0000f0 63 f7 9e 3d 60 e2 77 bd 18 5e e6 3c a1 d4 55 bc
       0.07762029 -0.060518622 0.02812104 -0.013051183
