Experiments/Experiments-006/checkpoints/model.pt (torch, 215231 bytes, 39 tensors)

cp.convs.0.weight f4 [2, 1, 3, 3]
00000000: 74d9 3fbe 63d6 b2be 34b9 7f3e f0d2 d7be
00000010: 0f11 a23e 7a58 0ebe 1e4b a03e 9cef d5be
00000020: a7d9 84bd 9499 cb3e 9a4e ac3d bff3 a13e
00000030: 5f8a 68be b007 f13d 1ec1 46be de67 543e
00000040: f45c b23e 404a 8ebe
-0.18735296 -0.3492919 0.24972993 -0.4215312 0.3165364 -0.13900939 0.3130731 -0.4178437
-0.064868264 0.39765608 0.084134296 0.31631276 -0.22709034 0.117690444 -0.19409606 0.20742747
0.34836543 -0.27791023

cp.convs.1.weight f4 [4, 1, 3, 3]
00000000: ecbc 1bbc 6e5f b3be 360f e53e 822d 95be
00000010: e435 f53e 190b 73be bbec 0f3f da92 00bf
00000020: 2fc8 713d 1417 d4bd 3612 ae3d 4df1 fabd
00000030: 1eb4 91be 1864 e3bc a308 b8be 80fd bdbe
00000040: cecb 813d c75d 743e b7f1 783e f56c 38be
00000050: 2beb 5ebe a828 ef3d 15e0 8dbe 487f 85be
00000060: b0cd 0abe 4277 cabd 7e49 d03a f434 acbe
00000070: 02ac fc3e 11c6 1cbd a417 9d3e 370b 90be
00000080: 7c5a 163e 9121 ee3d 4cb9 2a3e b259 123e
-0.009505492 -0.35033745 0.44738168 -0.29136282 0.47892678 -0.23734702 0.562206 -0.5022408
0.0590288 -0.10355964 0.08499567 -0.12253056 -0.2845773 -0.02775769 -0.3594409 -0.37107468
0.06337701 0.23863898 0.24310957 -0.18010314 -0.21769397 0.116776764 -0.27710024 -0.2607367
-0.13555026 -0.09886028 0.0015891043 -0.3363415 0.49349982 -0.03827483 0.306821 -0.28133556
0.14682955 0.11627496 0.16672248 0.14292029

cp.convs.2.weight f4 [8, 1, 3, 3]
00000000: ed04 b9bd cca8 c03e 1038 c9be 0303 123f
00000010: c4a4 adbd 4799 80be 5342 07bf 5b77 82be
00000020: e6fe 293f 538b 12bf 711b d53e a39b 4fbd
00000030: 15fe 293f 42c7 d1be f99f ad3e 962b 4fbe
00000040: 714c 7b3d 4dde 80be f47d ffbd 415b a6be
00000050: c23a 90be bb59 9abe 9d57 2f3e 68a1 82be
00000060: ae8e a4be f89d 5ebd 0e05 80be ae47 913e
00000070: 2dce cf3e 9064 b8bd 07dd 433e 4390 e837
00000080: 9ce6 a9bd f4d5 db3e 7f84 c53d dad8 36be
00000090: adc7 7cbe f2a9 d43d 2992 a6be 96f3 143e
000000a0: c689 91be 9bd2 26be 09cb 013d 87cc a7be
000000b0: f00f 9a3d f828 32be 65c2 aabe f1f9 443e
000000c0: d076 95be 943c a63d f965 a6bd 0ded 0abe
000000d0: eef5 80be fb93 96be d0f3 b5bd 0bc8 833d
000000e0: e7d5 893d 6529 ac3e db16 8f3d def6 2b3e
000000f0: d638 9c3e beb6 403e ef7d 593e 18b6 ba3d
00000100: 75de bcbe cc43 913d 57c6 acbe aec3 7a3e
00000110: 0a94 883d 5373 c6be eeeb b63e f6e9 17bf
-0.09034143 0.37628782 -0.39300585 0.57035846 -0.08478692 -0.2511694 -0.5283558 -0.25481686
0.6640457 -0.5724384 0.416225 -0.050685536 0.66403323 -0.40972334 0.33911112 -0.2023147
0.061352197 -0.25169602 -0.124751955 -0.32491496 -0.2816983 -0.30146584 0.17123266 -0.25513768
-0.32140106 -0.05434987 -0.25003856 0.28375 0.40586987 -0.09003556 0.19127284 2.7723732e-05
-0.082959384 0.4293667 0.09644412 -0.1785616 -0.24685545 0.10383977 -0.32533386 0.14546046
-0.28425425 -0.16291277 0.03168777 -0.3277323 0.07522571 -0.17398441 -0.33351436 0.1923597
-0.2919221 0.08117023 -0.081249185 -0.1356699 -0.2518763 -0.29409775 -0.08884394 0.064346395
0.06730252 0.33625332 0.06986781 0.16793391 0.30512112 0.1881971 0.21239446 0.09116763
-0.3688847 0.07093009 -0.3374507 0.24488708 0.06668861 -0.3875986 0.35726875 -0.5934137

cp.convs.3.weight f4 [16, 1, 3, 3]
00000000: fb17 11be 9a8c 193f 70d4 10bd a195 ecbd
00000010: 0960 27bf 73bd 013f 8ffc bdbd a813 a83e
00000020: 97eb 78be 1ed1 5e3e 210f 2bbf b9c7 2d3f
00000030: a578 c1be 5755 e43e c204 d5be 3849 173e
00000040: 6788 b13e 3e12 14bf 1aa7 8a3e 035c 2ebe
00000050: 89fd 013f fab9 dfbe f402 f83e 7533 d3be
00000060: 885a da3e 66c9 ffbe abc1 c63e 6e91 eabe
00000070: 8cba 0a3f f627 fbbe bdf7 ba3e 0f8b f5be
00000080: 1e3e f73e 4243 45be 6663 8a3e d910 333e
00000090: 7cbb cf3d bea0 8cbe fe34 83bd 36e1 18bc
000000a0: 803d b03d 3588 90be ef61 0f3d dcc6 c63d
000000b0: 93d6 90be 5606 d1bc ee00 a03d 2dc2 a13e
000000c0: c27a 9a3e c009 493d ac2b 833e bcdb 7ebe
000000d0: b47c 26be 4d58 1d3e abb6 97bd 1a41 62be
000000e0: ee79 26be bbb7 9abe e989 513e 7bf2 3fbd
000000f0: dcb6 7ebe ea72 583e 2ddc c2be e760 5dbc
00000100: 5700 593e 3f99 5f3d 5838 ad3c e09c 103d
00000110: 4c3d d13e 5ff8 d63e 69ba b53e 86bf 8e3e
00000120: d152 e3be 9e1e 78be 5355 92be 3c39 13be
00000130: 57eb f9be d941 953d 0a76 b63c 2f42 75be
00000140: 7168 ed3c 166f 87be a7da 853e 7e48 063d
00000150: cc83 81bb 0f23 babe bb37 c1bd f48d 13be
00000160: a6b2 063e c10a 93be 55c9 953e dbe0 c33e
00000170: 999d f1bd 2acd db3d e4f9 83be e2d9 e73e
00000180: 1d4f 233e 57eb 39be 07cc 093f b7f5 743e
00000190: 9af1 583e 7414 873e a5e3 2f3e 2d1b 86be
000001a0: 8f49 b93d 1017 f23d dba4 9f3e 15e8 49be
000001b0: 34d5 d4be c3f3 42be 72f6 adbd b8a5 a8be
000001c0: 1cf2 9fbe c902 d9bd 8313 c13c 51d1 c13d
000001d0: e5a3 8abe 8834 84be 473f 51be 8961 3a3d
000001e0: 3640 9bbe 0fd0 0d3e 07c6 8d3d 2e86 79be
000001f0: 68cb b0be efa8 b5be 3a24 a13d 2c01 693e
00000200: debb 08be 9ada d43e 8334 9e3e 6de8 4fbe
00000210: cbd0 c63e a9ac 883e 4890 cabd c150 31be
00000220: 178e 1c3e 7121 cfbe 6209 503e ae55 1bbf
00000230: 85d1 be3d 95b7 a8be ca2d 553e 0e7b 7fbe
-0.14169304 0.59980166 -0.035358846 -0.11551977 -0.65380913 0.506797 -0.09276687 0.32827497
-0.2430862 0.2175946 -0.6681996 0.6788288 -0.37787357 0.4459636 -0.41605192 0.14774024
0.3467438 -0.57840335 0.27080613 -0.17027287 0.5077749 -0.43696576 0.48439753 -0.41250196
0.42647195 -0.49958342 0.38819632 -0.4581408 0.541909 -0.49053925 0.36517134 -0.47957656
0.4828958 -0.19263938 0.2702896 0.17486896 0.10143182 -0.27466387 -0.06406592 -0.009331038
0.0860548 -0.28228918 0.035005506 0.09705898 -0.28288707 -0.025515717 0.07812677 0.31593457
0.30171782 0.049081564 0.25619256 -0.2488851 -0.16258508 0.15365715 -0.07407888 -0.22095147
-0.1625745 -0.302183 0.20462765 -0.046862107 -0.24874443 0.21137586 -0.38058606 -0.013511873
0.21191536 0.054589506 0.02114503 0.035305858 0.40867078 0.41986367 0.35493782 0.27880496
-0.4439912 -0.2423043 -0.28580722 -0.14377302 -0.48812363 0.0728795 0.022273082 -0.23951028
0.028980466 -0.2645194 0.2614338 0.032783978 -0.003952479 -0.36354873 -0.09434458 -0.1440962
0.13154086 -0.28719142 0.29255167 0.3825749 -0.117976375 0.10732491 -0.2577659 0.4528342
0.15948148 -0.18156181 0.53826946 0.23921858 0.21185914 0.26382792 0.17176683 -0.26192608
0.09047233 0.11820805 0.31180462 -0.19717439 -0.4156891 -0.190383 -0.08494271 -0.32938933
-0.31239402 -0.10596234 0.023568874 0.09463752 -0.27078167 -0.25821328 -0.20434295 0.045503173
-0.30322427 0.138489 0.06922536 -0.24367592 -0.34530187 -0.3548045 0.07868238 0.22754353
-0.13352916 0.4157303 0.30899438 -0.20303507 0.3883117 0.2669423 -0.09890801 -0.17315961
0.15288578 -0.404552 0.2031608 -0.6067761 0.093173064 -0.32952562 0.20818248 -0.24949285

_mlp.0.weight f4 [64, 60]
00000000: a04c b03e 800a b23e de9e c23e b41b 8a3e
00000010: 3af8 2d3e 46a4 c23e fff6 9b3e 9371 553e
00000020: 2842 803e 25ea 603e bf29 ce3e f06a 9f3e
00000030: 01ee 173e c4df 883e 39c6 2cbe fb51 e33e
00000040: b962 943e e35c 4f3e 481a a93e ccad 253e
00000050: e686 463e d056 943e f59d 16be 4de2 d93e
00000060: c512 e33e e5f2 cb3e 88f2 b83e 53ef c23e
00000070: c510 683d 4bd4 453e 122d 023e 92cb 003e
00000080: 922b d13e d6bb 653e 83aa a13e 3020 4bbe
00000090: fad3 95bd 3963 a23e ad68 ff3c 4677 e93e
000000a0: c655 55bd ea68 1e3d d442 843e f2fd 7d3e
000000b0: 25be 0b3e 2df5 393d ea0f cd3d 4283 0c3e
000000c0: 6553 933e 0253 813e 333f e43e 7b96 19be
000000d0: 1050 efbd a37a b03e f9d5 2ebe c11b 853e
000000e0: eaa8 e3bd c5fc 0c3e 4be0 b23e 76c3 b33e
000000f0: 0724 9dbd 00db de3d 4d3b a6bc c98c 6dbd
00000100: 9346 a43d 8a3d 163e 271f 173b c2a2 9a3d
00000110: 1ff3 293d b80c f23d 087d 763d 7df6 d53d
00000120: 5751 3b3d 8c8b 143e da17 ef3d 1cb3 99bd
00000130: 3f09 26bd 4739 c6bc 5a16 8dbd 4425 063d
00000140: 9cdb fd3c 678c dc3a 1b94 213d d0a7 0c3e
00000150: ccb9 e63d dcb0 1a3e b06c b4bd 0de8 f13d
00000160: 5310 263e 20bf c6bb 94a3 d2bc 5dfa 0bbd
00000170: b8a4 4fbd 7fc1 e53c 1248 53bd c142 c93b
00000180: 7fe7 8e3d e337 36bd 843c 3f3e ff15 c43d
00000190: 8426 aebd 7825 093e be13 6d3c dead b03d
000001a0: 8b35 5fbc 0b8b 39bc b2e9 0c3d 3ab6 f33d
000001b0: 3334 e43d 9979 a93c 1615 723d eafa 32bd
000001c0: 531e 9c3c 1620 f43d 0c22 61bd 3db6 b6bc
000001d0: f8d1 863d 787b 553c 0d5d 833d 0dd4 c4bb
000001e0: 12dc 843d 35dd 403e d6fa a03d 445c 8f3d
000001f0: 3f8c 2a3d ca36 fe3d 6b61 eb3c 7ef5 0c3b
00000200: 47d2 e53d 0031 9b3d 9156 51bd 6abb 103e
00000210: a7c6 d43d b120 b33d edc6 113e 3ada 153e
00000220: 82e4 3b3e c0ed b23d c020 363e be9b d4bc
00000230: e81c 023e 27b0 70bd 870b 863d 1ab3 a53d
00000240: 3c93 bfbc 8d5a 083e 7305 f23c 6ad7 2d3e
00000250: 6376 053e a6c6 d73d 94a0 193e 283d fb3d
00000260: 4cb5 803c 184d 313e 8c32 81bb 382b a3bc
00000270: 6ef1 b43d 44dd 703d a2a8 613c 19c4 da3d
00000280: fa3e 2b3e 3542 693d a11c 2b3e 9206 59bd
00000290: fa51 f6bc a3f9 03bd e0a0 5b3d abc3 1b3b
000002a0: 371e 243e f099 0ebd 428e 7abd 8a58 233d
000002b0: eb44 013d 7f7f 033e b11d 9a3c 50ba 873d
000002c0: 80e4 ac3c b476 4bbb b873 713c e1d0 5bbc
000002d0: cd1f 4f3d 1699 2b3e 785f d33d 46ba 23bd
000002e0: 306a da3d 1e1a 883d 1146 473d 15c6 033d
000002f0: aa43 ac3d 4a7b 2f3e c50b b63d 61b6 35bd
00000300: ddea 013e 4f4f 433d a2a5 143e a7ca b73c
00000310: 4936 7fbd 8022 1dbd 65f8 553d 544e 083b
00000320: 4c67 5fbc 9b78 f03d 8ef2 fc3c d009 20bd
00000330: e0d5 d33c 4e03 8d3d f282 c23d 0ed5 353a
00000340: 2b3e e83c a6f7 b83d a827 233e be9e 80bd
00000350: 21f1 aa3c 60cc 093e 321a e03c 76bb bb3d
00000360: 4017 013e f4e5 013e a58a 0c3e 9c85 de3d
00000370: 3a20 67bd 4401 bf3d 534a e5ba f8b8 363b
00000380: e47f c43d c9bb 0cbd 7ea1 ce3c d2d0 ba3c
00000390: e9f1 873d f812 b93d d59a c43d 4344 cd3d
000003a0: f5c2 c33d c683 993d ec48 903c be96 923b
000003b0: c152 fd3c 0e3a ee3d 57bb 1c3e d83e 2b3e
000003c0: 6728 a53d ee6c 053e 4f88 a83d 69af 743d
000003d0: f0db 603e b518 543e 15bf 553e 98e6 313e
000003e0: 72d0 b73d 0257 3f3e d19b 803d 54d1 173e
000003f0: e346 0c3e c058 1a3e 80a4 423e 5690 843e
0.3443346 0.34773636 0.3801183 0.2697426 0.16989222 0.38015956 0.3046188 0.20844106
0.25050473 0.21964319 0.40266225 0.31136274 0.14836885 0.2673322 -0.16872491 0.44398484
0.2898157 0.20250277 0.33027864 0.1617958 0.19387397 0.28972483 -0.14708693 0.42555466
0.44350258 0.3983375 0.36122537 0.38073215 0.056656618 0.19319265 0.12712505 0.12577656
0.40853554 0.22434935 0.31575403 -0.19836497 -0.07315822 0.31716326 0.031177843 0.4559881
-0.052083753 0.038674273 0.25832236 0.24803904 0.13646753 0.045399833 0.10012801 0.13721946
0.28774562 0.25258642 0.44579467 -0.1499881 -0.116851926 0.34468564 -0.17073812 0.25997737
-0.11116202 0.13768299 0.34936747 0.35110062 -0.07672887 0.10881615 -0.020291949 -0.05799559
0.080212735 0.14671913 0.002305934 0.07550575 0.041491624 0.11818832 0.060177833 0.104474045
0.04573187 0.14506358 0.11674471 -0.075048655 -0.04053616 -0.024197234 -0.06889029 0.032750383
0.030988507 0.0016826511 0.039447885 0.1373589 0.11265907 0.15106529 -0.08809793 0.11811838
0.16217165 -0.0060652643 -0.025712766 -0.034174312 -0.050694197 0.028046368 -0.051582403 0.006141991
0.06977748 -0.04448689 0.18675429 0.09574508 -0.0850344 0.133932 0.014470039 0.086269125
-0.0136236055 -0.011324654 0.034402557 0.11899991 0.11142769 0.020687865 0.05910214 -0.04369632
0.019057428 0.119201824 -0.05496411 -0.022303695 0.06583017 0.0130299255 0.064142324 -0.0060067237
0.064872876 0.18834384 0.07860343 0.0700002 0.041637655 0.12412794 0.028732976 0.002150863
0.11221748 0.075777054 -0.051107947 0.14133993 0.103894524 0.0874647 0.1423604 0.14634028
0.18348888 0.087367535 0.1778593 -0.02595317 0.1270634 -0.058761742 0.065451674 0.080908015
-0.023385637 0.13315792 0.029543614 0.16976705 0.13033442 0.10535936 0.15002662 0.12267524
0.01571145 0.17314565 -0.0039427932 -0.01991807 0.088351116 0.058804765 0.013773115 0.10681934
0.16723242 0.056947906 0.1671014 -0.05298478 -0.030068386 -0.032220494 0.05362022 0.002376775
0.16027151 -0.034814775 -0.061170824 0.03987936 0.031559866 0.12841605 0.018812986 0.06627333
0.021105051 -0.0031046094 0.014737062 -0.0134165 0.050567437 0.16757616 0.103209436 -0.039972566
0.10664785 0.066456065 0.048650805 0.032171328 0.084113434 0.17136875 0.088889636 -0.044363383
0.1268725 0.047683056 0.14516309 0.0224355 -0.06230763 -0.03836298 0.05223884 0.002079864
-0.013635468 0.11741754 0.030877378 -0.039071858 0.02585882 0.06885396 0.09497632 0.00069363497
0.028349956 0.0903161 0.15933096 -0.06280278 0.020866932 0.13456869 0.02735624 0.09166615
0.12606525 0.12685376 0.13724764 0.10865328 -0.056427218 0.09326413 -0.0017493464 0.0027881246
0.09594706 -0.034358773 0.02522349 0.022804651 0.066379376 0.09036821 0.09599844 0.100227855
0.095586695 0.07495837 0.017612897 0.0044735363 0.03092325 0.11632167 0.1530584 0.16723192
0.08064347 0.13029835 0.08229124 0.059737597 0.219589 0.2071255 0.20873673 0.17373121
0.08975305 0.18685535 0.062797196 0.14825946 0.13698916 0.15072918 0.19008064 0.2589137

_mlp.0.bias f4 [64]
00000000: b473 54be a197 483d 1760 38be a319 10be
00000010: 7e68 60be a363 72bd 944c 52be 22d1 8abd
00000020: 585f 103d 756c dcbd 573a d8bd 4560 d7bd
00000030: 2eda 7e3d 6f45 083d cc98 babd 568c 82be
00000040: 5505 e63c 6bce bbbe b51a 00be df32 3abe
00000050: f92f f7bd 3875 b4be c8b3 19bd 4cfb 88be
00000060: e278 7bbe 915c 82bd eef2 55be af7d 033d
00000070: ffc2 98be 418b d5bd 076c d8bd fe73 f23d
00000080: 3cf0 1dbe a0a2 2cbd 9266 1bbe 173f bb3d
00000090: 51ed fbbd 0dfb 0abc 79d0 21bd bc21 3bbe
000000a0: 6063 a8bd c12a 6c3c 2fa0 abbe ae04 7abd
000000b0: 85ab 50be 554c 813d d915 54bd 19df acbe
000000c0: 2880 5fbe 7e54 7bbd c572 94be 9e19 26be
000000d0: 8813 29be fed1 6e3d d213 85be 60e9 d3bd
000000e0: 33b4 083d e29b 08be 007a 67be b5ee b1bd
000000f0: b17b e03c 55b1 e93c 378c 84be db9c 40be
-0.20747262 0.04897273 -0.18005405 -0.1407228 -0.2191486 -0.059177052 -0.20537025 -0.0677817
0.035247177 -0.10762874 -0.105580024 -0.10516409 0.06221979 0.033269342 -0.09111175 -0.25497693
0.028078714 -0.36680922 -0.12510188 -0.18183468 -0.12069697 -0.3524568 -0.03752497 -0.26754224
-0.24557832 -0.06365312 -0.20893452 0.032102283 -0.2983627 -0.10426951 -0.105674796 0.1183853
-0.15423673 -0.04214728 -0.15175846 0.09142893 -0.12301124 -0.008482707 -0.039505456 -0.18274587
-0.08222079 0.01441449 -0.33520648 -0.06103962 -0.2037793 0.06313387 -0.051778648 -0.3376396
-0.21826231 -0.061359875 -0.28993812 -0.1622071 -0.16511357 0.058305733 -0.25991684 -0.10347247
0.033374976 -0.13340715 -0.22605133 -0.08688108 0.02740273 0.028526941 -0.25888225 -0.18809836

_mlp.2.weight f4 [64, 64]
00000000: 560f 9e3d c476 4bbd 6011 31bd b107 36be
00000010: 2c11 aa3d cff1 88be b0b4 46bc 12d6 e3bd
00000020: b8bc c5bd d441 b03c 6431 3b3d 2a29 90be
00000030: 4019 503d 1adb 2b3e 2c04 5bbd 27c6 f8bd
00000040: af82 91be 765f 1dbc 46ed 0ebd 0047 983c
00000050: f81e 28bd d0ca 0cbd 0439 1b3d dddf d1bd
00000060: b7ab e4bd 7d65 26be f0b4 41bc 7bf8 8f3c
00000070: a03f a73c f233 1d3c 90cf c63d e10a 0a3d
00000080: 5058 5e3c 671c 37bd 696e 0b3e c021 dd3b
00000090: 48bf 9cbd 00b0 70ba 5c45 8fbd a44a cbbd
000000a0: 11a3 4abe 04e6 d83d 57e5 b5bc 3cfc 70bd
000000b0: c018 0b3c 8ab4 afbd c2ae 29be 5aea 07be
000000c0: 917f 1cbe 078a ae3d f856 883d 629c 00be
000000d0: 0654 f33d e859 2bbd ac84 40bd 85ae 43bd
000000e0: a92c 13be 125d a13d 1826 673d 331a d0bd
000000f0: 42fb debd 1ccc 2b3d 0d4f 0abd 500b 323c
00000100: 5767 0fbe e5d5 253c 71e9 2f3e 2891 a63d
00000110: 7ef3 87bd cf74 293e 597f 84bd bd74 053d
00000120: 4153 163c c84b 1c3d fcaf 5bbd 50e2 21be
00000130: b027 943c fa9c 13be c8a2 79bd 4bc5 b83d
00000140: 7985 933c e2ba c5bd 5872 84bc 2f70 253e
00000150: 586e d03c 2810 cf3e 10e9 5dbd f590 18be
00000160: 00cd 6abd 10db aa3d 7579 ad3d 4afd 853d
00000170: 5a8f 1bbc 964a 1dbe e5e7 323e 165c 463b
00000180: 8aaa 85bd 49f6 323d 55f4 4fbe f888 a2bc
00000190: 5dfb bf3d e5c1 1ebe 8fec 113d 21d9 243e
000001a0: 9b68 403d 043b 523d 1bc0 123e 85f6 a13d
000001b0: f2b4 bc3d 33d8 283e 2b5c cebd d515 5dbe
000001c0: 7351 1d3c fb99 bfbc 978f 6e3e 5db6 893d
000001d0: dcb5 2ebe cb7c 143d 22f7 35be fcf8 bebd
000001e0: ff6f dabd 99b4 843d abb1 e7bd 2981 b0bd
000001f0: c00a 34bd 365f f4bd b388 fe3d 02fb 32be
00000200: 8b90 4abe 02aa 48be 684d 753d e2b0 a3be
00000210: abec 89bc 54a5 44be 4b0b c63d fb72 703d
00000220: 2782 47bd a5f4 403e 0041 733b c244 18bd
00000230: 487d 41bd 165a 5a3e 28f1 e83d 6cea 90be
00000240: b96a df3d 025a 9c3d 0612 2d3d 784f 21bd
00000250: 2386 febb 7d7e 073d 1c23 303d 7867 073e
00000260: 580f 7abe 27d4 933e 8637 043b 41ae 2a3e
00000270: e91b d13d fe24 013e 43c9 8b3d f302 c13d
00000280: 2370 d8bd 353d 9abd 2435 1a3e 5a27 e03d
00000290: a88d b63b 1839 b6bd 8694 3d3e 70af cb3c
000002a0: e19f 91bc 80df a3bc 76ed 38be dedc 88bd
000002b0: d931 55be 00cf a2ba f2f6 a53b e446 7bbb
000002c0: 753f 2ebd 782e 283a 5674 9ebd 1f88 1fbe
000002d0: 3d8a 853e f4be bd3d 1679 f53d 0cff 103e
000002e0: 44ea 0a3e 4288 02be f7bc 2b3e 01d7 a3bd
000002f0: c8b8 03bd b1a7 543d fe1e f8bd 1abe a7bd
00000300: 6a41 ca3d 422d 7d3d da58 683d 63bc e9bd
00000310: 66f9 f53d 1ce2 d33e b297 dd3d d971 43bd
00000320: 9d98 cb3c 08ac 1abd e02e b93d baf2 ddbc
00000330: 70fa a53c 5840 703d a693 813d 79d6 83bd
00000340: 5481 0ebe 7f9e 0abd d067 8bbc a4c2 ddbd
00000350: fc5c fdbd 148e 08bd d1a2 ba3d bcd4 853d
00000360: cca9 76bd 053e a5bc d93b 6b3d 30de febd
00000370: 7beb d8bd 30db fd3c 0c01 003d 647f 4cbe
00000380: 5a3c 53bc a223 933d 1a6d 85bd 50a8 f83d
00000390: 4fd2 43bd 3142 bcbd 6e17 3abe 1ec7 35bc
000003a0: 2fd0 eabd c098 33bb 20b9 fabc 6e2d e7bd
000003b0: dd59 a73c d4b6 663d 858b 3b3c 1dfd 0b3e
000003c0: 2004 f9bd 7c96 763d a4f9 b6bd ccad 673c
000003d0: 1073 abbc 8440 a1bd 4ef8 b23d bd78 4ebc
000003e0: 5bc9 ab3e b1fb 113d 4887 75bd 8308 95bd
000003f0: 1208 44bd 393b 8ebd 4a68 1cbd c09b 96bb
0.07717769 -0.04967381 -0.04322946 -0.17776372 0.083040565 -0.26746985 -0.01212804 -0.11124815
-0.09655136 0.021515764 0.0457014 -0.28156406 0.05080533 0.167828 -0.053470775 -0.121471696
-0.28420016 -0.009605279 -0.03489425 0.018588543 -0.04104516 -0.034373105 0.03789617 -0.10247777
-0.111655645 -0.16249652 -0.011822924 0.01757454 0.020416081 0.009594904 0.09707558 0.03370178
0.01357086 -0.04470482 0.13616337 0.006748408 -0.076536715 -0.00091814995 -0.06995651 -0.09926346
-0.19788767 0.10590747 -0.022204084 -0.0588343 0.008489788 -0.08579357 -0.16570571 -0.13272992
-0.15283038 0.085224204 0.06657213 -0.12559655 0.118812606 -0.04183379 -0.047001526 -0.047773857
-0.14372505 0.0787908 0.056432813 -0.10161247 -0.108877674 0.0419427 -0.033766795 0.010866955
-0.14004265 0.010121797 0.17178895 0.08133155 -0.06638239 0.16548465 -0.06469602 0.032582033
0.009175123 0.038158208 -0.05363463 -0.15808988 0.01808533 -0.1441535 -0.060946256 0.09022006
0.01800798 -0.09654786 -0.016167805 0.16156076 0.025443241 0.40442014 -0.054177344 -0.14899047
-0.05732441 0.08342564 0.08470432 0.06542452 -0.009494627 -0.15360484 0.17471273 0.003026729
-0.06526668 0.043691907 -0.20308049 -0.019840702 0.093741156 -0.15503652 0.03562599 0.16098453
0.04697476 0.051325813 0.14331095 0.07908348 0.092142 0.16488723 -0.100761734 -0.2159036
0.009601939 -0.023388853 0.23296963 0.06724236 -0.17061561 0.036251824 -0.17770055 -0.09324834
-0.10665893 0.06479759 -0.11313184 -0.08618385 -0.043955564 -0.119322225 0.12428417 -0.17478564
-0.19781701 -0.19596103 0.059888273 -0.31970888 -0.016836485 -0.19203693 0.09670123 0.058703404
-0.048708107 0.18843324 0.00371176 -0.037174948 -0.047238618 0.21323428 0.11374122 -0.2830385
0.109090276 0.07634355 0.042253517 -0.039382428 -0.007767455 0.033079613 0.043002233 0.13223064
-0.24419916 0.28872797 0.0020174696 0.16668035 0.102104016 0.12611768 0.06825497 0.09424391
-0.105682634 -0.075312056 0.15059334 0.10945006 0.005571086 -0.088976085 0.18513688 0.024863929
-0.017776432 -0.020004034 -0.18059334 -0.06682752 -0.20819797 -0.001242131 0.0050648386 -0.0038341815
-0.042540986 0.0006415616 -0.07737033 -0.1557927 0.2608203 0.09264937 0.11985986 0.14159793
0.13565928 -0.1274729 0.16771303 -0.07999993 -0.032158643 0.051917735 -0.12115286 -0.08190556
0.09875758 0.06181074 0.05672536 -0.11412885 0.120104596 0.41383445 0.10819949 -0.047715995
0.024853045 -0.037761718 0.09042144 -0.02709328 0.02026102 0.058655113 0.0632699 -0.06437392
-0.13916522 -0.03384256 -0.017017275 -0.108281404 -0.12371251 -0.03333862 0.09113086 0.065347165
-0.060220525 -0.020171175 0.057430122 -0.12444723 -0.10591789 0.030988306 0.031251 -0.1997047
-0.012892807 0.07184531 -0.0651495 0.12141478 -0.047807988 -0.091923125 -0.18173 -0.0110948365
-0.11465489 -0.0027404279 -0.030605853 -0.11287962 0.020428592 0.056326702 0.011446838 0.13670774
-0.1215899 0.060202107 -0.08934334 0.0141405575 -0.02092889 -0.078736335 0.087387666 -0.012602028
0.3355206 0.035640422 -0.059943467 -0.07277014 -0.04785926 -0.069448896 -0.038185395 -0.0045962036

_mlp.2.bias f4 [64]
00000000: 095c 72be 7fc8 90be c695 e23d df8e a4bd
00000010: a1b5 7a3e 6de9 69be 6a02 67bd 33ea 76bd
00000020: 5d40 3ebe 9bf9 2dbe 2e9c ddbd 8df6 39bd
00000030: 429f 293e 5d1f c33d 27ab 23be 1e69 13bd
00000040: 32e4 e53c e973 31be 65f4 7fbe 9e43 5f3b
00000050: 48de 07be e4a7 7abd bc0a d83b cf33 8fbe
00000060: 2ebd eebd e7ab 10bd 2ba4 6ebd 1204 a4bd
00000070: b0ab 84be 3ee5 07be 0e51 0abe c96c 35be
00000080: f247 3bbe 7a78 3fbe 0f57 00be 639c 32be
00000090: 9de3 a4be aa85 fcbd d8d5 b7bd b3e5 0fbe
000000a0: 5a2f 85be c688 853d 3297 04be d0cd c63c
000000b0: 6e05 1cbe 48f5 84be ddf7 40be 4108 4ebe
000000c0: b7a6 59bc f743 f7bc 1ef7 38be 7019 efbd
000000d0: 0fdc 98bc 6f10 0dbc e2dd 093e e283 b4bd
000000e0: 970f 10be b135 adbd a97c 22be 7df7 6cbb
000000f0: 109d 3fbe b846 14be 6d29 0abe 1103 88bd
-0.23667921 -0.28277966 0.11063723 -0.08035063 0.24483348 -0.22842951 -0.056398787 -0.060281944
-0.1857924 -0.16989748 -0.108208045 -0.045401145 0.16564658 0.095274664 -0.15983258 -0.03598892
0.028062914 -0.17329372 -0.24995573 0.0034067403 -0.13268387 -0.06119527 0.0065930765 -0.27969214
-0.11657177 -0.03532019 -0.05826203 -0.08008589 -0.25912237 -0.13271043 -0.13507482 -0.1771728
-0.18289164 -0.18698302 -0.1253321 -0.1744247 -0.32204905 -0.12330182 -0.08976334 -0.14052467
-0.2601269 0.06520228 -0.12948301 0.02426806 -0.15236446 -0.25968385 -0.18844552 -0.20120336
-0.013284377 -0.030183775 -0.18063018 -0.11674774 -0.01865962 -0.008609875 0.13463548 -0.08814217
-0.14068447 -0.084575064 -0.15867867 -0.0036158257 -0.18712258 -0.14480102 -0.13492365 -0.0664121

_mlp.4.weight f4 [64, 64]
00000000: 92b3 523e b46e ac3d fd1c d1bd a4c5 423c
00000010: db04 9a3d 8c4f 9c3d 54f9 30bd d585 2cbe
00000020: fc59 67be f25c d83c 83fe d8bd d1c0 b4bc
00000030: f570 033e 626b eabd 1546 243e e02d 8bbd
00000040: db31 70bd 5871 6ebd adc0 a8bd c55b 01be
00000050: c133 43be 5f0a 343d 5eb7 a2bd fa52 973c
00000060: 7dd4 9dbd 915d edbc ffd1 30be 110b 1b3e
00000070: 46be 083e 2a00 013d 1c49 87bc f08f c4bd
00000080: 0eea 26bd 9e06 abbd 1210 d7bd 4b99 cd3d
00000090: 1b87 ecbd e9c6 bebb d116 b8bd 54c2 1fbe
000000a0: 8730 823c 7c82 a4bd 6871 893c 0c8c 8a3d
000000b0: 9cd7 683d 64d0 0b3e ee47 cb3d df24 c73c
000000c0: 2a43 22be 719c 47bd 2e1e 603d e57f a5ba
000000d0: 69af c4bd 0df2 06be 7ced 50be ba53 833d
000000e0: 6590 4abd 36c1 84bd 7fa8 473e 5afe 293e
000000f0: 5ba7 e13c 8d14 a5bd 7594 253e f283 a53c
00000100: 8dea fc3c c53b a7bd febf 60be eb8b 08bd
00000110: dd6f f1bd 1db6 b73d 172e 693d 348d dabd
00000120: 2ba7 8dbd 143b 883d fe39 473d 408d 123c
00000130: 67cd 81bc 7e8d 68bd 2887 0fbe bcf9 2a3d
00000140: e07a 4d3d 63b0 e63d 255a c3bd e7e2 283e
00000150: 42ba 9e3d 18da e8bd def4 a43d 6a2a 9ebd
00000160: e0ca f23d 4458 103e 6ebe 803d 94fa 38bc
00000170: 2cbb 2c3e b36d 78bd 8f6a 96bc e895 4d3c
00000180: 9587 90bd 641f 903d b191 56be eb2e 1bbe
00000190: e2c6 cdbd d03b 8ebc 96c3 c9bd e90f 1ebc
000001a0: f48e c1bd 5c86 05be 8b35 13bd f04d 353d
000001b0: a84b 10bd 1928 a9bd f842 81bc a5a0 423d
000001c0: 8b30 b7bc 3193 87bb 67df 213d d232 203e
000001d0: 4ca1 183d 1f17 8a3c 9481 2a3e 91ea 943d
000001e0: 2177 a3bd 73d6 e4bb 19c4 083e d014 06bd
000001f0: e791 2c3d e3ef 72bc a286 9f3d bee5 93bd
00000200: 3287 9bbd 5e4b 81bd 8965 6fbd 4a32 cebc
00000210: 2d50 73bd e20d 76bc a67c 043e 32e8 283e
00000220: b488 96b9 590f e1bc e0eb 793d 2a1e a53c
00000230: 5034 a3bd ae4e 11bc aee7 0e3c 764d 80bc
00000240: 1088 11bc 4ddc 37bc 106a 223d 005d e23b
00000250: 9a3a 2cbe 86c1 c73d 6bbc a4bd 8080 9ebd
00000260: 6da4 6a3d 73e3 a1bd e1dc 15be 95ad 22be
00000270: 5ba5 393d a2da 013e ebbe 2fbe bce5 183d
00000280: 903c b6bd 1083 8d3c c772 34bd 52b6 f6bc
00000290: d790 e33c c447 3a3e babf fc3b 3f5c 1bbc
000002a0: 1221 513e 725a 1ebe d811 8a3d 22a4 193d
000002b0: 2a84 bc3d 1838 56bd ab12 a9bd 6471 373d
000002c0: 18ac 61bd 0ff6 f93d 8e19 aebb 0c74 d43d
000002d0: 8417 d7bd e527 a4bd 2d81 a43d 1ebf 06bd
000002e0: ac60 0dbe 65b7 c93c 320b a0bd 1703 02bc
000002f0: 0cb5 87bd 1544 8f3d 7a8a 8a3d 2429 813d
00000300: d3bc 96ba 021a f63d 7529 92bd cba8 dc3d
00000310: 9a7f b8bd 0ad6 efbd ef76 1ebe 17bf ca3d
00000320: f683 703c 6054 56bc 9b18 c93d 10c2 573d
00000330: c27c 2b3c f21d f9bd c3fc e93d 2471 d7bd
00000340: 5a82 c7bd da04 72bd ec73 aa3c e3f2 5b3d
00000350: e579 90bd 5362 23be b19e 5bbd 8bbe 823d
00000360: 4092 8dbd 0294 8e3c 918d cbbd 5aec 423c
00000370: 0e5d f03c 6e46 123e 5c2a 283d 8237 ddbd
00000380: 64c5 f7bd b0c5 acbd a822 47be 20cd f43d
00000390: 7456 753d fc0b 30bd 7d27 91bd 3fe4 03bc
000003a0: 6d66 0a3e 08a0 8ebd 3625 15be 2dd4 cdbd
000003b0: a040 6b3d 6472 1e3d c89f 7dbd 2f90 d23d
000003c0: 702d 99bc ba6b 903b 0d8f 923d ab64 58bc
000003d0: 6813 333d 25d1 343d a657 b73d f663 7e3d
000003e0: d96a ab3d 4c46 1d3b 8eac 91bd 9d3e a3bc
000003f0: 65f7 443d 98cc 7cbc 9cb1 a93d 5c29 5bbd
0.20576313 0.084195524 -0.10210607 0.0118879415 0.07520457 0.0763236 -0.043206528 -0.16847928
-0.2259292 0.026411507 -0.10595419 -0.022064598 0.12836058 -0.11446263 0.16042359 -0.06795859
-0.058641296 -0.05821356 -0.08239875 -0.12632664 -0.19062711 0.043955203 -0.07945131 0.018472183
-0.077065445 -0.02897528 -0.17267607 0.1514094 0.13353834 0.031494297 -0.016514353 -0.095977664
-0.040750556 -0.083508715 -0.10501112 0.10039004 -0.11549207 -0.005822052 -0.08988727 -0.15601474
0.01589228 -0.080327004 0.01677771 0.06764993 0.056846246 0.13653713 0.09925829 0.024309574
-0.15845934 -0.04873318 0.05471628 -0.0012626617 -0.09603769 -0.13178273 -0.20403093 0.06412454
-0.04945411 -0.064821646 0.1949787 0.16600934 0.027545622 -0.080605604 0.16169913 0.020204518
0.030873561 -0.08165697 -0.21948239 -0.03333656 -0.11788914 0.08970282 0.05692872 -0.106714636
-0.069166504 0.06651893 0.04863929 0.008944809 -0.015845014 -0.056775562 -0.14016402 0.04174207
0.05016601 0.11264112 -0.09538678 0.16492806 0.077503696 -0.11369723 0.08054517 -0.077229336
0.118551016 0.1409617 0.062863216 -0.011290211 0.16868275 -0.060651492 -0.018361358 0.0125479475
-0.0705711 0.07037237 -0.20954014 -0.15154617 -0.100476995 -0.017362505 -0.09851758 -0.009647348
-0.09451094 -0.13039535 -0.035939734 0.04426378 -0.0352284 -0.08259601 -0.015779004 0.047516484
-0.022362014 -0.0041374196 0.039519694 0.15644386 0.0372632 0.016856728 0.16650993 0.072713025
-0.079817064 -0.006983572 0.13356055 -0.032734692 0.04213133 -0.014827701 0.07789351 -0.07221554
-0.07594146 -0.06313203 -0.05844644 -0.025170464 -0.059402633 -0.015017958 0.12938175 0.16494825
-0.0002871208 -0.027473139 0.061015964 0.020155985 -0.07968962 -0.008868856 0.008722229 -0.015661936
-0.0088825375 -0.011221957 0.03965193 0.006908059 -0.1681923 0.097537085 -0.080437504 -0.07739353
0.057285715 -0.079047106 -0.1463504 -0.15886529 0.04532371 0.12681058 -0.17162673 0.037328467
-0.0889827 0.01727441 -0.044054773 -0.030116234 0.027779026 0.18191439 0.0077132853 -0.009482442
0.20422772 -0.1546419 0.06741685 0.037510045 0.09204896 -0.05229959 -0.08255514 0.044785872
-0.055095762 0.12205135 -0.005313105 0.10373697 -0.10502532 -0.08015422 0.08032451 -0.032897107
-0.13806409 0.024623582 -0.07814635 -0.007935307 -0.06626329 0.069954075 0.067646936 0.06306675
-0.0011500366 0.12016679 -0.071368136 0.10774382 -0.09008713 -0.117107466 -0.15475057 0.09899729
0.014679899 -0.01308164 0.09819146 0.052675307 0.010466756 -0.12163915 0.114251636 -0.10519627
-0.097416595 -0.059086658 0.020807229 0.05369843 -0.070544995 -0.15955476 -0.053618137 0.063839994
-0.069126606 0.01740456 -0.09939111 0.011897171 0.029341247 0.1428468 0.041056022 -0.10801603
-0.12098196 -0.084361434 -0.19446814 0.11953187 0.0598969 -0.04298018 -0.0708761 -0.008050024
0.13515635 -0.06964117 -0.14564976 -0.10050235 0.057434678 0.03868331 -0.061919957 0.10281407
-0.018698424 0.0044073733 0.07156191 -0.013207595 0.04371968 0.04414477 0.089522645 0.06210705
0.08369989 0.00239982 -0.0711299 -0.019927317 0.048087496 -0.015429638 0.082858294 -0.05350624

_mlp.4.bias f4 [64]
00000000: 35c9 53be b85a debe 5f1b aabd 11df 36bd
00000010: 11f4 243e 48af 03bd d11b 003e 95e6 0fbe
00000020: 019e ba3b ad2c d9bd ebf4 06be 5c75 523b
00000030: 6d0e 8fbe c196 a23d 4c2e c43b 7b0d 01be
00000040: 4b1f 19be f203 1a3d db9b 12be 3ab9 a8ba
00000050: cc54 62be 01c3 9ebe 3384 39be 6d88 913d
00000060: 7890 88bb 5e80 3bbe 9622 f6bd f2bf 15bd
00000070: 75e6 56be 0f2e f8bd 63dd 6bbe f6bb 8c3d
00000080: 0712 3b3c 0d72 06be dc5a 25be d12b e83b
00000090: c8cd 943e 2d1b ccbc 1f1c 3abe e6f5 e5bd
000000a0: e8e0 6abe 6c97 8bbc d1bd cabe eadc 0bbd
000000b0: e79b 9dbb f5ec 68be 5e90 8ebd eabd 38ba
000000c0: e562 24be 4263 ef3c 48e6 0a3c 3c2c 25be
000000d0: abda e9bc e0f9 60be 4c4c d3bc b362 17be
000000e0: 5446 98be d5f0 abbd 2bdc 29bc bf73 cb3c
000000f0: 6a55 0ebe b06b dabd 3833 62bc c2de 5bbe
-0.20682223 -0.43428588 -0.08306002 -0.044646326 0.16108729 -0.032149583 0.12510611 -0.14052804
0.005695105 -0.10604224 -0.13179366 0.0032113409 -0.27940693 0.0793891 0.0059869643 -0.12602799
-0.14953344 0.03760142 -0.14317267 -0.0012872585 -0.2210266 -0.3100815 -0.18116836 0.07106099
-0.0041676126 -0.18310687 -0.120183155 -0.036560006 -0.2098635 -0.1211816 -0.23033671 0.06871788
0.011417872 -0.13129444 -0.16147941 0.0070853014 0.2906325 -0.024915302 -0.1817479 -0.11228542
-0.22937357 -0.017039977 -0.39597943 -0.034146227 -0.004809845 -0.22746642 -0.069611296 -0.00070473424
-0.1605335 0.029222135 0.008477755 -0.16130155 -0.028546652 -0.2197032 -0.025793217 -0.14783745
-0.29741156 -0.083955444 -0.010367434 0.024835465 -0.1389977 -0.10665071 -0.013806157 -0.21471694

_mlp.6.weight f4 [64, 64]
00000000: 7669 ec3c cb3d cdbd 308b 68bd 5bde 793d
00000010: 0865 05be 840c d4bd 7fe8 b9bc a9ad 38bd
00000020: 9af5 203e 957e 4a3c e64e d9bd 0f34 8d3d
00000030: 79be fcbc 4226 103d a8c1 c93c 536a d4bd
00000040: eb5b 26be c3ab 753d 4327 e9bd c6aa d1bd
00000050: 1482 f13c 726d 433e 35fd 32be cf98 4d3d
00000060: f9cb 2e3d e68c b13c b2e0 45bd 43e4 12be
00000070: a2f9 7bbd bcc0 38bd 34d4 6ebd d98a 0a3e
00000080: d2f8 e7bc ec32 563d 63d4 de3b bdea 24bc
00000090: 7722 813e c580 8c3d 5d44 963d 2c21 4f3d
000000a0: 5fd9 953e 2d4e 123e 2a3a 193d 07dd ef3c
000000b0: b53e db3c 805e 1fbd 208d b9bc b460 dabd
000000c0: 6639 1abe 4d65 a53d 362a 793d 1c0b cdbd
000000d0: be22 9fbe 7725 a1bd ed0f 883d 0d98 11be
000000e0: 6dea afbd 8013 f3bc ff08 973d 6f5d ffbd
000000f0: c0e7 c2bb ceac 613d 71b8 9b3d a2bc e9bc
00000100: 5bb8 d6bd eff0 2bbe 0e93 c33c 4055 2dbe
00000110: 938a 893c 7451 f0bd f6d0 d0bd 6ea6 e9bd
00000120: f4f6 8d3d 9654 2d3d 11d4 2d3d c026 d1bd
00000130: ac2d fd3c 7c07 f23d 86a5 863d 5115 f1bd
00000140: 34fd 9b3d 363a dabd 48c5 4cbd a081 0ebe
00000150: d9ec aabd 78fb d8bd e956 00be a549 bcbd
00000160: 4a5f f3bd 8d92 03be 5e2c d03c f20b aebd
00000170: f0b7 7abd 504d 2ebd 5091 c73c d1dd 01be
00000180: 2cf3 2cbe b0ba e73d ea1f bc3d 898d a23b
00000190: a8e6 1cbd 485e 8fbd c4d1 a9bd 6c25 1b3d
000001a0: 602f 1abd 1884 00bd 8c2c 0e3d 660d 1cbe
000001b0: 0ffe 7f3d ae03 29be dfd2 a0bd e171 2a3c
000001c0: 63d7 25be 2aba 1abe b544 04be c51a 2cbe
000001d0: 4176 6fbd 149b 00bd 58aa d23d bd12 42bd
000001e0: 2da1 4e3d 2e47 b2bd c1e0 1ebe a65e 3e3c
000001f0: 0317 61bd 189e 86bc d5cf 053d c69b cabd
00000200: 5442 21bd 40b2 0c3d c875 2fbd 404a 02bd
00000210: 983c c2bd 4446 ca3d 5252 53bd 9045 d83b
00000220: a015 ecbd 8a3b 0fbe e0be 9fbc 40be 6bbb
00000230: c8d8 d0bd 398b e93c f8e4 963c b8f2 5abd
00000240: 2ae9 f4bd a22e e1bd 108d 5ebc d491 073d
00000250: 50fb f73d 867d ff3d d258 cabd 55e9 813b
00000260: 1c01 d9bd 72a5 c3bd 0073 64bb 18a9 cbbc
00000270: e89e 79bd 7842 c9bd 704c 79bc dc58 35be
00000280: 303e 953c f0f2 c7bc 462b c73d 2699 aebd
00000290: a994 e7bd 0230 ad3d dad7 ab3d d6d0 9bbd
000002a0: 0056 66bc e808 b33c 862e c53d 1cf8 013d
000002b0: 1248 ec3d 56e9 a9bd 582c 96bd 18b2 18bd
000002c0: 78fb d7bd 7cd5 cabd c878 863d 269a ea3d
000002d0: 0cfe b13d 2a8b 813d 8455 b13d 0607 bc3d
000002e0: c025 4a3c acb2 9f3d b05d 22bd cc54 303d
000002f0: b8e2 d1bd 6441 babc aeb1 aebd 087f be3d
00000300: d1de 993d f59c d8bc b164 743d 6e1f ad3d
00000310: a5da 0ebe c96f e13b 106d 2d3d 384c f83d
00000320: d08d 493d 0d5b cf3d dc13 093e 2fef 7f3d
00000330: 085e dbbd 6667 1b3c 8c81 053d d254 4a3d
00000340: c425 da3d b7a1 163d 2f4e d13d 9f5d f33d
00000350: 881e e63b 18b4 7f3d b7aa 053e bfb9 7ebc
00000360: f0c0 163e 5461 943d 1faa ec3d 7410 7bbd
00000370: 9e18 f3bd bd5a e6bc 0cca f53d 28b5 62bd
00000380: 0980 29bd fd19 87bc 5825 5c3d 984b b4bd
00000390: 7508 8fbd 525f c7bd e157 a33d 841c 743d
000003a0: 7034 d63d 1ded 01bd ef37 913d 2d71 96bd
000003b0: f8e2 a53d f57c d2bc 04c0 b63d 1618 0a3d
000003c0: 6a02 c63d b8f7 053e 0db4 d13c 7329 423c
000003d0: 7f5f 233e f9e9 8b3d 0242 63bd 4c59 813d
000003e0: 1f96 963d f0a7 f2bd 5497 ed3d 56bd 193e
000003f0: 2ed6 c13c 3095 32bd 2786 633d 2b08 923d
0.028858881 -0.10021552 -0.056773365 0.06100307 -0.13026822 -0.1035395 -0.02269387 -0.04508749
0.1571869 0.012359281 -0.10610752 0.06894695 -0.030852543 0.035192735 0.024628475 -0.10371842
-0.16246001 0.059978258 -0.11384442 -0.102376506 0.029480971 0.19084719 -0.17479403 0.050194558
0.042674992 0.02167363 -0.04830999 -0.14344887 -0.061517365 -0.04510568 -0.05830784 0.13529529
-0.028316889 0.052294657 0.006800221 -0.010065732 0.25221607 0.06860498 0.07337258 0.050568745
0.29267403 0.14287634 0.037408985 0.029280199 0.0267633 -0.03890848 -0.022650301 -0.10662976
-0.15060958 0.08075962 0.06083127 -0.100118846 -0.31081194 -0.07868474 0.066436626 -0.14218159
-0.08589635 -0.029672384 0.07374763 -0.12468993 -0.005948037 0.05509644 0.07603539 -0.02853233
-0.10484382 -0.16791128 0.023873832 -0.16927052 0.01678971 -0.11734286 -0.10196106 -0.11408697
0.06931868 0.042316996 0.04243857 -0.10212469 0.030905567 0.11817834 0.0657454 -0.11771644
0.07616654 -0.10655634 -0.04999283 -0.13916636 -0.08345956 -0.10594839 -0.12533154 -0.09193734
-0.11883409 -0.12848873 0.02541178 -0.08498372 -0.061210573 -0.0425542 0.024361283 -0.12682272
-0.16889638 0.11314905 0.091857746 0.00496072 -0.03830591 -0.070004046 -0.08291963 0.037877485
-0.037642837 -0.031375974 0.034710452 -0.15239486 0.06249815 -0.1650531 -0.078527205 0.010403127
-0.16195445 -0.15110078 -0.12916835 -0.16807087 -0.058462385 -0.031397894 0.10286397 -0.04738115
0.050446678 -0.08704983 -0.15515424 0.011619246 -0.054953586 -0.016432807 0.032668907 -0.09892993
-0.039369896 0.03434968 -0.042836934 -0.03180909 -0.094842136 0.09876683 -0.05159218 0.0066000894
-0.11527562 -0.13987556 -0.019500196 -0.0035971552 -0.10197598 0.02850877 0.018419728 -0.05345413
-0.11958535 -0.10995223 -0.013583437 0.033098057 0.12108481 0.124751136 -0.098802224 0.003964583
-0.10595915 -0.095530406 -0.0034858584 -0.024860904 -0.06094256 -0.09827131 -0.015215978 -0.17709678
0.01821813 -0.024407834 0.09725051 -0.085253045 -0.113076515 0.084564224 0.0839078 -0.07608192
-0.01405859 0.021854833 0.09628014 0.031730756 0.11537184 -0.082964584 -0.07332677 -0.03727922
-0.10546011 -0.09904 0.06566006 0.11455183 0.08691034 0.063253716 0.08658889 0.09181027
0.012338102 0.07797751 -0.03964013 0.04304962 -0.10248321 -0.022736259 -0.085299835 0.09301573
0.07513202 -0.02644203 0.05966634 0.0845326 -0.13950594 0.006879781 0.04234034 0.121239126
0.04920751 0.101247884 0.13386482 0.062483963 -0.107112944 0.009485101 0.03259425 0.049397297
0.106517345 0.036775317 0.102199905 0.11883091 0.0070226826 0.06242761 0.13053404 -0.015547215
0.14722037 0.07245126 0.115558855 -0.061294988 -0.1186993 -0.02811944 0.12001428 -0.055348545
-0.04138187 -0.016491884 0.05374655 -0.08803481 -0.06984035 -0.09734978 0.07975746 0.059597507
0.104592204 -0.03172027 0.070907466 -0.07345805 0.080999315 -0.02569435 0.08923343 0.033714376
0.09668429 0.13082778 0.02559855 0.011850703 0.15954398 0.06831736 -0.05548287 0.0631586
0.07352852 -0.11848438 0.11601129 0.15013632 0.0236617 -0.043599308 0.05554786 0.07130464

_mlp.6.bias f4 [64]
00000000: 939d 163e b46f 30be 0295 d8bd 92d1 c5bd
00000010: 380e c9bd 09ce 32be 33db 7bbe 9c70 ebbd
00000020: f4ea 23bd 818a 33be 1844 babd 981d 46be
00000030: 7713 90bd 63b1 dc3d 6460 6e3c 1486 ce3d
00000040: 9c63 dfbd 184a 17bc 56a1 2e3d adaa 26be
00000050: 5adb 3b3b 3fc0 b83d 2068 913e d1a8 51be
00000060: bac5 d1bc 2ea7 dcbd 82c1 0ebe f8d7 98bc
00000070: 2fe6 4fbe 7967 323e 25cf 27bc a9f8 313d
00000080: 6431 7a3e 83c4 fdbd 6556 ecbd 3428 023e
00000090: c788 10be 40ba 0b3e 70c8 0bbd 6278 50be
000000a0: 706c a63e 619e 65be 5bfd 1f3e 8d2a 8d3e
000000b0: cb15 f2bd 5458 95be cb66 42be b94b a0bd
000000c0: 4e4b 3bbe 1b67 153d cfbe 8abe d3b0 27be
000000d0: 1cc3 333e 85af cbbd 8a37 4a3e b022 55be
000000e0: e7b2 f7bd f974 d13d a0ca 59bd ee7e cebd
000000f0: ce7f 833e fedb 233d 69bd 0e3e 797a 08be
0.14708547 -0.17230111 -0.10575296 -0.09659113 -0.09817165 -0.17461409 -0.24595337 -0.11496088
-0.04001899 -0.17533304 -0.09095019 -0.19347227 -0.070349626 0.10776021 0.0145493485 0.10084167
-0.10907671 -0.009233974 0.04263433 -0.16276045 0.002866468 0.09021043 0.28399754 -0.20474555
-0.025606979 -0.107740745 -0.13941005 -0.01865767 -0.20302652 0.17422284 -0.010242258 0.04345003
0.24432904 -0.12390997 -0.11539916 0.12710649 -0.14114676 0.13645267 -0.0341267 -0.20358422
0.32504606 -0.22423698 0.15623991 0.27571526 -0.11820563 -0.29168952 -0.18984525 -0.07826943
-0.18290445 0.036475282 -0.270987 -0.16376047 0.17554897 -0.09945587 0.19747749 -0.20814013
-0.1209467 0.10227389 -0.053171754 -0.10082804 0.25683445 0.040004723 0.13939442 -0.1332797

_mlp.8.weight f4 [1, 64]
00000000: 896d 11bd 824c 7abc 06c0 973d 7b12 853d
00000010: e653 533d 4e39 873c fa5a 213d 21e8 2cbd
00000020: 9ceb 573d b9c6 10bd 6cf4 483d b2ba 043e
00000030: baa3 c13c 6b5f 8abd 2954 9aba 03df a4bd
00000040: 1673 4bbd 55fc 8b39 b1a7 03bc fe69 443d
00000050: 7fac 1a3d b061 b8bd 6525 54be 0a6d ff3c
00000060: f703 c73d 9f34 82bc bfd9 953d d223 d03d
00000070: 1fe9 bd3d c6b1 03be 3bf1 023e 2187 933d
00000080: 4fda f0bd a937 07bc f236 1ebd 8e34 aabd
00000090: 297a 153e 7ee9 47bd 2d37 113d 6d5a dd3d
000000a0: 902b d4bd 4d26 08be 6f20 1cbd 1f0b 70be
000000b0: 4c86 fe3d a485 1bbe 6fd6 6e3d 6c3e 41bd
000000c0: 2032 84bd 0d14 fabc e033 3ebd 6639 7a3c
000000d0: c500 fbbd 4ca0 0abe a8df cbbd 7de2 153a
000000e0: 6b1b 273b 8d4a a6bc 4e5c ce3a 2766 483c
000000f0: 8141 02bc 7087 2b3a 286d f5bd 3cd5 bb3d
-0.03550485 -0.01527703 0.074096724 0.064976655 0.051593684 0.016506817 0.039393403 -0.042213563
0.05271493 -0.035345767 0.049061224 0.12961844 0.023637641 -0.06756481 -0.0011774349 -0.080503486
-0.0496703 0.00026700148 -0.008035586 0.047952645 0.03776216 -0.090030074 -0.2071739 0.031179924
0.09717553 -0.015894232 0.073169224 0.10163082 0.0927298 -0.12860784 0.12787335 0.07203508
-0.11760389 -0.0082530165 -0.03862662 -0.08310805 0.14597382 -0.04880666 0.03545301 0.10808263
-0.103598714 -0.1329586 -0.03811687 -0.23441742 0.12427959 -0.15187699 0.05830997 -0.04717867
-0.06454873 -0.03052714 -0.04643619 0.015272474 -0.12256006 -0.13537711 -0.099547684 0.00057176483
0.002549852 -0.02029922 0.0015744062 0.012231386 -0.007950188 0.0006543314 -0.119837105 0.091715306

exp_avg f4 [2, 1, 3, 3]
00000000: 096f 64b8 8f3e 87b7 5194 3739 bfc1 1436
00000010: b353 fe38 09a9 5a38 b883 2e39 a32a 0637
00000020: 6a08 7bb8 e20f 53b9 26bd 37b9 9ade 4db9
00000030: fbc1 34b9 06c0 4fb9 c3dd 32b9 e456 3eb9
00000040: ee06 49b9 f006 26b9
-5.4462846e-05 -1.6122385e-05 0.00017507492 2.2166494e-06 0.00012127254 5.2132677e-05 0.00016643002 7.9969495e-06
-5.98509e-05 -0.00020128445 -0.00017522703 -0.00019633249 -0.00017238401 -0.00019812593 -0.00017058016 -0.00018152181
-0.00019171435 -0.00015833578

exp_avg_sq f4 [2, 1, 3, 3]
00000000: 2c93 e737 764e ec37 a3a9 f538 6668 bb37
00000010: 7625 bb38 088c 1f38 3209 f238 0f73 bf37
00000020: ac23 1938 8b2a 8f38 43cc b938 b944 8938
00000030: df41 b638 9931 9438 2f65 9e38 3905 9e38
00000040: e217 9538 5e71 a238
2.7605878e-05 2.8169929e-05 0.00011714108 2.2340751e-05 8.9238325e-05 3.803897e-05 0.00011541172 2.2822553e-05
3.6511265e-05 6.8266956e-05 8.859534e-05 6.54547e-05 8.690706e-05 7.066428e-05 7.552874e-05 7.535e-05
7.109322e-05 7.745878e-05

exp_avg f4 [4, 1, 3, 3]
00000000: 7600 43b8 f6c7 10b8 a71d e238 4d17 80b7
00000010: 35fe 9938 6bb2 dc34 29e0 f038 24c1 05b8
00000020: 3cb6 d2b7 2ffd 4c38 0911 4a38 ee5e 4638
00000030: 9b47 4e38 b633 5138 6259 5238 c9c8 5238
00000040: 449d 4c38 148b 3838 7a19 4e38 1819 7338
00000050: d33c 7f38 e55f 6438 05d9 8438 6801 8638
00000060: a2f5 6538 3c92 7a38 0e02 7a38 5c33 fbb8
00000070: 7765 19b9 53fe fcb8 12bf 13b9 9e2d 00b9
00000080: 0e9d 0eb9 f93a 0bb9 441c 06b9 dcdd 10b9
-4.6492052e-05 -3.4518504e-05 0.00010782043 -1.526964e-05 7.342958e-05 4.110801e-07 0.00011485845 -3.1889547e-05
-2.511881e-05 4.8873186e-05 4.817642e-05 4.729529e-05 4.9180915e-05 4.9877643e-05 5.0151146e-05 5.0254897e-05
4.8783855e-05 4.3998545e-05 4.9137954e-05 5.7959085e-05 6.0853385e-05 5.4448745e-05 6.3346735e-05 6.38988e-05
5.4826618e-05 5.9740836e-05 5.960656e-05 -0.00011978179 -0.00014629016 -0.00012063668 -0.00014090192 -0.00012224025
-0.00013600683 -0.00013278042 -0.00012789766 -0.00013815559

exp_avg_sq f4 [4, 1, 3, 3]
00000000: fcbe b036 c133 bd36 be14 e637 3261 fc36
00000010: f9c4 a337 8db2 aa36 334f d937 3377 1c37
00000020: 69b7 a636 6e91 8037 8a1f 8037 29a0 7e37
00000030: eb0c 8437 0c3c 8437 ea13 8237 42f7 8337
00000040: 46a3 8137 ea4b 7a37 6afe d737 b573 eb37
00000050: f399 f037 01f2 df37 6992 f537 d18c f537
00000060: 1b90 e337 3645 ef37 4779 f037 4b35 3937
00000070: 1ec0 bc36 93fd 4037 8ce2 c436 7eb2 4137
00000080: 8bd9 fa36 a720 1437 92a3 1e37 2c12 e836
5.2674422e-06 5.638664e-06 2.7427795e-05 7.5215003e-06 1.9522837e-05 5.087181e-06 2.5905296e-05 9.326078e-06
4.9685373e-06 1.532651e-05 1.5273476e-05 1.517687e-05 1.5741642e-05 1.5763588e-05 1.550648e-05 1.5731555e-05
1.5454028e-05 1.4918836e-05 2.5748468e-05 2.8068063e-05 2.8681918e-05 2.6696363e-05 2.9274453e-05 2.9271849e-05
2.7127613e-05 2.8523249e-05 2.8666704e-05 1.10392675e-05 5.625202e-06 1.1503132e-05 5.8676287e-06 1.1545255e-05
7.475906e-06 8.82909e-06 9.455618e-06 6.9162543e-06

exp_avg f4 [8, 1, 3, 3]
00000000: 6cdb 6338 4df4 ba37 20ff 9c37 caa7 b437
00000010: 831e 9137 dccb bab7 0370 c3b6 4e73 37b7
00000020: f9d7 7538 256e 0ab8 a2b6 6738 f0a9 cfb7
00000030: f693 3338 5979 03b8 c85c b337 0e92 5ab8
00000040: b3ea 0b38 70c8 72b7 4010 d935 ed1a cb35
00000050: a6fa e035 c072 9035 35d9 a1b3 4c6c 6f35
00000060: 73d6 ec35 7958 9635 8085 f735 7f2f 45b7
00000070: 77db 3fb7 7532 09b7 2bb8 49b7 197a 38b7
00000080: 2ebe 23b7 4c76 44b7 66b4 35b7 799a 09b7
00000090: ac72 ae37 e3af b837 5fa9 bd37 3aa1 ad37
000000a0: a3c9 c137 c667 bc37 5f4f a737 e0aa b937
000000b0: ed64 ac37 05c6 b337 78d6 b837 97b0 b437
000000c0: 9633 ba37 6521 bb37 0242 b737 dddb b937
000000d0: 0d0f b937 78fc b437 2c04 f5b7 32bd ffb7
000000e0: 916d f8b7 600e 04b8 16a7 04b8 984a 02b8
000000f0: 79af 03b8 46df 04b8 7b39 02b8 3e62 9b37
00000100: 507c f837 ad78 a337 8b77 bd37 51d8 9337
00000110: bb85 9e37 ec12 c737 fbf1 4a37 73c5 ed37
5.432537e-05 2.228669e-05 1.8715451e-05 2.1535805e-05 1.7299555e-05 -2.2267857e-05 -5.8244927e-06 -1.09344965e-05
5.8613692e-05 -3.3004344e-05 5.5244782e-05 -2.4755456e-05 4.2814725e-05 -3.1345848e-05 2.1381667e-05 -5.2111274e-05
3.3358763e-05 -1.4470992e-05 1.6172489e-06 1.5132515e-06 1.6762249e-06 1.0762233e-06 -7.5366565e-08 8.919203e-07
1.7645783e-06 1.120162e-06 1.8441788e-06 -1.1753174e-05 -1.1435585e-05 -8.177584e-06 -1.2023414e-05 -1.0995683e-05
-9.759837e-06 -1.17100535e-05 -1.0830443e-05 -8.201802e-06 2.0795815e-05 2.2016413e-05 2.2609425e-05 2.0698284e-05
2.3101287e-05 2.245967e-05 1.9944911e-05 2.2133288e-05 2.0550995e-05 2.1430673e-05 2.2034379e-05 2.1539903e-05
2.219695e-05 2.2307688e-05 2.1846037e-05 2.21561e-05 2.2060727e-05 2.1575237e-05 -2.9208219e-05 -3.048647e-05
-2.9614925e-05 -3.148464e-05 -3.1626863e-05 -3.1063886e-05 -3.1396256e-05 -3.1679192e-05 -3.1047948e-05 1.8523187e-05
2.9621791e-05 1.9487308e-05 2.2586222e-05 1.7624496e-05 1.889734e-05 2.373146e-05 1.2096479e-05 2.8344546e-05

exp_avg_sq f4 [8, 1, 3, 3]
00000000: 5345 9935 e5d4 e835 9089 a535 0a14 e635
00000010: e279 6035 556b 3534 cf21 da35 084b 2134
00000020: d839 1b36 3052 d336 d894 cb36 dad9 2936
00000030: d0f2 dd36 5470 9f36 30cb 0936 ae1a 6636
00000040: 0752 0d36 fe9a c135 7a18 ef34 8961 f434
00000050: 8de2 f134 fd32 f534 880c f634 c61d f634
00000060: 473a f134 19c4 f234 4f8d f234 c1eb 1636
00000070: 8905 1636 824e 0c36 a3c9 1836 8fd7 1436
00000080: ce60 0d36 eb6c 1636 1b7c 1236 51e9 0a36
00000090: 3ba0 0836 2c70 0e36 f862 0f36 bce6 0936
000000a0: 129d 1236 43ce 0f36 bebc 0836 9f95 1036
000000b0: ca83 0a36 9e1f e935 7b9b ee35 3706 dd35
000000c0: 73f3 ef35 c8cd ee35 fe30 e235 0b5d ee35
000000d0: c757 ef35 00dd e335 cda3 9e35 4749 a635
000000e0: 3ee4 a135 7d8f a735 7282 a735 3228 a635
000000f0: 7fe0 a535 5dfe a735 c602 a735 d9f9 3036
00000100: c10d 4b36 9f56 2636 3471 3536 85e0 2e36
00000110: b6e6 2936 07b3 3536 a973 3636 72be 5436
1.1419564e-06 1.7347307e-06 1.2333494e-06 1.7142168e-06 8.3623866e-07 1.6895986e-07 1.6252105e-06 1.502159e-07
2.313047e-06 6.297858e-06 6.067199e-06 2.5309769e-06 6.6145803e-06 4.751646e-06 2.0532862e-06 3.42882e-06
2.1058383e-06 1.4424729e-06 4.4535028e-07 4.5519508e-07 4.5054585e-07 4.5671905e-07 4.5830188e-07 4.5842734e-07
4.493215e-07 4.5218692e-07 4.5178828e-07 2.2488969e-06 2.2354964e-06 2.0907323e-06 2.2767133e-06 2.217919e-06
2.1066985e-06 2.241514e-06 2.1827934e-06 2.069941e-06 2.0358846e-06 2.1224942e-06 2.1366268e-06 2.0548896e-06
2.1847122e-06 2.142872e-06 2.0375442e-06 2.1544763e-06 2.0640314e-06 1.7369055e-06 1.7777633e-06 1.6467592e-06
1.7877741e-06 1.7792272e-06 1.6852571e-06 1.7759461e-06 1.7832434e-06 1.6977137e-06 1.181959e-06 1.238929e-06
1.2061862e-06 1.248423e-06 1.2480434e-06 1.2379662e-06 1.2358795e-06 1.2516499e-06 1.2443277e-06 2.6371474e-06
3.0257363e-06 2.4786348e-06 2.7036995e-06 2.6058708e-06 2.5317254e-06 2.707531e-06 2.7187436e-06 3.1701315e-06

exp_avg f4 [16, 1, 3, 3]
00000000: b2ce 7637 b8a9 bdb5 3243 15b7 a292 1bb7
00000010: 119d 17b7 3a45 7036 7cdd 06b7 883b 0337
00000020: 6a8b 1537 7d29 a1b6 0f89 8eb7 723f 7b37
00000030: 0981 88b7 ae06 9337 fc3d d636 3c4c 9d37
00000040: 6477 7736 b6a1 a6b7 b461 6736 1068 bab6
00000050: 7cf0 ea36 4418 77b6 2ae5 ae36 5240 8ab6
00000060: 17fb d736 ebe2 c7b6 3e93 6d36 a4ce 17b7
00000070: 007f 7337 7023 76b7 8794 7637 5cec 8ab7
00000080: ed06 4037 8be7 adb7 696d 9237 7c56 21b7
00000090: 6fc3 c137 fde7 d137 8894 d537 5c1a c637
000000a0: 271b d337 9b62 dc37 2ad6 bb37 31e8 c837
000000b0: f100 d437 f47e 03b8 22a3 04b8 b8c7 05b8
000000c0: 21bd 05b8 93ef 05b8 f875 06b8 83b5 07b8
000000d0: 43f1 07b8 d4ed 07b8 890c 1537 9102 2637
000000e0: 9a41 2137 d16c 2737 4e0f 2f37 f5fa 2937
000000f0: 08b5 1637 fd65 2137 04dd 2137 f2ab f636
00000100: 52c1 0337 524b 0237 260a 0337 68e5 0a37
00000110: 96d9 0b37 58f4 0537 2e8e 0c37 07c3 0837
00000120: eaf9 c1b7 e9ac c3b7 94fe c2b7 5deb c4b7
00000130: f9e8 c4b7 82a6 c3b7 49ef c1b7 99c3 c0b7
00000140: 5686 beb7 3945 8b37 bac5 8737 46b4 8537
00000150: dd8d 8d37 2d62 9237 47b7 8d37 0e01 8f37
00000160: 001d 9137 82e8 8e37 4ddb cfb5 fec6 8eb5
00000170: 0144 62b5 9419 80b5 3fc1 e2b3 e86e 18b5
00000180: aa1d adb5 b5bb 6ab5 2a47 c3b5 7147 10b8
00000190: 361a 12b8 2018 11b8 4ab2 10b8 9442 12b8
000001a0: 6af1 10b8 d662 11b8 6356 12b8 ba40 11b8
000001b0: df4a 9b36 375d 9636 51ea 9736 4f3f 9836
000001c0: 6f31 9536 d030 9836 087b 9e36 5bba 9c36
000001d0: 586c a236 0d2f 9536 9374 9a36 398e 8d36
000001e0: b99b aa36 8459 a736 2471 9d36 2f9e a736
000001f0: ed10 a736 695c 9a36 2286 6fb7 3804 a8b7
00000200: b496 71b7 b4cc 9db7 0ef1 a0b7 8579 70b7
00000210: 34ce abb7 4e10 80b7 0f0d 95b7 bb9a 62b5
00000220: 51b4 a6b6 3f5a bbb4 a7ac 02b7 173e 8c31
00000230: 1fa0 11b7 63c0 8035 88b6 a3b6 448d 96b5
1.4710868e-05 -1.4130992e-06 -8.896737e-06 -9.272861e-06 -9.036871e-06 3.5803082e-06 -8.038591e-06 7.822069e-06
8.913552e-06 -4.803004e-06 -1.6991542e-05 1.4975538e-05 -1.627255e-05 1.7526876e-05 6.384913e-06 1.8751358e-05
3.6875363e-06 -1.9864045e-05 3.4478553e-06 -5.5553464e-06 7.0017395e-06 -3.6819993e-06 5.2122823e-06 -4.1202084e-06
6.43673e-06 -5.957079e-06 3.5401458e-06 -9.048414e-06 1.4513498e-05 -1.4670994e-05 1.4697324e-05 -1.6560945e-05
1.1445704e-05 -2.0731028e-05 1.7455504e-05 -9.616484e-06 2.3098399e-05 2.502277e-05 2.5460744e-05 2.3615714e-05
2.5165804e-05 2.627196e-05 2.2391865e-05 2.394998e-05 2.5272808e-05 -3.1351068e-05 -3.162318e-05 -3.1895674e-05
-3.188581e-05 -3.1932792e-05 -3.2057957e-05 -3.2355554e-05 -3.24112e-05 -3.2408003e-05 8.884011e-06 9.894969e-06
9.611622e-06 9.9793115e-06 1.0434376e-05 1.0131615e-05 8.982846e-06 9.620094e-06 9.647807e-06 7.3513884e-06
7.853219e-06 7.766141e-06 7.810571e-06 8.278854e-06 8.335706e-06 7.9843085e-06 8.377754e-06 8.15164e-06
-2.3123768e-05 -2.3326329e-05 -2.324515e-05 -2.347462e-05 -2.3473507e-05 -2.3323348e-05 -2.3118819e-05 -2.2979266e-05
-2.271232e-05 1.6602326e-05 1.6185328e-05 1.5938782e-05 1.687457e-05 1.7450273e-05 1.6893855e-05 1.704742e-05
1.7298851e-05 1.7035989e-05 -1.5486527e-06 -1.0637739e-06 -8.429052e-07 -9.544187e-07 -1.0559096e-07 -5.67858e-07
-1.2898138e-06 -8.744494e-07 -1.4549344e-06 -3.439881e-05 -3.4833523e-05 -3.4593162e-05 -3.449832e-05 -3.487112e-05
-3.455711e-05 -3.4662742e-05 -3.4889566e-05 -3.4630975e-05 4.628076e-06 4.4812e-06 4.5274287e-06 4.537323e-06
4.446301e-06 4.5356355e-06 4.7230897e-06 4.670857e-06 4.840589e-06 4.4460235e-06 4.6031287e-06 4.2186844e-06
5.0845233e-06 4.987409e-06 4.692136e-06 4.995403e-06 4.9789583e-06 4.6003156e-06 -1.427674e-05 -2.0029125e-05
-1.4399808e-05 -1.881118e-05 -1.9185736e-05 -1.4333408e-05 -2.048081e-05 -1.5266382e-05 -1.7768265e-05 -8.4416723e-07
-4.968177e-06 -3.4897127e-07 -7.788803e-06 4.081595e-09 -8.679955e-06 9.592735e-07 -4.879028e-06 -1.1216985e-06
