Experiments/Experiments-012/checkpoints/model.pt (torch, 42255 bytes, 27 tensors)

cp.convs.0.weight f4 [2, 1, 3, 3]
-0.21372345 -0.63504565 0.53822184 -0.8312385 0.4899028 0.037649002 0.093109764 -0.024748584
0.526904 0.09863838 0.26517224 -0.25541192 0.21150662 0.25785476 0.06558285 0.24214675
0.2153755 -0.008277868
00000000: 52da 5abe 5a92 22bf e8c8 093f 0ccc 54bf
00000010: 8ad4 fa3e d735 1a3d 55b0 be3d 8bbd cabc
00000020: 2ee3 063f eb02 ca3d a8c4 873e 5ac5 82be
00000030: 3195 583e 8a05 843e 4d50 863d 51f5 773e
00000040: 658b 5c3e e59f 07bc

cp.convs.1.weight f4 [4, 1, 3, 3]
-0.75130934 -0.56883687 -0.6325962 -0.42615294 -0.31575495 -0.49945378 0.12376997 0.32891494
0.04166318 -0.40187564 0.692405 -0.3190471 0.5753171 -0.863244 0.30176073 -0.17972529
0.17887111 0.018211784 -0.27160856 -0.17447099 0.1407393 -0.29611295 0.24097726 -0.13797186
-0.09301553 -0.07554951 -0.18522668 0.055770032 0.14710426 0.33024293 0.3812471 -0.043146055
0.14524738 -0.23326139 -0.053938672 0.22574899
00000000: cf55 40bf 4b9f 11bf d3f1 21bf b830 dabe
00000010: a2aa a1be 68b8 ffbe 1c7b fd3d 8a67 a83e
00000020: 03a7 2a3d a5c2 cdbe 7441 313f 245a a3be
00000030: fb47 133f 8ffd 5cbf 6280 9a3e e809 38be
00000040: fd29 373e e130 953c 4710 8bbe 86a8 32be
00000050: f71d 103e 1e9c 97be bec2 763e 7f48 0dbe
00000060: ed7e bebd b4b9 9abd 10ac 3dbe 1e6f 643d
00000070: 80a2 163e 9a15 a93e d232 c33e ebb9 30bd
00000080: bbbb 143e 13dc 6ebe ccee 5cbd be2a 673e

_mlp.0.weight f4 [32, 12]
-0.08637041 0.08254308 -0.10926895 -0.1474233 -0.30120453 0.22739725 -0.13755351 -0.17631228
-0.5624765 0.20186748 -0.055644453 0.1932398 -0.019224696 0.18239862 0.026485657 0.17873201
0.22114332 -0.04592474 -0.07784423 0.3157179 0.07547631 0.20133282 -0.04501611 0.18113406
0.17142186 0.3312 0.18192396 0.07053768 0.24283704 -0.03324024 0.33805937 0.29391265
0.32268053 0.28939998 0.2561265 0.26529497 0.65106577 0.13205515 0.4863731 -0.015653828
0.5039998 0.013811866 0.4557366 0.17011316 0.19640875 0.26099372 0.23245932 0.3876312
-0.013281088 -0.24422938 0.20903237 -0.231367 0.2799271 -0.4827679 0.061768387 0.030970238
0.19627522 -0.46069172 0.0013701783 0.15481426 0.12965016 -0.14986229 0.02574033 0.09133418
-0.19849151 0.21487522 0.022770027 0.12670591 0.283561 0.03354628 0.1241273 0.20300987
-0.042989623 -0.0005580394 0.21343267 -0.040186144 0.14171919 -0.39239654 -0.12614259 -0.11322746
0.29456085 -0.46125486 -0.18766062 -0.10594796 0.614313 0.12808608 0.25661895 0.16305138
0.5935073 0.05206905 0.3381887 0.27888912 0.4123483 0.1560321 0.5508296 0.33973998
-0.03429126 0.16851611 0.03975886 0.06190742 0.30296695 0.13295716 0.2635849 -0.04304047
-0.22726138 0.3189476 0.30969107 0.04518702 -0.1493854 0.1207225 -0.102668524 0.019864902
0.14221603 -0.3985677 0.1482241 0.13727121 0.34212336 -0.16310999 0.23116599 -0.011339649
0.2094287 0.2191227 -0.086277016 0.26699987 -0.07729745 -0.055013224 0.13685068 -0.09499182
-0.12826504 0.33721453 0.43781558 0.013802173 0.39979827 0.3489113 0.3201601 -0.014579753
0.26259804 -0.05388201 0.2863017 0.14276265 0.31858084 -0.13278218 -0.078866005 0.23559506
0.3315672 0.20532504 -0.11553669 0.19919321 0.10366039 -0.027363973 -0.07999574 0.33907294
0.057631545 0.06703469 0.046386503 0.20112044 0.4493111 -0.41650426 0.098882586 -0.20200542
-0.044332508 -0.07062857 0.27382627 0.010800989 0.114657894 -0.32779732 0.13279471 0.13860613
-0.037182353 0.089803234 0.07110126 -0.07375674 0.013765152 0.22875573 0.29751357 0.2794617
0.29520828 -0.0136502115 0.38657665 0.30771303 -0.032084163 0.13060585 -0.09235566 -0.120664746
-0.07537314 -0.07274046 0.04671784 0.29988432 0.12245728 0.06744789 0.3585021 -0.11739301
-0.18220392 0.26516205 0.15734759 0.040680904 0.09228803 -0.11343914 0.072128385 0.014131461
-0.06413777 0.20914085 -0.019317154 0.10480691 0.103244245 -0.026250955 -0.10481906 0.08518618
-0.5943007 0.854814 -0.029554395 -0.080267236 -0.2639368 0.6152125 -0.12148283 0.17806329
-0.07594122 0.33334875 0.08651139 0.4302625 0.23564538 0.1258058 0.07665048 0.08085275
0.30563313 -0.08418847 0.4106142 0.020756636 -0.073669724 0.20477484 0.110113084 -0.21811904
0.280556 0.12107585 0.44751918 -0.15506963 -0.2010843 0.11839994 0.34907603 0.03025152
-0.11682031 -0.03345185 0.21480016 -0.06854981 0.072946474 0.07206602 0.00046976926 0.35559988
0.33034584 -0.034468558 0.1333497 0.030036578 0.36990002 -0.10234369 0.2690469 -0.17473117
00000000: f8e2 b0bd 590c a93d 66c8 dfbd 22f6 16be
00000010: 7b37 9abe d3da 683e d4da 0cbe 358b 34be
00000020: 76fe 0fbf 59b6 4e3e 70eb 63bd a7e0 453e
00000030: 1c7d 9dbc b4c6 3a3e 73f8 d83c 8605 373e
00000040: 6573 623e 951b 3cbd cc6c 9fbd c7a5 a13e
00000050: 5393 9a3d 312a 4e3e d062 38bd 357b 393e
00000060: 3689 2f3e 0c93 a93e 464a 3a3e 0f76 903d
00000070: 46aa 783e eb26 08bd 1e16 ad3e b87b 963e
00000080: 6236 a53e 3c2c 943e 0323 833e bed4 873e
00000090: 3fac 263f 7739 073e e505 f93e 753c 80bc
000000a0: 2206 013f 2a4b 623c 4f56 e93e 2532 2e3e
000000b0: 601f 493e f8a0 853e d109 6e3e 9977 c63e
000000c0: ec98 59bc 4417 7abe 950c 563e 79eb 6cbe
000000d0: 9b52 8f3e 5b2d f7be d900 7d3d 4cb5 fd3c
000000e0: 5ffc 483e c9df ebbe 8e97 b33a a187 1e3e
000000f0: 03c3 043e 8075 19be 62dd d23c 6a0d bb3d
00000100: 5c41 4bbe 4008 5c3e 3588 ba3c 32bf 013e
00000110: e82e 913e d367 093d 7436 fe3d d2e1 4f3e
00000120: e315 30bd 6449 12ba 188e 5a3e 3a9a 24bd
00000130: d61e 113e 33e8 c8be 862b 01be cce3 e7bd
00000140: aed0 963e 9929 ecbe 1b2a 40be 3efb d8bd
00000150: 9e43 1d3f ff28 033e 8f63 833e f1f6 263e
00000160: 18f0 173f 5b46 553d 1227 ad3e 8eca 8e3e
00000170: 511f d33e e1c6 1f3e 2b03 0d3f 66f2 ad3e
00000180: fe74 0cbd 7d8f 2c3e 30da 223d a392 7d3d
00000190: 7c1e 9b3e ec25 083e 9af4 863e 344b 30bd
000001a0: 35b7 68be 1a4d a33e d48f 9e3e 0616 393d
000001b0: 7cf8 18be 5c3d f73d e043 d2bd b8bb a23c
000001c0: 14a1 113e 1111 ccbe 0fc8 173e d390 0c3e
000001d0: cb2a af3e 4e06 27be c7b6 6c3e efc9 39bc
000001e0: 7a74 563e b361 603e 01b2 b0bd 35b4 883e
000001f0: 204e 9ebd 8c55 61bd 9622 0c3e 128b c2bd
00000200: e957 03be 62a7 ac3e 5d29 e03e 8222 623c
00000210: 5cb2 cc3e 80a4 b23e 06ec a33e ebdf 6ebc
00000220: 4073 863e 62b3 5cbd 2396 923e 5f30 123e
00000230: 071d a33e 0df8 07be 8084 a1bd d53f 713e
00000240: 2dc3 a93e ba40 523e 809e ecbd 4ef9 4b3e
00000250: e64b d43d 692a e0bc ced4 a3bd f89a ad3e
00000260: 0e0f 6c3d 7c49 893d c6ff 3d3d 84f2 4d3e
00000270: 1b0c e63e 0c40 d5be f482 ca3d 82da 4ebe
00000280: 0196 35bd b6a5 90bd f532 8c3e a2f6 303c
00000290: c2d1 ea3d 0dd5 a7be 56fb 073e c4ee 0d3e
000002a0: 864c 18bd c2ea b73d 8a9d 913d c60d 97bd
000002b0: 3b87 613c f13e 6a3e b353 983e 9b15 8f3e
000002c0: 8a25 973e 23a5 5fbc 60ed c53e 908c 9d3e
000002d0: af6a 03bd 8abd 053e f724 bdbd 141f f7bd
000002e0: 3c5d 9abd f3f8 94bd 355b 3f3d 708a 993e
000002f0: e2ca fa3d 1f22 8a3d 968d b73e bf6b f0bd
00000300: aa93 3abe 52c3 873e ba1f 213e 05a1 263d
00000310: 8201 bd3d c852 e8bd 0cb8 933d a587 673c
00000320: aa5a 83bd 0529 563e 023f 9ebc 01a5 d63d
00000330: b871 d33d 3e0c d7bc 60ab d6bd 1876 ae3d
00000340: 1724 18bf 17d5 5a3f 0f1c f2bc 2663 a4bd
00000350: b922 87be 917e 1d3f fdcb f8bd 3956 363e
00000360: 1287 9bbd b0ac aa3e e22c b13d 5e4b dc3e
00000370: 064d 713e 3cd3 003e edfa 9c3d 2096 a53d
00000380: f27b 9c3e 016b acbd 063c d23e d209 aa3c
00000390: 27e0 96bd 7fb0 513e f882 e13d 995a 5fbe
000003a0: 09a5 8f3e 9ef6 f73d 3c21 e53e 93ca 1ebe
000003b0: 0be9 4dbe ab7b f23d 18ba b23e 09d2 f73c
000003c0: 7d3f efbd cf04 09bd 93f4 5b3e d863 8cbd
000003d0: f664 953d 5997 933d 5d4b f639 3011 b63e
000003e0: 1723 a93e e72e 0dbd d38c 083e 450f f63c
000003f0: 8963 bd3e 9299 d1bd 84c0 893e baec 32be

_mlp.0.bias f4 [32]
0.5524578 -0.35136643 -0.36495498 -0.39397842 -0.44558954 -0.26847816 -0.17549282 -0.25966066
0.08764943 -0.15246263 -0.010797037 -0.23308949 -0.08904852 -0.41599 -0.22919482 -0.23351458
-0.13520524 0.19279741 -0.53180134 0.077762015 -0.19208702 -0.46772486 -0.5302446 -0.31403923
0.22709745 -0.3022949 -0.19149883 -0.39772385 -0.32626045 0.27579597 -0.49353284 -0.2747045
00000000: e06d 0d3f 4de6 b3be 61db babe 8ab7 c9be
00000010: 5024 e4be f875 89be 64b4 33be 3ef2 84be
00000020: 8b81 b33d 2a1f 1cbe 0ee6 30bc 03af 6ebe
00000030: 125f b6bd a4fc d4be 0cb2 6abe 721e 6fbe
00000040: 3e73 0abe af6c 453e 2224 08bf b141 9f3d
00000050: 76b2 44be a279 efbe 1cbe 07bf c0c9 a0be
00000060: 3c8c 683e 66c6 9abe 4518 44be 76a2 cbbe
00000070: 9c0b a7be 2135 8d3e 56b0 fcbe 11a6 8cbe

_mlp.2.weight f4 [32, 32]
-0.03863813 0.2215644 0.023027077 -0.02095653 -0.064293906 0.026901996 0.014064657 0.14627257
-0.03884306 0.06756498 0.09821582 -0.1625038 0.043065965 0.0058360887 0.027702857 -0.119620845
-0.1417664 -0.032698695 0.1482014 0.038642928 0.026597084 0.041933633 0.33662936 -0.061094634
-0.15796028 0.15254167 -0.19931139 0.27194467 -0.16812749 0.08097883 0.53669345 -0.20200074
-0.39906487 0.093887545 0.26738453 0.18811308 0.23396252 -0.07925515 -0.09140554 0.22828731
-0.0575356 0.08461877 -0.109928794 -0.14156857 0.027167575 0.27472135 -0.10108378 0.043960053
-0.028419409 0.052233107 -0.1590209 0.0055892016 -0.0050026607 -0.082946554 -0.1190074 -0.12704127
-0.19990756 -0.028157488 -0.07192661 -0.14449853 -0.007770045 0.06507577 0.13470703 0.12094033
-0.24242233 0.1553266 -0.052392956 0.07095076 -0.030426797 0.05094846 -0.09576259 0.009626551
-0.045855265 -0.053232092 -0.11973134 0.087335624 -0.13546497 -0.22434945 0.074783765 -0.12412743
0.07407433 -0.058355927 -0.056738466 -0.083705075 -0.15658961 -0.13991712 -0.10130812 -0.16371092
-0.08423861 0.14298798 -0.17429551 -0.072323166 -0.117344834 -0.02941774 -0.02613507 -0.008882553
-0.37531453 -0.017955542 0.17447068 0.11256829 0.09135876 0.1421569 0.08326909 0.33671075
-0.010203275 0.047847833 -0.061999187 -0.037892397 0.08509041 0.29844964 0.053863492 -0.08017544
0.015422627 0.10104647 -0.082175925 -0.21621737 -0.029856749 0.1830903 0.024909187 0.09259326
-0.05204695 -0.10802905 -0.11771564 0.046395652 -0.03712617 0.0013817722 0.05370644 0.04645759
-0.0052659223 -0.27398723 0.13300279 0.15737616 -0.27445382 0.12838677 -0.38345817 0.1278221
-0.08633961 -0.3571612 -0.25300932 0.30537555 -0.17411163 0.04248976 -0.0618896 -0.057363287
0.16352835 0.02470646 -0.06850716 0.060056876 -0.0972448 -0.23797897 -0.54948014 -0.11525301
0.10292912 -0.23056309 -0.19436938 -0.28137097 0.20294392 -0.26519877 -0.09520295 0.13825181
0.042142216 -0.04025909 -0.140318 0.12976533 -0.37286192 0.0951668 -0.30166346 -0.0197502
0.12477164 -0.27590728 -0.091457315 0.32806262 0.09995846 0.04954755 -0.092551425 -0.2535818
0.15402634 0.31073055 -0.18598263 0.15946253 0.032891437 -0.1676736 -0.20248257 -0.039213657
0.1688347 -0.19167224 -0.052543357 0.007608026 0.15380633 0.0812107 0.07580852 -0.050162632
-0.09817168 -0.04667692 0.14264925 0.13984929 -0.14137445 0.061433963 -0.14439319 -0.11008441
0.09700822 0.033924803 -0.04889748 0.10575112 0.003881664 -0.039242126 -0.15226535 0.06683331
-0.044553284 -0.042571474 -0.09907527 0.098568626 -0.017237766 0.041097645 0.069653586 -0.052055318
-0.093384705 0.16178682 -0.2253684 -0.09594142 0.07557102 0.08122437 -0.11424055 -0.022383116
0.041319355 0.09284134 -0.097401746 -0.13674146 0.030003386 0.047532983 -0.1786674 0.014564117
-0.1295124 -0.043963708 0.05740554 0.024136951 -0.28221324 -0.15650791 0.11678838 -0.15551214
0.11319002 -0.1652226 0.056230314 0.2292272 -0.17225093 0.03678208 -0.010813617 0.009914822
-0.10897417 -0.019765249 0.023720209 -0.15022835 0.15382122 -0.0038482307 -0.117884755 -0.22765464
00000000: 0443 1ebd c7e1 623e 48a3 bc3c 07ad abbc
00000010: 86ac 83bd 9361 dc3c 726f 663c 7ac8 153e
00000020: e719 1fbd 825f 8a3d 6025 c93d 6567 26be
00000030: f065 303d a93c bf3b 1af1 e23c c6fb f4bd
00000040: 362b 11be 11ef 05bd 1cc2 173e 0c48 1e3d
00000050: 21e2 d93c 9ac2 2b3d af5a ac3e 5e3e 7abd
00000060: 57c0 21be e233 1c3e 4918 4cbe 553c 8b3e
00000070: 9d29 2cbe 3bd8 a53d be64 093f 48d9 4ebe
00000080: 3b52 ccbe 1d48 c03d a0e6 883e b7a0 403e
00000090: df93 6f3e 8650 a2bd d432 bbbd 26c4 693e
000000a0: 73aa 6bbd 9b4c ad3d 5922 e1bd 5af7 10be
000000b0: 898e de3c 47a8 8c3e 0305 cfbd 750f 343d
000000c0: d2cf e8bc 62f2 553d 60d6 22be 9f25 b73b
000000d0: 5ced a3bb e2df a9bd 27ba f3bd 1b17 02be
000000e0: 91b4 4cbe 88aa e6bc 424e 93bd 6cf7 13be
000000f0: dd9b febb 7246 853d a4f0 093e 90af f73d
00000100: 8f3d 78be f00d 1f3e ff99 56bd a24e 913d
00000110: 9e41 f9bc 55af 503d 2d1f c4bd aeb8 1d3c
00000120: bbd2 3bbd e509 5abd b435 f5bd 05dd b23d
00000130: 54b7 0abe ddbb 65be 3b28 993d 8636 febd
00000140: 48b4 973d a006 6fbd 9866 68bd 916d abbd
00000150: 0759 20be 6f46 0fbe a27a cfbd d6a3 27be
00000160: 4b85 acbd 716b 123e 867a 32be 2b1e 94bd
00000170: 7d52 f0bd 79fd f0bc 3719 d6bc 2188 11bc
00000180: 3a29 c0be 8017 93bc 71a8 323e 348a e63d
00000190: 4d1a bb3d 9491 113e fc88 aa3d 5a65 ac3e
000001a0: a32b 27bc 17fc 433d dcf2 7dbd 0f35 1bbd
000001b0: e243 ae3d 64ce 983e f79f 5c3d 0533 a4bd
000001c0: 30af 7c3c 74f1 ce3d da4b a8bd 1668 5dbe
000001d0: 2496 f4bc 067c 3b3e 5a0e cc3c 89a1 bd3d
000001e0: 2f2f 55bd 563e ddbd e614 f1bd 5e09 3e3d
000001f0: 9c11 18bd 951c b53a 49fb 5b3d 504a 3e3d
00000200: c28d acbb 0e48 8cbe e231 083e 3727 213e
00000210: 3685 8cbe d277 033e a154 c4be cce3 023e
00000220: d2d2 b0bd d5dd b6be 708a 81be 2f5a 9c3e
00000230: 524a 32be be09 2e3d f37f 7dbd c4f5 6abd
00000240: fa73 273e 3465 ca3c 7b4d 8cbd 33fe 753d
00000250: 4828 c7bd c2b0 73be bbaa 0cbf c509 ecbd
00000260: 81cc d23d bb18 6cbe c408 47be db0f 90be
00000270: 88d0 4f3e 22c8 87be c4f9 c2bd e291 0d3e
00000280: 519d 2c3d b7e6 24bd 86af 0fbe 34e1 043e
00000290: c2e7 bebe d0e6 c23d a273 9abe 2ccb a1bc
000002a0: 4688 ff3d b843 8dbe f94d bbbd d3f7 a73e
000002b0: 05b7 cc3d 5ff2 4a3d 9a8b bdbd 79d5 81be
000002c0: 15b9 1d3e 1318 9f3e 3b72 3ebe 254a 233e
000002d0: 2cb9 063d a1b2 2bbe 9757 4fbe 809e 20bd
000002e0: 01e3 2c3e ba45 44be b437 57bd bf4c f93b
000002f0: 687f 1d3e cc51 a63d 7f41 9b3d 5577 4dbd
00000300: 3c0e c9bd 4c30 3fbd a512 123e a734 0f3e
00000310: 77c4 10be 2ea2 7b3d cfdb 13be ef73 e1bd
00000320: 3fac c63d bcf4 0a3d b948 48bd 0b94 d83d
00000330: 8463 7e3b 5abc 20bd 73eb 1bbe e7df 883d
00000340: 817d 36bd 6d5f 2ebd fae7 cabd 59de c93d
00000350: 3736 8dbc 0156 283d 8aa6 8e3d f537 55bd
00000360: 7b40 bfbd 72ab 253e f9c6 66be ef7c c4bd
00000370: fbc4 9a3d f658 a63d f3f6 e9bd cc5c b7bc
00000380: 7c3e 293d 9a23 be3d 917a c7bd f405 0cbe
00000390: a9c9 f53c f2b1 423d 96f4 36be 569e 6e3c
000003a0: e69e 04be 4a13 34bd 1222 6b3d dbba c53c
000003b0: 417e 90be 9c43 20be bf2e ef3d 933e 1fbe
000003c0: 2bd0 e73d 1d30 29be c251 663d 89ba 6a3e
000003d0: 8c62 30be cea8 163d 992b 31bc c771 223c
000003e0: da2d dfbd bbea a1bc e250 c23c 76d5 19be
000003f0: 4f83 1d3e 9932 7cbb 906d f1bd 4c1e 69be

_mlp.2.bias f4 [32]
-0.14082932 -0.3362138 -0.09323193 -0.44359514 0.051065218 0.4872951 -0.19565465 -0.13892102
-0.1608893 -0.09017297 -0.32247448 -0.20097205 0.17131765 -0.18367825 -0.21126586 -0.32032225
-0.11175871 -0.012076918 -0.10168055 0.27987194 0.37573707 -0.21222755 -0.19910352 0.08608535
-0.013251948 0.006621068 0.12176046 0.16315307 -0.2536259 -0.0772325 0.091059536 0.3296687
00000000: 9035 10be 3724 acbe 62f0 bebd e71e e3be
00000010: c329 513d be7e f93e b159 48be 5041 0ebe
00000020: 2ac0 24be 9bac b8bd 601b a5be 9ecb 4dbe
00000030: e56d 2f3e 2716 3cbe 1456 58be 4701 a4be
00000040: c0e1 e4bd 44de 45bc e43d d0bd 604b 8f3e
00000050: 9c60 c03e 2e52 59be cbe1 4bbe 844d b03d
00000060: b31e 59bc 8bf5 d83b 8c5d f93d 9911 273e
00000070: 41db 81be 132c 9ebd 6c7d ba3d 56ca a83e

_mlp.4.weight f4 [32, 32]
0.058227994 -0.19547264 -0.069928534 -0.040011253 0.064693354 0.1529968 -0.09315322 0.079776734
0.103231765 0.067495435 -0.042202637 0.02756791 -0.14480083 0.09652151 0.074542 0.119869895
-0.06216861 -0.06380396 0.097836554 -0.115003474 -0.1193954 -0.02106023 0.15910643 0.06363358
0.051282894 0.06319039 -0.31171885 -0.11905211 -0.09812391 -0.060949177 -0.018141251 -0.03562485
0.0301351 -0.049727544 -0.011456061 -0.035605516 -0.15721361 -0.19112626 -0.088189706 -0.041458305
0.031878352 -0.038388275 -0.02071676 -0.31898054 0.008358857 -0.039027076 -0.16146246 0.092823714
-0.04574209 -0.13795188 7.118603e-05 -0.14160563 -0.28630924 -0.1180677 0.09470186 -0.19858141
-0.19494939 -0.20543136 -0.42711344 -0.06600834 -0.17432798 -0.30798268 -0.19218129 -0.2112207
0.08878665 0.070561245 0.16985379 0.00907423 -0.12635623 0.16078527 0.2117385 -0.23017071
-0.17601134 -0.13543878 0.20237601 -0.024576373 -0.2737981 -0.044529974 0.020481836 0.039213594
0.10289062 0.031021832 -0.13184711 0.05850484 0.01780886 0.027198587 0.03927949 -0.21161495
0.018001663 -0.009513808 -0.022392008 -0.5184334 -0.05255868 0.16207002 0.09783356 -0.015596641
-0.13827711 0.1339333 -0.03550054 -0.14882214 0.09981187 -0.11322635 0.002245563 0.084887356
-0.10535064 0.1640381 -0.13026811 0.04183616 -0.023573617 -0.081419006 -0.11462729 -0.14938019
-0.042829815 0.017309817 0.117976926 -0.1002 0.13304208 -0.16300169 0.1181613 0.17165045
-0.13895978 0.069140516 0.03054538 -0.10160716 -0.16764826 -0.14765385 -0.0041142697 -0.02410414
-0.085931 -0.12142445 -0.040762786 -0.15171985 0.019620022 0.2723873 0.032947812 -0.05553294
0.13119507 -0.04309269 -0.66326684 -0.6164871 -0.03439183 -0.16337489 -0.39403567 0.10890635
-0.28990823 -0.29344037 0.028236521 0.42490575 0.2880972 -0.21091582 0.05656003 0.07189223
0.0006856065 -0.18264906 0.05088592 0.23014368 -0.014700311 -0.14985587 -0.036180396 0.08840904
0.033572134 -0.29246113 0.15777332 -0.17269142 -0.0047266213 -0.066383585 0.00569033 0.05452335
0.071206965 0.061931167 0.0063767843 -0.06757491 -0.15534346 -0.12045161 -0.16586895 -0.04725941
-0.07347512 -0.19765985 0.06256621 -0.1489713 -0.11938436 -0.2323345 0.17149614 -0.031516638
-0.0863872 -0.06791381 0.11958852 -0.13985913 0.033547077 0.03958004 -0.08898955 0.025152583
0.00335614 -0.1264464 0.02486548 -0.16068776 -0.15518463 -0.053261023 -0.06970049 0.1720727
0.13596089 0.096569695 0.104332276 0.014992417 -0.08214473 -0.10314884 -0.10655347 -0.072521806
0.11038281 -0.057725355 -0.13972005 0.010098153 -0.27657515 -0.06633509 0.051953174 -0.035235625
0.14171353 -0.01736975 -0.27747408 -0.046796788 0.08775825 -0.11924501 0.029032476 0.055133227
0.20998922 0.17069522 -0.23178862 0.17114702 -0.06676693 0.06619447 -0.017382056 0.053818952
-0.0015668324 -0.12296193 0.14040701 0.05454201 -0.14026874 0.12952419 0.0015449232 -0.01209899
0.084151715 -0.058734633 -0.16078132 -0.053844325 0.05669526 0.08287756 -0.00918717 0.08107944
-0.036280032 -0.048830662 -0.032809313 -0.21129529 0.10460761 0.14270164 -0.08222287 -0.10023603
00000000: 7a80 6e3d fb29 48be b136 8fbd d7e2 23bd
00000010: f37d 843d 31ab 1c3e 1ec7 bebd fc61 a33d
00000020: 2d6b d33d 0c3b 8a3d acdc 2cbd 19d6 e13c
00000030: ab46 14be 12ad c53d 7aa9 983d 597e f53d
00000040: 83a4 7ebd a7ab 82bd 885e c83d f186 ebbd
00000050: 9385 f4bd 8186 acbc ccec 223e 5352 823d
00000060: 030e 523d f769 813d 9d99 9fbe 98d1 f3bd
00000070: 30f5 c8bd d8a5 79bd f69c 94bc 5deb 11bd
00000080: e3dd f63c 1caf 4bbd 34b2 3bbc 17d7 11bd
00000090: 9bfc 20be 9ab6 43be ce9c b4bd 2fd0 29bd
000000a0: e092 023d 063d 1dbd 32b6 a9bc 6b51 a3be
000000b0: 96f3 083c dbda 1fbd 6a56 25be 5c1a be3d
000000c0: 0f5c 3bbd 4243 0dbe b549 9538 1101 11be
000000d0: 2097 92be 7acd f1bd 0cf3 c13d ed58 4bbe
000000e0: d0a0 47be 995c 52be 9dae dabe 612f 87bd
000000f0: 0983 32be e8af 9dbe 2ccb 44be 3d4a 58be
00000100: c6d5 b53d 6a82 903d 27ee 2d3e 14ac 143c
00000110: 8763 01be e5a4 243e fad1 583e dfb1 6bbe
00000120: 513c 34be 77b0 0abe a83b 4f3e 6454 c9bc
00000130: 442f 8cbe 1065 36bd 86c9 a73c 6f9e 203d
00000140: 51b8 d23d 7f21 fe3c ee02 07be c5a2 6f3d
00000150: e3e3 913c 92cf de3c 88e3 203d 97b1 58be
00000160: 3978 933c cedf 1bbc 726f b7bc 0db8 04bf
00000170: c547 57bd aff5 253e f65c c83d 0e89 7fbc
00000180: 8498 0dbe d025 093e 0469 11bd d564 18be
00000190: 2a6a cc3d 37e3 e7bd 4c2a 133b 6cd9 ad3d
000001a0: 14c2 d7bd 9bf9 273e 0165 05be 655c 2b3d
000001b0: 751d c1bc 02bf a6bd b6c1 eabd 1ff7 18be
000001c0: 516e 2fbd 51cd 8d3c e39d f13d a835 cdbd
000001d0: 2f3c 083e eae9 26be 8dfe f13d 23c5 2f3e
000001e0: 794b 0ebe 8b99 8d3d 4e3a fa3c 6a17 d0bd
000001f0: fcab 2bbe 9232 17be ffd0 86bb 0c76 c5bc
00000200: 98fc afbd 62ad f8bd e1f6 26bd 735c 1bbe
00000210: 2bba a03c 5976 8b3e 49f4 063d 8276 63bd
00000220: 0058 063e f681 30bd dbcb 29bf 19d2 1dbf
00000230: 73de 0cbd bf4b 27be 0bbf c9be 4b0a df3d
00000240: da6e 94be d13d 96be 4750 e73c 3f8d d93e
00000250: 7a81 933e 51fa 57be 7dab 673d 3c3c 933d
00000260: 46ba 333a 5b08 3bbe c16d 503d c9aa 6b3e
00000270: 93d9 70bc d173 19be e531 14bd cc0f b53d
00000280: ef82 093d 77bd 95be 548f 213e 05d6 30be
00000290: c6e1 9abb 1ef4 87bd f375 ba3b e053 5f3d
000002a0: f5d4 913d 89ab 7d3d 58f4 d03b b764 8abd
000002b0: 5b12 1fbe 55af f6bd 8dd9 29be 1593 41bd
000002c0: 207a 96bd 5867 4abe b722 803d ef8b 18be
000002d0: ca7f f4bd 18e9 6dbe af9c 2f3e 9717 01bd
000002e0: c6eb b0bd 6516 8bbd d3ea f43d 3b37 0fbe
000002f0: a968 093d ae1e 223d 2740 b6bd ca0c ce3c
00000300: b0f2 5b3b 2a7b 01be b1b2 cb3c 558b 24be
00000310: b8e8 1ebe 3b28 5abd 21bf 8ebd d333 303e
00000320: 5539 0b3e 55c6 c53d 29ac d53d c1a2 753c
00000330: 7f3b a8bd b33f d3bd b538 dabd 5086 94bd
00000340: 6210 e23d 6c71 6cbd c612 0fbe b972 253c
00000350: 429b 8dbe b1da 87bd dacc 543d 3b53 10bd
00000360: 5a1d 113e 024b 8ebc 1511 8ebe fdad 3fbd
00000370: 99ba b33d ba36 f4bd 84d5 ed3c 61d3 613d
00000380: 6a07 573e baca 2e3e ff59 6dbe 2a41 2f3e
00000390: 1abd 88bd f790 873d d064 8ebc 4371 5c3d
000003a0: 2c5e cdba 77d3 fbbd dbc6 0f3e 7167 5f3d
000003b0: 9ca2 0fbe fda1 043e 057f ca3a d83a 46bc
000003c0: bc57 ac3d ba93 70bd dca3 24be de8b 5cbd
000003d0: 4a39 683d b6bb a93d c985 16bc fa0c a63d
000003e0: 5f9a 14bd a902 48bd 0f63 06bd cb5d 58be
000003f0: 843c d63d 6120 123e 7764 a8bd 8c48 cdbd

_mlp.4.bias f4 [32]
-0.045384105 0.021789417 -0.45404345 -0.14096168 0.22386491 -0.14621516 -0.10771231 -0.46917826
-0.18375228 -0.18898836 -0.31162637 0.0149045065 -0.08165992 0.09897474 -0.030875936 0.107761055
-0.033079572 0.28201136 -0.042305972 0.024960035 -0.6015618 -0.17259108 0.019754143 -0.15436366
-0.0960903 0.29917735 0.09314364 -0.120722845 -0.34393674 -0.017041558 0.30775145 -0.17985953
00000000: afe4 39bd b87f b23c 6278 e8be 4258 10be
00000010: d83c 653e 6db9 15be 4698 dcbd 2238 f0be
00000020: 8f29 3cbe 2a86 41be 7e8d 9fbe 0832 743c
00000030: 513d a7bd 45b3 ca3d 88ef fcbc d4b1 dc3d
00000040: 727e 07bd cb63 903e 0749 2dbd fd78 cc3c
00000050: f4ff 19bf b7bb 30be 71d3 a13c 8211 1ebe
00000060: feca c4bd c62d 993e 18c2 be3d 8a3d f7bd
00000070: 7a18 b0be bd9a 8bbc 9991 9d3e 192d 38be

_mlp.6.weight f4 [1, 32]
0.0018416143 -0.03836095 0.108885445 -0.08451958 -0.22597899 0.030697335 -0.00042943825 0.12003128
0.0018563127 0.09558665 0.14540821 -0.0008118864 0.3126598 -0.016373396 0.20464283 -0.060933042
-0.038714398 -0.2398126 -0.07347821 -0.096141376 0.14690879 -0.09479076 -0.011997716 0.030887438
0.2564568 -0.25499254 -0.017909149 -0.024401706 0.067152165 0.014176702 -0.22034886 -0.1965086
00000000: 5262 f13a 5f20 1dbd 55ff de3d 9a18 adbd
00000010: 0967 67be fa78 fb3c 3a26 e1b9 f6d2 f53d
00000020: 854f f33a efc2 c33d e4e5 143e c6d4 54ba
00000030: f214 a03e 8021 86bc e48d 513e ed94 79bd
00000040: fd92 1ebd 6f91 75be be7b 96bd c5e5 c4bd
00000050: 426f 163e a821 c2bd 1192 44bc a707 fd3c
00000060: 4e4e 833e 628e 82be 35b6 92bc 16e6 c7bc
00000070: 1387 893d 6645 683c 22a3 61be 8d39 49be

exp_avg f4 [2, 1, 3, 3]
3.6613346e-05 -0.0016585184 -0.0014597726 -0.0014505389 -0.0011359211 -0.0026431503 -0.0013680381 -0.0026827184
-0.0026323672 0.00011488695 0.00011829579 0.00012843065 0.00011560922 0.00011776671 0.000120927274 0.0001166425
0.00011588292 0.00011593244
00000000: 4891 1938 a562 d9ba d755 bfba 0220 beba
00000010: 30e3 94ba b438 2dbb be4f b3ba 8cd0 2fbb
00000020: cb83 2cbb 76ef f038 9215 f838 57ab 0639
00000030: 3a73 f238 85f9 f638 569a fd38 f79d f438
00000040: 2b06 f338 c120 f338

exp_avg_sq f4 [2, 1, 3, 3]
0.0008239227 0.0006881114 0.00071063533 0.0006931385 0.00078938814 0.00072274904 0.00072536315 0.0007045071
0.00069439574 2.094923e-05 2.1970694e-05 1.9596439e-05 2.20638e-05 2.230946e-05 2.0826565e-05 2.20245e-05
2.1802285e-05 2.0511327e-05
00000000: 84fc 573a 6062 343a ee49 3a3a bdb3 353a
00000010: f1ee 4e3a de76 3d3a 4c26 3e3a acae 383a
00000020: 1c08 363a 21bc af37 b54d b837 0863 a437
00000030: a615 b937 3325 bb37 b5b4 ae37 41c1 b837
00000040: 0de4 b637 bd0f ac37

exp_avg f4 [4, 1, 3, 3]
0.0005028649 0.00053140684 0.00043854004 0.00045814933 0.00046603757 0.0003855183 0.00033349256 0.00027563234
0.00020923355 -0.00014279455 0.00054055825 -0.00074783585 0.00054339727 -0.0007325427 -9.5544245e-05 -0.0004197842
-0.00012375024 -0.00018939843 0.0002854344 0.00027917154 0.00026546395 0.00029079456 0.00028886384 0.00027939418
0.00027873638 0.00028312294 0.0002782803 -6.54317e-05 -6.706118e-05 -6.557425e-05 -6.224057e-05 -6.57783e-05
-6.6596156e-05 -5.4928085e-05 -5.9427843e-05 -6.2221734e-05
00000000: b1d2 033a 1c4e 0b3a d9eb e539 c333 f039
00000010: 8156 f439 641f ca39 9dd8 ae39 bf82 9039
00000020: b465 5b39 1fbb 15b9 40b4 0d3a 6a0a 44ba
00000030: c672 0e3a 1c08 40ba ed5e c8b8 7b16 dcb9
00000040: f4c2 01b9 4199 46b9 5ba6 9539 c55d 9239
00000050: f82d 8b39 c975 9839 a672 9739 a77b 9239
00000060: 5d23 9239 1e70 9439 26e6 9139 6038 89b8
00000070: 32a3 8cb8 e884 89b8 2787 82b8 75f2 89b8
00000080: 8aa9 8bb8 9562 66b8 2942 79b8 0a7d 82b8

exp_avg_sq f4 [4, 1, 3, 3]
8.399541e-06 9.98772e-06 8.309371e-06 9.851292e-06 1.0301405e-05 6.890066e-06 5.7714933e-06 4.848401e-06
3.4939376e-06 4.892099e-05 7.868419e-05 6.181922e-05 7.20567e-05 8.3012485e-05 6.190891e-05 5.0221384e-05
6.07673e-05 5.260047e-05 8.9800546e-05 8.762526e-05 8.321547e-05 9.1058006e-05 8.825822e-05 8.550769e-05
8.810356e-05 8.692981e-05 8.445135e-05 7.0580836e-06 7.387126e-06 7.6168935e-06 7.0342994e-06 7.302922e-06
7.584815e-06 6.5623844e-06 6.9166067e-06 7.2176153e-06
00000000: c1eb 0c37 ee90 2737 7a68 0b37 fa46 2537
00000010: 33d4 2c37 3731 e736 c0a8 c136 73af a236
00000020: 6479 6a36 8330 4d38 4103 a538 f1a4 8138
00000030: 251d 9738 fd16 ae38 18d5 8138 cda4 5238
00000040: 64e0 7e38 539f 5c38 4d53 bc38 74c3 b738
00000050: f783 ae38 65f6 be38 4517 b938 9752 b338
00000060: 3dc4 b838 164e b638 791b b138 7ad4 ec36
00000070: eede f736 9e94 ff36 2c08 ec36 9f0b f536
00000080: 1181 fe36 7432 dc36 3315 e836 d82e f236

exp_avg f4 [32, 12]
-0.0008273546 5.34468e-05 -0.0008273546 5.34468e-05 -0.00018698754 -0.00079587713 -8.593995e-05 1.0343251e-05
-0.00018698754 -0.00079587713 -8.593995e-05 1.0343251e-05 1.2588477e-18 -4.1695553e-18 1.2588477e-18 -4.1695553e-18
7.3700155e-18 1.2065355e-17 -1.0612778e-17 -6.4487803e-18 7.3700155e-18 1.2065355e-17 -1.0612778e-17 -6.4487803e-18
-6e-45 -6e-45 -6e-45 -6e-45 -6e-45 -6e-45 -6e-45 -6e-45
-6e-45 -6e-45 -6e-45 -6e-45 -6e-45 6e-45 -6e-45 6e-45
-6e-45 -6e-45 -6e-45 6e-45 -6e-45 -6e-45 -6e-45 6e-45
0.0009165296 -6.422866e-05 0.0009165296 -6.422866e-05 0.00035742082 0.0015854418 7.201443e-05 -1.8116276e-05
0.00035742082 0.0015854418 7.201443e-05 -1.8116276e-05 0.0 0.0 0.0 0.0
0.0 0.0 0.0 0.0 0.0 0.0 0.0 0.0
0.00085068855 -5.599359e-05 0.00085068855 -5.599359e-05 0.00032821 0.0014306296 7.343966e-05 -1.29433265e-05
0.00032821 0.0014306296 7.343966e-05 -1.29433265e-05 -6e-45 6e-45 -6e-45 6e-45
-6e-45 -6e-45 -6e-45 -6e-45 -6e-45 -6e-45 -6e-45 -6e-45
-1.7238013e-06 -3.9131217e-07 -1.7238013e-06 -3.9131217e-07 2.0931813e-07 3.7561647e-06 -2.4396682e-06 -1.3406233e-06
2.0931813e-07 3.7561647e-06 -2.4396682e-06 -1.3406233e-06 0.00057920936 -2.9533914e-05 0.00057920936 -2.9533914e-05
0.00021294945 0.0010191718 5.6125682e-05 -1.7538853e-06 0.00021294945 0.0010191718 5.6125682e-05 -1.7538853e-06
-1.4912068e-07 -1.0983465e-07 -1.4912068e-07 -1.0983465e-07 2.8994026e-07 6.511438e-07 -5.3915494e-07 -3.046437e-07
2.8994026e-07 6.511438e-07 -5.3915494e-07 -3.046437e-07 -6e-45 -6e-45 -6e-45 -6e-45
-6e-45 6e-45 -6e-45 -6e-45 -6e-45 6e-45 -6e-45 -6e-45
-6e-45 -6e-45 -6e-45 -6e-45 -6e-45 -6e-45 -6e-45 -6e-45
-6e-45 -6e-45 -6e-45 -6e-45 0.0002098805 -1.3006758e-05 0.0002098805 -1.3006758e-05
0.00013905711 0.0005799208 1.6287308e-05 -2.4118058e-06 0.00013905711 0.0005799208 1.6287308e-05 -2.4118058e-06
-6e-45 -6e-45 -6e-45 -6e-45 6e-45 -6e-45 -6e-45 -6e-45
6e-45 -6e-45 -6e-45 -6e-45 8.760195e-06 -5.418508e-07 8.760195e-06 -5.418508e-07
4.3859254e-06 1.4247185e-05 5.403529e-07 -1.9656807e-07 4.3859254e-06 1.4247185e-05 5.403529e-07 -1.9656807e-07
0.0 0.0 0.0 0.0 0.0 0.0 0.0 0.0
0.0 0.0 0.0 0.0 -8.594747e-05 8.63507e-06 -8.594747e-05 8.63507e-06
-5.8983765e-05 -0.0001090715 1.326479e-05 1.5527194e-05 -5.8983765e-05 -0.0001090715 1.326479e-05 1.5527194e-05
-1.8100082e-37 -2.2132724e-36 -1.8100082e-37 -2.2132724e-36 1.8971635e-36 5.7915195e-36 -7.441436e-36 -4.416366e-36
1.8971635e-36 5.7915195e-36 -7.441436e-36 -4.416366e-36 3.2655577e-16 -7.5765075e-16 3.2655577e-16 -7.5765075e-16
1.5090791e-15 3.4823132e-15 -2.453207e-15 -1.093903e-15 1.5090791e-15 3.4823132e-15 -2.453207e-15 -1.093903e-15
5.7865133e-28 -9.471404e-28 5.7865133e-28 -9.471404e-28 1.1714217e-27 2.759373e-27 -2.5243096e-27 -1.6351475e-27
1.1714217e-27 2.759373e-27 -2.5243096e-27 -1.6351475e-27 0.00010165411 -4.868269e-06 0.00010165411 -4.868269e-06
00000000: d4e2 58ba 112c 6038 d4e2 58ba 112c 6038
00000010: 1612 44b9 69a2 50ba a93a b4b8 ed87 2d37
00000020: 1612 44b9 69a2 50ba a93a b4b8 ed87 2d37
00000030: ecc5 b921 56d4 99a2 ecc5 b921 56d4 99a2
00000040: eaf3 0723 0791 5e23 6dc5 43a3 02eb eda2
00000050: eaf3 0723 0791 5e23 6dc5 43a3 02eb eda2
00000060: 0400 0080 0400 0080 0400 0080 0400 0080
00000070: 0400 0080 0400 0080 0400 0080 0400 0080
00000080: 0400 0080 0400 0080 0400 0080 0400 0080
00000090: 0400 0080 0400 0000 0400 0080 0400 0000
000000a0: 0400 0080 0400 0080 0400 0080 0400 0000
000000b0: 0400 0080 0400 0080 0400 0080 0400 0000
000000c0: 4343 703a 80b2 86b8 4343 703a 80b2 86b8
000000d0: 3664 bb39 99ce cf3a 7406 9738 68f8 97b7
000000e0: 3664 bb39 99ce cf3a 7406 9738 68f8 97b7
000000f0: 0000 0000 0000 0000 0000 0000 0000 0000
00000100: 0000 0000 0000 0000 0000 0000 0000 0000
00000110: 0000 0000 0000 0000 0000 0000 0000 0000
00000120: be00 5f3a a9da 6ab8 be00 5f3a a9da 6ab8
00000130: 9a13 ac39 f783 bb3a 9e03 9a38 2a27 59b7
00000140: 9a13 ac39 f783 bb3a 9e03 9a38 2a27 59b7
00000150: 0400 0080 0400 0000 0400 0080 0400 0000
00000160: 0400 0080 0400 0080 0400 0080 0400 0080
00000170: 0400 0080 0400 0080 0400 0080 0400 0080
00000180: 5d5d e7b5 8915 d2b4 5d5d e7b5 8915 d2b4
00000190: eec0 6034 6b12 7c36 2eb9 23b6 77ef b3b5
000001a0: eec0 6034 6b12 7c36 2eb9 23b6 77ef b3b5
000001b0: 15d6 173a 99bf f7b7 15d6 173a 99bf f7b7
000001c0: 2f4b 5f39 bb95 853a 7e68 6b38 0a67 ebb5
000001d0: 2f4b 5f39 bb95 853a 7e68 6b38 0a67 ebb5
000001e0: fb1d 20b4 3dde ebb3 fb1d 20b4 3dde ebb3
000001f0: 16a9 9b34 43ca 2e35 72ba 10b5 e98d a3b4
00000200: 16a9 9b34 43ca 2e35 72ba 10b5 e98d a3b4
00000210: 0400 0080 0400 0080 0400 0080 0400 0080
00000220: 0400 0080 0400 0000 0400 0080 0400 0080
00000230: 0400 0080 0400 0000 0400 0080 0400 0080
00000240: 0400 0080 0400 0080 0400 0080 0400 0080
00000250: 0400 0080 0400 0080 0400 0080 0400 0080
00000260: 0400 0080 0400 0080 0400 0080 0400 0080
00000270: 5e13 5c39 9a37 5ab7 5e13 5c39 9a37 5ab7
00000280: dccf 1139 d305 183a baa0 8837 82da 21b6
00000290: dccf 1139 d305 183a baa0 8837 82da 21b6
000002a0: 0400 0080 0400 0080 0400 0080 0400 0080
000002b0: 0400 0000 0400 0080 0400 0080 0400 0080
000002c0: 0400 0000 0400 0080 0400 0080 0400 0080
000002d0: c0f8 1237 b473 11b5 c0f8 1237 b473 11b5
000002e0: d02a 9336 3207 6f37 c50c 1135 3810 53b4
000002f0: d02a 9336 3207 6f37 c50c 1135 3810 53b4
00000300: 0000 0000 0000 0000 0000 0000 0000 0000
00000310: 0000 0000 0000 0000 0000 0000 0000 0000
00000320: 0000 0000 0000 0000 0000 0000 0000 0000
00000330: b23e b4b8 58df 1037 b23e b4b8 58df 1037
00000340: 5665 77b8 51bd e4b8 d78b 5e37 6540 8237
00000350: 5665 77b8 51bd e4b8 d78b 5e37 6540 8237
00000360: 955d 7682 ce48 3c84 955d 7682 ce48 3c84
00000370: 9064 2104 1058 f604 0843 1e85 f8d9 bb84
00000380: 9064 2104 1058 f604 0843 1e85 f8d9 bb84
00000390: 203f bc25 c260 5aa6 203f bc25 c260 5aa6
000003a0: 317b d926 57ed 7a27 afc5 30a7 e6a5 9da6
000003b0: 317b d926 57ed 7a27 afc5 30a7 e6a5 9da6
000003c0: c661 3712 9414 9692 c661 3712 9414 9692
000003d0: 829e b912 bc9e 5a13 15ff 4793 bb8c 0193
000003e0: 829e b912 bc9e 5a13 15ff 4793 bb8c 0193
000003f0: 222f d538 1d5a a3b6 222f d538 1d5a a3b6

exp_avg_sq f4 [32, 12]
0.00010169812 2.0874157e-07 0.00010169812 2.0874157e-07 5.8489775e-05 0.00022749635 1.4437378e-05 3.321186e-06
5.8489775e-05 0.00022749635 1.4437378e-05 3.321186e-06 9.7988374e-11 2.2616966e-13 9.7988374e-11 2.2616966e-13
1.139542e-10 1.6052937e-10 4.3259785e-11 1.19432415e-11 1.139542e-10 1.6052937e-10 4.3259785e-11 1.19432415e-11
1.0142879e-11 4.346928e-15 1.0142879e-11 4.346928e-15 6.535577e-12 6.4174166e-11 3.6805155e-12 6.68566e-13
6.535577e-12 6.4174166e-11 3.6805155e-12 6.68566e-13 2.6943614e-12 6.0687715e-14 2.6943614e-12 6.0687715e-14
7.293258e-13 2.1691704e-11 6.8292176e-13 1.09114886e-13 7.293258e-13 2.1691704e-11 6.8292176e-13 1.09114886e-13
3.949019e-05 8.001558e-08 3.949019e-05 8.001558e-08 1.8056042e-05 9.779926e-05 3.8466846e-06 6.629835e-07
1.8056042e-05 9.779926e-05 3.8466846e-06 6.629835e-07 0.0 0.0 0.0 0.0
0.0 0.0 0.0 0.0 0.0 0.0 0.0 0.0
3.959459e-05 8.097735e-08 3.959459e-05 8.097735e-08 1.7988357e-05 9.465157e-05 4.0431446e-06 6.7107175e-07
1.7988357e-05 9.465157e-05 4.0431446e-06 6.7107175e-07 6.760409e-12 3.3130847e-14 6.760409e-12 3.3130847e-14
3.4656117e-12 1.2878201e-10 3.1869663e-12 4.3617556e-13 3.4656117e-12 1.2878201e-10 3.1869663e-12 4.3617556e-13
2.839508e-08 1.12647836e-10 2.839508e-08 1.12647836e-10 1.9725295e-08 2.882597e-08 1.1260743e-08 3.2667282e-09
1.9725295e-08 2.882597e-08 1.1260743e-08 3.2667282e-09 2.7017788e-05 6.166569e-08 2.7017788e-05 6.166569e-08
1.3602358e-05 6.1372666e-05 3.7543875e-06 7.640336e-07 1.3602358e-05 6.1372666e-05 3.7543875e-06 7.640336e-07
6.142848e-10 1.5402028e-12 6.142848e-10 1.5402028e-12 7.397045e-10 1.0885517e-09 1.2927225e-10 2.2893946e-10
7.397045e-10 1.0885517e-09 1.2927225e-10 2.2893946e-10 3.653727e-16 9.976129e-16 3.653727e-16 9.976129e-16
4.2963414e-16 5.691996e-17 6.8677817e-15 4.121494e-15 4.2963414e-16 5.691996e-17 6.8677817e-15 4.121494e-15
3.5573229e-09 2.3848525e-12 3.5573229e-09 2.3848525e-12 3.5798e-09 5.244874e-09 2.3606828e-09 3.333998e-10
3.5798e-09 5.244874e-09 2.3606828e-09 3.333998e-10 1.2039134e-05 3.2358034e-08 1.2039134e-05 3.2358034e-08
8.72983e-06 3.8534745e-05 2.3891844e-06 6.509569e-07 8.72983e-06 3.8534745e-05 2.3891844e-06 6.509569e-07
4.406237e-12 1.6496224e-14 4.406237e-12 1.6496224e-14 2.8078171e-12 5.1402446e-12 3.774063e-12 8.437964e-13
2.8078171e-12 5.1402446e-12 3.774063e-12 8.437964e-13 4.3437956e-07 2.7837623e-09 4.3437956e-07 2.7837623e-09
4.2866e-07 1.0004769e-06 2.6352512e-07 7.703774e-08 4.2866e-07 1.0004769e-06 2.6352512e-07 7.703774e-08
0.0 0.0 0.0 0.0 0.0 0.0 0.0 0.0
0.0 0.0 0.0 0.0 2.8945726e-07 4.362972e-09 2.8945726e-07 4.362972e-09
1.0673934e-07 9.006596e-08 2.126908e-07 4.704919e-08 1.0673934e-07 9.006596e-08 2.126908e-07 4.704919e-08
1.4408566e-11 1.5828936e-12 1.4408566e-11 1.5828936e-12 1.5937886e-11 2.083471e-11 2.8881432e-11 1.3511918e-11
1.5937886e-11 2.083471e-11 2.8881432e-11 1.3511918e-11 2.5704898e-09 7.678678e-12 2.5704898e-09 7.678678e-12
2.7736635e-09 4.3483213e-09 3.9026216e-11 1.5527843e-10 2.7736635e-09 4.3483213e-09 3.9026216e-11 1.5527843e-10
1.5055445e-11 6.925393e-13 1.5055445e-11 6.925393e-13 1.5613772e-11 1.9468054e-11 3.024312e-11 7.749018e-12
1.5613772e-11 1.9468054e-11 3.024312e-11 7.749018e-12 3.0398471e-06 1.2594696e-08 3.0398471e-06 1.2594696e-08
00000000: c346 d538 7222 6034 c346 d538 7222 6034
00000010: eb52 7538 168c 6e39 1138 7237 8be1 5e36
00000020: eb52 7538 168c 6e39 1138 7237 8be1 5e36
00000030: 8d7a d72e f7a4 7e2a 8d7a d72e f7a4 7e2a
00000040: 8396 fa2e 0081 302f 3042 3e2e 941b 522d
00000050: 8396 fa2e 0081 302f 3042 3e2e 941b 522d
00000060: 776f 322d 569d 9c27 776f 322d 569d 9c27
00000070: 3ff3 e52c d81e 8d2e 237f 812c 422f 3c2b
00000080: 3ff3 e52c d81e 8d2e 237f 812c 422f 3c2b
00000090: 4d99 3d2c 16a8 8829 4d99 3d2c 16a8 8829
000000a0: 7649 4d2b 60cd be2d b339 402b 73b4 f529
000000b0: 7649 4d2b 60cd be2d b339 402b 73b4 f529
000000c0: 45a2 2538 08d5 ab33 45a2 2538 08d5 ab33
000000d0: 0e77 9737 9419 cd38 c512 8136 e1f7 3135
000000e0: 0e77 9737 9419 cd38 c512 8136 e1f7 3135
000000f0: 0000 0000 0000 0000 0000 0000 0000 0000
00000100: 0000 0000 0000 0000 0000 0000 0000 0000
00000110: 0000 0000 0000 0000 0000 0000 0000 0000
00000120: 5e12 2638 c5e5 ad33 5e12 2638 c5e5 ad33
00000130: b4e5 9637 ad7f c638 59aa 8736 b323 3435
00000140: b4e5 9637 ad7f c638 59aa 8736 b323 3435
00000150: 5adc ed2c 4435 1529 5adc ed2c 4435 1529
00000160: e9de 732c ea98 0d2f 4843 602c 868b f52a
00000170: e9de 732c ea98 0d2f 4843 602c 868b f52a
00000180: 71e9 f332 18b7 f72e 71e9 f332 18b7 f72e
00000190: 6270 a932 fa9c f732 4575 4132 e47c 6031
000001a0: 6270 a932 fa9c f732 4575 4132 e47c 6031
000001b0: 42a4 e237 126d 8433 42a4 e237 126d 8433
000001c0: af35 6437 33b5 8038 e3f3 7b36 fd17 4d35
000001d0: af35 6437 33b5 8038 e3f3 7b36 fd17 4d35
000001e0: 73da 2830 a7c3 d82b 73da 2830 a7c3 d82b
000001f0: 1454 4b30 029c 9530 e722 0e2f bbb8 7b2f
00000200: 1454 4b30 029c 9530 e722 0e2f bbb8 7b2f
00000210: 7e9f d225 6bc5 8f26 7e9f d225 6bc5 8f26
00000220: cfaa f725 9d3f 8324 1b70 f727 137e 9427
00000230: cfaa f725 9d3f 8324 1b70 f727 137e 9427
00000240: 1675 7431 afd1 272c 1675 7431 afd1 272c
00000250: 8200 7631 6636 b431 9239 2231 da49 b72f
00000260: 8200 7631 6636 b431 9239 2231 da49 b72f
00000270: b0fb 4937 09fa 0a33 b0fb 4937 09fa 0a33
00000280: 5676 1237 5ea0 2138 e055 2036 6bbd 2e35
00000290: 5676 1237 5ea0 2138 e055 2036 6bbd 2e35
000002a0: db07 9b2c b495 9428 db07 9b2c b495 9428
000002b0: 2395 452c 35db b42c bdc9 842c f081 6d2b
000002c0: 2395 452c 35db b42c bdc9 842c f081 6d2b
000002d0: ac34 e934 774c 3f31 ac34 e934 774c 3f31
000002e0: 9522 e634 2048 8635 9e7a 8d34 f26f a533
000002f0: 9522 e634 2048 8635 9e7a 8d34 f26f a533
00000300: 0000 0000 0000 0000 0000 0000 0000 0000
00000310: 0000 0000 0000 0000 0000 0000 0000 0000
00000320: 0000 0000 0000 0000 0000 0000 0000 0000
00000330: b466 9b34 1ce9 9531 b466 9b34 1ce9 9531
00000340: 9338 e533 496a c133 0060 6434 2213 4a33
00000350: 9338 e533 496a c133 0060 6434 2213 4a33
00000360: 6a7a 7d2d c1c5 de2b 6a7a 7d2d c1c5 de2b
00000370: ee30 8c2d 9943 b72d 340b fe2d 45b4 6d2d
00000380: ee30 8c2d 9943 b72d 340b fe2d 45b4 6d2d
00000390: 89a4 3031 b115 072d 89a4 3031 b115 072d
000003a0: ce9a 3e31 3d68 9531 9da3 2b2e feba 2a2f
000003b0: ce9a 3e31 3d68 9531 9da3 2b2e feba 2a2f
000003c0: d96d 842d b7ee 422b d96d 842d b7ee 422b
000003d0: 1757 892d 293e ab2d ba02 052e 7952 082d
000003e0: 1757 892d 293e ab2d ba02 052e 7952 082d
000003f0: 2d00 4c36 0f60 5832 2d00 4c36 0f60 5832

exp_avg f4 [32]
0.00034157434 9.9943055e-18 6e-45 6e-45 -0.00033967063 0.0 -0.00031849457 6e-45
4.303469e-06 -0.0001894417 7.020623e-07 6e-45 6e-45 -7.191408e-05 6e-45 -2.9637608e-06
0.0 -4.767611e-06 5.155286e-36 2.7654465e-15 1.8511576e-27 -3.0117233e-05 6.6294045e-16 2.52015e-19
-2.9056464e-06 1.17198345e-26 -9.916014e-08 -1.8700159e-05 1.5936588e-27 -2.963676e-06 6.486274e-24 6e-45
00000000: 5515 b339 c65c 3823 0400 0000 0400 0000
00000010: d215 b2b9 0000 0000 9efb a6b9 0400 0000
00000020: 8466 9036 dea4 46b9 5b75 3c35 0400 0000
00000030: 0400 0000 94d0 96b8 0400 0000 06e5 46b6
00000040: 0000 0000 77f9 9fb6 1848 db04 7c45 4727
00000050: f0a9 1213 44a4 fcb7 5f14 3f26 6ec3 9420
00000060: a0fe 42b6 9f22 6814 ddf1 d4b3 49de 9cb7
00000070: 7b86 fc12 91e3 46b6 f2ec fa18 0400 0000

exp_avg_sq f4 [32]
1.0134228e-05 1.484822e-11 1.0389341e-12 5.6633707e-13 4.4859644e-06 0.0 4.816849e-06 1.6126157e-12
3.0873832e-09 3.321581e-06 1.045789e-10 1.014172e-15 3.7278836e-10 8.8981477e-07 2.2457364e-12 2.9622278e-08
0.0 2.2038303e-07 9.305374e-12 3.1375076e-11 3.0869233e-12 2.3335062e-07 1.4352938e-10 5.438565e-10
5.992058e-07 2.0391808e-11 6.6619803e-09 2.5463682e-09 3.1685672e-12 6.746507e-08 4.599896e-10 3.3356992e-13
00000000: 2e06 2a37 389b 822d 8c37 922b e368 1f2b
00000010: 2486 9636 0000 0000 6ba0 a136 9bf4 e22b
00000020: d229 5431 54e8 5e36 b0f8 e52e 5828 9226
00000030: 4cf1 cc2f 9bdb 6e35 9707 1e2c 1474 fe32
00000040: 0000 0000 6da2 6c34 aeb3 232d 32fd 092e
00000050: 1139 592c ee8e 7a34 eecf 1d2f 807e 1530
00000060: 1cd9 2035 455e b32d 66e7 e431 2ffc 2e31
00000070: d5f7 5e2c 51e1 9033 c8e1 fc2f 7ec8 bb2a

exp_avg f4 [32, 32]
1.9494004e-09 -1.9976046e-25 0.0 0.0 6e-45 0.0 6e-45 0.0
3.0530656e-10 6e-45 2.0821202e-10 0.0 6e-45 6e-45 -6e-45 6e-45
0.0 3.972722e-09 -6e-45 0.0 6e-45 6e-45 -1.3626996e-18 -6.075627e-22
1.2025511e-09 0.0 -8.556535e-12 2.2137367e-09 0.0 1.208643e-09 1.00165854e-25 6e-45
-4.1655007e-06 6e-45 -6e-45 -6e-45 -0.00017533927 0.0 -0.00017268171 -6e-45
-6e-45 -0.0001323293 6e-45 0.0 -6e-45 -1.8335038e-05 6e-45 -8.7239573e-07
0.0 -6e-45 6e-45 6e-45 6e-45 -1.9256522e-05 0.0 6e-45
6e-45 0.0 -6e-45 0.0 0.0 -6e-45 0.0 -6e-45
6e-45 0.0 0.0 0.0 6e-45 0.0 6e-45 0.0
0.0 6e-45 6e-45 0.0 6e-45 6e-45 0.0 6e-45
0.0 6e-45 0.0 0.0 0.0 6e-45 0.0 0.0
0.0 0.0 6e-45 0.0 0.0 6e-45 0.0 0.0
-1.0473068e-05 6e-45 -6e-45 -6e-45 -0.00034928773 0.0 -0.00034347063 -6e-45
-6e-45 -0.00026146133 -6e-45 0.0 6e-45 -3.5914974e-05 6e-45 -1.4936265e-06
0.0 6e-45 -6e-45 6e-45 -6e-45 -3.7454734e-05 0.0 6e-45
6e-45 0.0 -6e-45 -6e-45 0.0 -6e-45 0.0 -6e-45
9.9701165e-06 6e-45 0.0 -6e-45 2.5367514e-25 0.0 3.2628375e-08 -6e-45
-3.3366754e-07 2.898532e-07 5.315425e-09 -6e-45 0.0 6e-45 6e-45 6e-45
0.0 -3.3134304e-06 2.3015045e-37 6e-45 6e-45 6e-45 3.275661e-17 1.2373991e-22
-7.772955e-07 6e-45 6.444863e-33 2.4655324e-16 -6e-45 -5.953143e-07 -1.6377723e-26 0.0
-7.35153e-05 -2.2449798e-20 0.0 -6e-45 -1.9124105e-05 0.0 -6.731545e-05 -6e-45
-7.3286014e-06 -8.805736e-05 3.654375e-08 -6e-45 0.0 6e-45 6e-45 6e-45
0.0 -5.4437347e-05 8.722846e-37 3.9672803e-17 -1.2320962e-28 -3.08e-43 3.1956785e-16 4.3948552e-20
-1.6265818e-05 -9.264788e-28 -1.8630163e-07 -8.471032e-06 4.0444144e-29 -9.489953e-06 -6.1269106e-25 0.0
6e-45 0.0 0.0 0.0 6e-45 0.0 6e-45 0.0
0.0 6e-45 6e-45 0.0 6e-45 6e-45 0.0 6e-45
0.0 6e-45 0.0 0.0 0.0 6e-45 0.0 0.0
0.0 0.0 6e-45 0.0 0.0 6e-45 0.0 0.0
6e-45 6e-45 0.0 0.0 6e-45 0.0 6e-45 0.0
0.0 6e-45 6e-45 0.0 6e-45 6e-45 -6e-45 6e-45
0.0 6e-45 6e-45 -6e-45 6e-45 6e-45 0.0 -6e-45
6e-45 0.0 6e-45 0.0 0.0 6e-45 0.0 6e-45
00000000: 37f6 0531 9e4a 7796 0000 0000 0000 0000
00000010: 0400 0000 0000 0000 0400 0000 0000 0000
00000020: 14d8 a72f 0400 0000 79ee 642f 0000 0000
00000030: 0400 0000 0400 0000 0400 0080 0400 0000
00000040: 0000 0000 6f80 8831 0400 0080 0000 0000
00000050: 0400 0000 0400 0000 5619 c9a1 e39f 379c
00000060: 0147 a530 0000 0000 3587 16ad 7820 1831
00000070: 0000 0000 581d a630 a7ff f715 0400 0000
00000080: 61c5 8bb6 0400 0000 0400 0080 0400 0080
00000090: 47db 37b9 0000 0000 e511 35b9 0400 0080
000000a0: 0400 0080 e0c1 0ab9 0400 0000 0000 0000
000000b0: 0400 0080 32ce 99b7 0400 0000 942e 6ab5
000000c0: 0000 0000 0400 0080 0400 0000 0400 0000
000000d0: 0400 0000 1189 a1b7 0000 0000 0400 0000
000000e0: 0400 0000 0000 0000 0400 0080 0000 0000
000000f0: 0000 0000 0400 0080 0000 0000 0400 0080
00000100: 0400 0000 0000 0000 0000 0000 0000 0000
00000110: 0400 0000 0000 0000 0400 0000 0000 0000
00000120: 0000 0000 0400 0000 0400 0000 0000 0000
00000130: 0400 0000 0400 0000 0000 0000 0400 0000
00000140: 0000 0000 0400 0000 0000 0000 0000 0000
00000150: 0000 0000 0400 0000 0000 0000 0000 0000
00000160: 0000 0000 0000 0000 0400 0000 0000 0000
00000170: 0000 0000 0400 0000 0000 0000 0000 0000
00000180: 7cb5 2fb7 0400 0000 0400 0080 0400 0080
00000190: 9b20 b7b9 0000 0000 d913 b4b9 0400 0080
000001a0: 0400 0080 bf14 89b9 0400 0080 0000 0000
000001b0: 0400 0000 69a3 16b8 0400 0000 9e78 c8b5
000001c0: 0000 0000 0400 0000 0400 0080 0400 0000
000001d0: 0400 0080 b718 1db8 0000 0000 0400 0000
000001e0: 0400 0000 0000 0000 0400 0080 0400 0080
000001f0: 0000 0000 0400 0080 0000 0000 0400 0080
00000200: 5345 2737 0400 0000 0000 0000 0400 0080
00000210: 6e04 9d16 0000 0000 4723 0c33 0400 0080
00000220: eb22 b3b4 1f9d 9b34 f9a2 b631 0400 0080
00000230: 0000 0000 0400 0000 0400 0000 0400 0000
00000240: 0000 0000 4d5c 5eb6 dda1 9c02 0400 0000
00000250: 0400 0000 0400 0000 2e10 1724 a697 151b
00000260: 57a7 50b5 0400 0000 c5da 050a d620 8e25
00000270: 0400 0080 b0cd 1fb5 7632 a294 0000 0000
00000280: 3a2c 9ab8 4808 d49e 0000 0000 0400 0080
00000290: b46c a0b7 0000 0000 b52b 8db8 0400 0080
000002a0: 35e8 f5b6 6fab b8b8 47f4 1c33 0400 0080
000002b0: 0000 0000 0400 0000 0400 0000 0400 0000
000002c0: 0000 0000 a853 64b8 5a69 9403 61f5 3624
000002d0: cf2f 1c91 dc00 0080 e437 b825 8a8a 4f1f
000002e0: 9472 88b7 72ce 9292 340a 48b4 ce1e 0eb7
000002f0: 8013 4d10 0a37 1fb7 639e 3d97 0000 0000
00000300: 0400 0000 0000 0000 0000 0000 0000 0000
00000310: 0400 0000 0000 0000 0400 0000 0000 0000
00000320: 0000 0000 0400 0000 0400 0000 0000 0000
00000330: 0400 0000 0400 0000 0000 0000 0400 0000
00000340: 0000 0000 0400 0000 0000 0000 0000 0000
00000350: 0000 0000 0400 0000 0000 0000 0000 0000
00000360: 0000 0000 0000 0000 0400 0000 0000 0000
00000370: 0000 0000 0400 0000 0000 0000 0000 0000
00000380: 0400 0000 0400 0000 0000 0000 0000 0000
00000390: 0400 0000 0000 0000 0400 0000 0000 0000
000003a0: 0000 0000 0400 0000 0400 0000 0000 0000
000003b0: 0400 0000 0400 0000 0400 0080 0400 0000
000003c0: 0000 0000 0400 0000 0400 0000 0400 0080
000003d0: 0400 0000 0400 0000 0000 0000 0400 0080
000003e0: 0400 0000 0000 0000 0400 0000 0000 0000
000003f0: 0000 0000 0400 0000 0000 0000 0400 0000
