Experiments/Experiments-016/checkpoints/model.pt (torch, 163559 bytes, 33 tensors)

cp.convs.0.weight f4 [2, 1, 3, 3]
00000000: 5ec9 9a3e 4005 d33e c9ec 1cbe b156 93be
00000010: 4a7c d4bd 4d98 823d 65ed 383e 24cf b83e
00000020: 9f35 d23e 18c6 433f 4ccf 13bf 6059 b2be
00000030: 37cb 9b3e 3b5a 9d3f d0d8 2ebf 8474 803d
00000040: dcf9 98be e4da 09be
0.30231756 0.41214943 -0.15324701 -0.28777078 -0.10375269 0.06376705 0.18059309 0.36095536
0.41056535 0.7647414 -0.57738185 -0.34833813 0.30428478 1.2293161 -0.6829958 0.062722236
-0.29878128 -0.13462406

cp.convs.1.weight f4 [4, 1, 3, 3]
00000000: d526 603e 519d 1fbd bdab 533e 2af8 023e
00000010: 9237 d63c f063 fd3b 6038 243e 5944 703e
00000020: 5cdc 293e 534f 383e e8e5 9dbe 69a1 92be
00000030: 7ba3 333e c2c7 ac3e e664 e83d 84ed c2be
00000040: dacd f1be 8cdc c7be 3e14 d9be 0457 d8be
00000050: 8e7f afbe ef3e 9ebe dd8f c7be 40be e1be
00000060: 7d28 a5be 7097 e3be 9215 9cbe 7cac cb3e
00000070: b88d 763f ce46 e53e 6898 adbd 2139 75bf
00000080: ad87 ce3e d66d abbd baf2 4cbd 5095 83bf
0.21889813 -0.038968388 0.20670982 0.1278998 0.026149545 0.0077328607 0.1603713 0.23463573
0.16587967 0.1799901 -0.30839467 -0.2863877 0.17542832 0.33746153 0.1134737 -0.38071835
-0.47227365 -0.3903545 -0.42398256 -0.42253888 -0.34277004 -0.3090739 -0.38976946 -0.44090462
-0.32257453 -0.44451475 -0.30485207 0.39780033 0.96309996 0.44780582 -0.08476335 -0.95790297
0.40337887 -0.08370559 -0.05003617 -1.0279942

cp.convs.2.weight f4 [8, 1, 3, 3]
00000000: 9f76 9dbd 6bf6 ca3e aba2 0f3d e6f7 8f3d
00000010: 8361 963e 226f 25be 521a dd3d aa52 60be
00000020: 05ee c83e 954d f7bd 5bcf 5f3e 35b0 423e
00000030: 0048 2ebe 09b9 bc3e 70be a03e 93a4 09bd
00000040: 71a4 533e 41d3 793d 8458 a93e c3bc 873e
00000050: 6547 95be f63d d33e 6c63 e03b 410b a03e
00000060: 4304 6ebb ac73 793e 3ac3 66be ddaf c2bd
00000070: 2b0d 2ebd 845b 65be d988 dc3c 8db7 be3e
00000080: 9a77 cd3e 6ac7 943e 5521 583e 4fa5 ef3d
00000090: fe12 86be bd8b 9abe a0c3 38be e1cc 7dbe
000000a0: 0386 6cbe ecf3 933d dfb6 2ebd cfbd 03be
000000b0: 2233 0b3e 41ca 403d a189 d6bd 09ec a5be
000000c0: 3c0f 95be f55e e13d 4f85 8abe a015 8dbe
000000d0: a1b4 b3bd fec4 753e a761 11bf 0392 c53e
000000e0: 4f35 153f 342d fc3e c671 ae3e 2e35 ed3d
000000f0: 78ce 05bc d5c2 1e3f 52ad af3f 2b54 3d3f
00000100: baae c7be e529 bcbe d48a 20bf f5b3 883f
00000110: 6314 03bf 96d2 e9be c57b 9cbe 43eb 683f
-0.07688641 0.39641127 0.03506724 0.07029705 0.2937127 -0.16155675 0.10796036 -0.21906534
0.39244094 -0.120753445 0.21856444 0.1901253 -0.17019653 0.3685992 0.31395292 -0.033604216
0.20668198 0.060992483 0.33075345 0.265112 -0.29156032 0.4125821 0.0068477895 0.31258586
-0.0036318458 0.24360532 -0.2253541 -0.095061995 -0.042493027 -0.22398192 0.026920723 0.37249413
0.4013031 0.2905839 0.21106465 0.11701452 -0.26186365 -0.30184737 -0.18043375 -0.24785186
-0.23097996 0.07224259 -0.04265487 -0.12865375 0.13593724 0.047067884 -0.104754694 -0.32406643
-0.29113185 0.1100444 -0.2705483 -0.2755556 -0.087746866 0.24000928 -0.5678963 0.3858796
0.5828447 0.49253237 0.34071177 0.11582409 -0.008166902 0.6201604 1.3724768 0.73956555
-0.39000493 -0.36750713 -0.62711835 1.0679919 -0.5120298 -0.45668477 -0.3056318 0.9098398

cp.convs.3.weight f4 [16, 1, 3, 3]
00000000: cbc8 ac3e f9ff a73d 26b9 4f3e d266 2ebd
00000010: 735b f53c 8123 903e 15ad bebc edbc f23d
00000020: 81ca d93d b554 503e 1767 753e 7d95 e9bd
00000030: c335 ce3b 4ef7 9e3d 44ad 963e a744 9bbd
00000040: b98b ac3d 06a4 d93e d50d 67be ce93 d1bd
00000050: 43f5 3dbe a671 023d e31c 0f3e 7f51 3cbe
00000060: ee0c ddbd c583 243c eb62 c0be 099d 43be
00000070: c943 5ebe 0e08 33be d5cd 2abd f541 82be
00000080: 877d 98be 85c1 463e 3f61 873e 15d2 93be
00000090: 75c4 9abe 17ad c4be 163d 163e e04f b5be
000000a0: f91b ddbe 3922 bebb 35d2 593d 9655 af3d
000000b0: 672a 373e 6279 a2bd 04e3 3b3e c07f 713e
000000c0: 4c33 15be f3cd 2a3e 1b98 76bd 71ad 353e
000000d0: d7f6 703e 2448 a03e 2281 41bd be00 7ebe
000000e0: ba2d 8ebe 4b61 723d c360 12be 9781 7ebe
000000f0: f083 983d 8ba9 283d dbb2 86be f841 573d
00000100: 7b18 77be 105a 0fbe bf59 48be ad40 4fbe
00000110: 4d80 9abd 4797 883e 760f bebe 7e31 0bbe
00000120: caa3 f33d dd39 9dbe c974 c23d c8e3 573e
00000130: 2e2d 41bd be5b 3dbe d1b9 143e 4719 cebe
00000140: 129b f4be aa9f 073e 5463 bdbe 2ebd bb3b
00000150: f620 213e 0b3e 9fbe 3836 9dbe b6b6 233e
00000160: 14bc 35be 04dd 2dbe 51ef 1cba e344 8fbe
00000170: 3d8c 35be d0a5 32be 2c9f 22be 8544 853e
00000180: a020 e3bd 2baa 82be e13e ea3d 2558 81be
00000190: 719d 61be 2eaa 1d3e 9935 94be 1992 bbbe
000001a0: ecc2 1bbd f9b9 1c3e 0ec4 45bd 00c1 1fbe
000001b0: 8b8d 9bbe 1b1d d8be 1313 cfbe 97fb d9be
000001c0: 0d09 16bf 4e12 debe a182 f9be aaac c6be
000001d0: d252 bebe 0edc 4b3e a560 98be b942 47bf
000001e0: ea85 833e 68ef 103f 0084 323f 9ca3 e13d
000001f0: 655b b8be 5196 65bf bb8a 023f b57e 0d3f
00000200: 2c0d 0a3f c486 153f 4f7e 0e3f eb58 0b3f
00000210: 52cb 0a3f cb5a 043f 56ab f93e ce6d dabe
00000220: 3f07 09be 489e 003f 7023 16bf 9e79 fa3e
00000230: 87e0 5abf e5a4 4cbd 08b2 24be 6fdc 063f
0.33746943 0.0820312 0.20285472 -0.042578526 0.029950833 0.28152087 -0.023275891 0.11852441
0.10634328 0.20344813 0.23965107 -0.11405466 0.00629303 0.077620134 0.29429066 -0.07581454
0.084250875 0.42507952 -0.2256387 -0.1023327 -0.18550591 0.031846665 0.13975863 -0.18390463
-0.10793482 0.010041182 -0.37575468 -0.19102873 -0.21705545 -0.17483541 -0.041700203 -0.25440946
-0.2978327 0.1940976 0.2644138 -0.28871217 -0.3022801 -0.38413307 0.1467174 -0.35412502
-0.43185404 -0.0058024195 0.053178985 0.08561246 0.17887269 -0.07933308 0.18348318 0.23583889
-0.1457035 0.16680126 -0.060203653 0.17741944 0.23531662 0.3130504 -0.04724229 -0.2480497
-0.27769262 0.059174817 -0.14294724 -0.24854122 0.0744704 0.041177314 -0.2630833 0.052553147
-0.24130432 -0.139992 -0.19565485 -0.20239516 -0.07544003 0.26677915 -0.3712117 -0.13593099
0.11896475 -0.3070821 0.09494931 0.21082985 -0.047162227 -0.18492028 0.14524008 -0.4025366
-0.4777456 0.13244501 -0.36989844 0.005729339 0.1573523 -0.31102023 -0.30705428 0.15987667
-0.17747527 -0.16978842 -0.00059865887 -0.27982244 -0.17729278 -0.17446065 -0.15881032 0.2602884
-0.11090207 -0.25520453 0.114377744 -0.2526256 -0.22032715 0.1539695 -0.28947142 -0.366349
-0.03802769 0.15305318 -0.048282675 -0.15600967 -0.30381426 -0.42209706 -0.4044424 -0.4257476
-0.5860756 -0.4337334 -0.48732474 -0.38803607 -0.37172562 0.19908163 -0.29761234 -0.77836186
0.25688106 0.56615305 0.69732666 0.11017534 -0.36007228 -0.8968249 0.50992936 0.55271465
0.5392635 0.5840876 0.5566148 0.54432553 0.5421649 0.5170104 0.4876353 -0.426619
-0.1338167 0.5024152 -0.58647823 0.48920912 -0.8549885 -0.049961943 -0.16083539 0.52680105

_mlp.0.weight f4 [64, 60]
00000000: 5803 abbc f437 b53e 5240 f8bb 3cb7 f73e
00000010: 3a91 51bd e359 85be dc79 7fbe 3333 9d3e
00000020: d7ef d9bd 0709 94bd 2ac6 02be 011b 1f3e
00000030: c1df df3e c7fc a9bb fcbd 97bd eb77 50be
00000040: 5e56 12be 7dcd 7e3d 3652 abbb fc6a c03b
00000050: 817e 0b3f 2945 053e 81e2 6bbe 85ed 2abd
00000060: b0e0 0cbe 1c91 c13c 5fd1 b73c 39b5 1dbe
00000070: 34f5 ca3d 2a5a 813e e3a5 ba3c e4ac 3b3e
00000080: 5a36 223d d5b0 febd 5f3a 093e f0c2 8abd
00000090: d12a 38be e832 f9bb b6fe 283e ab38 353e
000000a0: f5b3 5cbe ac46 223b 181a a93e 6c76 85bc
000000b0: 9801 07be f1cc 623e a9af d0bd c7c8 7d3e
000000c0: 1fd1 5c3d 878c 503d b7ce af3d 5803 883d
000000d0: 75e8 88be 8dec 3e3d cd95 8a3e a1dc 1f3e
000000e0: 2af8 43be 2bb0 69bd 5860 053e a7b6 fd3c
000000f0: 91b8 363e d6d5 a63e eef1 053e 1dee f23e
00000100: 6363 823d c40a e83d fda1 9abe 41ac aa3e
00000110: 4142 32bd 5a5d 193e 546a 01be 8357 813e
00000120: 34c7 773e 5d77 7d3d 1330 5dbd ef02 0bbe
00000130: 7bd9 a1bd 92b3 bf3d 055e 01bc 0b44 40be
00000140: 0391 e53e 1b4f 31bc f540 cabd 6173 31bd
00000150: f9a6 59be da1b adbb 96b0 93bd 55ce 76be
00000160: 505a efbd 4784 7d3e f706 fdbd 2107 2c3c
00000170: 2100 ed3c be5b b33d 76e5 aa3d 850b 17bc
00000180: 6c89 f5bd 9ef9 173c 3b97 093f 59d0 c63e
00000190: fd7a 043c 68c2 0c3c d715 8f3e 9e04 b4bc
000001a0: 1fb7 553d 240d a53d 6e2c 07bd 039c 21bd
000001b0: 987c afbc a1ae 223c f2d1 e93d 0046 413d
000001c0: 7a5a 7cbe b5c1 ffbd 06b1 db3e 366f 903e
000001d0: 5126 593d 2539 f5bd 2fe0 1f3e a714 eebc
000001e0: 85cb 023e c5e3 213f 3eb0 223d c269 0a3f
000001f0: 7e5b 4a3e 25b1 20be 1338 5abf a941 a53e
00000200: 5fbd 9d3d 6503 913d 7417 54bf ed86 4f3e
00000210: 9d63 8b3e e4d7 423e 006c 353b c541 2bbe
00000220: e589 0dbf a271 48be 1c30 5a3b 6846 1c3d
00000230: fab4 523e b1d8 9e3d 54bd c13c 4f87 f13c
00000240: 05c5 d8be 539a f5bd 0cfa 143e 174e e0bd
00000250: 662c a23d 7011 853e ea44 0c3d 33c0 6d3e
00000260: fa52 4b3d 1cac a23d b397 043e 58df 1ebd
00000270: f6a7 c1be ed16 1ebe c04f b83e e907 7c3d
00000280: 2f75 013c f792 cdbd 33ee b83d 3764 223d
00000290: 9a8c 3f3e d60c 263e 4406 02bd d823 ac3e
000002a0: bf60 1b3e f344 1a3d 45c8 153c 7743 853d
000002b0: 20cb 94be 8b66 abbd e09b 103f 780c 213a
000002c0: 4e49 f3bd 2b8a 3dbd 3bb2 1b3e 7a27 b13d
000002d0: ce3d 05be 9d7c 973e 22ce 8abe f54e bd3e
000002e0: 08fc 41be 06a5 89bd e6f2 85be 7cbd 4d3d
000002f0: b4d1 27be d339 07be 2202 8fbe 3761 513e
00000300: 9334 30bc 9721 abbc 41d7 12be ddf2 2bbd
00000310: 88f4 f2bc a377 afbc 1070 1e3e 2b8a 16be
00000320: 0e70 523c 090a 9fbd 5379 f7bd 3bcb c4bb
00000330: b695 01bd b1c1 ce3d c29f adbc 0ddc 4ebe
00000340: bac1 14be b976 a8bc f795 dabd b849 ccbd
00000350: 1689 c7ba a784 35bd c176 e7bd 10f0 ec3a
00000360: cb72 3e3d 3c93 9b3d 627a 8e3d 46fe df3c
00000370: eb47 bfbc b157 afbd ad45 8b3e 86e1 1cbf
00000380: 02b9 1abd 2575 99bd 9f3f 19bd 3802 743d
00000390: 1e6a 1bbd 22b0 23bc d706 fe3d d985 b0bd
000003a0: 312e 9f3c 917b 413d 9946 3bbd b783 1f3d
000003b0: b420 69bd bbac f5bd b7c3 7d3e debd 14bf
000003c0: fa58 81bd 8fde 253e 5381 00be c562 323e
000003d0: d709 503d 2d79 3d3d c3e0 bebc b8ff c83d
000003e0: 699c a63d 2958 bbbd 4850 9ebd 5889 a83d
000003f0: 3c0a 2d3e 7e23 9f3a c380 96bd 72a9 90bd
-0.020875618 0.3539425 -0.007576027 0.48381984 -0.05116389 -0.2604514 -0.2494883 0.30703124
-0.10641449 -0.07228284 -0.12770906 0.15537645 0.43725398 -0.005187604 -0.074092835 -0.20358245
-0.14290759 0.062207688 -0.005228306 0.0058721285 0.54489905 0.13014664 -0.23035623 -0.041730423
-0.13757586 0.023628764 0.022438703 -0.15401162 0.0991005 0.25264102 0.02278418 0.18327671
0.039602615 -0.12436072 0.13401173 -0.067754626 -0.17985083 -0.0076049455 0.16503415 0.17697398
-0.21553023 0.0024761362 0.3302772 -0.01629182 -0.13184202 0.22148491 -0.101897545 0.24783622
0.05391037 0.050915267 0.085843496 0.06641263 -0.2673985 0.04661231 0.27067414 0.15611507
-0.19137636 -0.057052772 0.13025033 0.030970884 0.17843844 0.3258502 0.1308057 0.4744729
0.06366613 0.113301784 -0.30201712 0.33334544 -0.043520216 0.14977017 -0.12638217 0.2526208
0.24197084 0.06188141 -0.054000925 -0.13575338 -0.07902809 0.09360422 -0.007895951 -0.18775956
0.44837198 -0.010822083 -0.09875671 -0.043322925 -0.21255101 -0.005282861 -0.072114155 -0.24102147
-0.116871476 0.24757491 -0.12354844 0.010499747 0.028930726 0.08757733 0.083445475 -0.009219055
-0.11989102 0.009275822 0.53746384 0.38830832 0.008085963 0.008591272 0.2794635 -0.021974858
0.05217659 0.08059147 -0.033001356 -0.039455425 -0.021421716 0.00992933 0.11416997 0.047185898
-0.24643889 -0.124881186 0.42908496 0.28209847 0.053015057 -0.1197379 0.15612863 -0.029062582
0.12772949 0.63238174 0.03971886 0.54067624 0.19761464 -0.15692575 -0.8524181 0.32276657
0.07702135 0.070807256 -0.82848287 0.20266314 0.27224436 0.19027668 0.0027682781 -0.16724308
-0.55288535 -0.19574597 0.0033292836 0.038153082 0.2057685 0.07756174 0.023649849 0.029483465
-0.42337814 -0.11992326 0.1454851 -0.109523945 0.079186246 0.25989866 0.03424541 0.2321785
0.04963968 0.079429835 0.12948494 -0.038787216 -0.37823457 -0.15438433 0.35998344 0.06153098
0.007901474 -0.10037797 0.09029808 0.039646354 0.18705979 0.16215834 -0.031744257 0.33621097
0.15173624 0.03766341 0.009141986 0.065070085 -0.29061222 -0.08369168 0.56487846 0.00061435206
-0.11879216 -0.046274345 0.15204708 0.08650108 -0.13011858 0.2958726 -0.27110392 0.36974302
-0.18943799 -0.06720929 -0.2616188 0.050229535 -0.16388589 -0.13205652 -0.27931315 0.20447241
-0.010754722 -0.02089004 -0.14339925 -0.04197966 -0.029657617 -0.021419352 0.15472436 -0.14701144
0.012844099 -0.07765586 -0.12083688 -0.0060056723 -0.031636916 0.100955375 -0.021194343 -0.2020113
-0.14527026 -0.020564424 -0.10673135 -0.09974998 -0.001522335 -0.04431596 -0.113019474 0.0018076915
0.046496194 0.07596442 0.069569364 0.027342927 -0.023349723 -0.08561648 0.27201596 -0.6128162
-0.037774093 -0.07493047 -0.03741419 0.05957243 -0.037942998 -0.009990724 0.12403648 -0.086192794
0.019431205 0.047236983 -0.045721624 0.038943972 -0.056915954 -0.11995836 0.2478169 -0.58102214
-0.06315799 0.1619818 -0.12549333 0.1742049 0.050790634 0.04625814 -0.023300534 0.098143995
0.081353016 -0.091476746 -0.07730156 0.08229321 0.16898435 0.0012141315 -0.07348778 -0.07063569

_mlp.0.bias f4 [64]
00000000: da23 bcbe 2c01 0cbf 96de 3ebf d869 a6be
00000010: 4d78 1ebe ec8b 43be 0e60 06bf dfc6 9dbe
00000020: a828 ecbd bf7c f3be f5af 093e 1c27 32be
00000030: 05fb 05bf 1edf bebe 01c0 72bf 444e 28bf
00000040: ed47 5abf 7727 85bf d3b7 adbd ed3c 553e
00000050: 838e a7be e8b7 e7be ed18 ffbe 87a2 1fbf
00000060: 1e1c 92be 4fe7 aabe b1f0 64bf d1f1 c9be
00000070: 66e4 05bf cef0 9ebe b381 d2be 1cc8 43bf
00000080: 4c95 84bf 720d 65bf b599 5bbf c957 3bbf
00000090: 8fad e6bd 4cce 72be 3660 dcbe 8c73 97bd
000000a0: 06f7 adbe b909 37bf 55dd 11bf 8598 53bf
000000b0: b5d4 07bf 35bf 15bf 49af c5bd 3b71 86be
000000c0: 2d6d cebe d0d8 eebe 010a 3cbe 4f9a 823e
000000d0: 38e6 5a3e 74d0 02bf 5a02 f1bd 6211 53bf
000000e0: c977 333e 2b0b 66be d663 b2bd e230 7dbf
000000f0: 0485 a0be a8c9 0bbf a3ca c4bd 5a02 55bf
-0.36746103 -0.5468929 -0.7455839 -0.32502627 -0.15475579 -0.19096345 -0.5249032 -0.3081579
-0.11531192 -0.4755611 0.13446029 -0.17397732 -0.5233615 -0.372796 -0.94824225 -0.65744424
-0.85266 -1.0402669 -0.08482327 0.20824023 -0.32725915 -0.45257497 -0.49823704 -0.6235737
-0.28537077 -0.333796 -0.89429766 -0.39442304 -0.52301633 -0.31043094 -0.41114578 -0.7647722
-1.0358062 -0.8947364 -0.85781413 -0.73180825 -0.112635724 -0.23711509 -0.43042153 -0.07395086
-0.33977526 -0.7149921 -0.5697835 -0.826546 -0.5305894 -0.58494884 -0.096525736 -0.26258263
-0.4031767 -0.4664979 -0.18363191 0.25508353 0.21376884 -0.51099324 -0.11768027 -0.824484
0.17526163 -0.22465198 -0.087104484 -0.98902714 -0.31351483 -0.5460458 -0.096089624 -0.83206713

_mlp.2.weight f4 [64, 64]
00000000: 8a3f 0fbe 9a51 37b9 4bd4 16be f393 4bbd
00000010: 7f28 c1bb 7bd4 ef3d 760f f03d 4cf7 24bd
00000020: 9a1b d1bd 1689 aebd 014d 383e 582a 38be
00000030: 1769 13be c990 423d 402a 273d c648 ecbd
00000040: 414d 883d 3a5f 043c 3086 d0be 68f6 7cbc
00000050: 9341 45be c757 00be 253b 43bd 9f34 8cbd
00000060: 504b 9d3d 42d5 9fbd 98a8 5b3d c6f0 ad3c
00000070: e08c 01bc f237 4abe 5e7c f1bd 9be4 373d
00000080: 5a5f c53d 487b b33e 081f e3bc 8bcd 84bd
00000090: df31 debe f6b3 2abe 1b08 d1bd fca0 2b3d
000000a0: 03e4 cd3b 86f7 003e 07e2 b23d 5c50 a0bd
000000b0: 1782 8e3d 58ee 173e dda3 dfbd aa01 45bd
000000c0: 10a3 e9bc 58e8 80bc 9135 cfbc 8037 e7bd
000000d0: 5eb3 67be 4469 d33d 8eb4 af3c 5f9b 93bd
000000e0: 5b04 1b3d 7b17 03be 9289 fcbd 0000 23b7
000000f0: 3d56 a53d 2348 373e e024 abbd ac21 9fbd
00000100: 6c7c 043d e785 60be c9df ae3d 10ad 843e
00000110: b0d2 bebc b1a5 0e3c 2846 f4bd 5510 53bd
00000120: a394 f4bd dc33 683c 884e 813e a553 c33d
00000130: ef00 d13e cf39 e5bc 4650 4e3e 20af 7dbe
00000140: 6d2a 4cbe 4a22 8a3b d335 853d bc49 9dbd
00000150: 9b32 59bd 8f0b 2ebc 98fa f0bd 3c50 60be
00000160: 1bd0 dd3c 1f20 a63e fdf3 243e 6d3e 873d
00000170: 5d4c 5a3e 9823 2abd 5c9b 06be f14b 89bd
00000180: 471a 4cbe e192 06bf ff05 c63e 4a80 39be
00000190: fe6b 82bd f6f6 e8bd 8fa8 a93d 9492 cebd
000001a0: cad0 46bd d158 cd3d 52bd cb3c f285 f5bd
000001b0: 7fbd 50bd 6a14 2fbe 2226 83be 5e1c 313d
000001c0: be36 45bd 1399 c9be d413 2ebd ae89 80be
000001d0: 705e c33d 753d 15bd 4d9b bebc bbb9 c93d
000001e0: 2ab6 a03e abb8 23be fbf0 bb3d 4345 d1be
000001f0: f581 253c bc1f 36bc 588c 3cbe 7227 41be
00000200: 5ac5 75be 0325 dcbb 2ac1 3abd c19f 8abe
00000210: 039a 4dbe 6038 e3bb 3efd 2abe e814 0e3d
00000220: 3501 0abe fc9f d0bc 0047 7abe 20ab d73d
00000230: 649e 96bd d321 f5bd 00be afbd 90f0 69be
00000240: caba b7bd 5487 a73d 29f8 99be edd6 e63c
00000250: b058 b2bd 8d3a 09bd 35db fabc 2170 51be
00000260: fa6c 84bd 0079 003a c0d8 31bd ee1e 76bc
00000270: 6010 9d3c cb82 b53d eb0d 80bb b2b5 e0bd
00000280: c6ae 7abd 2c28 c53d 46d5 b0bd 9b1b 87bd
00000290: c15b 71be d029 44bb afce 2a3e a706 27bd
000002a0: e7c0 4abe 53e3 f33c 56f1 87bb 08ca 6abd
000002b0: 4f45 d8bd 5cd6 8f3a c7df 843c 5bfd fc3c
000002c0: 4e64 4cbe 1414 91bd 2c86 b83c f7e7 14be
000002d0: 842e e2bd 8acf 013d 8f0e e8bd 18d2 c2bd
000002e0: 4cee 90be 1516 e5bd 42a4 40bd 0c1b c5bd
000002f0: 220c 9b3c 4bcd ff3d 18df 22be a6f6 50bc
00000300: 9fff 70bd decd 893d b647 30bd d946 763d
00000310: 3167 f73c cf49 d7bd 5c78 053d bc39 563d
00000320: 1e8d 51be 004a fcbd 53ca d7bd 9cf1 35be
00000330: 000a 9a3b 5888 bfbd 8772 b9bd cb8d 39be
00000340: 3cae cebd 2090 8a3c 82ef 60be ff34 95be
00000350: fb6d 4fbd d5e4 73be 7029 1ebc 10ee 153c
00000360: 0451 69bd 493f b1bd 205c b6bd 94f2 16be
00000370: 00df d23b 84c6 87be 0a37 14be 4476 1ebd
00000380: 14e0 8b3d 4018 ecbd ac3f 55bd b8d5 973c
00000390: 1cfc 8e3d 5152 0bbe 2456 8fbe 8e2b 85bd
000003a0: e084 5cbd 1944 d4bd aca1 6fbd 0739 58bd
000003b0: be2f dd3d 60a8 f5bc 47eb 3bbe 5a26 25be
000003c0: e826 bc3d 50c3 cbbd d7bf 18be c2c0 21be
000003d0: a530 96be 7ea0 9d3d 6464 c1bd f746 66be
000003e0: aef6 64be 2fbd 9dbd 55ef 2cbe 80f2 eabd
000003f0: 64a9 73bd b9a0 34be 4379 03be 8939 b7bd
-0.13989082 -0.00017482639 -0.14729421 -0.049701642 -0.00589472 0.11710449 0.11721699 -0.040274903
-0.10210343 -0.08522241 0.17998125 -0.17984903 -0.14395557 0.04750136 0.040811777 -0.11537318
0.0665536 0.008079344 -0.40727377 -0.015439607 -0.19263296 -0.12533484 -0.047663826 -0.06845974
0.0768038 -0.078043476 0.05362758 0.021232974 -0.007907122 -0.19747904 -0.11791299 0.04489575
0.096373275 0.35054994 -0.027724758 -0.06484517 -0.43397424 -0.16670212 -0.10206624 0.041901574
0.0062832846 0.12594423 0.087345175 -0.07827827 0.069584064 0.14837015 -0.10919926 -0.04809729
-0.028520137 -0.01573579 -0.025294097 -0.11289883 -0.22627017 0.10322812 0.0214484 -0.07207369
0.03784595 -0.12801926 -0.12330927 -9.715557e-06 0.08073089 0.17898612 -0.08356643 -0.07770094
0.03234522 -0.2192608 0.085387774 0.25913286 -0.023293823 0.008706496 -0.11927444 -0.051529247
-0.11942413 0.0141725205 0.25255227 0.09537438 0.40821025 -0.027981667 0.2014781 -0.24773836
-0.19938059 0.0042155134 0.06504407 -0.07680079 -0.053026777 -0.010622873 -0.11766547 -0.21905607
0.027076771 0.3244638 0.16108699 0.06603704 0.21318193 -0.04153785 -0.13145202 -0.06703938
-0.19931899 -0.5256787 0.3867645 -0.18115345 -0.06368254 -0.11375229 0.08284103 -0.10086551
-0.04853896 0.10026706 0.024870548 -0.11988439 -0.050961968 -0.17097631 -0.2561503 0.043239944
-0.04814791 -0.393746 -0.04249938 -0.2510504 0.09539497 -0.036435563 -0.023267413 0.098498784
0.3138898 -0.15988414 0.09176823 -0.40873155 0.010101785 -0.0111159645 -0.18412912 -0.18862703
-0.24001065 -0.0067182793 -0.04559437 -0.27075008 -0.20078282 -0.0069342107 -0.16698167 0.034687907
-0.13477023 -0.025466911 -0.24441147 0.105306864 -0.07354429 -0.11969342 -0.085811615 -0.22845674
-0.08971174 0.08180109 -0.30072144 0.028178656 -0.08708322 -0.033503104 -0.030622104 -0.2045293
-0.06466098 0.0004900843 -0.0434196 -0.015022023 0.019172847 0.088628374 -0.003907909 -0.10972156
-0.061201833 0.09626803 -0.08634429 -0.06597062 -0.23570158 -0.0029932149 0.16680406 -0.04077783
-0.19800149 0.029771483 -0.0041486425 -0.05732158 -0.105600946 0.0010973918 0.016219987 0.030882528
-0.19960138 -0.07083908 0.022524916 -0.14541613 -0.110440284 0.031692065 -0.11330902 -0.095127285
-0.28306806 -0.111858524 -0.04703165 -0.096242994 0.018926684 0.124903284 -0.15905416 -0.012754118
-0.05883753 0.06728719 -0.04303714 0.06012616 0.030200573 -0.10512125 0.032585487 0.052301154
-0.20463988 -0.12318802 -0.10536637 -0.17767948 0.004700899 -0.093521774 -0.090550475 -0.18120496
-0.10091826 0.016914427 -0.21966365 -0.29141995 -0.050641995 -0.23817761 -0.009653434 0.009150997
-0.05696203 -0.08654649 -0.0890429 -0.14740974 0.006435275 -0.26518643 -0.1447412 -0.038687006
0.06829849 -0.11528063 -0.052062675 0.018534526 0.0698168 -0.1360562 -0.27995408 -0.06502448
-0.053837657 -0.10364551 -0.05850379 -0.05278876 0.10800122 -0.029987514 -0.1835147 -0.16127911
0.09187108 -0.09949362 -0.14916931 -0.15796188 -0.29333988 0.07696627 -0.09442976 -0.22488008
-0.22359726 -0.077020995 -0.16888173 -0.114720345 -0.059487715 -0.17639436 -0.12839226 -0.08946521

_mlp.2.bias f4 [64]
00000000: d8df b9be 5328 39bf 9e8e 9c3b 25b2 fbbd
00000010: bbea f0bc aa78 51be cb11 95bc 7339 223d
00000020: 9116 0ebe d06c 783d fe34 01bf 7978 42be
00000030: 2ff7 85bc c744 b5bd d4b0 05be c522 05be
00000040: 983c 463c a28d 12be e1af afbe 92af a1bd
00000050: 5045 02be 62f2 43be b615 7dbe cca7 04be
00000060: d3ee 73be 12be 74be efef 83be 2ad7 58bd
00000070: fbbb e8bd f894 02be c3e3 81be 5cbd 77bb
00000080: 9fad 52be 5409 98bd 78ba dcbd c4ab ca3d
00000090: d7b1 11be f1e0 8dbe 3f15 1cbe 0e13 1fbe
000000a0: 010c 64be 8aec f4bd 5cf9 aabd a8e9 303d
000000b0: 1066 15be 6f8c 60be 5e99 98bd b0cb 9fbe
000000c0: ca56 83bd 71b3 92be e83a 9c39 7b70 9fbd
000000d0: 4229 163d 7435 48be 5f04 acbd 8842 23be
000000e0: 1422 9bbd 3ba3 20be 3ef1 d1bd 2f61 61bd
000000f0: 897a 0bbe 16ff 2bbe 4161 debd 7865 a5be
-0.36303592 -0.72327155 0.0047777435 -0.12289838 -0.029408803 -0.20456186 -0.01819696 0.03960557
-0.13875796 0.060650647 -0.50471485 -0.18991269 -0.016353218 -0.08851009 -0.13055736 -0.13001545
0.012099408 -0.14311841 -0.34313872 -0.078948155 -0.12721753 -0.1913543 -0.24715313 -0.12954634
-0.23821573 -0.23900631 -0.25768992 -0.05293957 -0.113639794 -0.1275214 -0.2536908 -0.0037802076
-0.20574044 -0.07423654 -0.107777536 0.09896043 -0.14227997 -0.2771068 -0.1524248 -0.15534613
-0.22270204 -0.11959179 -0.08348343 0.043191582 -0.14589715 -0.21928571 -0.074511275 -0.3121009
-0.06413038 -0.28652528 0.00029798527 -0.07785126 0.03666044 -0.19551641 -0.08399271 -0.15943348
-0.07574859 -0.15687267 -0.102510914 -0.055024322 -0.13620962 -0.16796526 -0.108583935 -0.32303977

_mlp.4.weight f4 [64, 64]
00000000: f2ba a7bd 011c 33be 3013 823d 8825 e3bd
00000010: 0edd 9ebd dacc acbd 6f90 9abd 2cc1 bdbb
00000020: b1f0 e6bd d409 37be a4ca 96bd 381c 36bd
00000030: 0fc2 56bd 7795 5fbc 725c 3a3b 76a8 e4bd
00000040: 048e 75bd 283b 2ebd 5405 9f3d e4bd e93d
00000050: 4ee1 953d 04a9 03bd 48df 383d 50ef b3bd
00000060: a0cd f6bb aaa5 bc3c 8bff 3bbd 0003 09ba
00000070: 1041 69bd 48ac b23c b9c9 17be bc2f 4abd
00000080: 7836 e9bd 68e6 833c 100b c3bd bc40 ef3d
00000090: 0476 96bd 7425 cabd 9364 3fbe c0ed 0bbd
000000a0: ebe8 5ebd 130d 18be 0c29 60bd 56dd 2bbe
000000b0: b0c8 6c3b 08b5 4dbd d837 b53d 60a9 f33c
000000c0: 6218 c03d 977f 1e3c 136d 5dbe 919d d4bd
000000d0: d259 a3bd 651b 07be c8b9 e63c a013 ea3b
000000e0: 4cc4 c8bd d07c 91bd e056 f5bc d259 a6bd
000000f0: 401c 5fbc 742e e9bd 0059 313d 1a13 d3bd
00000100: e9cf ad3d 849c fc3b 29e2 743c 1f94 803d
00000110: f699 ed3c c434 6fbd 17b8 f33b 8069 ee3c
00000120: 8518 9fbd 57d6 10be 29c2 813d d5e9 58bc
00000130: 9de4 41bc 969d 893d 9d83 35be 0884 ebbc
00000140: 0bca 083e d2de 8b39 c01c 373e 9011 8c3c
00000150: beeb 9e3d ceac b63c a82f 743e b2f0 b43c
00000160: e436 53bd a337 15be d7e7 293e e76e d0be
00000170: f0c2 f0bd 5e1f 9e3d dbf9 c03c 0595 a6bd
00000180: f832 833d b844 ce3d f8c3 e8bc 1527 283d
00000190: 7f2c 993e fffe 9fbd dfe6 1bbe b5b5 bbbd
000001a0: 0a5a babd ab2e 6c3d a880 db3c e542 08bc
000001b0: 0210 c7bd 9314 30bb 2461 debd 4ba8 d93d
000001c0: dfc2 89be c01a 27be 49a0 a43c 03d6 bfbc
000001d0: 4cde 9cbc 9f47 0d3c 7b5d 28be 7689 e4bd
000001e0: 8d45 6b3e 846a c73c 3b2c 0cbd fd81 23be
000001f0: 9aea fabd 8c72 803b c0c0 c1bc 4bd5 403e
00000200: db60 d0bc 8760 23be a3df 30be 8c32 4e3d
00000210: 6469 00bd 1e7f d3bd 6da9 ddbd d6d3 bcbd
00000220: 1989 0fbe fb11 9abc e021 d7bb b281 09be
00000230: 6a1f 30bc 0d9d 68bd ceb6 21bb 2c97 3e3d
00000240: 00d6 90b9 74ae 0e3d 6045 3c3d 90d7 c53d
00000250: bf37 2bbe 00ea 633a 6801 2a3d 56ea 01be
00000260: da73 453d dc53 04be 6ed2 debd c086 ebbd
00000270: d4c3 fa3d ac0f 7ebd d18b 27bc daaa 46bd
00000280: 4ca6 dc3d 8e07 8abd 2670 fbbd ae9a 1dbe
00000290: 1540 523d 9bd4 233c 1d2c debd 5587 01bc
000002a0: 2b35 aebd f3c7 bdba 265b 0dbe 0324 eebd
000002b0: 06f2 293d 0e08 16bd 6b5d 75bd f870 643d
000002c0: 791e f5bc e042 873d 2e2b 0b3d 5104 58bb
000002d0: dee0 d0bc c0fc 3ebd 2e76 91bd 12d5 aebd
000002e0: 6207 413d b041 01bd 966a 82bb 7fd5 f1bc
000002f0: 1ef7 bd3d 3bea f4bc 8627 c43d e7a1 11be
00000300: a214 723d 5aed 9e3d d37e c83d 046d 113c
00000310: 6e95 e13b 28c8 f0bd 70bc acbc 50de d2bd
00000320: 3cf3 49bd 006e 8abe 2530 033e 0f18 aeba
00000330: 3b3d 32be 2500 d3bd 6be4 33bd 5a67 d33d
00000340: 2127 443e 9430 c33d 6c1f 2b3e 095b 463d
00000350: 6a9c 3abd 32b5 8b3d 5748 323e a813 e23b
00000360: 8cd2 2ebd a6f9 55bc aead d33d e578 673e
00000370: 4c19 173d 2543 1cbe c531 473c 86eb 083d
00000380: d92b b6bd d0af a6bd c02c 36bc e299 113e
00000390: 97ed 063e 4c55 b23c 42e6 5a3d bfff af3d
000003a0: 3690 cb3d ffd2 b6bd 3136 373c c4e2 673d
000003b0: 834f bf3d c0f0 dcbe 51b7 c83c c209 cf3c
000003c0: 12c6 07be 0c5a 2c3e fa8e 593e 9f73 0fbd
000003d0: 5256 573d f452 bcbc b521 d43c bf7f 99bd
000003e0: 2ed2 443d 5fcb d53d 5f37 0c3e eb9c 833d
000003f0: f31b 34be 700f 8d3c bcca 823d 5fe2 8bbe
-0.08189954 -0.17491151 0.06351316 -0.11091143 -0.077570066 -0.0843751 -0.0754708 -0.00579085
-0.11276377 -0.17874843 -0.073628694 -0.044460505 -0.052431162 -0.013646475 0.002843645 -0.11164944
-0.05994989 -0.042536885 0.07764688 0.11413172 0.07318364 -0.032143608 0.045134813 -0.087858796
-0.0075318366 0.023028214 -0.045898 -0.0005226582 -0.056946814 0.021810666 -0.14823045 -0.04936193
-0.11387342 0.016101077 -0.095235944 0.11682269 -0.073467284 -0.09870425 -0.1869071 -0.034162283
-0.054421347 -0.14848737 -0.054726645 -0.16783652 0.0036130361 -0.050221473 0.08848542 0.02974385
0.09379651 0.0096739745 -0.2162364 -0.10381616 -0.07976116 -0.13194044 0.02816476 0.0071434528
-0.09803066 -0.07103884 -0.029948652 -0.081226006 -0.013617575 -0.11385813 0.043297768 -0.10306378
0.08486921 0.007709088 0.014946499 0.06278252 0.029004078 -0.05839993 0.0074377167 0.02910304
-0.077683486 -0.14144264 0.06335861 -0.013239344 -0.011834291 0.0671951 -0.17725988 -0.02874948
0.13358323 0.0002667816 0.17882061 0.017098218 0.07759808 0.022299197 0.23846304 0.022087429
-0.05156602 -0.14572005 0.16592346 -0.40709612 -0.117559314 0.077208266 0.02355664 -0.08133892
0.06406206 0.10071701 -0.028413758 0.041052897 0.2991676 -0.078123085 -0.15224789 -0.09165517
-0.09099205 0.057661694 0.026794747 -0.00831673 -0.0971985 -0.0026867732 -0.10858372 0.106278025
-0.26906487 -0.16318798 0.020095961 -0.023417478 -0.019148968 0.008623033 -0.1644191 -0.11159031
0.2297575 0.024342783 -0.03422187 -0.15967555 -0.12251778 0.003919905 -0.02365148 0.18831365
-0.02543681 -0.15954791 -0.1727281 0.050341174 -0.03135051 -0.1032698 -0.10823331 -0.09220092
-0.14017142 -0.018807402 -0.0065653175 -0.13428381 -0.010749677 -0.0567904 -0.002467561 0.046530887
-0.00027625263 0.03483434 0.0459646 0.09660256 -0.16720484 0.00086942315 0.041505247 -0.12687048
0.048206188 -0.12922615 -0.1087998 -0.11500311 0.122443825 -0.062026665 -0.010226206 -0.04850278
0.10773906 -0.06739722 -0.1227725 -0.15391037 0.051330645 0.00999942 -0.10848258 -0.007905801
-0.08506235 -0.0014479145 -0.13804302 -0.116279624 0.041490577 -0.036628775 -0.059903543 0.055771798
-0.029921757 0.06604552 0.033976726 -0.0032961557 -0.02549785 -0.04662776 -0.07102619 -0.08536734
0.04712618 -0.031556785 -0.003979991 -0.029520748 0.092756495 -0.029896846 0.09577851 -0.14221917
0.05910171 0.07760115 0.09789815 0.008876089 0.0068842685 -0.11756927 -0.021085948 -0.10296309
-0.049304232 -0.27037048 0.12811334 -0.0013282317 -0.1740617 -0.10302762 -0.04391901 0.10322447
0.19155551 0.0953075 0.16711205 0.04842666 -0.045559324 0.0682167 0.17410408 0.006899316
-0.042681262 -0.013060009 0.10335861 0.22604711 0.03688936 -0.15259989 0.012157862 0.033427738
-0.08895082 -0.08139002 -0.011119068 0.14218858 0.13176571 0.021769188 0.053442247 0.085937016
0.099396154 -0.08926963 0.011182354 0.056612745 0.093413375 -0.43152428 0.024501475 0.025273208
-0.13259152 0.16831225 0.21245947 -0.035022374 0.052572556 -0.022988774 0.025894979 -0.07495069
0.048052005 0.104391806 0.13692997 0.06426414 -0.17588787 0.017219275 0.06386325 -0.27321145

_mlp.4.bias f4 [64]
00000000: d751 4dbe 9bb3 88be a89f b4bd bea6 bdbc
00000010: 96c1 fbbd 911c aabd 7f99 62bd 5510 c5bd
00000020: d1ae 87be c2ec e5bd 939b 74bd 5d23 2abe
00000030: 0b5d 84bd a5ea 21be 1c0a 513c 3ac4 b0bd
00000040: 60fa 95bd e3d7 ecbd df2e 1cbe 5763 553c
00000050: 35e1 903c 6147 afbd 6a4e 8bbd 072e 03bc
00000060: efd8 02be ad4d bfbd 3938 cfbd f7e4 8cbd
00000070: 6ee7 a7bd 7af5 d0bd ca69 94bd ff2c b9bd
00000080: 2755 08bd a355 a3bd 76f9 03be 4ee6 aebd
00000090: ae60 ddbb a228 6dbd 4638 88be 5013 023c
000000a0: 3df8 ddbd 688b 2fbd 34a1 3a3d 265b 10be
000000b0: c17a e93c 74d7 23be 24ef 17be 75cf 20bc
000000c0: 1673 d0bd ffea 08bd e8b5 873c 9986 ca3c
000000d0: 3e64 a5bc 2479 b1bd 1163 31be fcf1 61bc
000000e0: ef34 33be f41c 83be 1ebe e33d 57ba 55bc
000000f0: 1249 7abe 8787 25bc 5c05 5cbd 634d 3fbe
-0.2005075 -0.26699528 -0.088195145 -0.023150798 -0.12292783 -0.0830623 -0.055322167 -0.09622256
-0.26500562 -0.112267986 -0.05971868 -0.16615053 -0.06463059 -0.15812166 0.012758758 -0.08631177
-0.07323146 -0.115646146 -0.15252255 0.013024173 0.017685512 -0.08558536 -0.06802066 -0.008006579
-0.12778066 -0.09340987 -0.101181455 -0.06879609 -0.081984386 -0.10203071 -0.0724674 -0.090417854
-0.033284333 -0.07975318 -0.1288813 -0.08540021 -0.00675591 -0.05790008 -0.26605433 0.007939175
-0.10838363 -0.042857558 0.04556389 -0.1409727 0.028500916 -0.16000158 -0.14837319 -0.009815087
-0.10178201 -0.033427235 0.016566232 0.024722384 -0.0201894 -0.08665684 -0.17322947 -0.013790604
-0.17500661 -0.25608027 0.11120246 -0.013044915 -0.24441937 -0.010103113 -0.05371605 -0.18681864

_mlp.6.weight f4 [1, 64]
00000000: 5540 123d d8e5 0e3d 7a0b 993c 95e7 d33d
00000010: 61ef 4e3d a9c0 3f3e 1710 613c 4597 c23d
00000020: 3335 0ebe 42cb 013b d86e 5a3d e995 e13c
00000030: 55f0 a3bb 7d2b 403c e877 69bd e7aa 093d
00000040: 788f f7bc b81c fc3c 4914 32bb ba71 ecbb
00000050: f023 51be be15 ae3c d44a d8ba 9ce0 c2bb
00000060: e31d 36bc fe12 29bd 5a73 95bc ca10 a6bd
00000070: c9c9 9dbb 6be3 413c 1f96 c03a 2702 223d
00000080: e330 81bc 34b6 2e3e 19e9 98bd e080 96ba
00000090: 2db5 82bd 58ae b93a 8224 233e 508a 28bc
000000a0: 0380 41bd b15a f13b 2e41 f539 be51 97bd
000000b0: 6c2e 6a3d 112a fbbc 2a38 f53c 6275 043c
000000c0: f7d8 963d a38f 253d eadf ffbd 8c0e bb3c
000000d0: fd5e 393d 4e6c 83be 8554 d83b 9072 9a3a
000000e0: 63dd 803d ec15 073d f2bd 603e ca6f 313c
000000f0: 6bfe 8b3c ebdb 0b3d f9fc 12bc 0c7a 553d
0.035705883 0.034887165 0.01868223 0.10346905 0.05052126 0.18725838 0.013736746 0.095015086
-0.13887481 0.001980499 0.053328365 0.027537303 -0.005003015 0.011729118 -0.056999117 0.03361025
-0.030219778 0.030775413 -0.0027172735 -0.0072157057 -0.20423865 0.021250602 -0.0016501793 -0.0059471857
-0.011115524 -0.041277878 -0.01824348 -0.08108671 -0.0048153144 0.011834006 0.0014693177 0.039552834
-0.015770381 0.17061692 -0.07466335 -0.00114825 -0.06382213 0.0014166338 0.15931895 -0.0102868825
-0.047241222 0.0073655476 0.00046778604 -0.07388638 0.057173178 -0.030659707 0.029934008 0.008084627
0.073656015 0.040420186 -0.1249388 0.022834085 0.045256604 -0.25668567 0.0066018724 0.001178341
0.06292226 0.03297989 0.21947458 0.010829875 0.01708909 0.034145277 -0.008971446 0.052118346

exp_avg f4 [2, 1, 3, 3]
00000000: 0fc2 04b9 0851 04b9 0984 0eb9 05e2 26b9
00000010: 47e2 25b9 c4d2 1eb9 fed5 09b9 cdea 07b9
00000020: a055 0ab9 d48f f7b9 1da3 baba a6f8 393a
00000030: 53a5 0abb 1dd4 f839 9f54 16b9 d0d3 4eba
00000040: 3c7f afba a459 833a
-0.00012660793 -0.00012618687 -0.00013591362 -0.00015915192 -0.00015819921 -0.0001514657 -0.00013145056 -0.00012962073
-0.00013192603 -0.00047218672 -0.0014239285 0.00070942414 -0.002115567 0.00047460283 -0.00014336639 -0.0007889839
-0.0013389359 0.0010021222

exp_avg_sq f4 [2, 1, 3, 3]
00000000: 16c7 1d37 66ca 2037 86f7 1b37 e411 1f37
00000010: 2b5e 2237 b22b 1e37 7dee 1c37 ad47 2037
00000020: e440 1c37 383b 7038 f406 4039 67d2 2438
00000030: 4f46 5239 cefe fa37 96b5 3538 1b63 8038
00000040: 9aab c138 edc1 5f38
9.4042825e-06 9.583868e-06 9.296351e-06 9.481304e-06 9.677878e-06 9.4277075e-06 9.353852e-06 9.5534315e-06
9.313433e-06 5.727561e-05 0.00018313137 3.92966e-05 0.00020053353 2.9920975e-05 4.3322878e-05 6.1219755e-05
9.2349204e-05 5.334795e-05

exp_avg f4 [4, 1, 3, 3]
00000000: dcde a2b7 dd61 afb7 7f0f b9b7 f96e b1b7
00000010: da91 b8b7 099c c1b7 5fd8 aeb7 473c a4b7
00000020: 6a8d aeb7 bfb7 a038 9e8f 9a38 62d7 9d38
00000030: f492 be38 b2f9 c538 f5f4 bd38 4d7b 9b38
00000040: da36 9538 d9b7 9638 fde0 5ab8 870e 47b8
00000050: a613 64b8 4db1 6db8 ccea 45b8 c4a8 47b8
00000060: 1d11 72b8 6967 41b8 d21a 47b8 c0ff 0bbb
00000070: f1ce 02ba 3ff3 e2ba c9a0 0cba 97c9 b6ba
00000080: bd81 4d3a 11e4 adb9 c196 ac3a 93eb e7b9
-1.9415682e-05 -2.0907197e-05 -2.2060934e-05 -2.115172e-05 -2.2002427e-05 -2.3080052e-05 -2.0843172e-05 -1.9578392e-05
-2.0808267e-05 7.66362e-05 7.370043e-05 7.5264616e-05 9.087278e-05 9.4402014e-05 9.057849e-05 7.4139425e-05
7.1150906e-05 7.186802e-05 -5.2184787e-05 -4.7458827e-05 -5.4377735e-05 -5.6670327e-05 -4.718713e-05 -4.7602472e-05
-5.7713234e-05 -4.6111094e-05 -4.7470276e-05 -0.0021362156 -0.0004989943 -0.0017314925 -0.0005364535 -0.0013945577
0.0007839462 -0.00033167054 0.0013167487 -0.0004423527

exp_avg_sq f4 [4, 1, 3, 3]
00000000: c9fe 5536 add4 5536 5c13 4f36 73e5 5736
00000010: a12a 5936 2934 5236 8187 5436 8d43 5836
00000020: 3a0d 5136 f669 2636 8b5a 2d36 422b 2a36
00000030: e219 2836 e624 2d36 3cc2 2b36 a4af 2c36
00000040: ae14 3436 b257 3136 0cf8 8c35 a997 9835
00000050: 3e63 8e35 5332 8f35 5e07 9e35 f39b 9535
00000060: 5bd8 8a35 ce83 9835 eb81 9035 8d0f 0039
00000070: d648 e538 24fb fa38 25c7 da38 348a d938
00000080: 9dcc 4d39 1e1f e138 a133 8839 32ea c338
3.1887778e-06 3.1863267e-06 3.0856672e-06 3.2171054e-06 3.2360333e-06 3.13228e-06 3.1669335e-06 3.2225828e-06
3.1151126e-06 2.4797605e-06 2.5831712e-06 2.5357153e-06 2.5049017e-06 2.5800487e-06 2.5594045e-06 2.5732234e-06
2.6834127e-06 2.64261e-06 1.0503004e-06 1.1369021e-06 1.0608708e-06 1.0668977e-06 1.1774061e-06 1.1146752e-06
1.0344769e-06 1.1363243e-06 1.0766647e-06 0.00012212824 0.00010933138 0.000119677075 0.000104321436 0.00010373109
0.00019626548 0.00010734632 0.00025978408 9.341947e-05

exp_avg f4 [8, 1, 3, 3]
00000000: b727 a0b7 617e 9eb7 591b a3b7 e819 a3b7
00000010: 9cfb 9eb7 2b56 a0b7 77c9 acb7 b5cd a5b7
00000020: 6963 a1b7 cd30 78b8 d100 7db8 e5f0 7db8
00000030: 9115 7ab8 4ed1 7eb8 cf81 7fb8 8e94 78b8
00000040: 1662 7db8 f9e1 7db8 0465 cab8 c313 c7b8
00000050: a69d bfb8 04a6 ceb8 ca83 ceb8 b830 cab8
00000060: 8bb8 c6b8 94c6 c3b8 e8be bcb8 9444 3bb8
00000070: 2dc5 3cb8 6793 39b8 93dd 40b8 f86e 43b8
00000080: 7ea8 40b8 a6c1 40b8 17f8 42b8 1c46 40b8
00000090: a065 8cb8 ca70 8db8 a5c3 8cb8 6841 8db8
000000a0: 4dbd 8cb8 9e08 8bb8 cd2c 91b8 e7bc 8fb8
000000b0: a503 8cb8 4b26 e8b8 9450 f5b8 1bc3 e1b8
000000c0: 58f9 efb8 9963 f7b8 77c0 dfb8 04a9 eab8
000000d0: 8f34 edb8 e99a d0b8 9dbb 26ba a7bf 04ba
000000e0: cac0 20b9 99c5 09b9 6074 1eba bb5e 6fba
000000f0: 42ac 05ba 93a3 5eb9 c759 1fb9 cca5 6639
00000100: 2a86 f5b9 459d 623a d4de 03ba 10ec 8239
00000110: 8c81 5cba 92af 0d3a dab9 8eba 92c2 34ba
-1.909198e-05 -1.8893918e-05 -1.9443849e-05 -1.9443178e-05 -1.8952232e-05 -1.9113611e-05 -2.0597812e-05 -1.9765323e-05
-1.9238987e-05 -5.9173257e-05 -6.032066e-05 -6.054425e-05 -5.962473e-05 -6.075325e-05 -6.091763e-05 -5.926616e-05
-6.041125e-05 -6.0530354e-05 -9.650926e-05 -9.49274e-05 -9.136954e-05 -9.853768e-05 -9.847393e-05 -9.641185e-05
-9.4757495e-05 -9.335313e-05 -9.0000976e-05 -4.4648143e-05 -4.5006327e-05 -4.4244716e-05 -4.5982724e-05 -4.659497e-05
-4.5933288e-05 -4.5956716e-05 -4.6484256e-05 -4.584166e-05 -6.694649e-05 -6.7444125e-05 -6.712162e-05 -6.735587e-05
-6.71098e-05 -6.6296416e-05 -6.9224836e-05 -6.853957e-05 -6.676399e-05 -0.00011069755 -0.00011697519 -0.00010765177
-0.00011442852 -0.00011796429 -0.00010669318 -0.00011189471 -0.000113108305 -9.947067e-05 -0.0006360354 -0.0005063959
-0.00015330609 -0.00013138949 -0.0006044563 -0.00091312424 -0.0005099216 -0.00021232506 -0.00015196866 0.00021996273
-0.00046830002 0.0008644651 -0.00050304574 0.00024971412 -0.0008411638 0.0005404885 -0.0010889128 -0.00068954483

exp_avg_sq f4 [8, 1, 3, 3]
00000000: c85b 0a36 41fc 0d36 2038 0b36 e919 0b36
00000010: 23c2 0e36 c369 0c36 c10b 0836 46bf 0b36
00000020: 84c3 0a36 3470 2f35 e526 3635 863c 3535
00000030: 52df 3035 9246 3835 d520 3835 2bea 2c35
00000040: 9a12 3435 1271 3435 f2c2 0e35 2b49 0c35
00000050: 8080 0435 8517 1135 abc0 1035 84e8 0a35
00000060: c787 0a35 b63e 0835 53f0 0035 0071 ce34
00000070: 52a9 d034 178f ca34 0b93 d734 eee9 dc34
00000080: 48b7 d734 e1cb d534 cf4b d834 6c98 d134
00000090: 54f2 6735 6387 6b35 6ac7 5235 8491 6735
000000a0: ecbf 6c35 821a 5435 5392 5935 03a6 5f35
000000b0: 2e9c 4a35 8026 e736 31da ea36 aa6e e336
000000c0: f8bd ea36 0679 ec36 acf4 e336 0107 e536
000000d0: bc7b e536 5e43 db36 0925 6a37 75b6 3937
000000e0: 026b 6536 9ba1 c335 1f59 3f37 951a c737
000000f0: 6ba3 dd36 56df ae35 e37c 3735 6c58 0538
00000100: feda 9837 5dd9 3238 98d6 9737 992d b137
00000110: 53cc 2c38 d65b a437 0efd 8738 20ff 0338
2.0617026e-06 2.1157468e-06 2.0745283e-06 2.0727696e-06 2.1272651e-06 2.0923187e-06 2.027242e-06 2.082395e-06
2.0677408e-06 6.535586e-07 6.785688e-07 6.751583e-07 6.5890083e-07 6.8648035e-07 6.859312e-07 6.441575e-07
6.7082294e-07 6.7219764e-07 5.3182805e-07 5.226054e-07 4.9360824e-07 5.4050935e-07 5.392455e-07 5.174736e-07
5.160659e-07 5.0755204e-07 4.8033434e-07 3.8452708e-07 3.8866216e-07 3.7729544e-07 4.0153859e-07 4.11484e-07
4.0180225e-07 3.9822683e-07 4.0288293e-07 3.9040185e-07 8.640684e-07 8.7741336e-07 7.852128e-07 8.626596e-07
8.8196134e-07 7.901473e-07 8.105173e-07 8.331555e-07 7.5478135e-07 6.8888185e-06 6.9991443e-06 6.77801e-06
6.9958587e-06 7.047437e-06 6.7936107e-06 6.825547e-06 6.8391364e-06 6.534551e-06 1.395611e-05 1.1069341e-05
3.4185946e-06 1.4575666e-06 1.1405237e-05 2.3735027e-05 6.6053376e-06 1.302901e-06 6.8354547e-07 3.179202e-05
1.8221788e-05 4.2640942e-05 1.810053e-05 2.1121277e-05 4.1198287e-05 1.9593088e-05 6.484437e-05 3.1470438e-05

exp_avg f4 [16, 1, 3, 3]
00000000: ad25 1ab8 96f5 1bb8 a622 1bb8 4d94 1ab8
00000010: c567 1cb8 f294 1bb8 6dc0 18b8 d7a1 1ab8
00000020: f4fa 19b8 fe09 1137 4979 1537 5276 1037
00000030: 901b 1137 7741 1837 b941 1737 374f 0b37
00000040: 0516 1437 6d24 1637 992b d537 5348 d937
00000050: f8ea d737 9943 d637 f5b6 da37 28b3 d937
00000060: 913a d437 78e1 d837 5030 d837 c5bb 2db7
00000070: c415 34b7 819d 32b7 f2bc 29b7 5d77 31b7
00000080: b9ee 31b7 f13c 1fb7 fe2f 27b7 9c52 29b7
00000090: 1d81 1737 778e 1b37 7294 1a37 adaf 1437
000000a0: 6f27 1437 9c93 1137 12ce 1e37 7387 2137
000000b0: 4760 1d37 a96b 0ab8 2b20 0fb8 6f48 0fb8
000000c0: f8cc 09b8 1447 0db8 8242 0db8 bfee 0cb8
000000d0: af91 11b8 187e 11b8 951d 03b6 fce5 32b6
000000e0: 09d6 38b6 0d70 cab5 a1c9 f1b5 8a77 eeb5
000000f0: f8b4 afb5 3b45 03b6 e5c2 13b6 49a0 eb37
00000100: 4755 f137 6f00 f137 7465 f037 0e81 f337
00000110: 8e89 f137 80d6 e737 6a91 ed37 80d9 ed37
00000120: 1509 a3b7 1aeb a9b7 af4a adb7 02c6 a0b7
00000130: 89af a3b7 0067 a4b7 5e23 a1b7 ef41 a2b7
00000140: 56fc a0b7 d8f9 8cb6 acdd 57b6 d329 3fb6
00000150: e326 76b6 acf2 28b6 e8fb 12b6 ff95 85b6
00000160: 8fb3 4fb6 3378 43b6 2f60 7737 c237 6f37
00000170: 1e4d 8e37 8cf2 6237 30b9 6a37 83d0 9437
00000180: 0736 6f37 efb3 7f37 deb8 9f37 f6cf bab7
00000190: b3c2 bdb7 3abd a9b7 29e5 bcb7 1dd3 bfb7
000001a0: 2d26 aab7 fcdd b2b7 9474 b4b7 4824 a3b7
000001b0: a226 f739 277b 123a 7689 dd39 1961 0f3a
000001c0: 990b 2f3a 1864 093a 9e6f f439 9cbb 143a
000001d0: 80b9 f039 b7d6 d739 d809 cab8 bfdd 13ba
000001e0: f636 6538 ec2c 8239 af0c 8939 5a6b 11b7
000001f0: 7936 efb9 ffe5 e1b9 1b8c 7fba 8c96 e0b9
00000200: 3e9a ac38 c624 06ba 6199 8dba 6494 05ba
00000210: 54e1 ca38 fb27 c9b9 6443 76ba 26b2 8939
00000220: db96 68ba b444 153a 7683 87b9 1314 283a
00000230: c5d1 86ba e3f0 0238 cfce a2b9 3bc3 513a
-3.675155e-05 -3.71836e-05 -3.698715e-05 -3.6854577e-05 -3.728994e-05 -3.7093596e-05 -3.6418834e-05 -3.6867186e-05
-3.671176e-05 8.645e-06 8.909331e-06 8.610617e-06 8.649091e-06 9.075148e-06 9.015604e-06 8.303489e-06
8.826614e-06 8.949178e-06 2.541188e-05 2.5902094e-05 2.5739413e-05 2.5542266e-05 2.6072821e-05 2.5951842e-05
2.5299641e-05 2.5854199e-05 2.5771704e-05 -1.0355322e-05 -1.0733904e-05 -1.06462985e-05 -1.0117177e-05 -1.0577814e-05
-1.0605604e-05 -9.491328e-06 -9.96515e-06 -1.0092419e-05 9.030363e-06 9.27189e-06 9.213678e-06 8.86239e-06
8.830669e-06 8.6770415e-06 9.465513e-06 9.6278845e-06 9.380346e-06 -3.300203e-05 -3.4123816e-05 -3.4161316e-05
-3.2854237e-05 -3.3683216e-05 -3.367896e-05 -3.360095e-05 -3.4706372e-05 -3.4688128e-05 -1.953774e-06 -2.6657935e-06
-2.7542721e-06 -1.5082784e-06 -1.8014581e-06 -1.7767172e-06 -1.3091185e-06 -1.9560819e-06 -2.201815e-06 2.8088822e-05
2.876915e-05 2.872964e-05 2.8657472e-05 2.9027953e-05 2.8793493e-05 2.763723e-05 2.8320315e-05 2.8353883e-05
-1.9435343e-05 -2.0255848e-05 -2.0657984e-05 -1.916569e-05 -1.9512854e-05 -1.9598287e-05 -1.9209165e-05 -1.9342608e-05
-1.919099e-05 -4.201411e-06 -3.2166527e-06 -2.8485563e-06 -3.6679492e-06 -2.5175204e-06 -2.1902324e-06 -3.9811707e-06
-3.094992e-06 -2.912723e-06 1.4744742e-05 1.4258492e-05 1.696363e-05 1.3527122e-05 1.3990604e-05 1.774007e-05
1.4258089e-05 1.52410785e-05 1.9040363e-05 -2.2269767e-05 -2.262122e-05 -2.0234485e-05 -2.2518057e-05 -2.2867282e-05
-2.0283356e-05 -2.1322623e-05 -2.1511958e-05 -1.9448009e-05 0.00047140295 0.0005587809 0.0004225482 0.0005469486
0.00066774484 0.00052410504 0.00046622468 0.0005673708 0.00045914575 0.0004116797 -9.633944e-05 -0.0005640648
5.464904e-05 0.00024829002 0.00026140126 -8.667668e-06 -0.00045626218 -0.00043086705 -0.00097483554 -0.00042836776
8.230329e-05 -0.0005117174 -0.0010803157 -0.0005095659 9.674081e-05 -0.00038367495 -0.0009394197 0.00026263407
-0.0008872577 0.00056941365 -0.00025847153 0.00064116827 -0.0010285905 3.121876e-05 -0.00031053132 0.0008001809

exp_avg_sq f4 [16, 1, 3, 3]
00000000: a2b5 8833 a77c 8b33 f7a8 8933 1784 8833
00000010: 56c9 8b33 4955 8a33 bf81 8533 6f0f 8933
00000020: c88e 8733 229e 0934 232e 0e34 4b10 0c34
00000030: 4fed 0a34 b9ef 0f34 9d06 0f34 50f9 0834
00000040: e901 0e34 b0fe 0d34 9252 0534 8e39 0934
00000050: d9b1 0634 aeaf 0634 9dd1 0a34 6f8b 0834
00000060: ec38 0434 b45a 0834 6851 0634 18bf 5634
00000070: 2795 6234 2763 6134 cc77 5334 1bbf 5f34
00000080: 717f 5f34 c07a 4a34 6758 5634 d7d9 5634
00000090: 4cc1 2b34 8b4c 2934 46b9 1e34 3b9d 2a34
000000a0: e442 2934 67c0 1e34 7f37 2134 7e1d 1f34
000000b0: 3ad9 1534 b8f0 0434 007a 0a34 641f 0a34
000000c0: 54ef 0634 ccd6 0b34 1b54 0b34 7eca 0634
000000d0: f847 0c34 aebf 0b34 95b9 1f34 ad2e 2934
000000e0: c39b 2934 8440 1d34 5e3a 2534 2056 2534
000000f0: 191a 1734 15eb 1f34 ad04 2134 25ec c433
00000100: b639 ce33 8297 cc33 d023 ca33 bea9 cf33
00000110: f4d7 cb33 d377 c033 8f6e c933 3335 c833
00000120: 6236 c133 88f5 d933 03b3 e133 16ef c933
00000130: 9488 e733 3afd f133 9638 cd33 f3e5 ec33
00000140: 1afb f833 0070 9434 fcfc a534 8be9 a934
00000150: 1a9a 9734 87c7 aa34 a9bd af34 c667 9334
00000160: 8174 a534 e29b aa34 b58f 3136 a5d2 3036
00000170: dbbb 2736 d560 3436 0f98 3236 ed11 2836
00000180: 5f1d 2f36 9072 2d36 64da 2236 2ebf cd34
00000190: ebc8 ce34 03d8 c534 4f37 d034 4f14 d234
000001a0: bbcf c834 876f c734 2346 c934 09d4 c134
000001b0: 6661 bd36 6eab 0137 43f5 a836 ba89 0437
000001c0: 72f3 3c37 a026 0237 d7bd c436 5917 0637
000001d0: 431e c036 b3c6 5936 16f6 8435 c00d 2037
000001e0: eb8e 4c35 ddea 2236 8331 4036 5686 cd35
000001f0: 199b f736 0518 c536 7ccd e637 915f 1937
00000200: 10e5 3936 198f 2a37 dee6 2338 0e33 1737
00000210: fcf3 2136 3db9 1037 7906 d437 d5fe 2537
00000220: ef34 0e38 c281 5337 6c42 9e36 dca1 f937
00000230: a2be 4838 73fa a936 44a6 ac36 886c 1f38
6.366032e-08 6.495366e-08 6.410294e-08 6.3570205e-08 6.509315e-08 6.441639e-08 6.216896e-08 6.382367e-08
6.312399e-08 1.2816648e-07 1.3241565e-07 1.3044443e-07 1.2938584e-07 1.3405123e-07 1.3320319e-07 1.2756686e-07
1.3225475e-07 1.3224303e-07 1.2416629e-07 1.2780058e-07 1.2544423e-07 1.2543634e-07 1.2928508e-07 1.2716713e-07
1.2314166e-07 1.2698985e-07 1.2509338e-07 1.9999823e-07 2.1102151e-07 2.099083e-07 1.9694488e-07 2.0838017e-07
2.0814856e-07 1.8857372e-07 1.9962464e-07 2.0009553e-07 1.5995937e-07 1.5767198e-07 1.4782299e-07 1.5889684e-07
1.5763686e-07 1.4784892e-07 1.5014483e-07 1.4818758e-07 1.3955733e-07 1.2381031e-07 1.2896635e-07 1.2863671e-07
1.256679e-07 1.3023526e-07 1.2975981e-07 1.2553389e-07 1.3064698e-07 1.3015116e-07 1.4875543e-07 1.5756332e-07
1.5796017e-07 1.4645235e-07 1.5388056e-07 1.5398155e-07 1.4072465e-07 1.4893551e-07 1.4995994e-07 9.169916e-08
9.60312e-08 9.5270494e-08 9.412872e-08 9.6700646e-08 9.492206e-08 8.9624926e-08 9.3799024e-08 9.3229026e-08
8.997155e-08 1.0149512e-07 1.0509941e-07 9.403281e-08 1.0781619e-07 1.1268499e-07 9.556349e-08 1.1031434e-07
1.1594075e-07 2.764864e-07 3.0917715e-07 3.1648628e-07 2.8238065e-07 3.1810143e-07 3.2734286e-07 2.745639e-07
3.0818413e-07 3.1778387e-07 2.6458704e-06 2.6348655e-06 2.4994285e-06 2.6878454e-06 2.6612577e-06 2.5044385e-06
2.6094128e-06 2.5845693e-06 2.4267001e-06 3.8323327e-07 3.8516677e-07 3.685128e-07 3.878326e-07 3.9130325e-07
3.7404047e-07 3.7147785e-07 3.74902e-07 3.6103327e-07 5.6439776e-06 7.728913e-06 5.0353424e-06 7.89988e-06
1.1262355e-05 7.757597e-06 5.8633555e-06 7.992458e-06 5.725569e-06 3.2451178e-06 9.906387e-07 9.539945e-06
7.6203895e-07 2.427659e-06 2.863905e-06 1.5312787e-06 7.3792294e-06 5.8738538e-06 2.7513823e-05 9.141761e-06
2.770048e-06 1.0166107e-05 3.907724e-05 9.0121885e-06 2.4132887e-06 8.626198e-06 2.5275383e-05 9.894099e-06
3.3904736e-05 1.2606792e-05 4.7164995e-06 2.9758485e-05 4.7861256e-05 5.0657486e-06 5.1453553e-06 3.800963e-05
