Experiments/Experiments-013/checkpoints/model.pt (torch, 163559 bytes, 33 tensors)

cp.convs.0.weight f4 [2, 1, 3, 3]
0	0x3e92667b	0.2859381
1	0x3d3be195	0.04586943
2	0x3e8e9857	0.278506
3	0x3f100693	0.5626003
4	0xbde29a69	-0.11064608
5	0x3f08e6ed	0.53477365
6	0xbf245ee6	-0.64207304
7	0x3fa8c078	1.3183737
8	0xbf54db8f	-0.8314752
9	0x3edd862a	0.43266422
10	0x3ed13ef6	0.40868348
11	0x3ebcc7aa	0.36871082
12	0x3e702d12	0.23454693
13	0x3d98d78d	0.07462988
14	0xbdcc903e	-0.099884495
15	0xbe4fc743	-0.20290856
16	0x3dc7dfb0	0.09759462
17	0xbe9f8d4d	-0.3116249

cp.convs.1.weight f4 [4, 1, 3, 3]
0	0x3e51ce48	0.20488846
1	0x3e613f33	0.21996765
2	0xbee10cd0	-0.43955088
3	0x3e3da6c0	0.18520641
4	0x3e83f3b5	0.2577187
5	0xbe165c3d	-0.14683624
6	0x3ea43c05	0.3207704
7	0x3ee86079	0.45386103
8	0xbd8aeb07	-0.06783109
9	0x3ea1589e	0.31512922
10	0xbfbb2c7c	-1.462295
11	0x3e1cace2	0.15300325
12	0xbeb70ff6	-0.35754365
13	0xbe762438	-0.24037254
14	0xbdf9f933	-0.12205734
15	0x3ed04eae	0.40685028
16	0x3f3daa28	0.7408776
17	0x3eb60697	0.35551903
18	0xbe8d8815	-0.27642885
19	0xbe1f3254	-0.15546542
20	0xbe571553	-0.21004228
21	0x3e66aa09	0.22525801
22	0xbe29c3ce	-0.165786
23	0xbdc58d34	-0.09646073
24	0x3e8c3b40	0.27388954
25	0xbe812f8e	-0.25231594
26	0xbee337c3	-0.4437848
27	0x3e9dd023	0.30822858
28	0xbe86758a	-0.2626155
29	0x3e85bc43	0.26120195
30	0x3dfff803	0.12498476
31	0x3e64ce5e	0.22344348
32	0xbdbd2136	-0.0923485
33	0x3e39f319	0.1815914
34	0xbdd72fa3	-0.10507133
35	0x3ea1b3c1	0.31582454

cp.convs.2.weight f4 [8, 1, 3, 3]
0	0x3c49c778	0.012315623
1	0x3ebb6970	0.3660388
2	0x3ea2e3d5	0.31814447
3	0xbe25b40d	-0.16181965
4	0x3c57ec92	0.013178961
5	0xbd98eb60	-0.07466769
6	0x3e1650da	0.1467928
7	0xbe4f1d50	-0.20226026
8	0x3e8ac703	0.2710496
9	0xbe934c87	-0.28769323
10	0xbdda53e4	-0.10660532
11	0x3c1bda83	0.0095125465
12	0xbd90f469	-0.070778675
13	0x3e46e0bf	0.19421671
14	0x3d7fe1ba	0.06247113
15	0x3e79e1be	0.2440252
16	0x3e520a70	0.20511794
17	0x3f0520a0	0.52002907
18	0xbecd602e	-0.40112442
19	0x3eb6edcc	0.357283
20	0xbf0c8e2e	-0.5490445
21	0xbf5c09e4	-0.8595259
22	0x3f1dbf48	0.6162
23	0xbe46c953	-0.19412737
24	0xbec24736	-0.37944955
25	0x3cb8fa2f	0.022580234
26	0xbedace47	-0.42735502
27	0xbf46d1ac	-0.77663684
28	0xbc301424	-0.010746989
29	0x3f485769	0.7825838
30	0xbf86861c	-1.0509677
31	0x3f251509	0.6448522
32	0x3ed787a3	0.4209567
33	0x3c9a21d9	0.018814968
34	0xbf1603d6	-0.58599603
35	0x3f1d15f3	0.61361617
36	0xbe63d809	-0.2225038
37	0xbdb8db85	-0.09026245
38	0x3ea9f7fa	0.33197004
39	0xbe2a1551	-0.16609694
40	0xbbe27a05	-0.0069115185
41	0x3e93993c	0.28827846
42	0x3e9f099d	0.31062022
43	0x3e8857a8	0.26629376
44	0x3e9f7db1	0.31150582
45	0xbe8fe760	-0.28106213
46	0xbd68c1a7	-0.056825306
47	0x3e918d44	0.2842809
48	0xbd9de8c3	-0.077104114
49	0xbda7e9f3	-0.08198919
50	0xbe669d56	-0.22520956
51	0x3d496100	0.049164772
52	0xbe753fe9	-0.23950161
53	0xbeb09a6e	-0.3449282
54	0xbcdef6b4	-0.027217247
55	0x3e3edfdf	0.18640088
56	0xbeacdf52	-0.3376413
57	0x3e29c0eb	0.16577499
58	0x3ea09cf2	0.3136974
59	0x3e9352a1	0.28773978
60	0x3e9d34dd	0.30704394
61	0x3e904f5b	0.28185543
62	0xbbdaaba9	-0.0066732955
63	0xbeaa1103	-0.33216104
64	0x3e626e92	0.22112492
65	0xbde4a565	-0.11164359
66	0x3e451ca1	0.19249202
67	0xbdf62b5c	-0.12019989
68	0xbe07f90e	-0.132786
69	0xbe91fe27	-0.28514215
70	0xbec53399	-0.38515928
71	0xbdaaf6a8	-0.08347827

cp.convs.3.weight f4 [16, 1, 3, 3]
0	0xbe903821	-0.28167823
1	0x3e2a47ca	0.16628948
2	0xbe4b3d0c	-0.19847506
3	0xbe9a6ba7	-0.30160257
4	0x3e099ca9	0.13438667
5	0xbec8b1a7	-0.39198038
6	0xbcfa90eb	-0.03058668
7	0xbeb79519	-0.3585594
8	0xbed5fe38	-0.41795516
9	0x3e866884	0.26251614
10	0xbe7e3ede	-0.2482867
11	0x3e6de285	0.23230942
12	0x3d45fc85	0.048336525
13	0xbcb0bb85	-0.021573791
14	0x3e085ce1	0.1331668
15	0x3e8c3044	0.27380574
16	0xbc5e9d63	-0.013587329
17	0x3e865778	0.26238608
18	0x3ec03d2a	0.37546664
19	0x3ec2985c	0.38006866
20	0xbe84e571	-0.259563
21	0x3da7f980	0.08201885
22	0x3c9f58ef	0.019451587
23	0xbd92105e	-0.07132028
24	0x3ed89a30	0.42305136
25	0xbe71a7c7	-0.23599158
26	0x3e01853f	0.12648486
27	0x3e8c8d57	0.27451584
28	0x3e8fe07c	0.28100955
29	0x3e837a9a	0.25679475
30	0x3e1f0981	0.15530969
31	0x3cbe7fc0	0.023254275
32	0x3dc9ebc7	0.09859424
33	0x3de3b085	0.11117653
34	0xbe7c1ba1	-0.24619915
35	0xbda1a07b	-0.07891937
36	0x3f0889db	0.5333535
37	0xbe84b1f9	-0.25917032
38	0x3f13ef57	0.5778708
39	0x3e356eec	0.17718095
40	0xbef90736	-0.48638314
41	0x3f3cf2c3	0.73807925
42	0x3ed2517c	0.41077793
43	0xbe8bce4d	-0.27305833
44	0x3e6dbd5f	0.2321677
45	0x3e9354d1	0.28775647
46	0xbefb400e	-0.49072307
47	0x3c3c239e	0.011483101
48	0x3f140bf1	0.5783072
49	0xbf5a9779	-0.8538738
50	0x3f31ad39	0.6940494
51	0x3deab3e6	0.11460094
52	0xbf033864	-0.5125792
53	0x3e0d4de5	0.13799246
54	0xbeaed6e2	-0.34148318
55	0xbee4c7ed	-0.4468378
56	0xbeb5ce9b	-0.3550919
57	0xbec676ff	-0.38762662
58	0xbf0d68a0	-0.5523777
59	0xbef840ec	-0.4848703
60	0xbe69416c	-0.22778863
61	0xbec734b5	-0.389074
62	0xbec63cc9	-0.3871825
63	0xbf3e4563	-0.74324626
64	0x3f321211	0.6955882
65	0xbf41eb91	-0.7575007
66	0x3f21f223	0.63260096
67	0xbf15385f	-0.5828914
68	0x3ef31f6a	0.47484905
69	0x3d7a0201	0.061037067
70	0xbd7c21f2	-0.06155581
71	0x3e94b20b	0.29042086
72	0xbdc63038	-0.09677166
73	0x3e1ae83f	0.15127657
74	0xbe6a794f	-0.22897838
75	0x3d7064e7	0.058689978
76	0xbec0fa4a	-0.37690955
77	0xbe0990e2	-0.13434175
78	0xbebcde6f	-0.36888453
79	0xbe2d52aa	-0.16926065
80	0x3d79b3b3	0.06096239
81	0x3e5e2d6d	0.21697016
82	0xbeb1bf02	-0.3471604
83	0xbe4ac6ec	-0.19802445
84	0xbe9d73ca	-0.30752403
85	0xbe3eb121	-0.18622257
86	0xbe885e0f	-0.2663426
87	0x3e6df391	0.23237444
88	0xbe84f0a7	-0.25964853
89	0x3d8b2af5	0.06795303
90	0xbea08dd3	-0.31358203
91	0xbe95c356	-0.29250592
92	0xbd10af13	-0.035323214
93	0xbeb9cf5a	-0.3629101
94	0xbda6c8b6	-0.08143751
95	0xbd54e21c	-0.051973447
96	0xbebcba84	-0.3686105
97	0xbe0a9e02	-0.13536838
98	0x3e9f012c	0.31055582
99	0x3e3c7a73	0.18406086
100	0xbea94c4e	-0.33066028
101	0xbf087981	-0.533104
102	0xbe636425	-0.22206171
103	0xbe2cc3fd	-0.16871639
104	0xbe0206aa	-0.12697855
105	0x3ec9d92a	0.39423496
106	0x3e48cba1	0.19608928
107	0xbed1096c	-0.408275
108	0x3ea5eaf7	0.32405826
109	0xbda8c586	-0.082407996
110	0x3da74156	0.08166759
111	0xbd75fd56	-0.060056053
112	0x3dbb09b3	0.09132709
113	0x3eb1e6c1	0.34746364
114	0x3ec2e831	0.38067773
115	0x3dbe5d7f	0.09295177
116	0xbe32f863	-0.17477565
117	0xbd23e8d2	-0.040016957
118	0x3db1084f	0.08644163
119	0x3f03c031	0.51465136
120	0x3f047f65	0.5175689
121	0x3e97fdd8	0.29685855
122	0x3eef1add	0.46700183
123	0x3f011e47	0.50436825
124	0x3efd2fab	0.4945043
125	0x3ee3e8ee	0.4451365
126	0xbc43be48	-0.011947222
127	0x3e9cd286	0.30629367
128	0x3f07d40d	0.5305794
129	0x3e5ba9b1	0.21451451
130	0xbe282c94	-0.16423255
131	0x3e7fbf00	0.24975204
132	0x3e3a2bdb	0.18180792
133	0xbe20e37a	-0.15711775
134	0x3e8b5c37	0.27218792
135	0xbeb53312	-0.35390526
136	0xbec6381f	-0.38714692
137	0xbe238475	-0.15968497
138	0x3df3d5d7	0.11906021
139	0x3d69638b	0.056979697
140	0x3da5bbd8	0.08092469
141	0xbe712248	-0.23548234
142	0xbd32ddef	-0.043668684
143	0xbebef3b6	-0.37295312

_mlp.0.weight f4 [64, 60]
0	0xbe8c648e	-0.27420467
1	0xbccdf787	-0.025142444
2	0xbe1270e8	-0.14300883
3	0xbd9e1adf	-0.07719969
4	0xbe5c8b7d	-0.21537586
5	0x3f2d0bb3	0.67595977
6	0x3d977e36	0.0739712
7	0x3e919ef8	0.28441596
8	0xbe34e90d	-0.17667027
9	0x3f060fe4	0.52368
10	0x3c9e96fe	0.019359108
11	0x3e8535e4	0.26017678
12	0xbe194886	-0.14969072
13	0xbd321d14	-0.043484762
14	0x3e610089	0.2197286
15	0x3efac9d8	0.4898212
16	0x3dca7969	0.098864384
17	0xbd320149	-0.043458257
18	0x3db1048f	0.086434476
19	0x3cf76c2b	0.030202946
20	0xbe30bf79	-0.17260541
21	0xbe1ec953	-0.15506487
22	0x3e328726	0.17434368
23	0x3f109c3d	0.564884
24	0x3e0d33e1	0.13789321
25	0x3ddfa625	0.109203614
26	0xbd79720c	-0.06089978
27	0x3e31a6b1	0.17348744
28	0xbe0b430e	-0.13599798
29	0x3e8227cc	0.25420988
30	0x3cf27266	0.029595565
31	0x3ce2c6ca	0.02768268
32	0xbe3e3759	-0.18575801
33	0xbe30e39f	-0.1727433
34	0x3e3e6ac4	0.18595415
35	0xbe88af6f	-0.26696345
36	0x3d979c36	0.07402842
37	0x3d19de14	0.037565306
38	0xbd9531dd	-0.07284901
39	0xbd3651b2	-0.044511504
40	0x3dbcdd4f	0.09221899
41	0xbf091bbf	-0.5355796
42	0x3ce6f957	0.028195066
43	0x3e246380	0.16053581
44	0xbe2c9569	-0.1685387
45	0x3e44ff58	0.19238031
46	0xbdc5ac23	-0.09651973
47	0x3d3c0a6c	0.045908377
48	0xbe180cd2	-0.1484864
49	0xbe049f3a	-0.12951365
50	0x3e393ee8	0.18090403
51	0xbe8d08c6	-0.27545756
52	0x3dc20309	0.09473235
53	0x3dba9642	0.09110691
54	0x3d2dbeea	0.042418398
55	0xbdfb86bd	-0.12281559
56	0x3cf89970	0.030346602
57	0xbec70131	-0.38868096
58	0x3e3385e3	0.17531542
59	0xbb033ff1	-0.0020027126
60	0x3e6ed75d	0.23324342
61	0x3e90c0a6	0.2827198
62	0x3ee9499d	0.45563975
63	0x3e9686d8	0.29399753
64	0xbf1a1ffa	-0.6020504
65	0x3f9451ae	1.1587427
66	0x3e72dea2	0.2371774
67	0x3ec523c5	0.38503852
68	0xbf325dd9	-0.6967445
69	0x3f997171	1.1987745
70	0x3d1b92ca	0.037981786
71	0x3e82c3e4	0.25540078
72	0x3e6faf38	0.23406684
73	0x3d6764c3	0.05649258
74	0x3eb2baa7	0.3490803
75	0x3eda1c97	0.42599937
76	0x3e78c038	0.24292076
77	0x3d52977d	0.051414
78	0x3cd822f7	0.02638386
79	0x3e89ee61	0.2693968
80	0x3ea99472	0.33121067
81	0x3d81025f	0.062992804
82	0x3e46deb2	0.19420889
83	0x3f0c6be2	0.54852116
84	0x3e6ded6e	0.23235103
85	0x3cb9e653	0.022692835
86	0x3e18af07	0.14910518
87	0x3df5b3dc	0.11997196
88	0xbedf1ffd	-0.43579093
89	0x3ebc36bf	0.36760518
90	0x3e5a2119	0.21301688
91	0x3d88d788	0.06681734
92	0xbecdfae1	-0.40230468
93	0xbe7a650f	-0.24452613
94	0xbefe9d1e	-0.49729246
95	0xbe8290c5	-0.25501075
96	0x3e319f44	0.17345911
97	0x3e0b5892	0.13608006
98	0x3dcaf831	0.0991062
99	0x3b39f4a9	0.0028374589
100	0x3c24d978	0.010061614
101	0xbf341736	-0.7034792
102	0xbe139baa	-0.1441485
103	0x3d3e6b5d	0.04648911
104	0xbe93cb72	-0.28866154
105	0x3f0a52ed	0.54032785
106	0x3dd0b014	0.10189834
107	0x3d7590ad	0.059952427
108	0xbe8e9604	-0.27848828
109	0xbdab2d38	-0.08358234
110	0xbf0f9f4f	-0.5610246
111	0xbda2f4be	-0.07956837
112	0x3e1c3c60	0.15257406
113	0x3e5a5b23	0.21323828
114	0xbcc649de	-0.024205144
115	0xbcc7926e	-0.024361815
116	0x3dded5de	0.10880636
117	0xbf5614e0	-0.836256
118	0x3cb16535	0.021654705
119	0xbd6b910b	-0.05751137
120	0x3d6307c1	0.055427317
121	0xbe7c799a	-0.24655762
122	0x3db93315	0.09042946
123	0xbe81cac4	-0.2535001
124	0xbdc3c9f1	-0.09560002
125	0x3ed1ee8d	0.41002312
126	0xbd3cacbe	-0.046063177
127	0x3e29bd87	0.16576205
128	0xbb88f3d1	-0.004179456
129	0x3edb371b	0.4281548
130	0x3d2e2238	0.042513102
131	0x3dd7c41e	0.10535453
132	0x3e0a80ea	0.1352574
133	0xbd492012	-0.04910285
134	0x3d9ad386	0.07559876
135	0x3e41a173	0.18909244
136	0xbd0eaa46	-0.034830354
137	0x3dde0b79	0.10842032
138	0x3dde5735	0.10856477
139	0x3d3ac844	0.045601144
140	0x3ca40065	0.02001972
141	0xbce04533	-0.027376747
142	0xbdccc0dc	-0.099977225
143	0x3eac1ed2	0.33617264
144	0x3bdc07b4	0.0067147855
145	0x3cbddd17	0.023176713
146	0x3e17a6de	0.14809749
147	0x3e4a50a5	0.19757326
148	0xbe3cd48f	-0.1844046
149	0x3e07d68b	0.13265435
150	0xbd02e050	-0.031952202
151	0x3c5644d2	0.0130779315
152	0x3d8da59b	0.06916352
153	0x3f1839fc	0.5946348
154	0xbfa8d936	-1.3191288
155	0x3eb0f802	0.34564215
156	0x3d8120a7	0.06305056
157	0x3cf6adce	0.030112173
158	0xbdea0972	-0.11427583
159	0x3b359c22	0.002771147
160	0xbd7e4974	-0.06208177
161	0xbdbebf08	-0.0931378
162	0x3d63ea29	0.055643234
163	0x3d86f005	0.06588749
164	0xbde40770	-0.11134231
165	0x3dd9abee	0.10628496
166	0xbcfa1547	-0.030527724
167	0x3dd9d1e4	0.106357366
168	0xbdc3e1aa	-0.095645264
169	0x3f2aa88a	0.6666342
170	0xbfa62708	-1.2980661
171	0x3eef51ea	0.46742183
172	0xbc268a75	-0.010164847
173	0x3d633ad8	0.05547604
174	0xbd5a9e06	-0.05337336
175	0x3c1dceec	0.009631854
176	0xbdf345a5	-0.11878518
177	0xbe080d9f	-0.13286446
178	0xbde5fd09	-0.11229903
179	0x3c53b57d	0.012921688
180	0xbe96e0bc	-0.29468334
181	0x3d88c837	0.06678813
182	0xbeb52268	-0.35377812
183	0xbda23315	-0.079198994
184	0xbe6fb5b4	-0.23409158
185	0x3e2f3e32	0.1711357
186	0x3c424e82	0.011859538
187	0x3e20b57a	0.15694228
188	0xbe507478	-0.2035693
189	0x3e08ccb0	0.13359332
190	0x3d30ac37	0.043132987
191	0x3c1e6c2b	0.009669344
192	0x3e8cb998	0.27485347
193	0xbd93f934	-0.07225266
194	0x3dab8ef2	0.08376874
195	0x3e34f140	0.17670155
196	0xbc9d2361	-0.019181909
197	0xbe4a9202	-0.1978226
198	0x3d93c346	0.0721498
199	0x3e49eaa3	0.19718413
200	0x3e203b8d	0.15647717
201	0xbdca5967	-0.098803334
202	0x3dfa8207	0.12231832
203	0x3d17d120	0.03706467
204	0x3e185fcd	0.14880295
205	0xbe04c6ac	-0.12966412
206	0x3e137081	0.14398386
207	0x3e0c4311	0.13697459
208	0xbe39cbf7	-0.18144213
209	0x3e3ef67f	0.18648718
210	0x3d403b68	0.046931654
211	0xbcb18c24	-0.02167327
212	0x3c720486	0.014771586
213	0x39eba658	0.0004494663
214	0x3eb571c1	0.3543835
215	0x3dfcfdc9	0.12353093
216	0xbdcd1bdd	-0.1001508
217	0xbd29a3bf	-0.041415926
218	0xbe03a71d	-0.12856717
219	0xbe147901	-0.14499284
220	0x3e5ac340	0.21363544
221	0xbefe66e7	-0.49687883
222	0xbd072241	-0.03299165
223	0xbce766f0	-0.028247327
224	0xbd59cb5a	-0.053172447
225	0x3e90993b	0.28241906
226	0x3d76f4a4	0.0602919
227	0xbde372cc	-0.1110588
228	0xbe06fea5	-0.13183077
229	0x3b3cfd3b	0.002883746
230	0x3eb35fa5	0.35033908
231	0x3e405a95	0.18784554
232	0xbc0726a8	-0.008248962
233	0xbd16f6e3	-0.036856543
234	0x3b0c00cb	0.0021362777
235	0xbebe1407	-0.37124655
236	0x3db524e3	0.08844926
237	0xbf0fe428	-0.56207514
238	0x3e14426d	0.14478464
239	0xbda65d8c	-0.081233114
240	0xbf10ed1c	-0.566118
241	0xbe6347d7	-0.22195373
242	0xbedb90fa	-0.42884046
243	0xbd8362eb	-0.064153515
244	0xbec5e49d	-0.3865098
245	0x3ebd8a97	0.37019798
246	0x3c8f14f0	0.017466038
247	0x3e93fa98	0.28902125
248	0xbeb08dad	-0.3448309
249	0x3ebc02e2	0.3672095
250	0xbc800b42	-0.015630368
251	0x3e99090c	0.29889715
252	0x3e062fbf	0.13104151
253	0xbd7dd60f	-0.06197172
254	0xbd206c9f	-0.03916609
255	0x3e0dfcfb	0.13866036

_mlp.0.bias f4 [64]
0	0xbf1e40e4	-0.61817765
1	0xbf907807	-1.128663
2	0xbe2013a4	-0.15632492
3	0xbf591e82	-0.84812176
4	0xbf1d50ad	-0.61451226
5	0xbf7050c7	-0.93873256
6	0xbf511f61	-0.81688505
7	0xbe062700	-0.13100815
8	0xbf87513e	-1.0571668
9	0xbf651f4f	-0.895009
10	0x3e8b2404	0.27175915
11	0x3df34fa6	0.11880426
12	0xbefe6a3c	-0.49690425
13	0xbe68e130	-0.22742152
14	0xbf402983	-0.7506334
15	0xbee5a5d7	-0.44853088
16	0xbf75a7ee	-0.95959365
17	0xbe9c3644	-0.3051015
18	0xbf16bba8	-0.5888009
19	0xbf07d129	-0.5305353
20	0xbfa90caa	-1.320699
21	0xbed88815	-0.42291322
22	0xbf6daf4e	-0.9284562
23	0xbf6593db	-0.89678735
24	0xbeadceaf	-0.3394675
25	0xbf19e09c	-0.6010835
26	0xbea5488a	-0.32281905
27	0xbedf08e2	-0.43561465
28	0xbf317c70	-0.693305
29	0xbeea50b0	-0.45764685
30	0xbf257355	-0.6462911
31	0xbf34a29b	-0.70560616
32	0xbf21252d	-0.6294735
33	0xbfbf7b97	-1.4959592
34	0xbf965422	-1.1744425
35	0xbf16c472	-0.588935
36	0xbe3d2d18	-0.18474233
37	0xbf0605e6	-0.5235275
38	0xbf2a5a68	-0.665442
39	0xbf18ba1f	-0.59659
40	0xbf141581	-0.5784531
41	0xbf3aec1f	-0.7301654
42	0xbf819a34	-1.0125184
43	0xbe737e24	-0.23778588
44	0xbecc9742	-0.3995915
45	0xbf8fd94a	-1.1238186
46	0xbf873771	-1.0563794
47	0xbf4cad26	-0.79951704
48	0xbfe1defb	-1.7646173
49	0xbf5ab821	-0.8543721
50	0x3e95cbe1	0.2925711
51	0xbf8344bb	-1.025535
52	0xbf1233fc	-0.5711057
53	0xbf4fd6a0	-0.81186867
54	0x3dc12d0d	0.09432421
55	0xbf5dac4e	-0.8659104
56	0xbf5fbffe	-0.8740233
57	0xbf654dfe	-0.8957213
58	0x3e3fd102	0.18732074
59	0xbf475330	-0.7786131
60	0xbf81b1ea	-1.013242
61	0xbfaef830	-1.3669491
62	0xbf089ed7	-0.5336737
63	0xbf6fd474	-0.9368355

_mlp.2.weight f4 [64, 64]
0	0x3e0747ff	0.13211058
1	0x3eafda00	0.34346008
2	0x3e47b98f	0.19504379
3	0x3d3ca53c	0.046056017
4	0xbe7affbd	-0.24511619
5	0x3eb328d4	0.34992087
6	0x3e1173af	0.14204286
7	0xbdd83cab	-0.105584465
8	0xbe5fb4b3	-0.21846275
9	0x3ca1e7c7	0.01976384
10	0x3e9c3b5e	0.30514044
11	0x3da5e118	0.08099574
12	0x3e661bf1	0.22471596
13	0x3e5fc797	0.21853481
14	0x3db0de56	0.08636157
15	0x3e0a13c2	0.134841
16	0xbd5308e6	-0.051522158
17	0xbe0c9d76	-0.13731942
18	0xbd841b52	-0.064505234
19	0x3dcb45f8	0.09925455
20	0xbe00f7a4	-0.12594467
21	0x3d89b636	0.06724207
22	0xbd261b0f	-0.04055315
23	0x3dd9ed35	0.10640947
24	0x3c245183	0.0100291995
25	0x3d59bb67	0.053157236
26	0xbe220534	-0.15822297
27	0xbda9d5e9	-0.08292753
28	0xbf3f17f6	-0.74645936
29	0xbd22f515	-0.03978451
30	0x3cc48a3e	0.0239917
31	0xbd705797	-0.058677282
32	0x3cdcd3a6	0.02695639
33	0xbb035de7	-0.0020044984
34	0x3eac4b39	0.3365114
35	0x3ed4afad	0.4154028
36	0xbe795726	-0.2434965
37	0xbc593149	-0.013256379
38	0x3e0a3dd9	0.13500156
39	0xbe4fa716	-0.20278582
40	0x3e785f45	0.24255092
41	0x3d36f33c	0.04466556
42	0xbe58f442	-0.21186927
43	0x3d677a36	0.056513034
44	0x3e2337c2	0.15939239
45	0x3e9dfe78	0.30858207
46	0xbd914cd7	-0.07094734
47	0xbee74c17	-0.4517524
48	0xbd9ce43e	-0.07660721
49	0xbc8c6122	-0.01713616
50	0xbf373f2f	-0.71580786
51	0xbe8a57ec	-0.27020204
52	0xbea4911c	-0.3214196
53	0x3e44113b	0.19147198
54	0xbf802b6f	-1.0013255
55	0xbde7e13c	-0.11322257
56	0x3d64343d	0.05571388
57	0x3e949d8d	0.29026452
58	0xbe17c5e6	-0.14821586
59	0xbcce5a0d	-0.025189424
60	0x3d70b294	0.058764055
61	0x3d8a960d	0.06766901
62	0x3d39af4c	0.04533319
63	0x3e6d4c51	0.23173644
64	0xbe226190	-0.1585753
65	0x3d5521d3	0.05203421
66	0xbe34bba4	-0.17649704
67	0xbe2a5dfa	-0.16637412
68	0xbe859ee6	-0.26097792
69	0x3e967df8	0.29392982
70	0x3d732b9d	0.059367765
71	0xbe2268cf	-0.15860294
72	0xbd02dadc	-0.031947
73	0xbd114275	-0.03546377
74	0xbe5e2f6f	-0.21697782
75	0xbec318a1	-0.38104728
76	0x3ccff942	0.02538741
77	0xbe0d183d	-0.13778777
78	0x3da62b91	0.081137784
79	0x3de3e9ee	0.11128603
80	0x3e465c26	0.1937109
81	0x3cb97349	0.02263798
82	0xbe493923	-0.19650702
83	0xbd3fc775	-0.046821076
84	0x3c94f068	0.01818104
85	0xbd8889f3	-0.06666937
86	0xbd220f08	-0.039565116
87	0xbd919da5	-0.071101464
88	0xbdf25dc1	-0.118342884
89	0xbc51b319	-0.012799048
90	0x3db4cb06	0.08827786
91	0xbe93f4dc	-0.2889775
92	0xbdd40847	-0.10353141
93	0x3e100908	0.14065945
94	0x3e1c1743	0.15243249
95	0x3ced677a	0.028980006
96	0x3c5e7588	0.013577826
97	0xbd26d2f1	-0.040728513
98	0x3cb41548	0.021982804
99	0xbebdfe6f	-0.3710818
100	0xbe1bc3f0	-0.15211463
101	0xbd9ffd81	-0.07812024
102	0xbe27d3c3	-0.16389374
103	0xbf123b99	-0.5712219
104	0xbdbac281	-0.0911913
105	0xbbf49445	-0.007463964
106	0x3dff3b78	0.12462515
107	0xbe788291	-0.24268557
108	0xbee6f8d3	-0.45111713
109	0xbd82f913	-0.063951634
110	0xbd8f8f40	-0.07009745
111	0x3bd1b8d6	0.006400208
112	0x3e86afa1	0.2630587
113	0x3afe53a4	0.0019403589
114	0xbe90d288	-0.28285623
115	0x3e12ce9b	0.14336626
116	0x3e84b3ef	0.25918528
117	0xbd10dd21	-0.035367135
118	0xbeb95cd8	-0.36203647
119	0xbe28ff2a	-0.16503587
120	0xbd866804	-0.06562808
121	0x3d0dad9f	0.034589406
122	0xbeb5b72c	-0.35491312
123	0xbd594fac	-0.053054497
124	0x3dff05bd	0.12452266
125	0xbdbdf74c	-0.09275684
126	0x3de0e978	0.10982031
127	0xbd256e20	-0.040388227
128	0xbe66396c	-0.22482842
129	0x3d37471c	0.04474555
130	0xbd61c091	-0.055115286
131	0x3caf21ca	0.021378417
132	0xbd790ab1	-0.06080121
133	0xbe6bf43b	-0.23042385
134	0xbe4834f5	-0.19551452
135	0xbce32b41	-0.027730586
136	0x3d97f113	0.07419028
137	0xbe560484	-0.2090016
138	0xbe0194fb	-0.12654488
139	0xbe89576e	-0.26824516
140	0x3ceddaaa	0.029034931
141	0xbe8d597a	-0.27607328
142	0xbe2057e4	-0.15658528
143	0xbcff4e90	-0.031165391
144	0xbc86d4ec	-0.016458951
145	0xbdbbd25c	-0.09170982
146	0x3d9257f9	0.07145686
147	0xbd70efa7	-0.0588223
148	0xbe5b1de5	-0.21398123
149	0xbe6f9063	-0.23394923
150	0x3e04b6f0	0.1296041
151	0xbdd1a3d1	-0.102363236
152	0xbdd17128	-0.10226661
153	0xbdfe180f	-0.124069326
154	0xbe9f2562	-0.31083208
155	0x3d26dc31	0.040737335
156	0xbdf35ccf	-0.11882936
157	0xbe34f34c	-0.17670935
158	0xbeadfef7	-0.33983585
159	0xbe99b40e	-0.30020183
160	0xbdf02af1	-0.117269404
161	0x3ce50250	0.027955204
162	0xbd8ee952	-0.06978096
163	0xbe3f9c82	-0.18712047
164	0x3a0b4463	0.00053126196
165	0xbde0181a	-0.10942097
166	0xbb84fa33	-0.0040581464
167	0xbd1ba65b	-0.038000446
168	0xbe85eedb	-0.26158795
169	0x3d3facd1	0.04679567
170	0x3e93d6d1	0.2887483
171	0xbe2e038a	-0.16993538
172	0xbd28f54b	-0.041249555
173	0x3ce00cd2	0.027349863
174	0xbe434ba6	-0.19071826
175	0xbdcd610a	-0.10028274
176	0xbe4ff808	-0.2030946
177	0xbebd0465	-0.36917415
178	0xbe0a5b69	-0.13511433
179	0x3ce67c08	0.028135315
180	0xbd45042e	-0.04809969
181	0xbea9bce2	-0.3315192
182	0xbe2b1579	-0.1670741
183	0xbe1f2764	-0.1554237
184	0xbe248092	-0.1606467
185	0xbc5d11d1	-0.013493017
186	0xbe09fbd6	-0.13474974
187	0x3e05c59b	0.13063662
188	0xbcbd2620	-0.023089468
189	0xbe992254	-0.29909003
190	0xbe58e415	-0.21180756
191	0xbd26d8e0	-0.040734172
192	0x3d0dd6d0	0.03462869
193	0x3dec7f9e	0.115477785
194	0xbea6d842	-0.32586867
195	0x3cb56848	0.022144452
196	0xbcf90a88	-0.03040053
197	0xb9c9dc00	-0.0003850162
198	0xbde9428c	-0.11389646
199	0xbead7c03	-0.33883676
200	0xbdb93bb8	-0.090445936
201	0xbc96c668	-0.018405154
202	0xbeaa4bdb	-0.33260998
203	0xbeb62c27	-0.3558056
204	0x3c448eb0	0.01199691
205	0xbe489ee4	-0.19591862
206	0x3ddf3d5a	0.10900374
207	0xbb544fc0	-0.0032396168
208	0x3d255e84	0.04037334
209	0xbe78a3fb	-0.24281304
210	0x3ddbdb62	0.10735203
211	0xbe9fa157	-0.3117778
212	0xbdcc4e66	-0.09975891
213	0xbe130104	-0.14355856
214	0xbd8495d6	-0.064738914
215	0x3de2cd52	0.11074318
216	0xbda13570	-0.078715205
217	0xbd05d9a4	-0.03267826
218	0xbd8431f8	-0.06454843
219	0xbe857996	-0.26069325
220	0xbd2ff170	-0.042954862
221	0xbeaaf183	-0.33387384
222	0xbd00e848	-0.03147152
223	0xbdb20af6	-0.08693497
224	0xbd18ad9c	-0.03727494
225	0xbb3cfd80	-0.0028837621
226	0xbdbe714e	-0.09298955
227	0xbd8af394	-0.0678474
228	0xbd649474	-0.05580564
229	0x3d76ae8c	0.060225055
230	0xbe82297e	-0.2542228
231	0xbdd81d9a	-0.10552521
232	0xbe9a2718	-0.3010795
233	0xbdc05150	-0.09390509
234	0xbe9cdbe3	-0.3063651
235	0xbeb688e6	-0.3565132
236	0xbe2bef9c	-0.16790622
237	0xbd97faa8	-0.07420856
238	0xbe7de1a5	-0.24793108
239	0x3dc0b686	0.094098136
240	0x3ba9a0c0	0.0051766336
241	0xbd32e8f4	-0.043679193
242	0xbf1ea601	-0.6197205
243	0x3c828a08	0.015934959
244	0xbd71c858	-0.059028953
245	0xbd34b32c	-0.044116184
246	0xbeaebf36	-0.34130257
247	0xbb46dd00	-0.0030344129
248	0xbd344c3c	-0.044018015
249	0xbdd4a8f2	-0.10383786
250	0xbea2f0eb	-0.3182443
251	0xbe36071a	-0.17776147
252	0xbd9e2318	-0.07721537
253	0xbc909208	-0.017647758
254	0xbdf8881e	-0.12135337
255	0xbd90c6fa	-0.07069202

_mlp.2.bias f4 [64]
0	0xbf6d50cb	-0.92701405
1	0xbe95f9ad	-0.2929205
2	0xbe0e0a89	-0.13871206
3	0xbf0054c7	-0.5012936
4	0xbebc45b5	-0.36771932
5	0xbddde290	-0.10834229
6	0xbe2ccc00	-0.16874695
7	0xbe8f9300	-0.2804184
8	0xbe4ef8ee	-0.20212147
9	0xbefbc2fd	-0.49172202
10	0xbe9711db	-0.2950581
11	0xbd055331	-0.03255004
12	0xbe2d4618	-0.1692127
13	0xbe6da860	-0.23208761
14	0xbe31301d	-0.1730351
15	0xbe61f7fb	-0.22067253
16	0xbe6c0c85	-0.23051651
17	0xbe12cf48	-0.14336884
18	0xbe532263	-0.20618586
19	0xbe48607d	-0.19568057
20	0xbeca99c4	-0.3957044
21	0xbe4c5418	-0.19953954
22	0xbe8523c5	-0.26003852
23	0xbe203678	-0.15645778
24	0xbeccafae	-0.39977783
25	0xbe9cfc27	-0.30661127
26	0xbe21f5ec	-0.15816468
27	0xbedecc9a	-0.43515474
28	0xbe93cc0d	-0.28866616
29	0xbe20d601	-0.15706636
30	0xbd1d3f1a	-0.038390256
31	0xbe22c42d	-0.15895148
32	0xbe7568a6	-0.23965701
33	0xbf10cd90	-0.56563663
34	0xbeca3a1b	-0.39497456
35	0xbe512a2c	-0.20426244
36	0xbef26c95	-0.47348467
37	0xbde402fa	-0.1113338
38	0xbe191f11	-0.14953257
39	0xbe65e07c	-0.22448915
40	0xbf19802d	-0.59961206
41	0xbe31ce2d	-0.17363806
42	0xbe8ced4e	-0.275248
43	0xbe62179e	-0.22079322
44	0xbe61ae87	-0.22039233
45	0xbdc7c791	-0.09754861
46	0xbe3086cb	-0.1723892
47	0xbe0e6f17	-0.13909565
48	0xbe8b60f9	-0.27222422
49	0xbde46079	-0.11151213
50	0xbf17ceb8	-0.592998
51	0xbe80f841	-0.25189403
52	0xbe8f0b76	-0.27938432
53	0xbe92b6d5	-0.28655115
54	0xbddebb1b	-0.10875531
55	0xbe9261ba	-0.28590184
56	0xbe9b29d6	-0.30305356
57	0xbe8ad264	-0.2711364
58	0xbdebb425	-0.11508969
59	0xbe6188c9	-0.22024836
60	0xbf7c5cc4	-0.9857905
61	0xbe653a44	-0.22385508
62	0xbe80cf2a	-0.25158054
63	0xbeb93cf9	-0.3617933

_mlp.4.weight f4 [64, 64]
0	0xbda5cfb2	-0.08096255
1	0xba9ad500	-0.0011812747
2	0xbb4d65bb	-0.0031341154
3	0x3da8d856	0.08244388
4	0xbdc6544c	-0.09684047
5	0xbd11eba3	-0.03562511
6	0x3dd20cf6	0.10256378
7	0x3d2844e4	0.041081324
8	0xbdc3ac2a	-0.09554322
9	0x3c870f20	0.016486704
10	0xbd323598	-0.043508142
11	0xbd0062c4	-0.03134419
12	0x3d85cf6a	0.06533702
13	0xbda2f580	-0.07956982
14	0x3d8f9b80	0.07012081
15	0xbcd7f0f0	-0.026360005
16	0x3d9ba760	0.076002836
17	0x3c90bd50	0.017668396
18	0xbcc639a8	-0.024197415
19	0xbe44878d	-0.19192334
20	0xbd985118	-0.074373424
21	0x3db8479e	0.08998035
22	0xbdc017c6	-0.093795344
23	0x3c0d6edb	0.008632387
24	0xbd2326d0	-0.039831936
25	0xbd008c00	-0.031383514
26	0xbc166870	-0.009180173
27	0xbe2e5f66	-0.17028579
28	0x3c886778	0.0166509
29	0x3debcd6e	0.11513792
30	0xbea2c908	-0.31794
31	0x3d8db882	0.06919958
32	0xbcf79860	-0.030224025
33	0x3be68680	0.0070350766
34	0x3dbfc322	0.093633905
35	0xbd3c3b64	-0.045955077
36	0xbd731c00	-0.059352875
37	0xbd892da0	-0.066981554
38	0xbe1eb1bc	-0.15497488
39	0xbe114227	-0.14185391
40	0xbc844011	-0.01614383
41	0xbe1ca78f	-0.15298294
42	0xbdda590e	-0.10661517
43	0x3d47f354	0.04881604
44	0x3c25afc3	0.010112706
45	0xbd9b1465	-0.07572249
46	0xbdd7679c	-0.10517809
47	0x3d82ce3c	0.06386992
48	0xbd24c978	-0.040231198
49	0x3d6bfbd1	0.057613198
50	0x3b85d900	0.0040847063
51	0xbd9d362a	-0.076763466
52	0xbdb01eea	-0.085996464
53	0x3df7284e	0.120682344
54	0x3ded34ac	0.11582312
55	0xbc873370	-0.01650402
56	0x3dc47530	0.09592664
57	0xbd054dc7	-0.032544877
58	0x3d8519ee	0.06499086
59	0xbd5356b3	-0.051596355
60	0xbd953170	-0.0728482
61	0xbd96a152	-0.07354988
62	0xbda0ed46	-0.07857756
63	0x3daa1d14	0.083063275
64	0xbd10f212	-0.035387106
65	0xbd4b2e54	-0.04960473
66	0xbcf1d2e8	-0.029519513
67	0x3d6e33fc	0.058155045
68	0x3c14de27	0.009086168
69	0xbe1ffb4b	-0.15623204
70	0x3d9dc8c8	0.077043116
71	0xbdf9c3e2	-0.12195565
72	0x3b580840	0.0032963902
73	0xbdc1922c	-0.09451708
74	0xbd4b872c	-0.049689457
75	0xbe8239e7	-0.254348
76	0x3bf8a120	0.007587567
77	0xbcd1f5f8	-0.025629982
78	0x3e1b4be6	0.15165672
79	0xbdd3c53c	-0.10340354
80	0xbce04928	-0.027378634
81	0x3db3c68c	0.08778104
82	0xbda6ba5a	-0.081410125
83	0xbd48b234	-0.048998073
84	0xbdc9c9f9	-0.09852976
85	0x3df0e898	0.11763114
86	0x3d16e5ae	0.036840133
87	0xbb1e6afe	-0.002417266
88	0x3d9cb162	0.076510206
89	0x3c2693e3	0.010167095
90	0xbdc8ddb4	-0.098079115
91	0xbdd51994	-0.10405269
92	0x3d617a78	0.055048436
93	0x3ca35428	0.01993759
94	0xbe787747	-0.2426425
95	0x3d733488	0.05937627
96	0xbdbded4e	-0.09273778
97	0xbe6f7416	-0.23384127
98	0xbd63fab4	-0.05565901
99	0xbe05b3fc	-0.1305694
100	0xbd9d0ea8	-0.07668811
101	0xbdf92662	-0.12165524
102	0xbd960559	-0.07325239
103	0xbb6cd7b5	-0.0036139314
104	0xbe31b07e	-0.17352483
105	0x3d94e827	0.07270842
106	0xbbaaeb40	-0.0052160323
107	0xbdd81fdc	-0.10552952
108	0x3d0a0c49	0.033703122
109	0xbdc91242	-0.098179355
110	0xbdff8564	-0.12476614
111	0xbd5ca99c	-0.05387269
112	0xbde17c70	-0.11010063
113	0xbe6e3463	-0.23262171
114	0xbe4521bd	-0.19251151
115	0x3dd0fb18	0.10204142
116	0xbca7a1c0	-0.02046287
117	0x3de0d300	0.10977745
118	0xbd545ee5	-0.05184831
119	0x3c719bd0	0.014746621
120	0x3d0c0380	0.034183025
121	0x3d4b5bc4	0.04964806
122	0xbcf16eb0	-0.029471725
123	0x3d9edb6c	0.07756695
124	0xbe6ae9b8	-0.22940719
125	0x3d925e1c	0.07146856
126	0x3a94a780	0.0011341423
127	0x3ddfdf82	0.109313026
128	0x3ce1dc67	0.027570916
129	0xbd793216	-0.06083878
130	0xbc98b8ce	-0.01864281
131	0xbddf5196	-0.10904233
132	0xbd8466cd	-0.0646492
133	0xbe1a07cb	-0.15042035
134	0xbd9d271b	-0.076734744
135	0xbe33ec9f	-0.17570733
136	0x3c2b68cf	0.010462
137	0x3cfa5740	0.030559182
138	0x3d955fda	0.07293673
139	0xbd44c6fb	-0.048041325
140	0x3dd3da10	0.103443265
141	0xbd3c22e8	-0.045931727
142	0xbd89ed2a	-0.067346886
143	0x3da34588	0.079722464
144	0x3de5bcb8	0.11217636
145	0xbd0123d9	-0.031528328
146	0xbe12c2ae	-0.14332077
147	0x3dd2304c	0.10263118
148	0xbda19059	-0.0788886
149	0xbc428b0f	-0.011873974
150	0xbd0c27dc	-0.0342177
151	0xbe78d5ad	-0.24300261
152	0xbdc28530	-0.0949806
153	0xbce5b7d0	-0.02804175
154	0x3daa90ae	0.08328377
155	0x3c33cf7f	0.010974764
156	0x3de5b6be	0.11216496
157	0xbd092a4f	-0.033487614
158	0xbe176095	-0.14782937
159	0xbdf38a77	-0.118916444
160	0xbc8912da	-0.016732622
161	0xbe1f6d56	-0.15569052
162	0xbd011d44	-0.03152205
163	0xbe16383f	-0.14669894
164	0xbd1b6555	-0.037938435
165	0x3d63d0ad	0.05561893
166	0xbdb06cb1	-0.08614481
167	0xbca6c47c	-0.020357363
168	0xbdb781ca	-0.08960302
169	0xbd4941b7	-0.049134936
170	0xbc0f90eb	-0.0087625785
171	0xbe17cf25	-0.14825113
172	0x3d469900	0.048485756
173	0x3cf73d36	0.030180555
174	0x3c38d466	0.0112811085
175	0x3d47acd3	0.048748802
176	0xbbf253ef	-0.0073952596
177	0x3dfc1af0	0.123098254
178	0xbdcb6d56	-0.099329636
179	0x3c6147b7	0.013750008
180	0x3cd6d89a	0.02622633
181	0xbdab5ab3	-0.08366909
182	0xbd1594fb	-0.036519032
183	0x3c541951	0.012945489
184	0x3db8e01f	0.09027123
185	0xbe189eee	-0.14904377
186	0xbd3ad114	-0.04560955
187	0xbca78117	-0.020447297
188	0x3d092402	0.033481605
189	0x3d7eca3d	0.06220459
190	0x3d1514fc	0.036396965
191	0xbd9d50ea	-0.07681449
192	0xbd38442c	-0.04498689
193	0x3d3b19bf	0.04567885
194	0x3ae51681	0.001747802
195	0xbdc06ab2	-0.093953505
196	0x3d3148a4	0.043282166
197	0xbe4dc693	-0.20095281
198	0x3d254003	0.04034425
199	0xbd346236	-0.044038974
200	0x3c0f26ad	0.008737248
201	0xbd0d6240	-0.034517527
202	0xbdb9f66f	-0.090802066
203	0x3cf6439f	0.030061541
204	0x3cb6bf8d	0.022308135
205	0x3cea294f	0.02858415
206	0x3dc91d86	0.09820084
207	0xbd293c98	-0.041317552
208	0x3cb1d3e0	0.021707475
209	0xbd2106ee	-0.03931325
210	0x3d6b0691	0.05737931
211	0x3d2e1a58	0.042505592
212	0xbe1aacbe	-0.15104958
213	0x3d190268	0.03735581
214	0xbe224433	-0.15846328
215	0xbc88d988	-0.01670529
216	0x3d376c5c	0.044781074
217	0xbbe186a0	-0.0068825036
218	0x3df1bb6a	0.118033245
219	0xbe2c9e75	-0.16857322
220	0xbdeb9dfa	-0.11504741
221	0x3dbe73e2	0.09299447
222	0xbe162703	-0.1466332
223	0xbe33c024	-0.17553765
224	0xbd9b2099	-0.07574577
225	0xba2bf495	-0.0006559578
226	0xbd140894	-0.036140993
227	0xbe9c0470	-0.30472136
228	0x3dccf294	0.100072056
229	0xbc9eaee4	-0.019370504
230	0xbe98ecfa	-0.298683
231	0xbe8b55bf	-0.27213857
232	0xbe25aea4	-0.16179901
233	0x3d8288aa	0.06373723
234	0xbdb34530	-0.08753431
235	0xbd6cc735	-0.057807166
236	0x3dd127f6	0.102127
237	0xbe0ae5d2	-0.13564232
238	0x3cec1e30	0.028822988
239	0x3cfc4e40	0.030799031
240	0xbe385d22	-0.18004277
241	0xbd280714	-0.041022375
242	0x3d5520a5	0.052033085
243	0xbcb72229	-0.022355156
244	0xbdcee6b7	-0.10102599
245	0xbe095e5a	-0.13414899
246	0x3dda82fc	0.106695145
247	0xbd371750	-0.044699967
248	0xbd2e616e	-0.042573385
249	0xbd9bb8a0	-0.07603574
250	0xbbc20fa0	-0.005922273
251	0xbdbe28da	-0.092851356
252	0xbd14be39	-0.036314223
253	0xbe116290	-0.14197755
254	0xbd0a6644	-0.033788934
255	0xbdf86580	-0.121287346

_mlp.4.bias f4 [64]
0	0xbe4d889b	-0.20071642
1	0xbe384ec5	-0.17998798
2	0xbd1d995c	-0.038476333
3	0xbe4f8fc2	-0.20269683
4	0xbdc19446	-0.09452109
5	0xbec6a7d8	-0.3879993
6	0xbe910802	-0.28326422
7	0xbe45c81f	-0.19314621
8	0xbe655ad0	-0.22397923
9	0xbe50252f	-0.20326684
10	0xbd761c05	-0.060085315
11	0xbe26ec41	-0.16301061
12	0xbd4da032	-0.050201602
13	0xbe2f5518	-0.17122304
14	0xbd045cd7	-0.0323151
15	0xbdb108a4	-0.08644226
16	0xbe8b47f7	-0.27203342
17	0xbebb1141	-0.365366
18	0xbcc58728	-0.0241123
19	0xbe560ee3	-0.20904116
20	0xbdcdbb5b	-0.10045501
21	0xbe087e06	-0.13329324
22	0xbe8ce470	-0.27518034
23	0xbdac1956	-0.0840327
24	0xbe6e94b1	-0.23298909
25	0xbe62a2fb	-0.22132485
26	0xbe401672	-0.18758562
27	0xbd5bdeaa	-0.053679146
28	0xbe4eaaba	-0.20182315
29	0xbe1bdf71	-0.15221955
30	0xbe073bfc	-0.13206476
31	0x3d7f308d	0.06230216
32	0xbe10d966	-0.14145431
33	0xbcf8bbae	-0.03036293
34	0xbe519245	-0.20465954
35	0xbe0aba5f	-0.13547657
36	0xbf151fde	-0.5825175
37	0xbe33cf2c	-0.17559499
38	0xbd54f572	-0.051991887
39	0xbe06f3f6	-0.13179001
40	0xbe0f55b4	-0.13997537
41	0xbe870f0e	-0.26378673
42	0xbe8d5191	-0.27601293
43	0xbe0dfa02	-0.13864902
44	0x3e0781cd	0.13233109
45	0xbdf569a9	-0.11983044
46	0xbe430a8e	-0.19046995
47	0xbd97c049	-0.07409722
48	0xbe437eee	-0.19091389
49	0xbe95eca1	-0.29282096
50	0xbe294d79	-0.1653346
51	0xbf3336f3	-0.7000572
52	0xbda8022f	-0.082035415
53	0xbdaf181f	-0.085495226
54	0xbe0c0edf	-0.13677548
55	0xbe5e3b1b	-0.21702234
56	0xbd20bd72	-0.03924317
57	0xbe190a93	-0.1494544
58	0xbefe3535	-0.4964997
59	0xbe64440b	-0.22291581
60	0x3b9c970b	0.004778748
61	0xbee7be46	-0.45262355
62	0xbdf5684d	-0.119827844
63	0xbe163c63	-0.14671473

_mlp.6.weight f4 [1, 64]
0	0x3ce28381	0.027650597
1	0x3cf26912	0.029591117
2	0x3d139772	0.0360331
3	0x3d9180e2	0.071046606
4	0x3e137cef	0.14403127
5	0xbeaece14	-0.341416
6	0x3e1735d7	0.14766632
7	0x3db8293c	0.0899224
8	0x3d54b03d	0.051925886
9	0xbda759ef	-0.0817145
10	0x3da596b2	0.080853835
11	0xbd80bac6	-0.06285624
12	0xbcf2d5de	-0.029642995
13	0xbc884d52	-0.016638432
14	0xbd5ce64c	-0.053930566
15	0xbd82f0c5	-0.063935794
16	0xbd2d8237	-0.04236051
17	0xbe30e253	-0.17273836
18	0xbd4f8d2a	-0.050671734
19	0x3dd1312f	0.10214459
20	0xbc74bb13	-0.01493718
21	0xbcb4741f	-0.022028027
22	0x3e4d51cf	0.20050739
23	0x3a5d910f	0.00084520964
24	0xbd91ad65	-0.071131505
25	0x3d363e39	0.044492934
26	0xbd15c009	-0.036560092
27	0xbc51fec2	-0.012817087
28	0x3e182b8a	0.14860359
29	0x3cd8aad7	0.02644865
30	0xbe432d30	-0.19060206
31	0x3a623227	0.0008628689
32	0xbd40c7e0	-0.047065616
33	0x3ca7c089	0.02047755
34	0x3cc70d3e	0.024298307
35	0xbd68caa5	-0.056833882
36	0xbd43763d	-0.047720183
37	0xbe6d8c41	-0.23198034
38	0xbc106a7f	-0.008814453
39	0x3db858b0	0.09001291
40	0x3b34326c	0.0027495874
41	0x3d803d74	0.06261721
42	0x3dea4c1b	0.11440297
43	0xbe332b18	-0.17496908
44	0x3e91612d	0.28394452
45	0x3b4f5b46	0.0031640097
46	0x3bacfdbd	0.0052792714
47	0x3c213f3f	0.009841739
48	0x3df683fa	0.12036891
49	0x3c72da2d	0.014822525
50	0xbd1e7c56	-0.038692795
51	0xbe487365	-0.1957527
52	0x3d38bdba	0.045102812
53	0x3d73c8df	0.059517737
54	0x3d912baa	0.070884064
55	0x3b8e749e	0.004347398
56	0xbd41a832	-0.047279544
57	0x3c34b86c	0.011030298
58	0xbd585d03	-0.052823078
59	0xbd6d861a	-0.057989217
60	0x3c31b6ae	0.010846777
61	0x3e312823	0.17300467
62	0x3d86e36d	0.06586347
63	0xbdc92c67	-0.09822922

exp_avg f4 [2, 1, 3, 3]
0	0x3b59668e	0.00331727
1	0x3a2668e9	0.00063480303
2	0x39cc1205	0.00038923338
3	0x3b4ab274	0.003092912
4	0x3a895d2b	0.0010480037
5	0xb9646685	-0.00021781966
6	0x3b6eb882	0.0036425893
7	0xb9ae25e4	-0.00033216097
8	0x39c27a10	0.00037093507
9	0x3a08a8ef	0.00052131613
10	0x3a0789d0	0.0005170377
11	0x3a058430	0.0005093245
12	0x3a0678c8	0.0005129692
13	0x3a0464b9	0.0005050409
14	0x3a014757	0.000493159
15	0x3a02014c	0.00049592997
16	0x3a010c10	0.0004922757
17	0x39fbdc28	0.0004803848

exp_avg_sq f4 [2, 1, 3, 3]
0	0x38cb30b7	9.688868e-05
1	0x3837930a	4.376754e-05
2	0x37ccbb3a	2.440588e-05
3	0x38b8cb88	8.811714e-05
4	0x3878a988	5.9285696e-05
5	0x375342e6	1.2592156e-05
6	0x3920d877	0.00015339429
7	0x360e290a	2.1183537e-06
8	0x38707762	5.7331643e-05
9	0x36838121	3.919137e-06
10	0x368533d3	3.969742e-06
11	0x36791c0b	3.7120215e-06
12	0x367b1126	3.7411896e-06
13	0x367bb26d	3.7505772e-06
14	0x3669ef4b	3.4858992e-06
15	0x3661120f	3.3538124e-06
16	0x3665a92b	3.4222128e-06
17	0x3654fd94	3.1738064e-06

exp_avg f4 [4, 1, 3, 3]
0	0x38efeb4d	0.00011440236
1	0x38efa9a8	0.00011428009
2	0x38e9dd8d	0.00011151573
3	0x38f2073c	0.00011540807
4	0x38f1728c	0.000115131115
5	0x38ecd0d4	0.00011292254
6	0x38f00e35	0.00011446738
7	0x38ec6ca1	0.00011273591
8	0x38ea53ac	0.000111735746
9	0xbb43e783	-0.002989263
10	0xb9fb16ff	-0.00047891584
11	0xbaf4bfc5	-0.0018672874
12	0xba74e17f	-0.0009341463
13	0xbab0ba6f	-0.0013483296
14	0xb92a3141	-0.00016230812
15	0xba6e97de	-0.00091016095
16	0xb99f2e47	-0.00030361323
17	0x38d50091	0.00010156737
18	0xb901b800	-0.00012370944
19	0xb902cb71	-0.00012473554
20	0xb901b9ef	-0.00012371664
21	0xb901d48c	-0.00012381579
22	0xb902c239	-0.0001247012
23	0xb901c1e5	-0.0001237463
24	0xb9003a48	-0.00012228743
25	0xb900f27e	-0.00012297367
26	0xb8ff3154	-0.000121685356
27	0x39184594	0.0001452177
28	0x391a0ec4	0.00014692085
29	0x3916fcfc	0.00014399359
30	0x39196b79	0.00014631254
31	0x3918fd6d	0.00014590258
32	0x3918f883	0.00014588427
33	0x3916b13b	0.00014371138
34	0x39171b9a	0.00014410765
35	0x3914cbce	0.00014190303

exp_avg_sq f4 [4, 1, 3, 3]
0	0x34ee5b39	4.4397328e-07
1	0x34ef03dd	4.452003e-07
2	0x34d82a59	4.0263947e-07
3	0x34faf8e2	4.6747215e-07
4	0x34f8c777	4.633873e-07
5	0x34e43600	4.25076e-07
6	0x34fa98e6	4.6677377e-07
7	0x34f86a43	4.6270915e-07
8	0x34e35eb8	4.2350962e-07
9	0x3924b7b8	0.000157087
10	0x3787c990	1.6187114e-05
11	0x38fe9503	0.000121394194
12	0x3825a8aa	3.9496146e-05
13	0x384875d8	4.7793466e-05
14	0x37cb16ba	2.4210069e-05
15	0x381a96c7	3.6856884e-05
16	0x37ae318c	2.0765488e-05
17	0x37b47317	2.1511265e-05
18	0x34de646c	4.142379e-07
19	0x34e965b6	4.3473636e-07
20	0x34e801a3	4.3214558e-07
21	0x34e09309	4.1830233e-07
22	0x34eebb80	4.446738e-07
23	0x34ef01c0	4.4518492e-07
24	0x34da9b6f	4.0718757e-07
25	0x34e9b40b	4.353063e-07
26	0x34ea01eb	4.3587292e-07
27	0x3510c78e	5.393457e-07
28	0x35135481	5.4884737e-07
29	0x3510ff69	5.401585e-07
30	0x35164f53	5.5994786e-07
31	0x3519707e	5.716064e-07
32	0x35156ecb	5.566805e-07
33	0x35136b4e	5.4917916e-07
34	0x3515ebdd	5.585005e-07
35	0x3512c729	5.4679055e-07

exp_avg f4 [8, 1, 3, 3]
0	0x385eb757	5.3099673e-05
1	0x38615e2a	5.3731877e-05
2	0x385923c9	5.177016e-05
3	0x386056d2	5.348662e-05
4	0x385e9dba	5.307582e-05
5	0x385b42de	5.2275944e-05
6	0x385b2a24	5.2252915e-05
7	0x385d86b0	5.2815943e-05
8	0x38555e34	5.087089e-05
9	0x37c2e170	2.323158e-05
10	0x37c5d799	2.3584626e-05
11	0x37c2a3c7	2.3202867e-05
12	0x37c4fc38	2.348247e-05
13	0x37c82185	2.3857467e-05
14	0x37bf6390	2.2815337e-05
15	0x37c85fec	2.3886525e-05
16	0x37bf8c66	2.2834352e-05
17	0x37c22561	2.3144008e-05
18	0x39f3d6b7	0.00046508547
19	0xb947a3af	-0.00019039096
20	0xb8f5f2c2	-0.000117277275
21	0x3a0e2361	0.0005422142
22	0xb991518f	-0.0002771732
23	0xb891de2e	-6.955523e-05
24	0x39e95ff0	0.00044512702
25	0xb8f30595	-0.00011588183
26	0xb8fc0015	-0.00012016312
27	0xbb7f58b3	-0.003896278
28	0xbb2e04e5	-0.002655321
29	0xbb316f03	-0.0027074225
30	0xbb41eb3e	-0.0029589678
31	0xbb4fbb9f	-0.0031697524
32	0xbac12e49	-0.0014738525
33	0xbb619033	-0.0034418225
34	0xbac50c6e	-0.0015033612
35	0xbb1d82ab	-0.0024034183
36	0x387506ed	5.8419002e-05
37	0x3879c6c5	5.9551345e-05
38	0x3877d212	5.9085032e-05
39	0x3878cb70	5.9317274e-05
40	0x387dc595	6.0503913e-05
41	0x387b4056	5.990298e-05
42	0x387a6e5d	5.970743e-05
43	0x387eb48c	6.0726466e-05
44	0x387b3264	5.9889993e-05
45	0xb885d9a8	-6.382476e-05
46	0xb8862488	-6.3964224e-05
47	0xb8833966	-6.257258e-05
48	0xb886ed7c	-6.433853e-05
49	0xb887911c	-6.46433e-05
50	0xb884c149	-6.330253e-05
51	0xb886499b	-6.403328e-05
52	0xb8872504	-6.444196e-05
53	0xb8848cac	-6.320453e-05
54	0x38c0bf71	9.190932e-05
55	0x38c26724	9.269852e-05
56	0x38c12e8c	9.211627e-05
57	0x38c3b670	9.332306e-05
58	0x38c4ad7b	9.3783216e-05
59	0x38c3eb7c	9.342187e-05
60	0x38c2f130	9.2955655e-05
61	0x38c3aa6f	9.33007e-05
62	0x38c24b27	9.264639e-05
63	0xb84e242f	-4.9147926e-05
64	0xb8504de9	-4.9663624e-05
65	0xb84c99cf	-4.8780636e-05
66	0xb8501599	-4.961118e-05
67	0xb84e08bf	-4.9122373e-05
68	0xb84e4ba7	-4.9184684e-05
69	0xb84cb9d2	-4.881045e-05
70	0xb84cfe43	-4.887419e-05
71	0xb84c36e9	-4.868853e-05

exp_avg_sq f4 [8, 1, 3, 3]
0	0x34546652	1.9781262e-07
1	0x3462089b	2.1051021e-07
2	0x346720bc	2.152546e-07
3	0x3450a37d	1.9430986e-07
4	0x345dbf7b	2.0651889e-07
5	0x3462fcb2	2.113982e-07
6	0x3449c858	1.8792468e-07
7	0x344f0fa1	1.9284063e-07
8	0x345b5fa9	2.0430765e-07
9	0x343d8247	1.7649391e-07
10	0x344d5fc0	1.9126946e-07
11	0x3453cddb	1.9725796e-07
12	0x344e5ad8	1.9218294e-07
13	0x3460ceaa	2.093681e-07
14	0x3466d6f4	2.1498619e-07
15	0x3452f2c4	1.9646092e-07
16	0x3462f507	2.113703e-07
17	0x346cdcd7	2.2059554e-07
18	0x367ea24d	3.794342e-06
19	0x35d3ce8a	1.5780836e-06
20	0x35fd2950	1.8861992e-06
21	0x36b6f74a	5.452811e-06
22	0x3650287d	3.1017983e-06
23	0x36482f4a	2.9829848e-06
24	0x3653b94e	3.1549312e-06
25	0x354f4b89	7.722343e-07
26	0x35fa62c1	1.8655193e-06
27	0x38b40fc5	8.586006e-05
28	0x3884a616	6.3251864e-05
29	0x38869f04	6.419237e-05
30	0x38927dd8	6.985263e-05
31	0x38b4fde6	8.630361e-05
32	0x38db6298	0.00010461098
33	0x38f7196a	0.000117826115
34	0x389a7578	7.3651725e-05
35	0x38891cf5	6.538063e-05
36	0x33c6fd69	9.2661885e-08
37	0x33d4ab6a	9.903199e-08
38	0x33d3edde	9.868721e-08
39	0x33d116c4	9.736462e-08
40	0x33e07d55	1.04536106e-07
41	0x33df4209	1.03962584e-07
42	0x33d6fb0e	1.0010818e-07
43	0x33e54c53	1.0677527e-07
44	0x33e1ad6b	1.05089235e-07
45	0x33b61935	8.4796206e-08
46	0x33b72ea4	8.5300854e-08
47	0x33aaf6c2	7.961127e-08
48	0x33bbe8ac	8.750189e-08
49	0x33c0b0ce	8.972857e-08
50	0x33b69628	8.502349e-08
51	0x33ba72b8	8.682167e-08
52	0x33c1bc28	9.021488e-08
53	0x33b91e56	8.620252e-08
54	0x3438bbd0	1.7204661e-07
55	0x343adc3f	1.7402725e-07
56	0x3434cd3e	1.6838473e-07
57	0x344164f9	1.801126e-07
58	0x34432612	1.817464e-07
59	0x343d23b7	1.761499e-07
60	0x3441a139	1.8033178e-07
61	0x344333c1	1.8179618e-07
62	0x343cade0	1.757212e-07
63	0x342782a5	1.5600615e-07
64	0x3428ccb2	1.5720687e-07
65	0x3425edec	1.5453378e-07
66	0x342cd0cb	1.6094707e-07
67	0x342fe0c2	1.6379911e-07
68	0x342b78fc	1.596963e-07
69	0x342d4571	1.6137143e-07
70	0x342fb32c	1.6363327e-07
71	0x342b9f70	1.5983619e-07

exp_avg f4 [16, 1, 3, 3]
0	0xb7b950ca	-2.2091339e-05
1	0xb7b67c5f	-2.1754006e-05
2	0xb7b9bd53	-2.214188e-05
3	0xb7bd81aa	-2.2590935e-05
4	0xb7b91257	-2.2062259e-05
5	0xb7bd9c55	-2.2603354e-05
6	0xb7b9dfee	-2.2157994e-05
7	0xb7bc7441	-2.2465481e-05
8	0xb7bac9c3	-2.226688e-05
9	0xb64d3fae	-3.0584447e-06
10	0xb5f2a50c	-1.807844e-06
11	0xb66c94f7	-3.525345e-06
12	0xb63d4a33	-2.8206384e-06
13	0xb628eac4	-2.5170602e-06
14	0xb6478373	-2.9729824e-06
15	0xb66a2d6d	-3.4895158e-06
16	0xb616d466	-2.2475374e-06
17	0xb6533263	-3.147078e-06
18	0xb5235fd3	-6.0861674e-07
19	0xb491b71f	-2.7141593e-07
20	0x34ab2128	3.1875356e-07
21	0xb521fce0	-6.0345155e-07
22	0xb4adbcb2	-3.2361055e-07
23	0x34295a0f	1.5772115e-07
24	0xb508d43c	-5.097279e-07
25	0xb45b46e4	-2.0421754e-07
26	0x33e8bfb9	1.0838216e-07
27	0xb75ffb00	-1.3350276e-05
28	0xb75de8a4	-1.3226792e-05
29	0xb75a6032	-1.301621e-05
30	0xb7521665	-1.25221895e-05
31	0xb74dc733	-1.2265332e-05
32	0xb749e59f	-1.2033996e-05
33	0xb742546d	-1.1582958e-05
34	0xb73b268e	-1.1155045e-05
35	0xb738368c	-1.0979955e-05
36	0xb821176f	-3.8407215e-05
37	0xb7d79dab	-2.5703417e-05
38	0xb82da1eb	-4.1397212e-05
39	0xb834743c	-4.3023596e-05
40	0xb7ba0a9e	-2.2177872e-05
41	0xb843cc2f	-4.6681784e-05
42	0xb8149eca	-3.5433834e-05
43	0xb7d6c5cd	-2.5602896e-05
44	0xb8100e91	-3.434584e-05
45	0xb80708bf	-3.2194654e-05
46	0x39a98d85	0.00032339632
47	0xb342d539	-4.536307e-08
48	0xb92a83b5	-0.00016261528
49	0x39c01d16	0.00036642764
50	0xb90f5a67	-0.0001367122
51	0xb6f68f5e	-7.3480614e-06
52	0x39b86c18	0.0003517575
53	0x37cb8672	2.4262092e-05
54	0xba2c5a3b	-0.00065747247
55	0xba87c610	-0.001035871
56	0xb988994f	-0.00026054165
57	0xba570899	-0.000820288
58	0xbaad9532	-0.0013243316
59	0xb9d954ba	-0.00041452592
60	0xba268c28	-0.00063532824
61	0xba7e64fc	-0.0009704379
62	0xb97b0b5c	-0.00023941457
63	0x39f1bd99	0.00046108363
64	0xba006bba	-0.0004898865
65	0x39d0db0a	0.00039836048
66	0xb9c2f0ed	-0.00037182067
67	0x39dcae6f	0.00042091633
68	0xb9b8c8c9	-0.0003524481
69	0x39206a29	0.00015298337
70	0xb8b3eb4e	-8.579214e-05
71	0xb728ad4f	-1.0053932e-05
72	0xb8021c11	-3.1020554e-05
73	0xb803b3cc	-3.1400283e-05
74	0xb8018f08	-3.0889205e-05
75	0xb8045bc5	-3.155672e-05
76	0xb805bb3d	-3.188405e-05
77	0xb802ca58	-3.1182863e-05
78	0xb8044c2d	-3.1542197e-05
79	0xb804e5fb	-3.168544e-05
80	0xb8014de9	-3.0828556e-05
81	0xb6d7f9db	-6.4365863e-06
82	0xb6d76e8f	-6.42037e-06
83	0xb6cf2477	-6.173326e-06
84	0xb6d6bf87	-6.3999937e-06
85	0xb6d75b21	-6.418108e-06
86	0xb6d094ea	-6.216219e-06
87	0xb6d44a10	-6.3267144e-06
88	0xb6d60c77	-6.379148e-06
89	0xb6d0d976	-6.224199e-06
90	0xb7fcb1f1	-3.0123601e-05
91	0xb7fae62f	-2.990951e-05
92	0xb7f5cd47	-2.9301866e-05
93	0xb7fdb1a0	-3.0242663e-05
94	0xb7fba9fd	-3.0000689e-05
95	0xb7f607b8	-2.932908e-05
96	0xb7fa2c8a	-2.9823063e-05
97	0xb7f83670	-2.9589253e-05
98	0xb7f29993	-2.8920162e-05
99	0xb6b4149e	-5.366818e-06
100	0xb6b29a66	-5.3227877e-06
101	0xb6aa71be	-5.079636e-06
102	0xb6b1c084	-5.297423e-06
103	0xb6b1687e	-5.2871756e-06
104	0xb6ab983f	-5.113921e-06
105	0xb6b011e6	-5.2472924e-06
106	0xb6af8e9a	-5.2320074e-06
107	0xb6ab5b26	-5.106808e-06
108	0xb6a842fc	-5.014588e-06
109	0xb6a73887	-4.9835685e-06
110	0xb6a2393a	-4.8346383e-06
111	0xb6ab2c52	-5.1013567e-06
112	0xb6ac84e2	-5.141469e-06
113	0xb6a8081c	-5.007734e-06
114	0xb6a5479e	-4.9257205e-06
115	0xb6a5e5c6	-4.9441323e-06
116	0xb6a2161f	-4.8305515e-06
117	0x373ee26a	1.1377599e-05
118	0x37433fdc	1.1637774e-05
119	0x3742b221	1.1604775e-05
120	0x374460e3	1.1705069e-05
121	0x37487ee6	1.1950475e-05
122	0x3747a0c3	1.1898755e-05
123	0x373f3d25	1.13987235e-05
124	0x37436d65	1.1648376e-05
125	0x37425cf0	1.158494e-05
126	0x3779a278	1.4879384e-05
127	0x3779d821	1.4891878e-05
128	0x3779a42c	1.4879781e-05
129	0x37799dd9	1.4878308e-05
130	0x377a0a29	1.4903527e-05
131	0x3779ae9c	1.4882211e-05
132	0x37776884	1.4746682e-05
133	0x3777c681	1.4768565e-05
134	0x37773f1b	1.473704e-05
135	0xb716a0db	-8.978149e-06
136	0xb7159e12	-8.917896e-06
137	0xb715c12f	-8.926071e-06
138	0xb7179d84	-9.036976e-06
139	0xb71532d1	-8.892924e-06
140	0xb7177083	-9.0264975e-06
141	0xb71478c5	-8.849606e-06
142	0xb715bdb2	-8.925259e-06
143	0xb71531ff	-8.892733e-06

exp_avg_sq f4 [16, 1, 3, 3]
0	0x32e9d303	2.7220727e-08
1	0x32ef67f5	2.7870536e-08
2	0x32eed82a	2.7805147e-08
3	0x32f313c2	2.8297908e-08
4	0x32f93903	2.9013341e-08
5	0x32f99d7a	2.9059027e-08
6	0x32f1f45a	2.816721e-08
7	0x32fb8877	2.9282303e-08
8	0x32fa32ea	2.9126983e-08
9	0x335c25e4	5.1257203e-08
10	0x3353325f	4.9173078e-08
11	0x335b4653	5.105387e-08
12	0x336080bc	5.2271147e-08
13	0x335f16b1	5.194187e-08
14	0x335e8200	5.1806637e-08
15	0x3367307c	5.3827975e-08
16	0x335fee2f	5.213786e-08
17	0x3362c29d	5.2796725e-08
18	0x32b00ce3	2.0494957e-08
19	0x32a9858a	1.9734916e-08
20	0x3299543d	1.7849851e-08
21	0x32aed123	2.035137e-08
22	0x32a77eda	1.9499044e-08
23	0x329853ea	1.7733289e-08
24	0x32a52376	1.9224654e-08
25	0x329c5333	1.8198625e-08
26	0x32902fb9	1.6785508e-08
27	0x32bdcf5b	2.209679e-08
28	0x32bf4092	2.226469e-08
29	0x32b73806	2.132948e-08
30	0x32b41916	2.0966166e-08
31	0x32b44a2c	2.0988487e-08
32	0x32ac8614	2.0084407e-08
33	0x32a263ab	1.8904606e-08
34	0x32a13137	1.8765247e-08
35	0x329a704d	1.7979028e-08
36	0x34a8b52f	3.1424267e-07
37	0x341377ff	1.3734096e-07
38	0x34c03b90	3.5806124e-07
39	0x34bf4742	3.562837e-07
40	0x3409afbd	1.2823052e-07
41	0x34db30cc	4.0827433e-07
42	0x3490aafd	2.69465e-07
43	0x340b0df6	1.2950463e-07
44	0x34957bd3	2.7843507e-07
45	0x3519c525	5.7283825e-07
46	0x361e82cb	2.3619966e-06
47	0x34ffaeed	4.7624727e-07
48	0x35e88d91	1.7326548e-06
49	0x366054e7	3.342802e-06
50	0x35d4da5e	1.5858784e-06
51	0x34ffa54f	4.761773e-07
52	0x3630e9de	2.6362172e-06
53	0x34c8bb28	3.7389077e-07
54	0x3731330c	1.0561907e-05
55	0x37d30a56	2.5157973e-05
56	0x37271a59	9.96011e-06
57	0x37632eb9	1.3541133e-05
58	0x381356ec	3.5128483e-05
59	0x3784ca92	1.5829955e-05
60	0x370b1f24	8.292296e-06
61	0x37c1add0	2.308833e-05
62	0x373b51eb	1.1165142e-05
63	0x370ab2d5	8.267079e-06
64	0x372770d0	9.980242e-06
65	0x36ec99b3	7.051241e-06
66	0x369322e0	4.3850014e-06
67	0x36ab5e11	5.107148e-06
68	0x367b7c3b	3.7474226e-06
69	0x3435407d	1.68804e-07
70	0x348bb6b5	2.6023704e-07
71	0x355d781c	8.25037e-07
72	0x328bff90	1.6297946e-08
73	0x329001b7	1.6764586e-08
74	0x328a3e07	1.6093521e-08
75	0x32923917	1.7022598e-08
76	0x3296216f	1.7477502e-08
77	0x328e930b	1.6597843e-08
78	0x3291f847	1.6993125e-08
79	0x329432f3	1.7252637e-08
80	0x328b6196	1.6226107e-08
81	0x32503e32	1.2121335e-08
82	0x326590d6	1.3362486e-08
83	0x325e083c	1.2923973e-08
84	0x325599e3	1.2433222e-08
85	0x3269ce97	1.3609358e-08
86	0x325f76f9	1.300736e-08
87	0x324c44d9	1.1890017e-08
88	0x325d7888	1.2891299e-08
89	0x32527597	1.2250346e-08
90	0x329d92d6	1.8343979e-08
91	0x32960862	1.746611e-08
92	0x32899154	1.6014987e-08
93	0x329e3356	1.8416966e-08
94	0x3296deea	1.7563668e-08
95	0x328a1751	1.6075917e-08
96	0x32979368	1.7645746e-08
97	0x32912d91	1.6900943e-08
98	0x32854f8c	1.5519412e-08
99	0x32278aa7	9.752205e-09
100	0x32391fb9	1.077563e-08
101	0x323b625d	1.0907198e-08
102	0x3222520f	9.448299e-09
103	0x32338ee4	1.0451661e-08
104	0x3238323d	1.07216325e-08
105	0x3215aea9	8.712655e-09
106	0x322547d7	9.6205985e-09
107	0x322c6226	1.0034034e-08
108	0x32bc967b	2.1954511e-08
109	0x32be52d2	2.2156573e-08
110	0x32b8781d	2.147504e-08
111	0x32c094d4	2.2419421e-08
112	0x32c2b96b	2.266889e-08
113	0x32bc7d8d	2.1943174e-08
114	0x32bbc6e5	2.1860112e-08
115	0x32bd2fc7	2.2024222e-08
116	0x32b6f1d2	2.1297556e-08
117	0x3321b856	3.7653386e-08
118	0x3325e4ac	3.8625032e-08
119	0x332434ea	3.823235e-08
120	0x3327150e	3.8901867e-08
121	0x332b5d3b	3.9898833e-08
122	0x332985b1	3.946997e-08
123	0x3324e744	3.839456e-08
124	0x33291bae	3.9373553e-08
125	0x33273986	3.8935035e-08
126	0x329a057c	1.7930454e-08
127	0x32a12418	1.875928e-08
128	0x32a279fa	1.891475e-08
129	0x329a1424	1.7937118e-08
130	0x32a04b8e	1.866081e-08
131	0x32a1be53	1.8829416e-08
132	0x329422df	1.7245325e-08
133	0x3299e40b	1.7915246e-08
134	0x329b466f	1.8076404e-08
135	0x32b09da4	2.0560783e-08
136	0x32b39b47	2.0908955e-08
137	0x32b0692a	2.053692e-08
138	0x32b0dc05	2.058915e-08
139	0x32b49bdb	2.1025633e-08
140	0x32b0d757	2.0587022e-08
141	0x32ac8e3a	2.0088113e-08
142	0x32aeff74	2.0372433e-08
143	0x32aca0b9	2.0096524e-08
