Experiments/Experiments-018/checkpoints/model.pt (torch, 163559 bytes, 33 tensors)

cp.convs.0.weight f4 [2, 1, 3, 3]
000000 ef 52 f2 3d d0 f3 13 3e 4a 39 96 3e 26 79 b9 3d
       0.118322246 0.14448476 0.29340583 0.0905631
000010 99 18 71 3d 6f da fb 3d a0 6a 8b bd ed c3 a1 3e
       0.05886135 0.12297522 -0.068074465 0.31594792
000020 b5 98 06 bd 99 43 29 3f a4 a8 27 3f 1a 3a a9 3e
       -0.032860477 0.6611877 0.654917 0.3305214
000030 94 45 e1 3d f4 04 63 bf 58 4f 58 bf 46 7e 2b 3e
       0.10999599 -0.8867943 -0.8449607 0.16747388
000040 ab 14 b5 bd b9 ec be bd
       -0.08841833 -0.09322495

cp.convs.1.weight f4 [4, 1, 3, 3]
000000 a6 74 6e 3e fa 68 80 bd eb 8c a7 3e 9e 0e a6 bc
       0.23286685 -0.06270023 0.327247 -0.020270642
000010 6c a4 30 be df 12 18 3e a6 8c d6 3e 3d 44 8e 3d
       -0.17250222 0.14850949 0.4190418 0.06946609
000020 ee ff ff 3d 6a 49 4f be 80 d7 b9 bd 83 4e ac be
       0.124999866 -0.20242849 -0.090743065 -0.3365365
000030 39 af 5d be 0e 24 b3 be 7f 7f d0 3d 88 ec 40 be
       -0.21648873 -0.34988445 0.10180568 -0.1884023
000040 ee 83 91 be 97 03 78 3e e8 c3 c2 bd f8 ce 80 be
       -0.28420967 0.2422012 -0.095100224 -0.25157905
000050 a3 63 02 3e 60 87 ac 3e 5e 1c 1e bf b5 58 c3 bd
       0.12733321 0.33697033 -0.61762035 -0.09538404
000060 0e 91 0e bf ca 16 74 3f e0 37 ba 3f e2 a8 62 bd
       -0.55690086 0.95347273 1.4548302 -0.05533684
000070 df 62 69 bd a0 6c 67 3d a2 9b 06 3e 2b 2f 90 be
       -0.056979056 0.056500077 0.13145307 -0.28160986
000080 80 47 0a bc 5e 26 73 bf b5 3c 79 bf e0 51 7f bf
       -0.0084398985 -0.9498042 -0.97358257 -0.99734306

cp.convs.2.weight f4 [8, 1, 3, 3]
000000 ba 11 94 bd 68 a8 8d 3d de 89 8b be 6e c7 52 be
       -0.072299436 0.069168866 -0.27253622 -0.20583889
000010 c1 4f 55 3e e4 95 bd be 6a 10 2b be 49 4c bc be
       0.20831205 -0.3702842 -0.1670548 -0.3677695
000020 22 9c 9d 3d 20 a4 ea 3e 52 80 e4 3d ae d2 75 3e
       0.076957956 0.45828342 0.11157288 0.24006149
000030 8c 86 8c bc e1 4f c0 bc 6d a2 05 3e d3 00 89 3e
       -0.017154 -0.02347559 0.13050242 0.2675844
000040 4b 07 c3 bd a4 d5 17 bc 42 76 78 bd dd 51 57 be
       -0.095228754 -0.0092672445 -0.060659654 -0.21027322
000050 d2 74 a5 3e 4e 0f 08 3e 36 56 12 be f1 2e 86 3e
       0.3231569 0.13287088 -0.142907 0.26207688
000060 16 10 c2 3e 18 54 ef 3d a2 5f 7e 3e 95 c2 71 3e
       0.37902898 0.116859615 0.24841169 0.23609383
000070 9c 81 3c be 8b 6b cb bd 5e 75 50 be 06 e6 99 be
       -0.18408817 -0.099326216 -0.20357272 -0.30058306
000080 31 fd a2 3d 26 b4 5f be 8e c6 7a be c7 ec 0d be
       0.07958449 -0.21846065 -0.24489805 -0.13859855
000090 27 a7 80 bf c7 b7 cc be 4e 57 7b 3f 30 be 36 3d
       -1.0051011 -0.3998396 0.9818009 0.04461497
0000a0 ad a7 3c 3f 32 4b 1e be 9a 4b 13 bf 91 9a e7 be
       0.7369335 -0.15458372 -0.57537234 -0.45235112
0000b0 f6 bf b0 be 85 8e 88 bf 6a eb 99 be 84 dc 59 3e
       -0.34521455 -1.0668494 -0.3006242 0.21275526
0000c0 5f ae b6 be c1 a2 98 3d c3 e5 4d be 73 17 63 be
       -0.3567991 0.07452918 -0.20107178 -0.22176914
0000d0 5d a8 4d bf 4e 13 2e bf 99 a0 f6 3e 61 c2 b7 3e
       -0.80335027 -0.67998207 0.481694 0.35890487
0000e0 fc eb 1b 3d dd 38 bd 3e 7c b0 14 3f da 9b c4 3e
       0.03806685 0.36957446 0.58081794 0.38400155
0000f0 6b ec 8b 3c dc 27 56 3e 20 59 27 3f 63 e5 4e 3f
       0.017080506 0.20913643 0.6537037 0.80818766
000100 4d 7a fc 3e d6 79 bb 3e 57 3f 01 be c6 15 71 bd
       0.49312058 0.3661639 -0.12621818 -0.058858655
000110 2c 9b 6a 3e 8d 58 14 bf 20 81 59 bf af a9 8e be
       0.22910756 -0.5794762 -0.84962654 -0.27863833

cp.convs.3.weight f4 [16, 1, 3, 3]
000000 c9 fa b5 3e 63 27 bd 3e 07 c7 82 3e 3c 66 5f be
       0.35542896 0.36944112 0.2554247 -0.21816343
000010 44 8f 91 3e dc 80 0a 3d 53 55 af 3e 82 20 ff bd
       0.28429615 0.033814296 0.34244785 -0.12457372
000020 27 eb 3c be d8 22 a2 3d c6 38 86 3e b0 37 83 3d
       -0.18449079 0.07916802 0.2621519 0.06407106
000030 3c 0e 23 bb 6b 9f 35 3e 07 1b 52 3e 02 5e 53 3e
       -0.002488031 0.17736594 0.20518123 0.2064133
000040 b0 92 cc 3d 17 52 76 3d d2 56 c5 3d de 30 a0 3e
       0.09988916 0.06013688 0.096357 0.31287283
000050 4a 94 e0 be 35 c0 2e 3e de f5 88 be ea a5 87 bd
       -0.43863136 0.17065509 -0.26750082 -0.066234425
000060 71 c6 c6 be 3c 52 cc bd 32 be b7 be a2 5b cf 3e
       -0.38823274 -0.099766225 -0.35887295 0.40499598
000070 47 ad 06 be dc 45 24 bd 4b f6 19 3e 3e 29 19 3e
       -0.13152038 -0.040105686 0.1503536 0.14957139
000080 36 55 cb 3e d4 b6 aa 3e 12 8d d8 bd b0 fa ef bd
       0.39713448 0.33342612 -0.10573782 -0.11717737
000090 ed d3 11 3d b8 7a 9e 3e 6e 7c c4 3e 6e 14 8b 3e
       0.0356025 0.30953002 0.38376182 0.27164024
0000a0 23 14 5e be 9d 77 43 be 8a c2 1d 3d 86 eb 5f 39
       -0.21687369 -0.19088598 0.038515605 0.00021354677
0000b0 96 67 82 3e 49 94 0e 3e fa 99 0b 3e 1c 6b 82 be
       0.25469655 0.13923754 0.13632956 -0.25472343
0000c0 6c 1d 4e 3e 2f cf 09 be 20 44 a8 be 7d ac c9 be
       0.20128411 -0.1345794 -0.32864475 -0.3938941
0000d0 eb 23 b0 be c6 a6 59 bc 25 a2 0b 3e 32 25 7a bd
       -0.34402403 -0.013284391 0.13636072 -0.06107063
0000e0 74 77 b4 3e 54 16 52 be e2 5d e8 3d c3 34 bc 3e
       0.35247386 -0.2051633 0.11346032 0.36759004
0000f0 89 8a a1 3e 8c 61 74 be 11 d9 80 3e 74 61 1e bd
       0.31551006 -0.23865336 0.2516561 -0.038667157
000100 5b 78 bf be 35 fb 85 3e 56 78 9a be 04 e4 27 be
       -0.3739651 0.26168218 -0.30169934 -0.16395575
000110 86 53 97 be 83 14 55 be 1a 33 6a 3e c9 66 a9 bd
       -0.2955591 -0.20808606 0.22871056 -0.08271558
000120 ed 61 38 3e 2b bc 6b be 3a 70 29 bd 5e 78 43 bf
       0.18006106 -0.23020999 -0.041366793 -0.7635554
000130 1c d0 25 3f 63 7c 71 3f 2d 78 cf 3e 16 c3 b4 be
       0.64770675 0.94330424 0.40521374 -0.3530509
000140 95 e4 70 bf 9d 8e dc bc 94 aa f1 3c cf de 45 bf
       -0.9409879 -0.026923472 0.029500283 -0.77293104
000150 c4 bb 6b 3f f0 77 ab 3e 61 47 00 3d 64 d5 41 bf
       0.9208338 0.33489943 0.031318072 -0.75716233
000160 b2 5f ff be 6d 49 31 3f 6c d7 be be 3c d1 95 be
       -0.49877697 0.69252664 -0.3727373 -0.29261196
000170 d8 8d 46 be 54 4a 69 3c 08 51 2a bf 92 4a 07 bf
       -0.19390047 0.014238913 -0.66529894 -0.5284816
000180 49 8d 6f 3e 26 13 40 bd 78 88 13 bf 03 15 f0 be
       0.2339374 -0.04689326 -0.5763011 -0.4689103
000190 0a 91 12 bf 86 37 a8 bd 1c a3 3a 3f 6b c1 77 3f
       -0.5725256 -0.08213715 0.72905135 0.9677951
0001a0 a5 83 9e 3e 2f b3 f8 be 9d 88 14 bf d9 b9 2f be
       0.30959812 -0.48574206 -0.58020955 -0.17160739
0001b0 72 77 56 3d 53 67 48 be 3e f3 ba be 31 6b c9 be
       0.052360006 -0.19570665 -0.36513704 -0.39339593
0001c0 cf dd bb 3c fc fd 91 bd 3f b5 92 be 2d 3c b1 be
       0.022932915 -0.07128522 -0.28653905 -0.34616223
0001d0 16 46 cc bd 93 c1 b3 be e3 54 d3 bd 9c f2 11 be
       -0.09974305 -0.35108623 -0.10318925 -0.14252704
0001e0 dc d2 dc 3d f0 9f 79 bb 9f a9 ce 3d 5d 97 4c be
       0.10782406 -0.0038089715 0.100909464 -0.19979616
0001f0 66 d7 95 be 22 fb b8 bd 55 9f 4a 3f a6 c6 30 3c
       -0.29265898 -0.09032275 0.7914937 0.010789549
000200 86 40 ae 3d e7 86 db 3e a3 da 5a 3e bf 6d 0b 3e
       0.085084006 0.4287636 0.21372466 0.13616084
000210 57 f6 81 bc 58 28 d9 3e 45 60 11 3f d6 e2 dc 3d
       -0.015864534 0.42413592 0.5678752 0.10785453
000220 ed 11 5b be 60 b4 4f be 3f dc 2f 3e 60 fd 82 be
       -0.21393557 -0.20283651 0.17173861 -0.25583935
000230 c7 52 12 bf 9a c7 ad be 83 ff 1e bf 75 69 9f be
       -0.5715756 -0.33941346 -0.6210863 -0.31135145

_mlp.0.weight f4 [64, 60]
000000 a3 5d ca bd 9e 13 fc bc 87 1b ad bd cd 34 5a 3d
       -0.09881141 -0.030771073 -0.08452516 0.05327301
000010 0c f8 9e bd 9b bb 12 3d c9 1c 96 bd 3c 22 4a bd
       -0.07762155 0.035823446 -0.07329709 -0.049349055
000020 8e d4 96 bd cf 74 84 bd f9 72 76 bd 61 72 97 bd
       -0.0736476 -0.06467592 -0.06016824 -0.07394863
000030 32 e1 83 bd d6 d0 91 bd 0b f0 d1 bd 00 1d b3 3a
       -0.06439437 -0.071199104 -0.10250863 0.0013665259
000040 9e 78 9d 3e c0 0f 64 be f1 3a c7 be a1 bb bc bd
       0.30756086 -0.22271633 -0.38912156 -0.09215475
000050 0e a8 16 3c 3f c3 15 be 0a 97 ad 3c 2e d0 f8 3d
       0.009195341 -0.14625262 0.021190185 0.12149082
000060 7b 63 75 3e c2 d4 ba 3c df 56 ae be b5 1d 5a bc
       0.2396373 0.022806529 -0.34050652 -0.013312747
000070 38 71 7a bd ba 4b 11 bd 32 95 35 bc 1c 1e 03 be
       -0.06114313 -0.03547261 -0.011082934 -0.12804455
000080 76 80 3a 3d 22 93 40 3d d1 7c 9d bc 8c 13 1b bc
       0.045532666 0.047015317 -0.019224556 -0.00946511
000090 8b 23 eb 3e c0 a1 9b 3e 65 5f 38 be 8e 13 60 3e
       0.45925555 0.30396843 -0.1800514 0.2188246
0000a0 db 97 01 3e b3 8d a1 bc c5 14 e7 be cf f3 9e 3e
       0.12655585 -0.019720888 -0.45133033 0.31045386
0000b0 53 ae 87 3d 31 b3 14 be ac 75 c2 bd 3d ab 1a bd
       0.066250466 -0.14521481 -0.094951004 -0.03776096
0000c0 91 7a 80 bd ad e0 d0 bd 1a f2 19 3d e2 a1 31 bd
       -0.06273378 -0.101991035 0.0375844 -0.043367274
0000d0 8b 52 ec 3e cc e8 8b 3e c4 ef 95 be ff 92 94 3e
       0.46156725 0.27326047 -0.2928449 0.290184
0000e0 1d 80 5e 3e 87 ed 12 3e e8 57 09 bf d6 80 77 3e
       0.21728559 0.14348422 -0.5364976 0.24170241
0000f0 df 43 09 3e 9f 81 0b 3f 92 a2 37 3e 9b 96 17 3f
       0.13404797 0.5449466 0.1793311 0.5921418
000100 79 19 bf 3d 12 4a 5c be da 62 48 3e 16 36 24 3e
       0.093310304 -0.2151263 0.19568959 0.16036257
000110 0c 98 a0 3d ef a9 72 bc 78 f6 62 3e d6 fc 4d 3e
       0.07841501 -0.014811023 0.22164333 0.2011598
000120 c5 6f fc 3c 48 f8 e8 3d 50 2e 2c be 89 08 da bc
       0.030815015 0.11375481 -0.16814542 -0.026615398
000130 04 68 b1 3d e0 bf 28 3e f4 7f b9 be ef 23 fd 3c
       0.086624175 0.16479445 -0.36230433 0.030900924
000140 4c 00 63 3e ee 92 19 3e 58 b1 4e bd f4 b2 2f be
       0.22168082 0.14997455 -0.050462097 -0.17158109
000150 26 9a 9f bb 59 11 a8 3d fa f6 10 be ba a7 b0 bd
       -0.004870671 0.08206434 -0.14156714 -0.08625741
000160 67 b2 3c 3e f2 8c dc 3c f4 cf 7d bb 91 7f fa 3c
       0.1842743 0.026922677 -0.0038728686 0.030578407
000170 6f 7e 20 3e 36 39 c1 bd 20 50 46 3d 92 8c 94 3d
       0.1567323 -0.0943474 0.048416257 0.07253374
000180 6d a9 5a be 20 5d 9f bd d0 39 73 3c 75 4c e9 bd
       -0.21353693 -0.07781434 0.014845327 -0.11391536
000190 33 84 81 be 04 10 a8 bd 68 e8 3e 3e 72 6f 44 be
       -0.25296172 -0.0820618 0.18643343 -0.19183138
0001a0 57 08 c9 3d ae 98 87 3d 54 9b 18 3e 52 d1 f9 3d
       0.09816044 0.06620918 0.14903003 0.12198128
0001b0 4e eb 08 3e f3 0b 03 3b f4 a3 a2 3d 55 ce 40 3c
       0.13371012 0.0019996136 0.07941428 0.011767943
0001c0 d0 28 31 be 49 f2 11 be 27 b4 68 3d 10 92 23 be
       -0.17300725 -0.1425258 0.05681243 -0.15973687
0001d0 74 7c 0e be 8e c2 d4 bd 31 94 4e 3c e4 41 0e be
       -0.13914663 -0.10388671 0.012608574 -0.13892323
0001e0 c0 a5 6d 3e 30 4f ff 3e 6a f5 5f 3e a9 17 26 3f
       0.2320776 0.49865103 0.21870962 0.6487985
0001f0 8e f3 22 3e 9c 2d 7b be 4c 68 aa 3e 62 ff a7 3d
       0.15913221 -0.24529117 0.33282697 0.08203007
000200 d3 65 0f 3e 15 1a 43 be 93 6b c7 3e c4 de 90 3e
       0.14003687 -0.19052918 0.3894926 0.28294957
000210 8a 5c d3 3d 28 be 23 3e 81 d9 4c be 90 c7 16 be
       0.10320385 0.15990508 -0.20004846 -0.14724565
000220 9e 92 52 3e df 97 e7 3d 2c 93 5f be ba 6f f2 3d
       0.20563743 0.11308264 -0.21833485 0.118377164
000230 87 59 9a 3e 9a eb c2 3d e7 8f 3e bd 18 52 4a bd
       0.3014643 0.09517594 -0.046523955 -0.049394697
000240 6f ad de 3d 81 49 ea 3d 4e 64 7b be 06 dd 21 3e
       0.108729236 0.11439801 -0.24549982 0.1580697
000250 68 d9 ff 3d d5 41 fa 3c cd aa a5 3b b1 c9 d9 3d
       0.12492639 0.03054897 0.0050557614 0.10634173
000260 f5 b3 07 3e 13 69 30 be 1b ba 03 bb 0a d3 20 be
       0.13252242 -0.17227583 -0.0020099941 -0.15705505
000270 13 a4 90 bc 31 00 ce 3d 28 0f 4a be 25 6f b9 bd
       -0.017656362 0.1005863 -0.19732344 -0.09054402
000280 c6 b5 f0 be 49 4b da bc 19 a5 22 3e d7 38 cc 3d
       -0.47013682 -0.026647227 0.15883292 0.09971779
000290 2d e8 a1 3e 3e 16 0a 3e 79 bc c4 3d 81 12 67 3e
       0.3162245 0.13485047 0.09606261 0.22565652
0002a0 c9 84 d1 3d 26 e8 dc bd 0a a9 cf bb f3 31 f1 bd
       0.10230405 -0.10786466 -0.0063372897 -0.11777105
0002b0 ab a7 da 3c 9c f5 88 bd c4 52 53 be 8b 1b 86 bc
       0.026691278 -0.06687471 -0.20637041 -0.016370555
0002c0 6e 9e f5 be ff 87 34 bd 4e 5d 88 3d a2 3e 03 3d
       -0.47972435 -0.04407501 0.066584215 0.032042153
0002d0 d3 98 2c 3e 56 bd 6d 3e 0f ee 40 3e a8 4c 52 3e
       0.16855173 0.23216757 0.18840812 0.20537055
0002e0 e2 c7 c8 3d 55 08 8c 3d d4 7c 3a 3e c8 fb 4d 3d
       0.098037496 0.06837527 0.1821168 0.050288945
0002f0 1f b9 49 3d 81 d5 f0 bd 70 73 c0 3d 06 aa 2d 3d
       0.04924881 -0.11759473 0.09397018 0.042398475
000300 a6 84 c7 bc 79 4b ac 3d a4 85 28 3c e2 be a5 bd
       -0.024355244 0.08412833 0.010285769 -0.08093049
000310 9c c0 5b 3d 6e fb dd 3c b5 60 39 be 8e db f7 bd
       0.053650483 0.02709743 -0.18103297 -0.121024236
000320 7a ad aa 3d 91 14 82 3c 2a 5e 28 3d 7f 5a 83 bd
       0.08333869 0.015878947 0.041105427 -0.06413745
000330 68 c6 b4 3d 5d d8 30 3e 0d cb 43 be 46 32 11 bd
       0.088269055 0.17270036 -0.19120426 -0.035448335
000340 ab 5b 90 3d 0f e7 8e 3d 27 3e b0 bc 1c c8 30 3e
       0.07048734 0.06977665 -0.021514012 0.17263836
000350 d1 5b 4b 3e b3 e6 d9 3d 55 85 0f 3d ec cd 07 3d
       0.19859244 0.106397055 0.035039265 0.033155367
000360 d3 af 9a 3d 5e b9 1e bd 44 02 00 be c8 bd 22 bd
       0.07553067 -0.038751 -0.12500864 -0.03973177
000370 41 79 d7 bd 8f af 2c 3b 2c bc 8d 3c 98 f3 e8 bd
       -0.10521174 0.0026349758 0.017301641 -0.11374587
000380 79 e2 0c 3e 46 ea 13 3e ef 94 e9 3d b7 42 a2 bc
       0.13758267 0.14444837 0.1140536 -0.019807203
000390 82 27 59 3c 30 ec bc bd 74 8a 95 3c e6 67 4d bd
       0.013254048 -0.09224737 0.018254496 -0.050147913
0003a0 af 43 db bd ac d9 03 3e 1b 23 d0 bd e5 35 b2 3d
       -0.10706269 0.12876004 -0.10162946 0.08701686
0003b0 43 eb dd bd b9 e4 01 be 7f b7 d3 3d c2 e6 e7 b6
       -0.10835888 -0.12684907 0.103377335 -6.9112e-06
0003c0 29 67 55 3e 78 2a 24 3f a6 ea 68 3e 5d b5 01 3f
       0.20840134 0.641273 0.22745761 0.50667363
0003d0 8c 5f c7 3e 33 da e3 be 89 36 a5 3e dd c3 05 3d
       0.38940084 -0.4450241 0.3226817 0.032657493
0003e0 26 9e de 3e 67 93 07 bf 85 fc 8e 3e d8 a0 55 3d
       0.43480033 -0.52959293 0.27927032 0.052155346
0003f0 17 bc 72 3e 94 94 41 3e a3 f0 91 be 65 08 10 bf
       0.23704563 0.18904334 -0.28503904 -0.5626281

_mlp.0.bias f4 [64]
000000 e1 af 35 3e 13 7f 1f bf 36 1f 8a bf ec fb e7 be
       0.17742874 -0.62303275 -1.0790775 -0.4530939
000010 ef af 5e bf 91 03 9e bf 55 b8 c9 be d0 98 ff be
       -0.86987203 -1.2344838 -0.39398447 -0.49921274
000020 5d 2d 1b bf 31 7d 6f bf ad bd fc be 16 eb 14 bf
       -0.60616094 -0.935504 -0.4936346 -0.5817121
000030 4d f0 ac be c0 e0 45 3e cf 54 2b bf 90 86 36 bf
       -0.33777085 0.19324017 -0.6692628 -0.71299076
000040 96 44 23 bf 49 28 44 be d5 3a e2 bd fa 2f 16 bf
       -0.6377653 -0.19155993 -0.110463776 -0.58666956
000050 2f 15 2f bf 52 59 61 be 06 82 9e be 93 03 cf be
       -0.683917 -0.22006729 -0.30958575 -0.40432414
000060 21 3b 31 bf 75 92 a8 be 41 5c f5 be d5 53 1d be
       -0.6923085 -0.32924238 -0.47921947 -0.1536401
000070 20 b8 36 bf a3 e6 e2 be c4 14 60 3e 3b 00 2b bf
       -0.713747 -0.44316587 0.21882921 -0.66797227
000080 d3 56 6d 3d 8a 01 96 be 1a 80 ce be ef db 28 bf
       0.05794413 -0.2929805 -0.4033211 -0.6596059
000090 a4 30 38 bf 71 76 6f bf ec a5 27 bf e3 be 0e bf
       -0.7194922 -0.935401 -0.6548755 -0.5576002
0000a0 4c 63 99 be 48 32 b8 be bb da 22 bf c4 7d 25 bf
       -0.2995857 -0.35975862 -0.63615006 -0.6464503
0000b0 0d 38 68 bf 45 4d 63 be 92 ee 98 bf 17 65 4c bf
       -0.90710527 -0.22197445 -1.1947806 -0.7984175
0000c0 72 29 28 bf 04 d7 4e bf 5e 41 b8 be 51 c2 70 bf
       -0.6568824 -0.8079684 -0.3598737 -0.94046503
0000d0 a2 f7 0d bf f8 7d 3c 3e 02 14 af 3d 82 06 3a bf
       -0.5545598 0.18407428 0.08548738 -0.7266618
0000e0 02 02 db be 52 39 bf bd d7 b4 32 bf a2 d0 a6 be
       -0.4277497 -0.09337105 -0.6980719 -0.3258105
0000f0 bc 7a 20 bf cf 41 25 bf 3a 6f 87 be e6 da 18 bf
       -0.6268728 -0.6455354 -0.26452047 -0.5970901

_mlp.2.weight f4 [64, 64]
000000 fd ce 2b 3c 2b d1 9e bc 31 dd 03 bd c5 28 82 3d
       0.010486362 -0.019386848 -0.032193366 0.063554324
000010 18 8c b0 bc 52 92 bc 3d ea 95 20 bd a8 b9 cb 3c
       -0.021551177 0.09207596 -0.03920547 0.024868801
000020 cc 8f 46 bc 20 9d 2e bd bd 5c 04 3d 3c dc bb bd
       -0.012119245 -0.042630315 0.032315005 -0.09172866
000030 e2 cb 80 bd 21 3e d4 bd ec d5 b3 bd 38 9f 48 bd
       -0.062888876 -0.10363413 -0.08781037 -0.048979968
000040 20 a8 94 3b 5e cf c4 3d 8c fd 00 be f1 b3 b6 3d
       0.0045366436 0.09609865 -0.1259672 0.0892104
000050 cd 88 87 bd 1e 59 c1 3d 00 f6 18 3c 02 ef ab bd
       -0.066178896 0.09440826 0.009335995 -0.083951965
000060 8f 02 26 be e6 e8 84 bd 85 cd ae 3d 1e 67 85 bd
       -0.16211914 -0.06489734 0.085352935 -0.06513809
000070 95 85 32 3d 16 07 5f 3d 45 0c e2 bc cb 2b 82 be
       0.043584425 0.054450117 -0.027593741 -0.25424036
000080 0f ea 78 bd 87 ac b3 3b 40 f2 4b 3c c4 d2 b2 bd
       -0.06077009 0.0054832133 0.012447894 -0.087316066
000090 14 53 ba bd 50 1b 68 bc f9 58 e0 3d 2a d6 d4 bd
       -0.09097877 -0.014166668 0.1095447 -0.10392411
0000a0 b2 97 96 bd f9 4b 1d 3d ac cf 41 bd f0 3b 18 3d
       -0.07353152 0.03840253 -0.047317192 0.037166536
0000b0 82 3b e4 3d cf 3f c3 bd 92 1b fd 3d 68 f5 97 bc
       0.11144163 -0.09533655 0.12358774 -0.018549636
0000c0 c7 9a 30 3d 30 01 8f bd 3e 9a a0 bd d2 22 b9 be
       0.043116357 -0.069826484 -0.07841919 -0.36159378
0000d0 a2 85 63 3d 2e bc ac bd c0 ee 94 be 80 d8 8a 3a
       0.055547364 -0.0843433 -0.29088402 0.0010593086
0000e0 01 de 43 3d ea 20 2a be 80 39 33 bc 2b 1e 68 be
       0.04781914 -0.16614118 -0.010939002 -0.22667758
0000f0 03 b3 02 be b8 7c b6 bc 5c b3 e4 3d 40 7f c1 bb
       -0.127636 -0.022276267 0.111670226 -0.005905062
000100 6a 98 92 3e eb 01 b5 3e 6a 4c e6 bc b0 48 2e 3e
       0.28631908 0.35353026 -0.028112609 0.17019916
000110 05 ca a7 3d a9 d3 8d be 5b 74 63 3d 31 49 2d 3c
       0.08192829 -0.27700546 0.055530887 0.010576532
000120 95 e4 ab 3d 65 96 17 be 78 71 2f 3e 56 73 50 be
       0.08393208 -0.14803465 0.17133129 -0.20356497
000130 bd 1c 0e be b4 de 17 3f 3e 7d d1 be 29 bf 38 3e
       -0.1387815 0.59324193 -0.40915865 0.18041672
000140 ba 38 a3 bd 64 5c 4f 3d 94 82 17 be 91 7b dd bd
       -0.07969804 0.05062522 -0.14795905 -0.10814584
000150 e8 f7 f6 bd ef 54 2c 3e 1f 75 7e bd be 7d 02 be
       -0.12059003 0.16829275 -0.062123414 -0.1274328
000160 a1 94 22 bd 74 f3 7b 3e 97 c9 99 3d e6 9e de 3b
       -0.039692525 0.24604589 0.07509153 0.0067938445
000170 13 42 04 3e 85 94 b5 3d 69 69 7b 3e ad 5e 42 be
       0.1291583 0.088662185 0.2455193 -0.18981428
000180 a8 d8 03 3e 47 64 6a be 33 07 9c be 6b 27 3a bd
       0.12875617 -0.22889815 -0.30474243 -0.04544775
000190 3c 05 4b 3d 61 57 bf bd 1f f5 41 be fb 8c 99 3d
       0.04956554 -0.09342838 -0.18941163 0.07497593
0001a0 0d 33 17 3d 3c d1 be bd 2b db 13 3d c3 42 95 bd
       0.03691392 -0.09317252 0.036097687 -0.072881244
0001b0 86 76 de bd 7e ae 2a 3d 2c 91 e1 bd 8b df 44 3e
       -0.1086245 0.041670315 -0.110140175 0.192259
0001c0 c4 34 3f 3d 1a 32 f7 bc 12 35 09 bc bf 76 20 3e
       0.04668118 -0.030175257 -0.008374469 0.15670298
0001d0 1d a2 8c 3d d8 74 8f 3e 19 f4 32 bf da b7 2a be
       0.06866858 0.28018832 -0.69903713 -0.16671696
0001e0 d7 22 38 be 2f 05 a2 3e be a6 4f 3e ff d7 df 3c
       -0.1798204 0.3164458 0.20278451 0.027324675
0001f0 a5 96 67 3d e4 0a 3c bd eb 91 b6 3d bf db 6f 3c
       0.05654015 -0.045908824 0.089145504 0.014639794
000200 29 5d 8d 3c 20 08 d7 3d be 6f 8b 3d 27 97 f8 3d
       0.017256336 0.104995966 0.068084225 0.12138205
000210 31 e2 6c 3e 7c 2c 43 be 4c d6 ae bc 0d 61 44 3d
       0.2313316 -0.19059938 -0.02134242 0.047944117
000220 19 54 c1 3c e5 c2 21 bc 16 34 44 3c 17 6d fb bd
       0.023599671 -0.009873127 0.011975309 -0.122766666
000230 19 75 55 bd 51 7c 30 3e 5d 28 86 be bf 89 78 3e
       -0.052113626 0.17234923 -0.2620267 0.24271296
000240 16 d2 d8 bd 06 63 90 3d fa 04 82 3b 41 a8 19 bd
       -0.10586946 0.07050137 0.0039678784 -0.037513975
000250 89 03 b3 3c 97 67 19 3e 64 3b fd 3c 6e a6 d2 3d
       0.021852272 0.14980923 0.030912109 0.1028565
000260 b0 b7 27 3d dd fa 8a 3e 4c 57 b2 3d 39 df 3c bd
       0.040946662 0.27144518 0.08708057 -0.04611132
000270 24 9b 30 3d 7c 0a 16 ba 41 91 f5 3d 3a c1 d3 bd
       0.043116704 -0.0005723608 0.119905956 -0.103395894
000280 cb 7e 95 3d bc 53 37 bd b3 00 a1 be bf cc 56 be
       0.072995745 -0.04475759 -0.31445846 -0.20976542
000290 ff 8f 8b 3d 16 75 bf bd 84 dc 50 3c 34 91 98 3d
       0.068145745 -0.09348504 0.0127478875 0.0744957
0002a0 a8 63 68 bd a0 2e b4 bc c4 c8 6a 3e 96 d4 1b be
       -0.056735665 -0.021994889 0.22928149 -0.15217814
0002b0 22 7e e3 bd 6b 5d 7c bd 94 9c 9b bd 97 04 7a 3d
       -0.11108042 -0.061612528 -0.07598224 0.061039533
0002c0 76 06 f0 bd 5c f0 48 be 2e 1d 2e 3b 65 e5 86 3e
       -0.11719982 -0.1962294 0.0026567685 0.2634689
0002d0 cb 63 d2 bd 2e 11 2d 3c 14 d1 aa be 68 73 27 be
       -0.1027294 0.010563178 -0.3336264 -0.16352618
0002e0 9d 1f 99 bd 04 69 bc 3d 8b 07 69 3e b9 e0 fe bc
       -0.07476733 0.09199718 0.22756784 -0.031113015
0002f0 67 19 79 3c 89 03 13 bd 74 de 55 bd 87 99 14 3e
       0.01520381 -0.035892043 -0.0522141 0.14511691
000300 95 0e 9a bc 60 c1 1c bd a1 f3 90 bd 01 09 62 3c
       -0.018805781 -0.038270354 -0.070777185 0.013796092
000310 e2 02 db 3d 52 ce b3 bd 11 28 41 bd b6 22 c7 bc
       0.10693909 -0.08779587 -0.04715735 -0.024308544
000320 ab 0a 1b 3b e8 50 8a 3d 40 b6 b9 bd 03 cd c0 bd
       0.0023657482 0.06753713 -0.090679646 -0.09414103
000330 aa de ac bd e6 d3 4e 3d 04 8e 1a bd b4 6c b1 bd
       -0.08440907 0.05049505 -0.037733093 -0.086633116
000340 2e e9 ad 3d 6c 86 d2 bd 8b d6 97 3c c6 9d 29 be
       0.08491741 -0.10279545 0.01853492 -0.16564092
000350 94 46 41 3d ec a1 37 bd c0 8d 64 bb e0 32 11 3d
       0.04718645 -0.044832155 -0.0034874529 0.03544891
000360 f9 6b bc bd 2c b9 10 bd 53 07 38 3d 10 27 8a 3d
       -0.09200282 -0.035332844 0.04492886 0.06745732
000370 65 cf a5 bc 29 8f c5 bd 41 64 26 be 92 27 ca 3d
       -0.020240495 -0.09646446 -0.16249181 0.09870829
000380 b8 b0 ca bd f1 70 3a be 88 c8 b8 3d a8 a1 ef 3c
       -0.09896988 -0.18207146 0.09022623 0.029251888
000390 14 3d 43 3d 95 88 a0 bd a6 70 2b be c4 8f 10 be
       0.04766567 -0.07838551 -0.1674219 -0.14117342
0003a0 03 87 16 3d ac 33 9e bd 90 5f b8 bc 40 86 1f 3d
       0.03674985 -0.077246994 -0.022506505 0.03894639
0003b0 06 8e cf bd ac fd 1e bd 4e 92 f5 bd 00 34 b1 3a
       -0.10134511 -0.03881614 -0.11990796 0.0013519526
0003c0 77 a2 07 3d 48 f3 f6 bc f4 20 06 bd 18 b0 d8 bd
       0.033113923 -0.030145302 -0.03274627 -0.10580462
0003d0 ab 5e ab bd f8 94 cc bd 25 e6 cc bd 28 63 3b bd
       -0.08367666 -0.09989351 -0.10004834 -0.04574886
0003e0 94 45 e1 bd f1 7a 33 be a4 28 8a bd 60 f5 dc 3b
       -0.10999599 -0.17527367 -0.06746033 0.006743118
0003f0 35 0d fa 3b e0 12 ec bc 40 16 24 bd de 39 b3 bd
       0.007630969 -0.028817594 -0.04006028 -0.08751272

_mlp.2.bias f4 [64]
000000 5c 5d b6 be cc c3 3e 3d 6e 3e 67 bd 9a 58 09 be
       -0.35618103 0.046573445 -0.056456022 -0.13412705
000010 c2 2b 99 bd 73 1d 20 be e3 a3 83 be e1 00 ca be
       -0.07479049 -0.15636234 -0.25710973 -0.39453796
000020 ab a5 b6 be f4 ab fe bc 44 2e 41 be a5 0c a1 be
       -0.3567327 -0.031087853 -0.18865305 -0.3145496
000030 c0 d8 cb bd ba d0 c5 be 0c df d8 bd b0 c8 0a be
       -0.09953451 -0.38635808 -0.10589418 -0.13553119
000040 6f 5c 6f bd 88 e5 08 be 62 72 50 bf e5 33 67 bd
       -0.05843776 -0.13368809 -0.81424534 -0.056445975
000050 27 bf 33 bb 2b 7c 45 be 16 e4 59 be 71 a9 4d be
       -0.0027427168 -0.19285648 -0.21278414 -0.20084168
000060 70 62 a6 be e3 5d 83 be 6f dd 19 be 09 c7 2f be
       -0.32496977 -0.25657567 -0.15025876 -0.1716577
000070 90 39 3f bf 8b 00 e7 bd ab 8a 37 bf a3 59 88 3a
       -0.7469721 -0.112794004 -0.71695966 0.001040269
000080 e6 e7 9e be 19 0b e3 bd c8 3c 8e be 47 03 c7 be
       -0.310363 -0.11086101 -0.27780747 -0.38869688
000090 09 bc 63 bd c9 7b 4f be b3 76 35 bd e2 34 7b bd
       -0.055599246 -0.20262064 -0.044302654 -0.06132973
0000a0 70 19 42 be 8d 39 85 3d 35 ce 5b be c2 93 3f be
       -0.18955016 0.065051176 -0.2146538 -0.18708709
0000b0 80 5a cc 3d 43 94 60 3c 54 66 2a be 56 2e 2a be
       0.09978199 0.013707223 -0.16640598 -0.16619238
0000c0 30 fe f7 be 74 62 40 be b3 ef 7c 3d d4 4e 21 be
       -0.48436117 -0.18787557 0.061752032 -0.15752727
0000d0 32 0c 7b bc 47 61 d8 bd b0 d5 cd bd 4c cc d9 bd
       -0.015322732 -0.10565429 -0.10050523 -0.1063467
0000e0 bb c0 28 be f9 88 14 bc 8d 56 97 be 63 89 d6 be
       -0.16479771 -0.00906586 -0.2955822 -0.41901693
0000f0 17 60 28 be 6f 8f 21 be c4 89 0f be 81 ff e8 bd
       -0.16442905 -0.15777372 -0.14017397 -0.113768585

_mlp.4.weight f4 [64, 64]
000000 17 86 31 bb 84 14 be bd 8b c6 e8 bd 5b 48 0c 3c
       -0.002708798 -0.09281257 -0.11365994 0.008562173
000010 4b 9e 8e bd 0b 72 83 3d 5e 03 f1 3d a3 09 a8 3d
       -0.06963786 0.06418236 0.1176822 0.08204963
000020 60 ac 80 bb 45 15 d1 bb 95 10 ce 3d d3 10 4b 3d
       -0.0039267987 -0.0063807094 0.100617565 0.04957659
000030 6f 77 c8 bd ca ba 2b bc 7d 4d 84 3d 03 34 c4 bc
       -0.09788405 -0.010481546 0.06460092 -0.023950582
000040 78 85 cf bd e0 13 67 be 5e 14 2a be 7c c7 0b 3e
       -0.10132879 -0.22566175 -0.16609332 0.13650316
000050 1e 67 45 38 2d 29 9a bc 0f 15 c3 3d 9a ba 10 3e
       4.7064495e-05 -0.018818462 0.09525501 0.14133683
000060 49 c4 10 be 9b 2f 69 3d d6 06 11 bd 79 0a 86 be
       -0.14137377 0.056930166 -0.03540691 -0.26179865
000070 35 ae 89 bd 2c 5d ce 3c de e2 04 be 14 ce 43 bc
       -0.067226805 0.025190912 -0.12977168 -0.011950988
000080 71 6c 3e 3d 07 33 07 3e c3 0e b1 3d e3 5a 07 3f
       0.046490137 0.13203059 0.08645394 0.5287306
000090 64 12 a9 3b de cd da bd 59 e0 c8 bc 1f 59 90 bd
       0.005159663 -0.10683797 -0.02452104 -0.070482485
0000a0 88 74 1a be e2 59 08 3d c8 73 77 3d 92 5e a7 3d
       -0.15083516 0.033288844 0.060413152 0.08172335
0000b0 39 cf 06 bd 96 90 7d 3d f8 40 99 bd c9 f9 b3 3d
       -0.032912467 0.061905466 -0.07483095 0.08787877
0000c0 25 78 64 3c 88 dd 00 bb 79 44 aa 3d 00 8d 1e bd
       0.01394466 -0.0019663293 0.083138414 -0.038708687
0000d0 93 c1 85 bd 94 6a a6 3d c2 ce bc bd 9c 86 d7 bc
       -0.06531062 0.08125797 -0.092191234 -0.026309304
0000e0 c9 fc 48 be 02 3f c1 bd ac 9b cf 3c 9b 99 ef bc
       -0.1962768 -0.09435846 0.025342785 -0.02924805
0000f0 10 4e b4 3d 8f 8d 9c bc 7a 9f 30 bd 49 c5 86 bd
       0.08803952 -0.01911047 -0.04312084 -0.06580598
000100 bc 9a 67 3d e3 72 1a bd 6e f2 59 be da d6 eb 3d
       0.05654405 -0.03770722 -0.21283886 0.11515589
000110 96 50 ab bd bb 38 e9 3d 33 98 11 be 70 f3 39 bd
       -0.0836498 0.113877736 -0.14218216 -0.045398176
000120 7a d1 79 bd 65 a2 23 3e c6 f7 aa 3d 27 83 99 3d
       -0.060990788 0.15979917 0.0834804 0.074957184
000130 29 8c 2e be 54 25 f4 bd 97 57 7c be d2 57 87 be
       -0.17045654 -0.11921182 -0.24642788 -0.2643419
000140 f4 7d c7 bd 3e 15 b9 bc 55 93 29 3d 7c c6 4b 3d
       -0.097408205 -0.022593137 0.041400272 0.049749836
000150 ca 53 ef bc 98 e0 80 3c 4c 17 0e bd cc 49 a2 3d
       -0.029214758 0.015732095 -0.034690186 0.07924232
000160 f9 05 bb 3d 24 aa 05 3d e2 93 26 3e fc 10 e4 bd
       0.091319986 0.032632962 0.1626735 -0.11136052
000170 75 6b 0d 3e 8a 21 2f 3e 34 e9 85 3d b0 74 84 bd
       0.13810523 0.17102638 0.065386206 -0.06467569
000180 98 7e 51 3d 90 cf 3b bd f0 0e f3 bd e1 35 59 be
       0.05114612 -0.045852244 -0.118680835 -0.2121196
000190 a7 f3 1c bd e0 77 71 3c 65 04 f1 3d 32 5a fc bc
       -0.038318302 0.014738053 0.11768416 -0.030804727
0001a0 fa 34 66 3d da 51 ad 3c f1 fc b3 bc 2d c2 b1 3c
       0.056202866 0.021157194 -0.021971198 0.021699036
0001b0 2e 7e f9 3d 60 52 c7 bd 48 fe cc bc a0 9c ce bd
       0.1218227 -0.09732509 -0.025023594 -0.100884676
0001c0 86 26 0f be 32 a6 1c bd 4d 20 11 be 7c 38 fd 3d
       -0.1397954 -0.038244434 -0.14172478 0.12364289
0001d0 56 fe 0a be b2 c5 f8 3d 12 dc 99 bd 10 98 0f be
       -0.13573584 0.121470824 -0.07512678 -0.14022851
0001e0 cd 6e 7f bd 60 ba e0 bc 9e 6a 9c bd 48 ae 93 bd
       -0.062361527 -0.02743262 -0.07637523 -0.07210976
0001f0 65 73 32 be db 47 1c be 8f 60 8e bd 05 5c c4 bd
       -0.17426832 -0.15261786 -0.06952011 -0.09587864
000200 44 60 35 3d d7 6c 8d bd 63 28 48 3d c0 a6 a8 bc
       0.04428126 -0.06905525 0.04886664 -0.020587325
000210 46 22 c8 bd c2 70 cb 3c 43 12 c6 bc b0 6b d7 bc
       -0.09772162 0.02483404 -0.02417863 -0.026296467
000220 f0 4c 05 bd e2 54 e6 bd 38 42 ae bc 60 86 0f be
       -0.032544076 -0.11246659 -0.02127181 -0.14016104
000230 fc e3 e3 bd 14 4c bc 3d 94 23 c7 bd 1c 93 b6 3d
       -0.11127469 0.09194198 -0.09723583 0.08914778
000240 b0 b4 0c bc ea 7b b6 3d 5c 69 94 bd da 72 97 bd
       -0.008588001 0.089103535 -0.07246658 -0.07394953
000250 fa 2f d3 3d 00 9c 53 bd 00 28 bb 3d 9c d3 0b bd
       0.10311885 -0.051662445 0.09138489 -0.034137353
000260 89 ad 28 be 20 30 7d bd d0 13 1b 3d a9 23 27 be
       -0.16472448 -0.061813474 0.03786069 -0.16322197
000270 f5 a7 ce bd 24 82 79 bd 7a f7 f5 bd 24 21 b3 bc
       -0.10090629 -0.060915127 -0.12010093 -0.021866389
000280 60 8c 6a 3c 3e 47 8b 3d 58 f2 3e 3d fc 88 ab bd
       0.014315695 0.06800698 0.046617836 -0.08375737
000290 2e 99 b0 bc c6 e2 a2 bd 40 8b 14 bd b0 6f 1a be
       -0.021557417 -0.0795341 -0.03626561 -0.15081668
0002a0 bd 5e 87 3d 27 70 87 3d b2 47 d3 3d 90 85 1d bd
       0.06609867 0.06613188 0.10316409 -0.038457453
0002b0 00 68 58 ba 06 66 24 be b2 5b ec bd f1 9b 1a be
       -0.00082552433 -0.16054544 -0.11540927 -0.1509855
0002c0 dc 4d 0a bb 88 e9 c4 bc 7a 0c 32 be 00 61 31 bd
       -0.0021103537 -0.024037138 -0.17387572 -0.043305397
0002d0 9b 41 74 bd fc 03 fe bd 43 c8 c0 3d 80 26 97 ba
       -0.05963288 -0.12403104 0.09413197 -0.001153186
0002e0 40 30 f5 3c 9e c3 b5 be 9e 09 b9 bd 2e 09 ee bb
       0.029930234 -0.35500807 -0.090350375 -0.007264278
0002f0 5c 35 ea 3d ac 41 93 3d 0c 97 cd 3d 2c 47 1d bd
       0.11435959 0.0719026 0.100385755 -0.038397953
000300 d5 e1 10 bd 37 6c 4c 3d fa b2 b8 bd bc e8 f7 3d
       -0.03537162 0.04990789 -0.09018512 0.121049374
000310 bd 8e 63 bd 2c 99 f1 3d 1b 8d 55 3d 50 52 2d 3e
       -0.055556048 0.11796793 0.05213652 0.16925931
000320 30 09 8b bd 6c fc 60 bc 10 dd f7 bd 1f 3f 4a bd
       -0.06788862 -0.013732057 -0.12102711 -0.049376603
000330 c0 b4 25 3d 0b 24 92 bc 5a c9 38 3d 6e b4 9c 3d
       0.04045558 -0.017839452 0.0451139 0.07651602
000340 12 e4 d1 bc 8b ea 2d be 27 11 d6 3c 0c ee d8 3d
       -0.025621448 -0.16984002 0.026131226 0.10592279
000350 ee 4a 15 3e 21 c1 2a bd b8 81 6b 3d 56 19 02 3e
       0.14579365 -0.04168809 0.057496756 0.12704977
000360 e3 1a 77 3c 1d 62 88 3d c6 78 32 bc ce ae 24 be
       0.015082094 0.066593386 -0.010893052 -0.16082308
000370 dd d0 cb bd 89 f3 26 3e 82 67 95 3d 33 c4 1c bd
       -0.09951947 0.16303839 0.07295133 -0.038273048
000380 d7 aa 8d 3d 11 54 0f 3e 5a b2 79 3d 63 12 0e 3f
       0.06917351 0.13996913 0.060961105 0.55496806
000390 d5 66 82 3b be 11 2d be b7 8d bf bc 1b a8 f2 3c
       0.0039795437 -0.169013 -0.023383005 0.029621175
0003a0 ff a9 4f bd 14 90 cc 3d cc 13 3a 3e 63 64 e7 3c
       -0.05069923 0.09988418 0.18171614 0.02824611
0003b0 76 49 d4 3b 31 c6 b3 3c c0 c4 ce 3d 41 32 bc bd
       0.006478484 0.021945091 0.10096121 -0.09189273
0003c0 c7 2c da 3d 42 a8 43 be b2 3f 1f be db 42 14 3e
       0.10653072 -0.19107154 -0.15551642 0.14478628
0003d0 f6 56 0d be 19 28 b9 bb 1a e7 bd 3d 92 5f 09 bd
       -0.13802704 -0.005650532 0.09272595 -0.03353841
0003e0 33 a8 41 be b6 cb f4 bd ad bf 89 be 2f 5d 95 bd
       -0.18911819 -0.11952917 -0.2690405 -0.07293164
0003f0 f7 85 8b 3d ce 39 c2 bc e8 6e 1c 3d 42 9c 7a 3d
       0.06812661 -0.023709204 0.038191706 0.061184175

_mlp.4.bias f4 [64]
000000 fc e1 cd bb 0c 06 15 be da 71 63 bd f7 5d d6 3c
       -0.006283043 -0.14553088 -0.0555285 0.026167853
000010 91 fc cd 3b d6 8c c9 bd 86 25 8f bd 00 c0 81 3e
       0.006286212 -0.098413154 -0.06989579 0.25341797
000020 5a 33 44 be 6b 13 84 bc cd 0b 2a bd c8 49 84 be
       -0.19160214 -0.01612254 -0.04151516 -0.2583754
000030 98 66 2a 3e 23 0f ae bd 75 09 f1 bc 14 6e c7 bb
       0.16640699 -0.08498981 -0.029423455 -0.0060861204
000040 79 db 17 bc 9d 1b 31 bd 32 de 60 be 0c d4 3d bd
       -0.009268635 -0.043239225 -0.21959761 -0.0463448
000050 64 1f 35 be c3 45 ea bc 70 a2 c8 bd 29 9f 07 3d
       -0.17687756 -0.028597718 -0.097966075 0.03311077
000060 bb ca 83 bc eb f2 23 be a1 5c da 3c 07 d0 29 be
       -0.01608788 -0.16010635 0.026655497 -0.16583262
000070 a7 a3 ec 3d f0 50 9e be c4 32 28 be bd 51 97 bd
       0.11554652 -0.30921125 -0.16425616 -0.07388637
000080 9f 86 9b bd 88 02 cb bd 5b 02 f5 be 86 4c e4 bc
       -0.07594036 -0.09912592 -0.4785336 -0.02786852
000090 dd e4 d1 bd 44 36 3e 3e be 1c 50 be ab 08 53 3e
       -0.1024873 0.18575388 -0.20323464 0.20608775
0000a0 24 1b 52 bd 45 8c 87 bc 86 aa 96 bd c2 a2 03 be
       -0.051295415 -0.016546378 -0.073567435 -0.12855056
0000b0 ba ba 99 be 22 76 c7 bc cc 30 1a be 82 00 a8 bd
       -0.30025274 -0.024348322 -0.15057677 -0.08203222
0000c0 e6 85 02 be ba d6 aa bd c5 4a ef 3c 8d 75 d7 bd
       -0.1274639 -0.08341737 0.029210458 -0.10520468
0000d0 d7 10 3a bd 4b e9 2c be 68 7b 9f 3b b2 e0 8e bd
       -0.045426216 -0.16885869 0.004867006 -0.06976451
0000e0 d9 b8 40 bc 2a bf 90 be 6f 30 36 be a2 38 2e bd
       -0.011762821 -0.28270847 -0.17791913 -0.042534478
0000f0 51 df 5c 3c 9b 31 04 3d 44 ff 43 bd 3c 7e 03 3e
       0.013480977 0.03227387 -0.047850862 0.12841123

_mlp.6.weight f4 [1, 64]
000000 58 7b 7e bb 3e 12 20 bc e1 21 68 bd 29 48 32 3c
       -0.0038830843 -0.009769974 -0.056672934 0.010881462
000010 d2 60 45 bb 80 2a 35 3e f2 2f 30 3d 95 90 17 3d
       -0.0030117524 0.17691994 0.043014474 0.03700312
000020 cc 2f 66 3c 2b 0e 99 bd 9d 90 c6 3c b3 95 38 3d
       0.014049482 -0.074734055 0.024238879 0.04506464
000030 40 84 5f 3e 63 c9 e4 3c f8 dc 81 bb e6 d5 52 3c
       0.21827793 0.02792806 -0.003963109 0.01286838
000040 7d c0 a8 bb df 9d 4f 3c 2d cf 41 be bf 55 e9 bc
       -0.0051498995 0.012671917 -0.18926688 -0.02848327
000050 30 51 55 3d a2 c2 4f 3d 24 81 96 3d 2a 67 9d 3b
       0.05207938 0.050722726 0.0734885 0.004803558
000060 0f c1 65 3b 58 aa e7 bc 7a 1e 09 38 12 e7 50 3c
       0.00350577 -0.028279468 3.269173e-05 0.012750404
000070 18 02 58 be 3f f0 43 3d 49 1c 00 3c 51 78 59 bd
       -0.21094549 0.04783654 0.007819244 -0.05309326
000080 f3 8e 34 3e 5b 3e c3 3c 42 b7 83 3d ce cd 9a 3a
       0.17632656 0.023833444 0.06431438 0.0011810602
000090 61 b1 29 bc da 11 fd 3d 00 e1 8e 3c b4 75 87 3e
       -0.010357232 0.123569205 0.017441273 0.26456988
0000a0 eb 6d 8a 3e d9 e8 d3 bc c8 e9 3c 3d f1 5a 81 3c
       0.27036986 -0.025867866 0.04612139 0.015790435
0000b0 3e ed 14 3d 5e 51 30 3b 21 ab 02 bd b5 fa 78 bd
       0.036359064 0.0026903967 -0.031901482 -0.060785968
0000c0 ea 90 99 bb 66 1c 35 b7 3c 60 e9 3a e4 bb 06 3e
       -0.0046864646 -1.0795053e-05 0.0017805169 0.13157612
0000d0 67 db a1 bb f8 88 06 be 1e b3 ec bb 59 0e b8 3c
       -0.004939485 -0.13138187 -0.007223501 0.022467779
0000e0 c7 f5 6a 3d 1b a8 56 3e e5 62 89 3d bb b6 ab bc
       0.057363298 0.20962565 0.06708316 -0.020961156
0000f0 aa 11 14 bc 17 ca 5e 3b 48 8d a9 ba f8 03 da b9
       -0.009037415 0.0033994967 -0.0012935782 -0.00041583157

exp_avg f4 [2, 1, 3, 3]
000000 55 37 22 ba d3 de 24 ba 0a 63 24 ba 38 7e 23 ba
       -0.00061880547 -0.0006289307 -0.00062708615 -0.00062367646
000010 df 33 26 ba b3 4e 25 ba 7a 26 21 ba 7d 0d 24 ba
       -0.0006340127 -0.00063059776 -0.0006147396 -0.00062581134
000020 36 8d 22 ba 1e 7f b1 3a 55 64 ed 3a a3 45 c6 3a
       -0.00062008516 0.0013541912 0.0018111566 0.0015126955
000030 c6 f4 f0 3a 86 1b c7 3a 33 6f f3 3a d9 1c ef 3a
       0.0018383495 0.0015190698 0.0018572569 0.001824285
000040 ee 11 2c 3b b4 1b 55 3b
       0.0026255804 0.0032517733

exp_avg_sq f4 [2, 1, 3, 3]
000000 e0 0a 0d 37 f5 19 10 37 48 c7 0d 37 43 8e 0d 37
       8.406787e-06 8.589112e-06 8.450654e-06 8.437378e-06
000010 ac 01 11 37 3b 68 0d 37 f6 91 09 37 07 81 0c 37
       8.643063e-06 8.428523e-06 8.1998205e-06 8.374692e-06
000020 c8 05 09 37 68 fb c8 39 a0 87 db 39 d1 1f c5 39
       8.167182e-06 0.00038334285 0.00041871984 0.00037598473
000030 00 0e ca 39 64 33 c0 39 73 17 be 39 a5 23 d8 39
       0.00038538873 0.00036659383 0.00036257095 0.00041225288
000040 ff 1d 0b 3a 14 fc 28 3a
       0.0005306899 0.0006446254

exp_avg f4 [4, 1, 3, 3]
000000 dd 0a 2a b9 fd 11 2c b9 de ce 2b b9 57 6a 2d b9
       -0.0001621651 -0.000164099 -0.00016384895 -0.0001653818
000010 df 0b 2f b9 81 03 2e b9 c7 3a 2e b9 2a 15 2f b9
       -0.00016693723 -0.00016595238 -0.0001661583 -0.00016697185
000020 2b 7b 2d b9 f7 22 88 39 10 86 88 39 90 2f 86 39
       -0.0001654445 0.00025965992 0.00026039826 0.00025593909
000030 f0 2c 89 39 3e c5 89 39 9f e4 86 39 4d 53 86 39
       0.00026164157 0.00026277633 0.00025728808 0.00025620536
000040 1d e8 86 39 32 11 84 39 60 d1 fb 39 24 63 0d 3a
       0.0002573141 0.00025189813 0.00048030447 0.0005393496
000050 3f 4a e3 39 a7 de b4 b9 a4 a8 67 ba 79 39 5d ba
       0.00043352132 -0.00034498164 -0.000883708 -0.0008439045
000060 d1 c6 a7 b9 45 c3 f1 38 97 24 9f 39 65 3e a6 b9
       -0.00032000852 0.00011528147 0.00030354105 -0.00031708475
000070 8a f1 b6 b9 c0 cd 9d b9 bc b2 d8 b9 d5 b6 d7 b9
       -0.00034893706 -0.0003009867 -0.00041331898 -0.00041144216
000080 15 b9 e4 b9 a2 33 0f 3a 2c 18 24 3a 41 c7 15 3a
       -0.00043625446 0.0005462711 0.00062597054 0.000571359

exp_avg_sq f4 [4, 1, 3, 3]
000000 34 b4 83 36 5b 52 84 36 51 43 81 36 98 9d 86 36
       3.9250826e-06 3.943494e-06 3.8523362e-06 4.0118575e-06
000010 f2 9a 86 36 37 d8 83 36 2c b3 85 36 3d 09 86 36
       4.011549e-06 3.929275e-06 3.9845672e-06 3.9945867e-06
000020 49 46 82 36 5f 2c b8 35 4b 3a b9 35 35 83 b2 35
       3.882484e-06 1.3721982e-06 1.380054e-06 1.330022e-06
000030 b5 8b ba 35 09 97 bb 35 06 66 b3 35 01 f1 b4 35
       1.389874e-06 1.3976543e-06 1.3366232e-06 1.3481186e-06
000040 65 87 b5 35 c4 4b ad 35 52 e4 d3 37 cd 4b df 37
       1.3524956e-06 1.2911555e-06 2.525948e-05 2.6618969e-05
000050 b5 d7 b5 37 bd 74 8e 37 f0 fa 90 38 6d 9d 4b 38
       2.1677328e-05 1.698208e-05 6.913196e-05 4.8545586e-05
000060 9c 8e 29 37 66 da 4a 37 68 e0 21 38 50 b8 7a 36
       1.0106389e-05 1.2090988e-05 3.8594386e-05 3.7360187e-06
000070 d9 58 bc 36 eb 2e c2 36 cd 07 15 38 47 0b 3f 38
       5.61318e-06 5.7871125e-06 3.5531633e-05 4.554845e-05
000080 20 9a 2c 38 f2 ed dc 37 3b 45 0f 38 d5 c9 ce 37
       4.1151536e-05 2.6336846e-05 3.4158333e-05 2.4651099e-05

exp_avg f4 [8, 1, 3, 3]
000000 bf a0 bb 38 85 d4 bd 38 58 16 bd 38 cf 85 be 38
       8.946796e-05 9.051807e-05 9.016384e-05 9.08483e-05
000010 be 7c c0 38 93 70 bf 38 6f f3 bd 38 e8 a8 bf 38
       9.1785085e-05 9.128558e-05 9.057565e-05 9.139051e-05
000020 9c 34 be 38 5d dc a3 b8 8a 98 a4 b8 22 21 a3 b8
       9.069705e-05 -7.8134915e-05 -7.848542e-05 -7.778617e-05
000030 bd 2b a4 b8 64 b5 a4 b8 7e e1 a2 b8 0b 42 a1 b8
       -7.828276e-05 -7.853916e-05 -7.766763e-05 -7.68938e-05
000040 51 63 a1 b8 d8 7d 9f b8 04 2c f9 b8 d5 7c fe b8
       -7.6955774e-05 -7.605151e-05 -0.00011881444 -0.000121349156
000050 26 d2 ff b8 ae 78 00 b9 a4 29 03 b9 8a 88 03 b9
       -0.00012198491 -0.00012251988 -0.00012508646 -0.00012543998
000060 d6 c3 01 b9 b4 3b 04 b9 9f fc 03 b9 ec 21 01 39
       -0.00012375353 -0.00012610742 -0.00012587242 0.00012315036
000070 d5 22 03 39 e0 03 01 39 dc cb 04 39 b1 c9 06 39
       0.0001250611 0.00012303842 0.00012664445 0.00012854372
000080 03 7f 04 39 92 08 05 39 28 c6 06 39 e0 b5 04 39
       0.00012635817 0.00012687061 0.00012853055 0.00012656255
000090 31 aa ce b9 09 ca 1e b9 a4 b5 85 39 b2 28 da 39
       -0.00039418184 -0.00015143318 0.0002550307 0.0004161052
0000a0 65 3e fe 39 bc de b7 37 25 aa 16 b9 27 97 87 b9
       0.00048493143 2.1919019e-05 -0.00014368499 -0.00025861824
0000b0 b0 c8 2f b8 7b c5 f3 36 b3 f7 03 37 47 dc cd 37
       -4.1910156e-05 7.264954e-06 7.86588e-06 2.4540479e-05
0000c0 ec b8 d6 39 9f 30 e8 39 8a 19 a0 39 66 7e 92 38
       0.00040955038 0.00044286714 0.00030536606 6.985366e-05
0000d0 b3 9d 52 38 ed b0 58 38 22 a8 29 b9 c4 86 38 b9
       5.021477e-05 5.1663188e-05 -0.0001617973 -0.00017597812
0000e0 15 fb 26 b9 97 fc 51 b9 10 99 6d b9 5d 63 5f b9
       -0.00015924529 -0.0002002589 -0.00022659102 -0.00021303953
0000f0 44 9b 14 b9 09 1d 35 b9 1e 25 37 b9 5e ba df b9
       -0.00014172221 -0.00017272322 -0.00017466067 -0.0004267273
000100 3f 7c f0 b9 66 5e 4d b9 89 4c e5 b8 11 6f 0b b9
       -0.00045868938 -0.0001958549 -0.00010933827 -0.00013297448
000110 3c 18 e1 37 cb 75 4f 39 ed f3 60 39 3f bc 9d 39
       2.6833375e-05 0.0001978494 0.00021453174 0.00030085628

exp_avg_sq f4 [8, 1, 3, 3]
000000 92 73 24 35 5e b4 27 35 29 83 26 35 f5 67 28 35
       6.126294e-07 6.2474817e-07 6.203068e-07 6.2736154e-07
000010 ae 1e 2b 35 b6 da 29 35 1f 8c 26 35 a0 b9 29 35
       6.374711e-07 6.327567e-07 6.204372e-07 6.3227526e-07
000020 c0 ee 26 35 ff 15 ea 34 2f 24 eb 34 e4 b4 e5 34
       6.2187246e-07 4.36019e-07 4.3798488e-07 4.278619e-07
000030 91 9b e8 34 55 d8 e7 34 1b 75 e4 34 1b 17 e0 34
       4.3326557e-07 4.3184505e-07 4.2553515e-07 4.1740063e-07
000040 b0 70 e1 34 86 61 dc 34 50 cc 84 34 04 89 88 34
       4.1991507e-07 4.104915e-07 2.4735573e-07 2.5431666e-07
000050 c2 0b 88 34 16 41 8a 34 0d 13 8e 34 b6 14 8d 34
       2.534053e-07 2.575186e-07 2.6463422e-07 2.6278366e-07
000060 a6 b0 8b 34 f8 18 8f 34 05 37 8d 34 90 bc 17 35
       2.6019296e-07 2.6653993e-07 2.630333e-07 5.652628e-07
000070 0d cb 1b 35 6a 23 18 35 b2 48 1d 35 29 21 21 35
       5.803748e-07 5.6675947e-07 5.8592843e-07 6.002543e-07
000080 17 dd 1c 35 67 3a 1d 35 8e 67 20 35 dd 09 1c 35
       5.8436257e-07 5.8572044e-07 5.9755337e-07 5.812888e-07
000090 53 63 5f 38 0b 12 41 37 86 ed 06 37 03 88 98 37
       5.3259846e-05 1.1507897e-05 8.042325e-06 1.8183147e-05
0000a0 e9 6e 06 38 85 e1 d3 35 e0 37 7c 37 4b cb ad 37
       3.2051383e-05 1.578636e-06 1.503338e-05 2.0717873e-05
0000b0 90 ac 32 37 51 38 3f 34 65 ac 81 34 36 1f 16 35
       1.0649805e-05 1.7808749e-07 2.4153556e-07 5.592477e-07
0000c0 06 b1 fc 36 18 9a 0a 37 8f bd a4 36 fb ef 6c 34
       7.5307935e-06 8.261319e-06 4.9096484e-06 2.2066517e-07
0000d0 87 a9 19 34 47 c9 03 34 58 0d 79 35 de 59 b3 35
       1.4310909e-07 1.227355e-07 9.2779146e-07 1.3362694e-06
0000e0 8c be a1 35 d8 a5 b6 35 7f 9b de 35 e4 46 ab 35
       1.2050891e-06 1.3608324e-06 1.6585544e-06 1.2761125e-06
0000f0 bc 00 95 35 7e 6f a1 35 1b 3e 5d 35 08 49 b8 37
       1.1101579e-06 1.2027883e-06 8.241929e-07 2.1968517e-05
000100 2e 9a 72 37 3b 08 24 37 6e 31 1f 36 52 25 77 36
       1.4460222e-05 9.777078e-06 2.3721618e-06 3.6827591e-06
000110 14 88 70 36 da f1 7a 37 e6 dd db 37 57 38 ab 37
       3.5841995e-06 1.4957472e-05 2.6210164e-05 2.0411024e-05

exp_avg f4 [16, 1, 3, 3]
000000 2c af 0f b8 5d 3f 10 b8 f5 84 0e b8 f8 46 0f b8
       -3.4257e-05 -3.4391287e-05 -3.3979264e-05 -3.415995e-05
000010 4e 90 0f b8 16 8e 0d b8 9e 5c 0c b8 4b 57 0c b8
       -3.422825e-05 -3.3749347e-05 -3.3464858e-05 -3.34599e-05
000020 df 3e 0a b8 bf 00 ae b8 f6 6d af b8 e8 1b ae b8
       -3.2960317e-05 -8.2971055e-05 -8.365132e-05 -8.3021645e-05
000030 52 68 af b8 02 db b0 b8 2d 99 af b8 a7 c4 ad b8
       -8.3640814e-05 -8.4331274e-05 -8.3731815e-05 -8.285912e-05
000040 f9 26 af b8 45 f8 ad b8 56 b4 0c 38 12 af 0e 38
       -8.3519095e-05 -8.295527e-05 3.3546552e-05 3.4018485e-05
000050 ba 50 0f 38 36 c8 0f 38 a6 00 12 38 3e 93 12 38
       3.416904e-05 3.4280318e-05 3.4809716e-05 3.4946243e-05
000060 55 16 11 38 12 60 13 38 7c 15 14 38 a9 90 19 b8
       3.4591492e-05 3.5137004e-05 3.530596e-05 -3.6612768e-05
000070 04 8d 19 b8 29 51 17 b8 a4 6d 1b b8 51 70 1b b8
       -3.6609374e-05 -3.607679e-05 -3.705699e-05 -3.7059483e-05
000080 6a 31 19 b8 20 5c 19 b8 4d 4f 19 b8 d6 16 17 b8
       -3.6524063e-05 -3.656384e-05 -3.6551897e-05 -3.6022473e-05
000090 ca 62 30 35 27 24 07 35 f1 78 2f 35 67 37 fc 34
       6.5708866e-07 5.034403e-07 6.5368573e-07 4.6978968e-07
0000a0 54 1f eb 34 44 27 43 35 9c 12 41 34 21 c1 8f 34
       4.3794955e-07 7.27003e-07 1.7981296e-07 2.6776345e-07
0000b0 a7 60 2e 35 24 d9 10 38 21 d0 14 38 a3 df 15 38
       6.49607e-07 3.4534503e-05 3.5479785e-05 3.5732646e-05
0000c0 a6 4f 16 38 8c 3f 1a 38 0a a6 1a 38 fb 30 18 38
       3.5836965e-05 3.6775644e-05 3.6871097e-05 3.628524e-05
0000d0 79 79 1b 38 5e e5 1a 38 21 c5 7a b7 3e bb 83 b7
       3.706801e-05 3.6930076e-05 -1.4947059e-05 -1.5703608e-05
0000e0 65 9d 85 b7 7a 41 7f b7 fb 1e 86 b7 d9 94 87 b7
       -1.5928128e-05 -1.5214429e-05 -1.5988471e-05 -1.6162567e-05
0000f0 d5 c6 7b b7 95 cb 83 b7 63 b5 84 b7 6d 57 2c 38
       -1.500706e-05 -1.5711217e-05 -1.5820091e-05 4.1089417e-05
000100 70 4c 2d 38 81 59 28 38 a8 71 2e 38 1a f9 2e 38
       4.1317602e-05 4.013768e-05 4.1590683e-05 4.1716827e-05
000110 69 14 2a 38 9c 92 2b 38 07 e0 2b 38 52 6f 27 38
       4.0550167e-05 4.0906118e-05 4.097822e-05 3.9919578e-05
000120 ad aa 75 38 dd 7e d5 b8 db 21 80 b8 7d be 6f b8
       5.8571506e-05 -0.000101802616 -6.109822e-05 -5.7159446e-05
000130 35 88 de 38 2e e9 2d 39 4d fe 3a 39 af bc 45 37
       0.000106111554 0.00016585432 0.00017833077 1.1786046e-05
000140 8d 32 01 b9 60 6a 9b b8 0a b1 af 37 dc 32 fe 37
       -0.0001232123 -7.41079e-05 2.0944066e-05 3.0302843e-05
000150 a7 3b 30 39 fe 3b b8 38 f3 8f a0 b7 e9 cd 4e b9
       0.0001680689 8.784978e-05 -1.9140518e-05 -0.00019722398
000160 29 aa c8 b8 2b f0 af 38 c5 5d 28 39 a4 d1 4f 39
       -9.568438e-05 8.389385e-05 0.0001605666 0.00019819156
000170 a3 8a 35 39 81 49 28 39 9e 44 6f 39 4a f1 6f 39
       0.00017313151 0.00016049111 0.00022818378 0.00022882703
000180 34 a1 a3 38 cc 2d 1b 39 c9 c7 39 39 a2 80 64 38
       7.802472e-05 0.00014799013 0.000177174 5.4479235e-05
000190 a9 52 b6 38 31 d5 06 39 11 c6 48 39 53 44 6c 39
       8.693833e-05 0.00012858656 0.00019147272 0.00022532167
0001a0 d3 61 12 39 24 50 ad 37 22 0a 9d b7 04 48 47 b7
       0.00013960087 2.0660525e-05 -1.8720577e-05 -1.1878092e-05
0001b0 ac b9 41 38 18 d6 3a 38 7f bf 36 38 4b 7c 52 38
       4.6187706e-05 4.4545246e-05 4.3570526e-05 5.018366e-05
0001c0 d5 b6 53 38 18 9d 55 38 2f 7c 40 38 6f 37 53 38
       5.0476596e-05 5.0929462e-05 4.5892022e-05 5.0357947e-05
0001d0 27 fe 62 38 21 80 cd b7 0e 8b 02 b8 53 ae f9 b7
       5.4119297e-05 -2.4497569e-05 -3.112392e-05 -2.976429e-05
0001e0 27 23 f9 b7 63 bd 03 b8 c7 0f d4 b7 17 7d 02 b8
       -2.9699482e-05 -3.1409214e-05 -2.5279716e-05 -3.1110914e-05
0001f0 01 f7 e5 b7 b0 40 91 b7 fb b0 65 b9 a5 78 33 b9
       -2.7413947e-05 -1.731547e-05 -0.00021905072 -0.00017115714
000200 ab 64 c8 b8 a2 0b c0 b9 e1 e5 c6 b9 46 05 a6 b9
       -9.555494e-05 -0.0003662976 -0.00037936776 -0.00031665916
000210 0a a2 26 b9 28 ce 77 b9 63 d7 89 b9 a6 df 80 b7
       -0.00015891358 -0.00023632555 -0.00026291152 -1.5362933e-05
000220 97 38 82 b7 d3 9d a1 b6 bd 30 0e 36 61 ce 06 37
       -1.552356e-05 -4.816547e-06 2.1188018e-06 8.035074e-06
000230 e5 04 2d 37 1e 38 48 37 29 e8 91 37 21 7c 2f 37
       1.0312743e-05 1.1933995e-05 1.7393455e-05 1.0459714e-05
