Experiments/Experiments-002/checkpoints/model.pt (torch, 271527 bytes, 33 tensors)

cp.convs.0.weight f4 [2, 1, 3, 3]
000000 3b cf dd bc 49 3a 36 3d d1 70 86 be 48 91 77 3e
       -0.027076354 0.04448918 -0.26257947 0.24176514
000010 44 f9 9c be 76 cc 9f be 22 55 e0 bb 65 d2 99 be
       -0.30658925 -0.3121068 -0.006846086 -0.3004333
000020 6a 7e 59 3e ac a6 14 3e 81 12 89 be 28 d8 9e 3d
       0.2123963 0.14516705 -0.2677193 0.07756072
000030 19 60 74 3e f9 dc a6 3e 24 98 44 be d6 89 09 3d
       0.23864783 0.32590464 -0.19198662 0.033578716
000040 bb c7 8d 3e 68 ef 90 be
       0.27691445 -0.28307652

cp.convs.1.weight f4 [4, 1, 3, 3]
000000 ce 7e 01 3d 42 0d 14 bd 5a bd 9a be 36 a8 ed 3d
       0.03161507 -0.036145456 -0.3022259 0.11604349
000010 66 2a c3 be 58 07 9c bb 87 8b 8a 3e 7b 5a 41 be
       -0.38118285 -0.0047616176 0.27059576 -0.18882172
000020 00 43 32 be a8 fd be 3d 1d a2 7f 3e 75 a7 fe 3d
       -0.17408371 0.09325725 0.24964185 0.12434284
000030 5b 28 a6 3d 41 e3 3b 3e 8d 99 87 3d b3 3d 2b 3e
       0.08113166 0.18348409 0.06621084 0.16722755
000040 4d d9 85 be 09 e6 3f be a6 91 c8 3e d8 3f 08 3e
       -0.2614235 -0.18740095 0.3917362 0.13305604
000050 59 65 96 be 3d 9c 9d bd a0 5c c0 be e5 92 8c be
       -0.29374197 -0.07695816 -0.37570667 -0.27455822
000060 4a 72 42 be bd e5 98 be 4d 76 5a 3e 07 8f 20 be
       -0.1898891 -0.29862776 0.2133419 -0.1567956
000070 76 8b 4f 3e 5e 71 ad be 88 5a 9b be 10 c8 13 3e
       0.20268044 -0.33875555 -0.30342507 0.14431787
000080 e8 12 31 3e e1 1e ea bd ac cc b3 bd 40 bd 8f 3e
       0.17292368 -0.11431671 -0.087792724 0.28074074

cp.convs.2.weight f4 [8, 1, 3, 3]
000000 3b 9e d7 bc 76 9f 57 be 3f a6 59 be ae 49 37 3e
       -0.026320567 -0.21056923 -0.21254824 0.178992
000010 0c 98 c7 bd 80 83 9e be 14 73 57 3b 10 1d d2 3d
       -0.097457975 -0.30959702 0.0032874988 0.102594495
000020 a4 23 2e be 4b c3 3a 3e 55 de 6b 3e 1a 92 9c be
       -0.17005783 0.18238561 0.23034032 -0.30580217
000030 28 04 3b 3c 6c 12 be be 73 ed 84 3c 07 7f 8c 3e
       0.011414565 -0.3712343 0.016226506 0.27440664
000040 ca 3d 77 be 56 4b 34 be 04 bc 16 be ee 11 47 3e
       -0.24144664 -0.17606863 -0.1472016 0.19440433
000050 87 dd 2e be 14 fb a1 be d7 22 34 be ff c5 b6 3e
       -0.17076693 -0.3163687 -0.17591415 0.35697934
000060 af 21 fc 3c 4f 3d 81 be 56 41 44 be dc dc 56 3e
       0.03077778 -0.25242087 -0.19165549 0.20982689
000070 51 7f 07 be 34 75 1a 3e 55 94 fc bd ba 82 ca bd
       -0.13232161 0.15083772 -0.123329796 -0.09888215
000080 47 cf 91 bd ed de a4 3e 43 24 5f 3e 37 59 f1 bd
       -0.07119613 0.3220133 0.21791176 -0.117845945
000090 38 14 8d be 40 e1 ff 3d c0 f5 5d 3e 18 dc cd bd
       -0.27554488 0.12494135 0.21675777 -0.10051745
0000a0 e8 38 08 3e 3a bd b1 bc bf 77 97 bd e2 f0 94 3d
       0.13302958 -0.021696676 -0.07395887 0.07272507
0000b0 0a 91 3e be 48 c2 43 be 84 8b a6 be f3 3e a3 be
       -0.18610016 -0.19117081 -0.32528317 -0.31883964
0000c0 94 8d 69 be d8 2b bd be bc de 3c 3e 98 e2 89 be
       -0.22807914 -0.36947513 0.18444341 -0.2693069
0000d0 ea 45 f1 bb 66 9c 89 3e 2c 8f 81 3e 43 2c b6 be
       -0.0073630707 0.26877135 0.25304544 -0.35580644
0000e0 e8 df 57 bd 0e c3 4b bd c3 af e6 bd 77 fe 91 bd
       -0.052703768 -0.049746566 -0.11263993 -0.071286134
0000f0 53 8a 12 3e bc 1b 15 be e2 08 c3 bd ac 1c c0 be
       0.14310579 -0.14561361 -0.09523179 -0.37521875
000100 e4 8f 99 be 0a f6 4d 3e 0e e0 a6 3e c0 a7 85 be
       -0.29992592 0.20113388 0.32592815 -0.26104546
000110 3a c8 89 be 2f 58 a7 be bc c1 23 3e 82 c3 73 be
       -0.26910573 -0.32684466 0.15991873 -0.23805049

cp.convs.3.weight f4 [16, 1, 3, 3]
000000 f2 17 a1 be 49 71 76 be b1 aa 02 bd b5 73 bc 3d
       -0.3146358 -0.24066652 -0.031901065 0.09201757
000010 42 b3 a4 3c 3d 70 b2 be cb c8 64 be 42 aa b3 be
       0.020105008 -0.34851256 -0.22342221 -0.35090834
000020 74 88 62 3e ff 81 70 be 5e 3b 20 be 6b ce fc 3c
       0.22122365 -0.2348709 -0.15647647 0.030860147
000030 71 70 1c 3e 8a 74 61 3e 6b f6 83 be 3f fe 1f 3e
       0.15277268 0.22017112 -0.2577394 0.15624331
000040 c5 63 96 3d 85 97 5b 3e 06 d1 25 3e a8 f5 06 be
       0.07343248 0.21444519 0.16193017 -0.13179648
000050 cc 5e 9f bd 54 ee b5 be e1 4d 41 3e 76 cf e7 bd
       -0.07781753 -0.35533392 0.18877365 -0.11318867
000060 62 ef cd bd af 7b cd 3d 11 80 9f be b3 55 50 3e
       -0.10055424 0.100333564 -0.31152394 0.20345192
000070 61 cd b0 be 3f cc e4 bd 5b 8e 9d be b9 f9 c5 3d
       -0.34531692 -0.11171769 -0.3077267 0.096667714
000080 cc 22 85 3d 6b f4 10 be c1 a7 43 3e ba 47 c2 3e
       0.065007776 -0.14155738 0.19106962 0.37945348
000090 43 04 bc 3e c1 fd 90 3e d6 57 86 3d f7 50 d9 bd
       0.36722 0.283186 0.06559722 -0.10611146
0000a0 99 d8 1f bd 05 19 8a 3e f9 ec 4e be c9 10 6c be
       -0.039024923 0.26972213 -0.20207585 -0.23053278
0000b0 b2 f4 e7 3d 6a ee 96 3d 73 07 d9 3d b4 6d fd 3d
       0.11325969 0.073696926 0.10597124 0.1237444
0000c0 34 11 d0 3d 5e 57 85 be 48 5d ef bc c4 8d 05 bd
       0.10159531 -0.26043218 -0.029219285 -0.0326059
0000d0 11 02 63 be 9c c6 ba bc 11 19 32 3e 6f 09 92 3d
       -0.22168757 -0.022799782 0.17392375 0.071307056
0000e0 86 68 72 be f9 ad 7a be f1 43 8b be d8 96 aa 3e
       -0.23672685 -0.24480428 -0.27200273 0.3331821
0000f0 ed 85 56 be 16 74 10 3e fd 72 27 be ce 40 fa bd
       -0.20949526 0.14106783 -0.16352458 -0.12219392
000100 72 7b 1e bd 11 39 da 3d db f1 db bd 47 3b 96 bd
       -0.038691945 0.10655416 -0.1073949 -0.07335525
000110 23 64 ac 3e 9b e5 5b 3e 95 42 1c be 71 fd 7a 3e
       0.33670148 0.21474306 -0.15259774 0.24510743
000120 80 bc 6e be c5 22 33 be b5 c6 28 3e 32 55 b0 3e
       -0.23314095 -0.17493732 0.1648205 0.3444
000130 7f da 88 be c7 18 4b 3c 04 fd 7b 3e 6e 68 53 3e
       -0.267292 0.012396044 0.24608237 0.20645306
000140 4c 4d 50 be ae 53 a3 3d bd 67 7d 3e 3d 51 c9 be
       -0.20341986 0.07974945 0.24746604 -0.39319792
000150 e7 f2 12 be 79 f7 c6 bd b1 b6 9b bd 9d 7a 17 bd
       -0.14350472 -0.097151704 -0.07603205 -0.036982168
000160 b8 10 5d be 0b ca 53 3e 4f 5b 51 be e7 66 b6 be
       -0.21588409 0.20682542 -0.20444988 -0.35625383
000170 01 b2 31 be 86 0f 97 3e 20 7e f8 bd c0 dc 1f 3d
       -0.1735306 0.2950403 -0.121334314 0.039028883
000180 c4 48 4a be 48 ac 52 be 52 c7 9f 3e 72 4f f9 3c
       -0.1975432 -0.20573533 0.31206757 0.03043339
000190 e0 01 86 3e f7 2a 4e bd 35 54 22 be b1 b3 be be
       0.26173306 -0.050333943 -0.15852435 -0.3724647
0001a0 f0 25 b5 be 10 da c8 be 1b 40 ca 3d d3 c9 85 3e
       -0.35380507 -0.39228868 0.098755084 0.26130542
0001b0 7c 03 b9 bb 81 66 98 3e cd 1c ea bc d7 af 79 3e
       -0.0056461673 0.29765704 -0.028578186 0.24383484
0001c0 68 e4 a3 3e 34 d0 a7 3d 31 24 1a 3e 60 75 93 bd
       0.32010198 0.081940085 0.15052868 -0.07200122
0001d0 62 db 23 be 3f 94 0a bd 41 b8 0a 3e b1 e7 0e 3e
       -0.16001657 -0.033832785 0.1354685 0.13955571
0001e0 0b 16 b9 3d e9 89 04 be 66 26 18 3e e6 12 5e be
       0.090374075 -0.12943234 0.14858398 -0.21686897
0001f0 ff f9 20 3e 67 ea 61 3e 03 13 e6 bd 7d 19 1e bd
       0.15720366 0.22062074 -0.11234095 -0.038598526
000200 fc 10 a4 be 9d 59 6d be d6 f6 06 be 87 66 70 3e
       -0.32044208 -0.23178716 -0.13180098 0.23476611
000210 b0 15 52 be 7e f5 96 be 54 93 bc bc c9 9c 2c be
       -0.20516086 -0.2948417 -0.02301947 -0.16856684
000220 4c 51 be 3d 81 4f b0 3d db d3 b0 be 1a 46 6d be
       0.0929285 0.08608914 -0.34536633 -0.23171273
000230 54 5e 71 3e ec 59 bc 3e 6c 74 31 3e f1 c0 aa be
       0.2357114 0.36787355 0.17329568 -0.33350328

cp.convs.4.weight f4 [32, 1, 3, 3]
000000 7c f2 b9 3e 58 58 74 3e 55 8d 78 3e 30 a8 64 3e
       0.36317813 0.23861825 0.24272664 0.22329783
000010 f7 fd b4 3d 74 3f b0 bd 7e e3 a6 3e 90 92 9e 3e
       0.088375024 -0.08605853 0.32595438 0.30971193
000020 67 48 84 3e 8b 6d 80 be db 6e 45 be 49 e7 02 3e
       0.2583649 -0.25083575 -0.1928057 0.12783541
000030 08 65 b6 3e 9c 92 25 3e 90 3a b8 3d ee 63 23 bb
       0.35623956 0.16169208 0.08995545 -0.002493139
000040 f3 ed 01 be c5 7b 55 be 2a b4 82 ba 91 a1 34 bd
       -0.12688427 -0.20847996 -0.0009971906 -0.044099394
000050 cb 74 36 be 5f af 68 be e6 bd 2c be 54 ff 00 be
       -0.1781799 -0.22723149 -0.16869316 -0.125974
000060 03 4b 23 3d 81 f5 1a 3e 3f 97 b4 bd e2 6f 22 3c
       0.03986646 0.15132715 -0.088179104 0.00991437
000070 71 b5 39 be a6 a3 b8 be 48 e4 8a be a2 b4 23 3e
       -0.1813562 -0.36062354 -0.2712729 0.15986875
000080 98 1a 99 3e a5 eb 0d 3e 7d 21 82 be b4 fc 82 be
       0.29903102 0.13859423 -0.25416175 -0.25583422
000090 81 eb 6f be 79 42 02 3e 71 77 a2 bc e5 9e d9 bd
       -0.23429681 0.1272067 -0.019832345 -0.1062601
0000a0 48 27 00 be 0a 3e ca bd b9 75 80 3e 5e 94 9f 3e
       -0.12514985 -0.09875114 0.25089815 0.31167883
0000b0 cc 43 08 3e 3e 34 93 bb 3a 97 08 3d 30 c2 8f 3e
       0.13307112 -0.0044923117 0.033347346 0.2807784
0000c0 dc ce 63 bd 81 48 53 be 64 e6 12 3c e8 53 88 bd
       -0.0556172 -0.20633127 0.008966062 -0.06656629
0000d0 69 41 c2 3e a9 cf f0 bb aa da 7c 3e 79 f4 2b 3e
       0.3794053 -0.007348974 0.24692789 0.16792478
0000e0 72 07 b7 3e 1d 5e ba bb 48 6d 28 3d d2 6c a4 3c
       0.35747868 -0.0056874887 0.041119844 0.02007142
0000f0 6a 8e 8a 3e 45 fe e3 3d 97 a7 fc bd 48 54 5e be
       0.27061778 0.111324824 -0.12336653 -0.21711838
000100 9c 2a bb 3e a2 96 0c 3d aa ac dc bd a9 15 21 3e
       0.36555946 0.034323342 -0.107751206 0.15730919
000110 db b1 eb bd da d2 d8 3d e0 16 63 bc 8f 41 8b 3e
       -0.115085326 0.10587092 -0.013860434 0.27198455
000120 96 94 63 be 76 91 f4 bd 03 fb 25 be 64 dd 10 3e
       -0.2222465 -0.11941807 -0.16209035 0.14146954
000130 15 04 da bd c3 8a df 3b e1 81 6c 3e ee c7 33 be
       -0.1064531 0.0068219616 0.2309642 -0.17556736
000140 42 5f 40 be 21 9d 13 3e 31 41 84 be be 3d 8a be
       -0.18786338 0.14415409 -0.25830987 -0.2700023
000150 6d cb 80 bd a3 d7 04 be 35 59 1f be cd 40 b0 3d
       -0.062888004 -0.12972884 -0.15561374 0.0860611
000160 80 c2 47 be 30 60 71 3e 7e 8b 8b be a2 e3 0b be
       -0.1950779 0.23571849 -0.27254862 -0.13661054
000170 b8 f2 ed bd e6 22 6c 3c 95 78 48 be 10 43 c6 3d
       -0.116185606 0.014412617 -0.19577248 0.0968076
000180 1b cd f2 bb 2e f4 0a 3d 85 80 c9 bc 68 48 2b 3e
       -0.0074097044 0.033924274 -0.024597416 0.1672684
000190 c4 40 4a be 18 3e aa 3d 58 ba 7e be 94 93 01 3e
       -0.19751269 0.08312625 -0.24875772 0.12653953
0001a0 58 19 8b be 80 49 1b be e1 5b e1 3d 03 1a 27 be
       -0.27167773 -0.15164757 0.11003853 -0.16318516
0001b0 0e aa cc 3d f7 d5 d8 3d 60 af 01 3e 1b 42 64 3e
       0.09993373 0.105876856 0.12664557 0.22290842
0001c0 55 23 57 3e 18 de bc bd 0e 70 83 be b4 fc 12 be
       0.21009572 -0.092220485 -0.25671428 -0.14354211
0001d0 2a 66 af 3e dd be c6 be 26 f9 0b bd d2 7e 87 3e
       0.34257632 -0.38817492 -0.034173153 0.26463944
0001e0 13 55 25 3e 59 c4 a6 bd f3 7c ba be 5b 64 25 3d
       0.16145734 -0.08142919 -0.36423454 0.04037891
0001f0 30 30 42 3e 1d 7f 3f 3e 10 e6 52 3e bd 36 2f 3e
       0.18963695 0.18700834 0.20595574 0.17110725
000200 2a 0d 80 3e 7a 0c 47 be 78 ab 2b be a1 19 8a 3e
       0.25010043 -0.19438353 -0.16764629 0.26972678
000210 fc 20 62 be bf 0b e4 3d 09 91 09 3e 75 d1 be be
       -0.22082895 0.11135053 0.13434233 -0.37269178
000220 af 31 e9 bd 23 8c a1 bc 72 b6 a5 bd e4 5c 4c be
       -0.113864295 -0.019720143 -0.08091439 -0.1995731
000230 d7 54 bc 3d 87 8f 23 be 9d 38 7b be 84 bf 39 be
       0.091958694 -0.1597272 -0.24533315 -0.18139464
000240 a0 1b 80 bd 29 24 33 be c9 cd bb be b6 b6 26 be
       -0.06255269 -0.17494263 -0.3668044 -0.16280636
000250 5b 5b b3 3e f7 10 2c 3e 32 4f 2d be b4 1d c0 be
       0.35030636 0.16803347 -0.16924742 -0.37522662
000260 a6 01 8a 3e 32 a6 62 be d3 be ca 3b ed 8c 5c 3e
       0.26954383 -0.22133711 0.006187299 0.21538134
000270 3e 6c a1 bc 49 24 4a be b9 a8 34 bd 1d cb 56 3e
       -0.019704934 -0.19740404 -0.04410622 0.20975919
000280 87 4d 3f be 03 e1 89 3e 84 49 0e 3c 53 c3 23 be
       -0.18681918 0.26929483 0.00868452 -0.15992479
000290 92 4e 1a 3e cb 5d 20 3e 74 eb d5 3d 90 02 80 3e
       0.15069035 0.15660779 0.104453 0.25001955
0002a0 d4 db 64 be 3d 2c bb be 19 2e cd 3d 7d 16 9b be
       -0.22349483 -0.3655719 0.10018558 -0.30290595
0002b0 f5 d7 ff 3d 8b cb 30 be 6f 14 88 3e 33 60 4d be
       0.124923624 -0.17265145 0.2657809 -0.20056228
0002c0 53 8c fb 3d 12 6a 7c be c3 a1 0c be 97 b4 73 3e
       0.12282624 -0.24649838 -0.13733582 0.23799358
0002d0 b9 4e 39 be ba 36 c0 3e 8d 51 c0 be 0f be 12 3e
       -0.18096437 0.37541753 -0.37562218 0.14330314
0002e0 ac 04 60 3c 30 19 bc 3d 2d 4b 09 3e 71 5a 78 be
       0.013672989 0.09184492 0.13407584 -0.2425325
0002f0 45 fa 3f be 67 ca b1 3e 79 46 c2 3e a1 a9 05 3d
       -0.18747814 0.34724733 0.3794439 0.032632474
000300 69 76 e8 3d d2 94 a8 3e 0c fe b0 3d 24 b0 41 3e
       0.1135071 0.3292604 0.086422056 0.18914849
000310 b2 04 4a be 6b 89 17 be 7a 17 68 3e 26 f3 12 3d
       -0.19728354 -0.14798515 0.22665206 0.035876416
000320 90 b2 a3 3e 8d d9 8b 3e f8 88 d3 bc 47 b7 db bd
       0.3197217 0.27314416 -0.025822148 -0.10728317
000330 91 e7 dd 3d 31 12 92 3d b2 c3 34 3d 6a 61 9d 3e
       0.108351834 0.07132376 0.044131942 0.30738384
000340 d7 0c 2e 3e 06 55 93 be 01 ae 5e be 65 fd 8b be
       0.16997086 -0.28775805 -0.21746065 -0.27341762
000350 2c 5d 83 3e 35 ca be bd 88 8b 57 bc 86 16 fc bb
       0.25657022 -0.09315912 -0.013155825 -0.0076931147
000360 88 50 81 3e aa 18 aa 3e 12 6e 2e 3e c9 c6 90 be
       0.25256753 0.33221942 0.17034176 -0.2827666
000370 67 69 e7 3d 8f 61 52 be 38 35 dc 3d 5a 4b 18 3e
       0.11299401 -0.20545028 0.10752338 0.14872494
000380 95 89 b6 bd c8 54 a4 bd d2 16 3d be b1 88 b6 3e
       -0.089129604 -0.08023983 -0.18465737 0.35651162
000390 6d e5 4c 3e 56 e9 d5 3d 6d 23 05 3e ff a9 83 3e
       0.20009394 0.10444896 0.13001795 0.25715634
0003a0 b4 1a 50 be 94 92 83 3e 71 f5 bd 3d 6f 54 75 be
       -0.20322686 0.25697768 0.0927533 -0.2395799
0003b0 91 e9 4a be 35 78 9a 3b ab 11 ab 3d 3e 1b f9 b5
       -0.19815661 0.004714037 0.08352979 -1.8559874e-06
0003c0 18 34 25 be 21 dd 8f bd 69 08 26 bd 84 ed e8 3d
       -0.16133153 -0.07024599 -0.040535364 0.113734275
0003d0 9a 36 be 3e fd 79 af be 91 17 3d be e6 5b ac bd
       0.37151033 -0.34272757 -0.18466021 -0.08415966
0003e0 8c 90 04 3d 5d 1a a8 3e 14 44 40 3e dd 71 f5 bd
       0.032364413 0.32832614 0.1877597 -0.11984608
0003f0 51 ce 8e 3e 7d 8c aa bd d4 0e 94 3e 40 6c d4 3d
       0.27891782 -0.08327577 0.28917563 0.103722095

cp.convs.5.weight f4 [64, 1, 3, 3]
000000 4c a3 84 3e 41 44 99 be 96 23 69 bc a8 fd 98 bd
       0.25905836 -0.29934886 -0.014229676 -0.07470256
000010 db 0b a8 be 13 b7 98 be 03 91 c8 3d 46 50 b3 3d
       -0.32821545 -0.29827175 0.09793284 0.08755545
000020 d3 97 62 3e fd b5 9b 3e 1f f1 b7 3e 57 35 e4 3c
       0.22128229 0.30412284 0.35926148 0.027857466
000030 08 a2 f9 bd b6 17 1d 3e c7 bd 94 3e 7b 09 7b 3e
       -0.12189108 0.15341076 0.2905104 0.24515335
000040 41 8b 17 3e ec 5b 0a 3e e5 db 3f 3e 88 97 73 3e
       0.14799215 0.13511628 0.18736227 0.23788273
000050 95 00 07 3e 40 a0 c7 3e cf 7c ea bd da 80 36 be
       0.13183816 0.3898945 -0.114495866 -0.1782259
000060 99 fc bc be 5c db 90 be 3e 6b 97 3e 48 7a ba 3d
       -0.36911467 -0.28292358 0.29574007 0.091053545
000070 67 aa 02 bd ca be 96 be d2 ca 0d 3e 91 0e 49 be
       -0.03190079 -0.29442436 0.13846901 -0.19634463
000080 c5 c8 97 be 66 c0 c2 bd f4 f0 80 3e 81 08 e0 3d
       -0.29645362 -0.09509353 0.25183833 0.10939122
000090 4d 86 57 be c3 e7 77 be 73 d8 a5 3d ef ad bf be
       -0.21047325 -0.24209504 0.08097925 -0.37437388
0000a0 68 06 12 be 2d 0a 15 3e 39 21 01 3e 83 74 a7 3e
       -0.14260256 0.14554663 0.1261033 0.3270608
0000b0 c3 b5 50 3e 7e ee 51 be 1f af 94 3d b6 22 06 bd
       0.20381837 -0.20501134 0.07259964 -0.032747947
0000c0 23 9b 09 bd fd 8f d9 3d a2 67 83 3e 3e 64 96 3d
       -0.033595216 0.10623167 0.25665003 0.073433384
0000d0 9e 29 1e be 4e 00 87 3e 20 aa b5 be a3 e7 c9 3b
       -0.15445563 0.2636742 -0.35481358 0.0061616465
0000e0 7f b3 b6 be 1e 17 6c 3e ba 51 35 be 20 66 35 3e
       -0.3568382 0.23055694 -0.17706957 0.17714739
0000f0 60 c0 97 bd 9f 0d bb be cf 30 8f bd b6 d5 29 be
       -0.074097395 -0.3653383 -0.069917314 -0.1658543
000100 50 0b 44 be aa 12 70 be 56 45 87 3d 48 55 d6 bd
       -0.1914494 -0.2344462 0.06605022 -0.10465485
000110 59 b1 ce bd e9 19 ad 3e 72 fc 60 3d df bb 85 be
       -0.1009242 0.3380883 0.05492825 -0.26119897
000120 0b af 00 bd a3 e6 c9 bd 24 ed be 3e 95 35 af be
       -0.031416934 -0.098584436 0.372903 -0.34220567
000130 2a a1 98 be 50 30 5c bd 89 95 89 3d 97 a4 0d be
       -0.29810458 -0.053757012 0.06717975 -0.13832317
000140 40 5b 2d 3d d8 8a 73 be 76 f4 3e 3e c1 61 7f 3e
       0.04232335 -0.23783433 0.18647942 0.24939634
000150 1b 9d a7 be 85 00 b6 3d 35 04 bc be 50 96 b6 3d
       -0.3273705 0.08886818 -0.3672196 0.089153886
000160 cf bb e4 3d 03 ac 00 3d c3 14 85 bc 87 e6 70 be
       0.11168634 0.031414043 -0.016245252 -0.23525439
000170 bc 68 c3 be 99 8b 8a 3e df 64 bc 3a c1 d0 63 3e
       -0.38165843 0.2705963 0.0014373324 0.22247602
000180 48 d7 34 be a6 c9 2e 3e 7e d4 b5 3c 07 0a c9 3e
       -0.17660248 0.1706911 0.02219605 0.39265463
000190 93 8b 98 bd 6e 0f 92 3e f3 62 81 3e 77 19 de bd
       -0.07448497 0.28527397 0.25270805 -0.10844701
0001a0 eb 60 74 be 4c ae 68 bd 99 93 64 be eb 48 46 3e
       -0.23865096 -0.056806847 -0.22321929 0.19363753
0001b0 e5 28 0e 3e 6f a6 19 3e d1 8a 3e 3e 9d ee be be
       0.13882788 0.15004896 0.18607642 -0.37291422
0001c0 81 fb 64 be 7b d0 9f 3e 47 0f c1 be dd 7b d4 bd
       -0.22361566 0.31213745 -0.37706968 -0.103751875
0001d0 d2 51 6a 3e fb 07 c3 3d be 1c 8f 3d 14 3e 12 3e
       0.22882774 0.095230065 0.06987904 0.14281493
0001e0 d8 70 48 3e 09 15 58 3e 66 05 5d be e2 66 54 be
       0.19574296 0.21101774 -0.2158409 -0.20742372
0001f0 81 03 35 3c 63 32 5c 3d 2e eb 83 3e cd d5 ea bd
       0.011048199 0.05375899 0.25765365 -0.114665605
000200 ea ab 47 bb b5 53 62 3e cc 39 52 3e cc a1 a3 3d
       -0.003046746 0.22102244 0.2052986 0.07989845
000210 94 1c 33 3e 8e ea c2 bc 93 3a 4f 3d 47 75 f3 3d
       0.1749137 -0.023793485 0.05059297 0.11887603
000220 2e 67 f6 3d 76 55 85 3e a5 e9 ae 3d f6 35 5d be
       0.12031399 0.26041764 0.08540658 -0.21602616
000230 7c f8 d1 bd a3 4e 84 bd b6 ca 99 3e 06 0b c8 3e
       -0.10252473 -0.06460311 0.3003747 0.3907091
000240 12 28 ec bd a6 3c 62 3d ad 09 35 be 39 dd 8f bc
       -0.1153108 0.05523362 -0.17679472 -0.017561542
000250 de c9 e2 bd f3 39 05 be fb 84 6b be f0 b8 fb 3b
       -0.11073659 -0.13010387 -0.22999947 0.0076819584
000260 0e eb 32 bd 25 54 63 be c1 e6 ab 3e 58 c8 5e 3e
       -0.043681197 -0.22200067 0.3357449 0.21756113
000270 11 81 ef bd 80 3e 60 3e 7c 45 0c bc f0 ca 09 3e
       -0.11694539 0.21898842 -0.008561488 0.13456321
000280 a2 fd c8 bd 9a 41 3b 3d 89 3f c1 be 94 cd 30 3e
       -0.098140016 0.04571686 -0.37743786 0.17265922
000290 14 cb 83 be 3e d7 e5 3d 99 73 18 3e a9 af 1e be
       -0.25740874 0.11222695 0.14887847 -0.15496697
0002a0 f1 0a a0 be ad 39 85 3e 0a 83 18 3e 29 b5 84 bd
       -0.31258348 0.26020566 0.14893737 -0.06479866
0002b0 db ed 3e 3e e6 70 81 3c 07 ba 22 be f9 5c aa 3d
       0.18645422 0.015800904 -0.15891276 0.083185144
0002c0 3a 85 e9 3d 45 fb 28 3e 24 42 9a bc 59 3b 85 3e
       0.11402364 0.16502102 -0.018830366 0.2602184
0002d0 79 0d 7a bb 13 ec 2b be f6 6b 9a bd 34 5e 4e be
       -0.0038155003 -0.16789274 -0.07540123 -0.20153123
0002e0 d0 ed 15 3e 50 da aa 3c c1 12 40 be b0 15 04 3e
       0.146415 0.020856053 -0.18757154 0.12898898
0002f0 56 15 70 3d 35 fa 85 3e 26 a3 45 3e 8c fd ea 3d
       0.058614098 0.26167455 0.19300517 0.114741415
000300 1f 3f c7 be 29 05 b0 be cb ba f3 bc e9 7c 75 be
       -0.38915345 -0.34378937 -0.029752156 -0.2397343
000310 46 fe 58 be f5 25 31 3d 85 f0 c4 3e ba 9a 02 3e
       -0.21190748 0.04324909 0.38464752 0.12754336
000320 6d 75 b1 bd a6 b0 ec bc 40 9a 4c 3e 99 19 2a 3d
       -0.08664975 -0.028892826 0.19980717 0.041528318
000330 cd ba 12 3e 4a 70 1c be 3d 50 e4 bd a4 37 8b bd
       0.14329071 -0.1527721 -0.11148117 -0.06797722
000340 be 68 ac 3d c1 05 c9 3b 1b 76 14 be 94 83 82 be
       0.084184155 0.006134719 -0.14498179 -0.2549101
000350 cd eb 5b be d4 4b a4 bd 60 3d e1 3d de 82 20 3e
       -0.2147667 -0.080222756 0.109980345 0.15674922
000360 3e 64 26 3e ca b4 2b 3e 27 a2 fa bd d0 35 1b be
       0.16249177 0.16768184 -0.12237959 -0.15157247
000370 1d af a9 be ee 37 57 bd f0 60 cc 3d 28 41 43 be
       -0.33141413 -0.052543573 0.09979427 -0.19067824
000380 fa 07 ca 3e 64 a0 b7 be 94 e2 ac bc 00 95 bd 3d
       0.3945921 -0.35864556 -0.021104135 0.09256935
000390 d3 59 a0 be 3e 97 a2 3e cf bf 77 be 6c 22 98 bd
       -0.3131853 0.31756014 -0.24194263 -0.074284405
0003a0 1b e6 64 be db bd b2 be 83 e1 c1 be 4a b7 93 be
       -0.22353403 -0.34910473 -0.37867364 -0.28850776
0003b0 aa 09 51 3a d2 e5 1c 3e de 30 bb 3d 50 60 4f be
       0.00079741573 0.15322044 0.0914018 -0.20251584
0003c0 92 73 37 be a4 81 c5 3e c4 b1 21 bc b9 cf 93 3e
       -0.1791518 0.3857547 -0.009869043 0.28869417
0003d0 82 99 b6 be c0 90 80 3e 79 04 f0 bd 1d 69 0a be
       -0.35663992 0.25110435 -0.11719603 -0.1351666
0003e0 9d b1 b1 3d d9 5b 0e bc 54 bf b8 3e 38 65 9e be
       0.08676455 -0.00868889 0.36083472 -0.309366
0003f0 d7 82 76 3d cf 53 59 be 74 8b 72 be 92 48 b5 3d
       0.060183372 -0.21223377 -0.2368601 0.08851732

_mlp.0.weight f4 [64, 252]
000000 c6 cf c7 3c 0e 4e 57 3c 6b ce 22 3d a0 ff 32 3c
       0.024391066 0.013141168 0.039747637 0.010925204
000010 95 3c c4 3b 5e d2 09 3d 40 2d 67 bd e1 c5 6c 3c
       0.0059886673 0.033647887 -0.05643964 0.014451475
000020 5e a6 72 3c 8a c5 64 3d 5e 3d 2d 3d a1 08 80 bd
       0.014810173 0.05585245 0.042294852 -0.06251646
000030 c7 a1 fd 3c a8 4d 87 3c 1e 90 b5 3b fc fa fe bc
       0.03096093 0.016516522 0.0055408617 -0.031125538
000040 ee 8b 64 bd 36 5d 80 3d 6d 0d 7b bd 1f e7 c6 bc
       -0.05579751 0.062677786 -0.0612921 -0.024280129
000050 44 8b 38 bd 9b 4d 3e ba a6 3e 2b 3d 83 9b 9c bc
       -0.04505469 -0.0007259489 0.041807793 -0.019117123
000060 d8 79 6d 3d 33 64 0b 3d 6c 54 98 bc 2f c8 3c bd
       0.057977527 0.034031104 -0.018594943 -0.046089347
000070 48 1f 3f 3c b1 34 c8 bc b0 a2 f3 3c 0d 36 47 3d
       0.011665173 -0.024439188 0.029740661 0.04863553
000080 2e c6 f6 bc 9b 04 6f bc f9 c3 e4 3c 9e da ba 3c
       -0.030123796 -0.0145885 0.027925478 0.022809323
000090 41 7f 7b bc ec a0 2c 3d e0 8d 40 3d a7 c3 88 bc
       -0.015350164 0.042145655 0.047010303 -0.016694857
0000a0 ec 26 72 bd c8 b0 3d 3d 2b 8d 02 bd a1 fb 10 bd
       -0.05911915 0.04631117 -0.03187291 -0.035396222
0000b0 7e b4 73 bd f8 bd 4c 3b 2d 22 02 bd f4 8b 59 3d
       -0.059498303 0.003124116 -0.031770874 0.053111985
0000c0 74 ef 78 3d eb 6f 9a 3c 0c a7 3a bd c9 94 31 bd
       0.060775235 0.018852195 -0.045569465 -0.043354783
0000d0 14 11 f5 3c d9 d1 09 bb 06 8b 5d 3d 02 4e e5 bc
       0.02991537 -0.002102962 0.05408766 -0.027991299
0000e0 da cd 39 bd 67 72 c7 bb b9 6a 35 bd bb 79 aa 3c
       -0.04536233 -0.006086636 -0.04429123 0.020809999
0000f0 69 15 f5 bb 57 e1 98 3b 52 67 a8 3c 89 d1 30 bd
       -0.007479359 0.0046655345 0.02055708 -0.04316858
000100 ed 86 00 bd 9d 2a e2 3b d4 80 6f bc 0b 5f 30 3d
       -0.031378675 0.0069020526 -0.014618117 0.04305939
000110 a8 11 26 3d a5 d2 90 3c 6b a5 2b bd 71 7e 6c 3d
       0.040544182 0.017678568 -0.0419058 0.05773777
000120 4b 02 a0 3c 69 c9 b7 bc 92 f1 5c 3d 25 07 c2 3c
       0.019532343 -0.022434907 0.053941317 0.023685047
000130 ae ae fe bc 57 24 13 3d b2 b7 67 3d 9d ce 7d bc
       -0.031089153 0.03592333 0.05657167 -0.015491155
000140 8d 4c c8 3b 1e 55 da 3c 26 0f 67 bd 1e eb f1 bc
       0.006112641 0.026651915 -0.05641093 -0.029531058
000150 65 59 67 bd 53 8b 3c bd 0c 4d d3 bc d7 46 d1 3c
       -0.056481738 -0.046031307 -0.025793575 0.025546474
000160 c3 13 7f 3d 70 55 a1 3b 23 3b 9d 3c d8 a9 6a bd
       0.062274706 0.004923515 0.019193238 -0.057290882
000170 cc 1a 14 bd b3 43 ce bc 46 67 1a 3b dd 79 16 bd
       -0.036158368 -0.025178766 0.002356009 -0.03673731
000180 25 31 08 3c 01 f4 43 bd 30 7d c9 3c 1a cb b6 3c
       0.008312498 -0.047840122 0.024595827 0.022313643
000190 61 6e f2 bc 39 4b 8c 3c 34 2e 45 3d cf d7 8e bb
       -0.029593648 0.017125713 0.048139766 -0.0043592225
0001a0 d1 8f 85 3c 32 39 3c 3d 20 ce 04 3c 33 c3 bc bc
       0.016303929 0.045952983 0.008105785 -0.023042297
0001b0 7e 35 3a 3d a1 13 db 3a eb 21 5c 3d 6f 2b 99 bc
       0.04546117 0.0016714224 0.053743284 -0.018697469
0001c0 48 09 64 3d 8a 78 02 bd a4 f8 cf bc 25 ea 60 bd
       0.055672914 -0.031853236 -0.025387116 -0.054910798
0001d0 74 99 fe ba e5 52 29 bd d2 7d 6b 3d 4a 84 93 bc
       -0.0019424395 -0.04133882 0.05749304 -0.018007416
0001e0 1f a4 00 bd 39 8e 53 bd 82 94 0b 3c f0 92 c3 3c
       -0.031406518 -0.051649306 0.008519294 0.023873776
0001f0 3f 5f de ba 2c 5b b9 3b 4d 66 60 3d 95 18 56 bd
       -0.0016965641 0.0056566205 0.05478506 -0.052269537
000200 4b 27 02 3d b7 9b 3e bc 0d e4 cc bc 53 79 73 bd
       0.031775754 -0.011633805 -0.025011087 -0.059441876
000210 94 41 07 bd 0f a6 59 3d 2f 46 a0 3c 46 e9 68 3d
       -0.033021525 0.05313688 0.019564716 0.056863092
000220 05 da 68 bd 94 31 3e bd 53 2e 10 bd b7 0e 73 bd
       -0.056848545 -0.046434 -0.03520043 -0.059340205
000230 3c 85 3a bd 94 dc eb 3a 5b f5 92 3c 85 a0 d0 3c
       -0.04553722 0.0017994815 0.01793926 0.025467167
000240 f6 eb 17 3d e6 f6 05 3d bb 6d a0 bc f4 0e f7 bc
       0.037090264 0.032706164 -0.019583574 -0.030158497
000250 91 b0 1c 3d 5b ba a1 bb 97 9d cc bc a5 50 b0 bb
       0.038254324 -0.0049355454 -0.024977488 -0.0053807073
000260 a6 9f e5 bc b8 a2 e3 bc 57 0b a3 3c 95 c8 11 3d
       -0.028030228 -0.027787551 0.019902868 0.03559168
000270 c4 bb 6c bc fa 55 67 bd f0 c9 1d bd db 88 2b bd
       -0.014449064 -0.056478478 -0.03852266 -0.041878562
000280 f2 5c 5e bd 94 60 7d 3d 78 62 2c bd 2d d9 e9 3c
       -0.05428786 0.061859682 -0.042086095 0.02854594
000290 2a 5a 35 3d d6 d3 2b bd ab c5 06 3c 11 31 8a 3c
       0.04427544 -0.04195007 0.008225839 0.0168691
0002a0 b4 6b fa bc 39 ff c1 bc 5e 7f 9e 3c 0f 7a 8c b9
       -0.030568935 -0.02368127 0.019347843 -0.00026793822
0002b0 de b5 52 bd a2 f6 80 bd ca bd 29 3d e9 3c 1f 3d
       -0.051442973 -0.062970415 0.041440763 0.038876448
0002c0 7f b2 32 bd 84 f6 e9 ba 84 a4 7b bc 77 49 f0 3c
       -0.04362726 -0.0017849957 -0.015359048 0.029331906
0002d0 6d 29 6c 3d fa 61 55 3c e4 39 66 bd 83 ee 19 bc
       0.057656694 0.013023848 -0.056207553 -0.0093952445
0002e0 d7 97 9c 3c 58 75 c1 3c 96 f7 3d bc d4 a4 4d 3d
       0.019115372 0.023615524 -0.011594674 0.05020602
0002f0 83 8f c8 bc b3 60 33 bd 9e 4a 03 3a 02 2a 05 3d
       -0.024482494 -0.04379339 0.0005008372 0.032510765
000300 74 11 d9 3c 6d 67 51 3d 82 ac 03 bd d2 95 44 bd
       0.02649758 0.051124025 -0.03214694 -0.047994442
000310 96 1c 15 3c 18 ee 6b 3c ec 3f 7e 3d 16 0a 98 3c
       0.009101054 0.014400028 0.06207268 0.018559497
000320 21 07 42 3d 3f 0f 16 3d 7c 57 26 bd 0d 34 99 3b
       0.04737008 0.036635634 -0.040610775 0.0046753944
000330 7f 90 55 bd e8 d8 b9 3c df be 11 bd 5c 91 ab 3c
       -0.052139755 0.022686437 -0.03558242 0.020943336
000340 ba d1 54 3d 96 5b 90 3c a9 86 2f 3d 09 5a 26 bd
       0.051957823 0.017621797 0.04285303 -0.040613208
000350 2b d2 38 bd 30 61 56 3d 29 b3 7f bc 92 2e 2c 3d
       -0.045122307 0.05233878 -0.01560668 0.0420366
000360 92 91 7d 3d ca de 34 3c ee 5e fc bc 7e e2 65 3d
       0.061906405 0.011039445 -0.030806985 0.056124203
000370 31 38 24 bd df 92 1a 3d 54 91 01 3d 35 e3 1d 3c
       -0.04009265 0.037737723 0.031632736 0.00963669
000380 75 38 8f bc 77 82 c5 bc 7e 8e 1b 3c 77 91 67 3d
       -0.017482975 -0.024110062 0.009494422 0.05653521
000390 e8 97 5f bd 1f 4a 24 3c 7e 81 1f 3d 59 e5 bd bc
       -0.05458823 0.0100274375 0.038941853 -0.02318065
0003a0 ff 80 16 bd ad 7d 27 3b c0 a2 d7 3c 42 45 58 bd
       -0.036744114 0.0025557086 0.026322722 -0.052800424
0003b0 41 e6 4d 3d 1d 53 7a bd 36 53 68 bd f3 98 68 3d
       0.050268415 -0.06111442 -0.05671998 0.05678649
0003c0 51 3d 92 3c fd 69 fe 3c 28 0f fd 3c 76 2e 42 bd
       0.017851504 0.031056399 0.030891016 -0.04740759
0003d0 b2 33 10 3c 75 e1 34 3d e3 07 5a 3d 47 44 6a 3d
       0.008801388 0.044160325 0.053230178 0.05719402
0003e0 c6 2f 8a 3c ac 0d 3f 3c c2 80 d6 bc 76 5c 89 3c
       0.016868483 0.0116609745 -0.026184443 0.016767722
0003f0 e0 38 ed bb 34 93 05 bb f3 0e 4d 3d 03 f3 3b 3d
       -0.007239446 -0.002038193 0.050063085 0.04588605

_mlp.0.bias f4 [64]
000000 66 34 4a bd 42 1d 66 bd 41 ab b2 3b ed 61 08 bc
       -0.049366377 -0.056180246 0.005452544 -0.008324129
000010 6c a6 ff 3c 29 ce 97 3b 1e 27 ce 3d 10 72 c7 bd
       0.031207286 0.0046327305 0.10066055 -0.097385526
000020 55 d8 38 3c 12 62 6e 3d 75 7e 21 3d 74 10 dc 3c
       0.011282046 0.058198996 0.03942724 0.026863314
000030 d3 6f 3a 3d 1e 4c d1 3d a0 41 3f 3d dc d4 49 bd
       0.0455168 0.10219596 0.046693444 -0.049275264
000040 65 ab 2c 3d ed d5 05 3d a8 cc b5 bb a3 91 4e 3c
       0.042155642 0.03267472 -0.0055480786 0.012607965
000050 59 88 1b bc 4d c2 a4 3c 1d 14 bc 3d 70 df 8a bd
       -0.009492957 0.020112181 0.09183524 -0.067808986
000060 23 65 bd bd 0b a5 fc bc 56 c0 2d bd a3 b7 d1 3c
       -0.09247806 -0.030840417 -0.042419754 0.02560026
000070 a9 d7 6b 3d 35 0a 67 bd 02 20 88 bc 81 07 ec 3a
       0.057578716 -0.05640622 -0.016616825 0.0018007607
000080 57 47 83 3c 80 55 ea bd ed 63 37 3d 50 06 dd bd
       0.016025228 -0.11442089 0.04477303 -0.1079222
000090 bb 1f 7c 3b 8a 5e 32 3d 1d e2 d5 bd 60 14 6f bd
       0.0038471061 0.04354719 -0.10443518 -0.05836904
0000a0 76 81 75 3d 51 26 f9 3d 91 b9 a9 bc a8 fb e1 bd
       0.059937917 0.121655114 -0.020718368 -0.11034328
0000b0 cb 74 ec bd 51 66 50 bd a1 7c 10 bd a4 72 be 3d
       -0.11545714 -0.050878827 -0.035275105 0.0929921
0000c0 b5 1f 6a bd 2b ea b6 bc 9e f3 29 3c 6c 39 61 3d
       -0.057159144 -0.022328457 0.010373024 0.054986402
0000d0 22 c5 41 bd d0 3b 6a bc 02 87 57 3d 93 7c eb bd
       -0.04730714 -0.014296487 0.052618988 -0.1149837
0000e0 2b e4 75 3d b2 f4 57 bd c9 b2 83 bb 2d 38 ad bc
       0.06003205 -0.052723594 -0.0040191156 -0.02114495
0000f0 d1 20 d9 bc 2e 37 57 3d 6a 71 c8 3d 4a dd 6c bd
       -0.026504906 0.052542858 0.09787257 -0.057828225

_mlp.2.weight f4 [64, 64]
000000 fc 12 13 bd fa 11 87 bd ff c8 d0 3d 30 17 94 bd
       -0.035906777 -0.06595226 0.10194587 -0.07230985
000010 6f 6a 9e 3c 65 f1 c9 3d 28 98 23 3b 10 58 f8 bd
       0.01933786 0.098604955 0.0024962518 -0.121261716
000020 00 92 72 ba c0 d5 06 3b c7 ce 6e 3d 19 fa 6b 3d
       -0.0009253323 0.0020574182 0.058302667 0.05761156
000030 c4 cd 89 3d fc a1 29 bd a1 ca 41 3d d8 eb 28 bd
       0.067287 -0.041414246 0.047312383 -0.041240543
000040 a0 5a c7 bd 41 26 c4 bc 48 a9 0c 3d 00 f4 96 bb
       -0.09734082 -0.023944022 0.034341127 -0.004606724
000050 80 7a 6a bb 38 03 0a 3d 1c f9 1c 3e 78 bd a6 3c
       -0.0035778582 0.033694476 0.15329403 0.020354018
000060 d4 2a 6b 3d 0e cd b6 bd cc f6 73 bd 22 ba 1a 3d
       0.05741389 -0.0892583 -0.059561536 0.037775166
000070 f3 b3 c2 3d 14 44 00 3d 68 f0 bd bc 4a 00 e5 3d
       0.09506979 0.031314924 -0.023185924 0.11181696
000080 1f 51 f1 3d d8 cc b1 bd 44 9a 6b bd 00 03 a3 ba
       0.11783051 -0.08681649 -0.057520166 -0.0012436807
000090 c8 00 ae 3d 48 50 e9 bd 32 3a 8b bd 60 87 39 3d
       0.08496243 -0.113922656 -0.06798209 0.04529512
0000a0 08 37 df bc 8e 1f dd 3d d0 bb 08 3d 02 01 a9 bd
       -0.02724792 0.10797034 0.033382237 -0.08252145
0000b0 6c 4a ff 3d 2c 93 99 bd 00 a0 6f ba e6 7b 14 3e
       0.12465367 -0.07498774 -0.00091409683 0.14500389
0000c0 b8 9d 9a 3c 20 53 03 bc 80 86 b8 3b 0f 8e c7 3d
       0.018874034 -0.008015424 0.005631268 0.097438924
0000d0 c0 16 2a 3d 20 ac 40 bc 40 0b 72 3d 52 df e8 3d
       0.041525602 -0.011759788 0.05909276 0.1137072
0000e0 14 e1 57 bd a0 37 1f bc b8 43 7b bd 84 28 2d 3d
       -0.052704886 -0.009717852 -0.06134388 0.042274967
0000f0 2e b2 bd bd ee 29 84 3d a4 a1 de 3d 5e 97 c8 bd
       -0.09262501 0.0645331 0.10870674 -0.09794496
000100 30 be 11 bd 50 8c 34 3d a6 1c 30 3e 51 0c d9 3c
       -0.035581768 0.044079125 0.17198429 0.02649513
000110 ee bc f6 bd 1c 16 50 bc 61 ee 73 bd 5d 02 1b 3e
       -0.12047754 -0.012700584 -0.059553508 0.1513762
000120 e0 60 a0 3c 46 d0 b1 bd ec 95 8d bb 86 55 cb 3d
       0.019577444 -0.08682303 -0.0043208506 0.09928422
000130 b1 fd 25 3e b2 9a 1d 3e 29 b9 b0 ba 10 50 61 bd
       0.16210057 0.15391043 -0.0013482916 -0.055007994
000140 70 31 38 3d e2 40 a2 bc 20 9c bf bb 98 34 e8 bc
       0.044969022 -0.01980633 -0.005847469 -0.028345391
000150 d3 64 f6 3d 67 83 3c 3e 55 50 e3 3b db a7 33 3e
       0.120309494 0.18409501 0.0069370666 0.175445
000160 0f 57 1b bd 24 30 ed 3d f4 5d 98 3d 06 d6 f9 3d
       -0.037924822 0.11581448 0.07439795 0.12199025
000170 73 d6 62 bc ad 2c 47 bb 2c 3e 30 bd 8a 01 84 bd
       -0.013845074 -0.003039162 -0.04302804 -0.06445606
000180 1e 5a d4 3d 06 95 e4 3b 58 06 24 bd 6f 4b 1f bd
       0.10368751 0.006975773 -0.040045112 -0.0388903
000190 f8 e8 cf bd 46 12 96 bd 97 01 6a 3d 0a 3c 8a bd
       -0.10151857 -0.07327704 0.057130422 -0.06749733
0001a0 9c b9 01 bd e4 4e cb 3c 1e 92 2c 3e 4f be 23 3e
       -0.03167115 0.024817891 0.16852614 0.15990566
0001b0 9e 07 7b 3d 4d a6 a0 3d 66 83 07 be 29 db de bc
       0.06128656 0.07844219 -0.13233718 -0.027204113
0001c0 a0 33 a0 bb a0 8f d4 3c 58 b2 3c bd 15 15 ac 3d
       -0.0048889667 0.025947392 -0.04606852 0.084024586
0001d0 7a 1b 58 bd e8 65 f2 bc 38 16 75 3d 52 dc 14 3e
       -0.05276058 -0.029589608 0.059835643 0.1453717
0001e0 bc 85 99 bb 4c 67 9e 3d 7c cb fb 3d 5c 22 7b 3d
       -0.004685132 0.07734546 0.12294671 0.061312065
0001f0 e8 bf 11 bd 6e a5 a3 bd 1b d9 32 3e 70 7a 2a 3d
       -0.035583407 -0.079905376 0.17465632 0.04162067
000200 58 76 a9 3d e0 01 fb bc 34 d4 4f 3d 8e 29 40 3d
       0.082745254 -0.030640543 0.050739482 0.04691463
000210 80 91 46 3c 2a 80 ac 3d 3e 25 36 be 01 be c6 bc
       0.012119651 0.08422883 -0.17787644 -0.024260523
000220 92 23 d8 3d d8 7b af bd e5 c4 1f bc 88 1c 35 be
       0.105536595 -0.08568543 -0.009751533 -0.17686665
000230 e5 c2 42 3d ef d6 11 be 16 84 32 be 84 e9 16 3d
       0.047549147 -0.14242147 -0.174332 0.03684379
000240 98 43 cf 3d 66 d3 81 3d f0 1c bc bc 00 fc 31 bc
       0.10120314 0.06339149 -0.022963017 -0.010863304
000250 3d 2d 7a bd 82 fa 09 be ba 94 8a bd 41 ad b4 3c
       -0.0610783 -0.13474467 -0.067666486 0.02205527
000260 85 3d bd bd 22 0f fa bd 55 54 72 bc 37 ff 12 3d
       -0.092402495 -0.122099176 -0.014790614 0.035887923
000270 64 c6 38 be 0a 6b db 3c 98 71 f2 3c 9f e6 98 3d
       -0.1804443 0.026784439 0.029595181 0.074658625
000280 72 af 24 be ef 2e 25 be 84 9e 57 bd be 08 47 bd
       -0.16082552 -0.16131185 -0.052641407 -0.04859232
000290 7e 91 f7 3d ac de 21 bd fd 7e b8 3b 06 5f b7 bd
       0.12088297 -0.039518997 0.0056303726 -0.08953671
0002a0 7c 22 65 3d 21 b3 70 bd d6 b7 02 ba 0b 08 4c 3d
       0.05594109 -0.05876458 -0.00049865 0.049812358
0002b0 e5 79 15 be ae 7c a0 bc 11 cd 05 bd 5d 55 2f be
       -0.1459728 -0.019590702 -0.03266627 -0.17122407
0002c0 58 24 59 3d c9 9c 3a be cc 0d 04 bd 6d 43 1a be
       0.053013176 -0.18223871 -0.03223972 -0.15064783
0002d0 2a eb 83 3d 20 17 9d 3d b8 fd 54 bd c1 56 1c bd
       0.06441338 0.07670426 -0.051999778 -0.038168672
0002e0 92 79 25 3d 1e 0c 2f 3d 21 68 41 3d 40 d0 2b 3d
       0.04039914 0.042736165 0.047218446 0.04194665
0002f0 b3 55 28 be fa 79 f6 3d 11 f7 50 3d 26 83 b6 bd
       -0.16438942 0.12034984 0.05101687 -0.08911733
000300 78 f6 3b 3d 9a 4b 9d 3d 93 65 9f bb 6d 30 16 bd
       0.045889348 0.076804355 -0.0048644035 -0.036667276
000310 25 55 b0 bb 71 1d c2 3d 29 56 04 3e 32 30 f0 3d
       -0.005381244 0.09478272 0.12923492 0.117279425
000320 3c 3e cc bd bc 73 de 3d 98 fc f1 bd be 11 c2 3c
       -0.09972808 0.10861918 -0.118157566 0.0236901
000330 55 b0 5f 3d bd f1 fd 3c ae e2 28 3d 68 6b df 3c
       0.054611523 0.030999059 0.041231804 0.027272895
000340 c0 6b 1d 3c ef 01 85 bc b8 da ba 3d fc d9 d1 bd
       0.009608209 -0.016236274 0.091237485 -0.10246655
000350 f9 98 95 3d 91 18 e6 38 86 e2 6c bb 2c b0 2d 3e
       0.07304568 0.000109718305 -0.003614576 0.16961735
000360 f0 95 97 3d 5b fa 8c 3d af 9e 04 3e 67 ce c1 bd
       0.07401645 0.06883689 0.12951158 -0.09463196
000370 e9 c4 e6 bd 6c 14 26 3c 96 be 43 bd 8c a5 97 bd
       -0.112680264 0.010136705 -0.04778918 -0.074046224
000380 0c c6 08 3e 96 57 c0 3d c6 32 e0 3d a7 ea 0e bd
       0.13356799 0.09391706 0.10947184 -0.03489175
000390 40 8e f8 bd 60 b8 ee bc 72 31 ff 3d a6 24 87 bd
       -0.12136507 -0.029140651 0.12460603 -0.06598787
0003a0 4e 88 99 3d c8 5a f8 bd 70 b9 1b 3e 8d 91 1b 3e
       0.07496701 -0.1212669 0.15207458 0.15192242
0003b0 3d 11 ba bc 3b 7c f5 3b ad 58 95 3d 20 2e dc 3d
       -0.022713298 0.007491616 0.07292304 0.10750985
0003c0 e2 77 81 3d 77 26 2e 3e 94 38 26 3d a8 73 dd 3d
       0.06321694 0.1700686 0.0405813 0.10813075
0003d0 74 37 9f 3b a8 b8 c9 3c 1e 44 85 3d f0 bf fd 3d
       0.0048589054 0.024624184 0.06507133 0.12390125
0003e0 36 88 e6 bb c9 bd 14 3e f5 cb 3f 3d cc 96 f7 bd
       -0.0070352806 0.14525522 0.046825368 -0.12089309
0003f0 da c0 89 3d 26 bd af 3d c5 97 b2 bd 88 49 7c bd
       0.06726237 0.08580999 -0.08720354 -0.061593562

_mlp.2.bias f4 [64]
000000 44 52 3c 3d 13 ae c4 3a c6 77 4a bb a8 82 86 3d
       0.045976892 0.0015005491 -0.0030894144 0.065678895
000010 70 0f 81 bd c9 71 6b bd e0 29 06 bc 6b 47 22 3e
       -0.063017726 -0.05748156 -0.008188695 0.15847556
000020 e0 39 e8 3c fa 83 33 be 75 03 6c bd e1 69 1d 3c
       0.02834791 -0.17530814 -0.057620484 0.009607763
000030 80 6c 22 3d f2 fa 1a 3e a0 fd 4f 3d 4e d1 5c 3c
       0.039654255 0.1513479 0.050778985 0.0134776365
000040 cc 0d 24 3d a2 c2 8a bd 12 96 86 bd 28 6d 2e 3d
       0.04005222 -0.067754045 -0.065715924 0.04258457
000050 2e fb 37 be 92 70 5e bd 4c 3c b0 3d 13 98 f0 3c
       -0.17966911 -0.054306574 0.08605251 0.02936939
000060 c7 07 fd bc c8 f0 f1 3d 88 b2 a3 3c fc d3 81 3d
       -0.030887498 0.118135035 0.019982591 0.06339261
000070 89 48 15 3d 3c 83 0f 3e d7 36 98 bc b6 79 e2 bd
       0.036446128 0.14014906 -0.018580837 -0.11058371
000080 85 28 14 3e 02 95 4a bd bf c6 dc 3d 0d ae 21 3e
       0.14468582 -0.04945851 0.10780095 0.15789051
000090 70 5f 10 bd 30 59 09 3c 80 fc bc 3c 78 7a 8d bd
       -0.035247266 0.00838308 0.02306962 -0.06908125
0000a0 1c 6d 90 3d 89 bb 37 be f2 6c bc 3d 92 de 61 bd
       0.07052061 -0.17942633 0.09200467 -0.0551439
0000b0 c4 7a 02 bd c9 e5 35 3e d7 71 40 bd 66 34 92 3d
       -0.03185536 0.17763437 -0.046983566 0.071389005
0000c0 42 08 99 bb dd f9 23 bc aa 24 b8 3d de ad 90 bd
       -0.004670174 -0.0100083025 0.08991368 -0.070644125
0000d0 30 78 14 3e b7 a0 78 bd 88 45 c7 3d 5c 08 9a bd
       0.14498973 -0.060700145 0.09730059 -0.07521126
0000e0 fe 48 2b 3d ce 8c 00 3e 28 1b 8c bd 72 8c cd bd
       0.041817658 0.12553713 -0.06841117 -0.100365534
0000f0 46 39 af bd 62 00 dd bd fa ec d9 bd 68 e8 35 bd
       -0.08555846 -0.10791089 -0.10640903 -0.044411093

_mlp.4.weight f4 [1, 64]
000000 e6 28 96 3d a5 be 67 bd 8c 7b 55 3d 15 06 76 bd
       0.073320195 -0.056578297 0.052119777 -0.060064394
000010 3b 7c 2f 3d fc 4c 35 3e 74 86 02 bd 32 ae 22 be
       0.042843085 0.17705148 -0.031866506 -0.15886763
000020 10 75 c2 bc 3c c9 64 3c a1 fb 36 3e 40 a0 dd bd
       -0.02373746 0.013963994 0.17869426 -0.10821581
000030 ab 46 5f bd 41 08 90 bd 9a fc c5 3d 47 d3 63 3d
       -0.054510754 -0.07032824 0.096673205 0.05562141
000040 fe dc f2 bd 60 8d 9e bc 0e f5 e6 bc 10 65 7b 3d
       -0.11858557 -0.019354522 -0.028193023 0.061375678
000050 1d 9a 59 bd 1d 03 61 bc fc f7 ff 3d b9 0a fb 3c
       -0.05312549 -0.013733652 0.12498471 0.030644761
000060 7f e0 e4 3c 31 25 95 bd 6b a8 de 3d a2 0b ba bd
       0.02793908 -0.07282484 0.10871967 -0.0908425
000070 da 57 e7 bd f0 92 0a 3e 06 22 71 bd 02 04 d0 bd
       -0.11296053 0.13532615 -0.058870338 -0.101570144
000080 36 bc 34 be 52 2b fc 3d 7a 04 23 3e a1 1c 04 be
       -0.17649922 0.1231295 0.15919676 -0.12901546
000090 40 56 f4 3c 60 60 a3 bb 34 da 67 bd b0 6f 3a 3c
       0.029826283 -0.004985854 -0.05660458 0.011379167
0000a0 d0 95 45 bd eb d2 16 3c 70 3a dc 3c 5a cd c4 3d
       -0.048238575 0.00920556 0.026883334 0.0960948
0000b0 03 af 3f 3d 0e 94 d7 bd 4a 30 08 be 60 5d a0 3b
       0.046797764 -0.10526286 -0.13299671 0.0048939437
0000c0 88 3c e1 3c 5c be f8 bd 70 c8 a0 bd d8 92 fd 3c
       0.027494684 -0.12145683 -0.078507304 0.03095381
0000d0 6d 3a 0e be 4a ce 9b bc 20 89 11 3c 48 a1 44 3d
       -0.13889475 -0.019019265 0.008882791 0.048005372
0000e0 df bd 1d 3d 6a b4 ce bd 24 a8 fb 3d 15 0e d6 bb
       0.038511153 -0.10093005 0.1228793 -0.0065324404
0000f0 b3 2d 8a 3d ac 66 2c 3d 00 16 bf b9 a8 e3 97 bd
       0.06746998 0.042090103 -0.0003644675 -0.07416469

exp_avg f4 [2, 1, 3, 3]
000000 90 5b 73 03 5a 34 b3 03 6a 0a 08 04 39 50 d6 01
       7.151639e-37 1.0532694e-36 1.5991505e-36 7.87263e-38
000010 56 5b fd 03 f6 a6 1a 04 31 dd 65 03 dd e7 dd 03
       1.4890973e-36 1.8179278e-36 6.7550967e-37 1.3042446e-36
000020 d5 07 03 03 e6 a4 3e 83 fe 3e 00 00 ad fa 8c 83
       3.850643e-37 -5.6025276e-37 2.2597e-41 -8.286013e-37
000030 cb 45 dd 83 3b eb f8 83 58 e1 3b 03 6e 5b 96 83
       -1.3005236e-36 -1.4630136e-36 5.5213043e-37 -8.837199e-37
000040 15 9f cd 83 72 1f c0 03
       -1.20853405e-36 1.1291965e-36

exp_avg_sq f4 [2, 1, 3, 3]
000000 00 00 00 00 00 00 00 00 00 00 00 00 00 00 00 00
       0.0 0.0 0.0 0.0
000010 00 00 00 00 00 00 00 00 00 00 00 00 00 00 00 00
       0.0 0.0 0.0 0.0
000020 00 00 00 00 00 00 00 00 00 00 00 00 00 00 00 00
       0.0 0.0 0.0 0.0
000030 00 00 00 00 00 00 00 00 00 00 00 00 00 00 00 00
       0.0 0.0 0.0 0.0
000040 00 00 00 00 00 00 00 00
       0.0 0.0

exp_avg f4 [4, 1, 3, 3]
000000 cb c0 99 01 2c 4d c3 02 2e 8a a3 03 a7 ea ff 80
       5.647997e-38 2.869697e-37 9.6120035e-37 -2.3502229e-38
000010 4a 58 91 03 82 d7 68 03 09 65 3b 01 2e 48 8f 03
       8.542604e-37 6.8426063e-37 3.4418965e-38 8.421356e-37
000020 c9 c2 11 03 ac 28 46 83 84 74 a7 83 d9 fa 90 83
       4.2835273e-37 -5.823366e-37 -9.8421285e-37 -8.521151e-37
000030 a8 b2 72 83 52 6a b2 83 6f 80 05 83 17 42 a5 83
       -7.1322496e-37 -1.048631e-36 -3.923262e-37 -9.713002e-37
000040 41 04 5b 01 e2 01 01 82 5a a7 14 83 8c 0c 24 81
       4.0227e-38 -9.477964e-38 -4.36854e-37 -3.0131045e-38
000050 0b 1d 64 03 b4 98 73 80 b5 fe de 02 ad 74 bc 02
       6.7036518e-37 -1.0615862e-38 3.2766163e-37 2.7691086e-37
000060 81 45 f8 02 ad fd 2c 03 30 9c bc 82 f8 36 1b 03
       3.6480218e-37 5.0837463e-37 -2.7713764e-37 4.5613507e-37
000070 c8 e8 d7 82 99 f8 ce 02 fa ca 91 03 35 0a 8b 82
       -3.172502e-37 3.0411668e-37 8.568935e-37 -2.0430073e-37
000080 48 92 02 83 4c f3 17 03 dc bf d7 02 aa 56 48 83
       -3.837149e-37 4.4654203e-37 3.1701533e-37 -5.8874203e-37

exp_avg_sq f4 [4, 1, 3, 3]
000000 00 00 00 00 00 00 00 00 00 00 00 00 00 00 00 00
       0.0 0.0 0.0 0.0
000010 00 00 00 00 00 00 00 00 00 00 00 00 00 00 00 00
       0.0 0.0 0.0 0.0
000020 00 00 00 00 00 00 00 00 00 00 00 00 00 00 00 00
       0.0 0.0 0.0 0.0
000030 00 00 00 00 00 00 00 00 00 00 00 00 00 00 00 00
       0.0 0.0 0.0 0.0
000040 00 00 00 00 00 00 00 00 00 00 00 00 00 00 00 00
       0.0 0.0 0.0 0.0
000050 00 00 00 00 00 00 00 00 00 00 00 00 00 00 00 00
       0.0 0.0 0.0 0.0
000060 00 00 00 00 00 00 00 00 00 00 00 00 00 00 00 00
       0.0 0.0 0.0 0.0
000070 00 00 00 00 00 00 00 00 00 00 00 00 00 00 00 00
       0.0 0.0 0.0 0.0
000080 00 00 00 00 00 00 00 00 00 00 00 00 00 00 00 00
       0.0 0.0 0.0 0.0

exp_avg f4 [8, 1, 3, 3]
000000 5c 9a ab 02 cb 7a 00 03 bc c7 24 03 2a dc e5 01
       2.521479e-37 3.775678e-37 4.842455e-37 8.4437234e-38
000010 2a 40 09 03 17 6e 40 03 d2 c7 ac 02 b4 05 ea 02
       4.033434e-37 5.6550106e-37 2.538782e-37 3.4386483e-37
000020 1b 09 e9 02 d5 60 3c 82 17 af 2a 82 fd ed 08 03
       3.42415e-37 -1.3839848e-37 -1.2539876e-37 4.0240005e-37
000030 fd f8 b9 82 12 ba aa 02 d9 c0 94 02 e2 07 76 82
       -2.732622e-37 2.5086054e-37 2.1857335e-37 -1.8075488e-37
000040 82 33 01 03 fe 0d 12 01 84 b9 e3 02 6c 5e 07 03
       3.796882e-37 2.6826004e-38 3.3461133e-37 3.9781325e-37
000050 27 3a ec 02 2c 70 60 03 9f 73 2e 03 f8 2e 94 02
       3.4710461e-37 6.595645e-37 5.126673e-37 2.1773604e-37
000060 f8 59 24 03 c4 e8 07 03 91 b9 e0 02 fa eb 02 83
       4.8298547e-37 3.9940136e-37 3.3020352e-37 -3.8474454e-37
000070 84 4a 10 82 dd 9d ea 82 0c e0 3d 82 ee 13 24 83
       -1.0600834e-37 -3.4473819e-37 -1.3949825e-37 -4.8218147e-37
000080 26 8b ff 82 1b 26 7b 83 c7 6a 51 83 f1 c4 22 02
       -3.754875e-37 -7.3806013e-37 -6.1542154e-37 1.19584e-37
000090 1d ef 46 03 a9 a0 2e 82 19 9e 53 83 b7 33 29 02
       5.846146e-37 -1.2829608e-37 -6.2188814e-37 1.2431e-37
0000a0 0d f5 07 82 9e f5 fd 81 b1 aa b9 82 bd 82 c7 81
       -9.98856e-38 -9.3289965e-38 -2.728128e-37 -7.3288655e-38
0000b0 f0 55 2c 03 ad e5 66 01 67 40 ab 02 0a 60 87 02
       5.064491e-37 4.2409113e-38 2.5163157e-37 1.989159e-37
0000c0 fd 68 9e 02 b6 6c aa 02 5f f0 9c 81 93 6e 95 02
       2.3276274e-37 2.5041652e-37 -5.7650265e-38 2.1957049e-37
0000d0 8e 2e 16 80 99 66 5d 82 44 ac e2 82 cb f4 3d 03
       -2.037082e-39 -1.626596e-37 -3.330659e-37 5.5823117e-37
0000e0 90 8c 7e 02 a4 b8 3d 82 c5 ed f6 02 4c e3 fe 02
       1.8701312e-37 -1.3938516e-37 3.6282924e-37 3.7452408e-37
0000f0 a5 7b f3 81 1e b5 ba 02 d1 e7 f3 02 b2 69 75 00
       -8.9441523e-38 2.74342e-37 3.5838697e-37 1.078267e-38
000100 6f f8 a3 02 66 e8 91 82 94 48 a6 82 cf 65 5b 02
       2.4093291e-37 -2.1439225e-37 -2.4433166e-37 1.6118797e-37
000110 98 a3 30 02 d0 5d c9 00 6d d3 91 82 91 36 9e 02
       1.2977387e-37 1.8492588e-38 -2.1427188e-37 2.3247333e-37

exp_avg_sq f4 [8, 1, 3, 3]
000000 00 00 00 00 00 00 00 00 00 00 00 00 00 00 00 00
       0.0 0.0 0.0 0.0
000010 00 00 00 00 00 00 00 00 00 00 00 00 00 00 00 00
       0.0 0.0 0.0 0.0
000020 00 00 00 00 00 00 00 00 00 00 00 00 00 00 00 00
       0.0 0.0 0.0 0.0
000030 00 00 00 00 00 00 00 00 00 00 00 00 00 00 00 00
       0.0 0.0 0.0 0.0
000040 00 00 00 00 00 00 00 00 00 00 00 00 00 00 00 00
       0.0 0.0 0.0 0.0
000050 00 00 00 00 00 00 00 00 00 00 00 00 00 00 00 00
       0.0 0.0 0.0 0.0
000060 00 00 00 00 00 00 00 00 00 00 00 00 00 00 00 00
       0.0 0.0 0.0 0.0
000070 00 00 00 00 00 00 00 00 00 00 00 00 00 00 00 00
       0.0 0.0 0.0 0.0
000080 00 00 00 00 00 00 00 00 00 00 00 00 00 00 00 00
       0.0 0.0 0.0 0.0
000090 00 00 00 00 00 00 00 00 00 00 00 00 00 00 00 00
       0.0 0.0 0.0 0.0
0000a0 00 00 00 00 00 00 00 00 00 00 00 00 00 00 00 00
       0.0 0.0 0.0 0.0
0000b0 00 00 00 00 00 00 00 00 00 00 00 00 00 00 00 00
       0.0 0.0 0.0 0.0
0000c0 00 00 00 00 00 00 00 00 00 00 00 00 00 00 00 00
       0.0 0.0 0.0 0.0
0000d0 00 00 00 00 00 00 00 00 00 00 00 00 00 00 00 00
       0.0 0.0 0.0 0.0
0000e0 00 00 00 00 00 00 00 00 00 00 00 00 00 00 00 00
       0.0 0.0 0.0 0.0
0000f0 00 00 00 00 00 00 00 00 00 00 00 00 00 00 00 00
       0.0 0.0 0.0 0.0
000100 00 00 00 00 00 00 00 00 00 00 00 00 00 00 00 00
       0.0 0.0 0.0 0.0
000110 00 00 00 00 00 00 00 00 00 00 00 00 00 00 00 00
       0.0 0.0 0.0 0.0
