Experiments/Experiments-010/checkpoints/model.pt (torch, 50767 bytes, 27 tensors)

cp.convs.0.weight f4 [2, 1, 3, 3]
0	0xbea8f913	-0.3300253
1	0x3ec211de	0.37904257
2	0x3f0454fe	0.5169219
3	0x3f315e12	0.69284165
4	0xbdd7d52f	-0.105387084
5	0xbf287921	-0.6580983
6	0xbf440b44	-0.7657969
7	0xbe6f6467	-0.23378144
8	0xbe1eb620	-0.15499163
9	0x3e16b3fd	0.14717098
10	0x3e781d32	0.24229887
11	0x3c5b6129	0.013389864
12	0x3d43ab53	0.04777081
13	0x3e71a50e	0.2359812
14	0xbee136c8	-0.43987107
15	0x3edabc76	0.4272191
16	0xbe9315ea	-0.28727657
17	0x3f233388	0.63750505

cp.convs.1.weight f4 [4, 1, 3, 3]
0	0xbf424e9f	-0.75901216
1	0xbd7c9413	-0.061664652
2	0xbe959b0e	-0.2921986
3	0x3f409ad7	0.75236267
4	0xbf1b2bc2	-0.60613644
5	0xbf06a036	-0.5258821
6	0xbe201a73	-0.1563509
7	0x3f75a652	0.9595691
8	0x3f333c6c	0.7001407
9	0xbe339e51	-0.17540862
10	0xbe39f522	-0.18159917
11	0xbf366f44	-0.7126353
12	0xbe58b49a	-0.21162644
13	0xbea02b1a	-0.31282884
14	0xbd629bcd	-0.055324364
15	0xbf113d03	-0.5673372
16	0x3dbb13d1	0.09134639
17	0x3e3a666c	0.18203133
18	0x3e02267d	0.12709995
19	0xbf1029d7	-0.5631384
20	0x3f2299ec	0.63516116
21	0xbf3b43f8	-0.7315059
22	0x3ebe1efe	0.3713302
23	0xbf0cd9a5	-0.550196
24	0x3e782770	0.24233794
25	0xbece0204	-0.40235913
26	0xbea084fc	-0.3135146
27	0x3df3c623	0.11903026
28	0xbdca5a0a	-0.09880455
29	0x3cf12eba	0.029441226
30	0x3dc78331	0.0974182
31	0xbd6825aa	-0.056676544
32	0x3e921652	0.28532654
33	0x3df65716	0.12028329
34	0x3ef29269	0.47377327
35	0x3dec2382	0.1153021

cp.convs.2.weight f4 [8, 1, 3, 3]
0	0xbf6ccbe2	-0.924986
1	0xbdb0dbb9	-0.08635659
2	0x3f839387	1.0279397
3	0xbef34fd8	-0.47521853
4	0xbba48b0f	-0.00502146
5	0x3eee251f	0.46512696
6	0xbf034c8f	-0.51288694
7	0xbe8bac0d	-0.27279702
8	0x3f4eca23	0.80777186
9	0xbf38d3cb	-0.7219817
10	0x3f003cab	0.5009257
11	0x3e62a01f	0.22131394
12	0x3f3b8a61	0.73258024
13	0xbeb06fa1	-0.34460166
14	0xbec3160d	-0.3810276
15	0xbf236fa8	-0.6384225
16	0x3ecf451c	0.40482414
17	0x3e5d870c	0.21633548
18	0xbf2eeec3	-0.6833307
19	0xbec3316e	-0.3812365
20	0xbe8ba3f5	-0.27273527
21	0xbe59fdf4	-0.21288282
22	0x3df335fc	0.11875531
23	0x3ecbec30	0.39828634
24	0xbe68e85e	-0.22744891
25	0x3ef6705c	0.48132598
26	0x3f48f9e8	0.78506327
27	0xbe42daa5	-0.19028719
28	0xbc47a3a5	-0.012185012
29	0xbe878042	-0.2646504
30	0xbf116776	-0.56798494
31	0x3dcedf04	0.101011306
32	0x3e9854d9	0.29752234
33	0x3e9af0b2	0.3026176
34	0x3cd522f7	0.02601765
35	0xbf21fbc9	-0.6327482
36	0xbe9f4b93	-0.31112346
37	0xbedc5740	-0.43035316
38	0xbe96da17	-0.29463264
39	0x3dc8c526	0.09803228
40	0x3ece842a	0.40335208
41	0xbf6538d7	-0.89539856
42	0x3f858105	1.0429999
43	0xbe51af51	-0.20477034
44	0x3f15934d	0.5842789
45	0x3d6482fe	0.055788986
46	0x3db9406b	0.0904549
47	0x3df2cbee	0.11855303
48	0x3ebec8b9	0.37262514
49	0xbde8bd03	-0.11364176
50	0x3e03134c	0.1280033
51	0xbe53ae6f	-0.2067201
52	0x3e655357	0.22395073
53	0x3eae3ee7	0.34032366
54	0x3dc9d8c5	0.09855799
55	0x3dafe452	0.085884705
56	0xbef92deb	-0.48667845
57	0x3e1d93e5	0.15388449
58	0xbecc3400	-0.39883423
59	0x3e833ddb	0.2563313
60	0xbd7bc609	-0.061468158
61	0xbebf7c49	-0.3739951
62	0xbe8cd8c0	-0.27509117
63	0xbe425271	-0.18976761
64	0xbe869444	-0.26284993
65	0x3df0019d	0.11719058
66	0xbe548a6b	-0.20755927
67	0x3e8a853b	0.27054772
68	0x3ec43664	0.38322747
69	0x3e5ad58a	0.21370521
70	0x3eaf2c67	0.34213564
71	0x3eaa6565	0.33280483

cp.convs.3.weight f4 [16, 1, 3, 3]
0	0x3efcb1b9	0.49354342
1	0x3ea3b3de	0.31973165
2	0x3e9bfc7a	0.30466062
3	0x3f29648c	0.6616905
4	0x3f104886	0.5636066
5	0x3ef26a83	0.47346887
6	0x3eb55e9d	0.35423747
7	0x3ea714d0	0.32633066
8	0x3ead27a4	0.33819306
9	0x3f02009b	0.50782174
10	0x3ed72695	0.42021623
11	0x3ec4c1fb	0.38429245
12	0x3f2eff85	0.6835864
13	0x3f31cbce	0.69451606
14	0x3f203ba1	0.62590986
15	0x3ec5ffc4	0.38671696
16	0x3ec16e8b	0.3777965
17	0x3ee357ce	0.44402927
18	0xbf181948	-0.59413576
19	0x3f220519	0.6328903
20	0x3e6227aa	0.22085443
21	0x3f451ca4	0.7699683
22	0xbef61492	-0.4806257
23	0xbed65de9	-0.41868523
24	0xbed94270	-0.424335
25	0x3f037683	0.5135271
26	0x3ed60868	0.41803288
27	0xbf1bdbc0	-0.60882187
28	0x3e8540f7	0.26026127
29	0x3e27c3d0	0.1638329
30	0x3f16e0ec	0.58936954
31	0xbf2718e5	-0.6527236
32	0xbc411ae7	-0.011786199
33	0xbf31931c	-0.69365096
34	0x3ef0fc7a	0.47067624
35	0x3dfbd613	0.12296691
36	0x3f07020f	0.52737516
37	0x3ee00e66	0.43760985
38	0x3e7fca97	0.24979626
39	0x3ed544f0	0.41654158
40	0xbeaa6a8f	-0.33284423
41	0xbe921ec6	-0.28539103
42	0xbf19cf78	-0.600822
43	0xbd67a7ea	-0.05655662
44	0xbed4d9a1	-0.41572288
45	0x3f016e3d	0.50558835
46	0x3f0ba96b	0.54555386
47	0x3edbfd2f	0.429666
48	0x3e595158	0.21222436
49	0x3e6f601f	0.23376511
50	0x3e409027	0.1880499
51	0x3e6c5a51	0.23081328
52	0x3eed64f5	0.46366087
53	0x3f33ea24	0.70279145
54	0x3edf8e63	0.4366332
55	0xbeb52b79	-0.3538473
56	0xbe27a341	-0.1637087
57	0xbf311aa0	-0.6918125
58	0x3cfe3e8e	0.031035688
59	0xbe597375	-0.2123545
60	0x3eb17ba5	0.34664646
61	0x3e06f406	0.13179025
62	0xbee48849	-0.44635227
63	0x3e31b089	0.17352499
64	0x3e4f2d90	0.20232224
65	0x3ee5cbf7	0.44882175
66	0xbe996b72	-0.29964787
67	0xbe1c4dee	-0.15264103
68	0xbd5d1c21	-0.053981904
69	0x3e233f7b	0.15942185
70	0x3eb35322	0.35024363
71	0x3d8893c3	0.06668808
72	0x3f06024c	0.52347255
73	0x3ebe16c4	0.37126744
74	0x3d335443	0.04378153
75	0x3f13f762	0.5779935
76	0x3ec093cb	0.37612757
77	0xbc21f447	-0.0098849
78	0x3ef30692	0.4746595
79	0x3f1cb452	0.61212647
80	0x3e8975f6	0.2684781
81	0xbe396df3	-0.18108349
82	0x3f1bcc3d	0.6085852
83	0xbedd55de	-0.43229574
84	0x3f13eaab	0.5777995
85	0xbf73dd20	-0.95259285
86	0x3ec0c3fd	0.37649527
87	0xbec5f6eb	-0.38664946
88	0x3ea3448d	0.31888238
89	0x3d833cb2	0.06408061
90	0xbe2b75d0	-0.1674416
91	0xbd202976	-0.03910204
92	0x3e773ce5	0.24144323
93	0xbdba81ab	-0.091067635
94	0x3e2a498f	0.16629623
95	0xbda9f18a	-0.08298023
96	0x3e9c0aa2	0.30476862
97	0x3e8bb890	0.27289248
98	0x3ec38a84	0.38191617
99	0x3e9c3bb0	0.30514288
100	0x3cb1c149	0.02169861
101	0x3e8c2c52	0.27377564
102	0x3e20a0e9	0.15686382
103	0x3e51c5c0	0.20485592
104	0x3e258c4a	0.16166797
105	0x3d952db1	0.072841056
106	0xbdffe753	-0.124952935
107	0xbe11ab95	-0.1422561
108	0xbe6166e8	-0.22011912
109	0xbea4413c	-0.3208102
110	0xbd29fbbd	-0.041499842
111	0x3e0d39f6	0.13791642
112	0xbecb98f0	-0.3976512
113	0xbe9f9c44	-0.3117391
114	0x3ea96955	0.33088174
115	0x3de45686	0.111493155
116	0xbe9c40b4	-0.30518115
117	0xbed53841	-0.4164448
118	0x3d8ab9f1	0.06773747
119	0xbe8046ea	-0.25054103
120	0x3e96698e	0.29377407
121	0xbe331c6f	-0.17491315
122	0xbdc396c4	-0.09550241
123	0x3dec24c8	0.11530453
124	0xbedab3de	-0.42715353
125	0xbdea2a3e	-0.11433838
126	0x3e5f1121	0.21783878
127	0x3e33536d	0.17512293
128	0xbd7a49ee	-0.06110566
129	0x3c341ea6	0.010993635
130	0x3d856dac	0.06515059
131	0xbef2d4b5	-0.47427908
132	0xbe06255a	-0.13100186
133	0xbef2701c	-0.47351158
134	0xbea0d913	-0.31415614
135	0xbe8d91a0	-0.27650166
136	0xbe6d3077	-0.23163019
137	0x3e90a0f7	0.28247806
138	0xbe627b7a	-0.22117415
139	0xbe08b26d	-0.13349314
140	0xbd192f4f	-0.037398633
141	0xbea6f6df	-0.32610223
142	0xbe643327	-0.22285138
143	0x3e2fe15f	0.17175816

_mlp.0.weight f4 [32, 60]
0	0x3da4abe5	0.08040599
1	0xbcd34109	-0.025787847
2	0x3c7d74ed	0.015469772
3	0x3e2a4ce8	0.166309
4	0x3dcd339d	0.1001961
5	0x3e1a07db	0.15042059
6	0x3d32424b	0.043520253
7	0x3d2f8c5d	0.04285847
8	0x3e22c797	0.1589645
9	0x3e298aa1	0.16556789
10	0x3ddf78da	0.109117225
11	0xbc6659ed	-0.014059526
12	0x3e22a7c9	0.15884317
13	0x3d8dc22d	0.06921802
14	0x3c1bec42	0.0095167775
15	0x3dd114f7	0.10209077
16	0xbd94deeb	-0.07269081
17	0xbb2ae3c1	-0.0026075693
18	0x3d341c4b	0.043972295
19	0xbd245d92	-0.040128298
20	0x3c8ff9f4	0.017575242
21	0xbd50191a	-0.05080519
22	0x3da3d81e	0.080002055
23	0xbc055d2e	-0.008139892
24	0x3b963812	0.004584321
25	0x3e08e80c	0.13369769
26	0x3cba768d	0.022761608
27	0x3d53b22a	0.051683582
28	0x3db6c866	0.08924942
29	0x3ccac12b	0.024750313
30	0xbc713e40	-0.014724314
31	0xbd330d80	-0.043714046
32	0xbb63b19f	-0.0034743322
33	0xbd168c99	-0.036755178
34	0xbd8e0bc3	-0.06935837
35	0x3e0bf472	0.13667467
36	0x3de9eb7a	0.11421867
37	0xbd23fe41	-0.040037397
38	0x3e06ea5c	0.13175339
39	0xbd3c34ce	-0.045948796
40	0xbd844060	-0.06457591
41	0x3c65705e	0.014003841
42	0x3dc691a0	0.096957445
43	0x3e23f267	0.16010438
44	0x3df6bbff	0.12047576
45	0xbd7e36d5	-0.06206401
46	0xbdeac241	-0.11462832
47	0x3c3a875e	0.011384813
48	0xbd9ae434	-0.075630575
49	0x3d69bdf0	0.057065904
50	0xbc6b66d1	-0.014367775
51	0x3ddb44b3	0.10706463
52	0x3da46b48	0.08028275
53	0xbd8ae2ee	-0.06781565
54	0x3e29c038	0.16577232
55	0xbd36b662	-0.044607528
56	0x3e00d2c3	0.12580399
57	0xbd3d2daa	-0.046186127
58	0xbc22f53a	-0.009946162
59	0xbd23dccb	-0.040005486
60	0x3f04565e	0.51694286
61	0x3ee8523e	0.45375246
62	0x3eed50a6	0.46350592
63	0x3e77122b	0.24128024
64	0x3e9bc497	0.30423424
65	0xbd7bc0ba	-0.061463095
66	0x3e5a37cd	0.21310349
67	0x3e8b2cd1	0.2718263
68	0x3e80a493	0.2512556
69	0xbe5d6e40	-0.21624088
70	0x3e7c40a7	0.24634038
71	0x3ec759b8	0.38935637
72	0x3dd20a52	0.10255875
73	0xbd96c1d3	-0.07361188
74	0x3da59fca	0.08087118
75	0xbdfca98e	-0.123370275
76	0x3f18fa10	0.59756565
77	0x3f0b9953	0.5453083
78	0x3e6dcc82	0.23222545
79	0xbe7dda34	-0.24790269
80	0xbc8b570a	-0.017009277
81	0x3c919eab	0.017775854
82	0x3e2b5bc7	0.16734229
83	0xbcf88256	-0.030335587
84	0x3f122d3c	0.5710027
85	0x3ef271f6	0.4735257
86	0x3e53ea21	0.20694782
87	0xbe46939d	-0.19392247
88	0x3f4ddc79	0.8041454
89	0x3f3af30d	0.73027116
90	0xbe9589a4	-0.29206574
91	0xbea3ba3c	-0.31978023
92	0xbc3fb3af	-0.011700555
93	0xbe3e2318	-0.18568075
94	0xbc7457c8	-0.014913507
95	0x3ec91ff9	0.39282206
96	0x3eea2060	0.45727825
97	0xbeb41f26	-0.35180014
98	0x3f3a3ee7	0.7275223
99	0x3f4ef57b	0.80843323
100	0x3d56db69	0.05245534
101	0x3e638700	0.22219467
102	0xbed0cb46	-0.40780085
103	0x3eb4a829	0.35284546
104	0x3f49b490	0.7879114
105	0x3f1d7c3d	0.615177
106	0xbea32fc0	-0.31872368
107	0xbe9ca0b4	-0.30591357
108	0xbd10b61d	-0.035329927
109	0xbe852e4d	-0.26011887
110	0xbdedf74f	-0.11619436
111	0x3eccff23	0.40038404
112	0x3eef66e2	0.4675818
113	0xbeb5b66d	-0.35490742
114	0x3f608fe6	0.8771957
115	0x3f2ae43f	0.66754526
116	0x3cd8cd91	0.02646521
117	0x3e14772e	0.14498588
118	0xbe7987f7	-0.24368273
119	0x3eb629b1	0.35578683
120	0x3e6a1e73	0.22863178
121	0x3c76e1dd	0.015068498
122	0x3e9c3e27	0.30516168
123	0x3e46849f	0.19386528
124	0x3dc43bdf	0.09581732
125	0xbc83ab9b	-0.016073039
126	0xbdaaa972	-0.083331004
127	0x3d995787	0.07487398
128	0x3e2eccd8	0.17070329
129	0xbc2d97a9	-0.010595241
130	0xbd302146	-0.043000482
131	0xbd135ca6	-0.03597703
132	0x3d026ed3	0.03184397
133	0xbcdecf6d	-0.027198518
134	0xbc95003e	-0.018188592
135	0x3d854137	0.06506579
136	0x3e1069d5	0.14102872
137	0x3c71d682	0.014760615
138	0xbd3afcb3	-0.04565115
139	0xbd9e2432	-0.077217475
140	0xbd8d087a	-0.068863824
141	0xbd4176a8	-0.0472323
142	0xbc71f403	-0.01476765
143	0xbd8b0857	-0.067887
144	0x3d6b3062	0.05741919
145	0x3c4696d7	0.012120924
146	0x3e322b08	0.17399228
147	0xbd9369a0	-0.07197881
148	0x3e9fabeb	0.3118585
149	0x3e7d6290	0.2474463
150	0xbdabdd59	-0.08391828
151	0xbe460242	-0.19336799
152	0xbe4a2975	-0.19742377
153	0x3d262364	0.040561095
154	0xbd837aad	-0.06419883
155	0x3da0f802	0.07859804
156	0x3d2be3f0	0.041965425
157	0xbd3c8cf4	-0.04603286
158	0x3e3a5c3f	0.18199252
159	0x3c924c03	0.01785851
160	0x3e27551d	0.16341062
161	0x3ce033f3	0.027368521
162	0x3ca5f31b	0.020257523
163	0x3cec967b	0.028880348
164	0x3eac068a	0.3359874
165	0x3e60655a	0.21913663
166	0xbd884c11	-0.066551335
167	0x3c05dda6	0.008170521
168	0xbacd9a93	-0.0015686325
169	0xbe1f9e0d	-0.15587635
170	0xbdd32b34	-0.10310975
171	0x3e011a45	0.12607677
172	0xbd10319b	-0.035203557
173	0xbd2a60fe	-0.041596405
174	0x3dff1093	0.12454333
175	0x3df6c70c	0.12049684
176	0x3ddeb5b3	0.108745
177	0x3ce206fe	0.027591225
178	0x3df6bcca	0.120477274
179	0x3d345497	0.044025984
180	0x3dc96b83	0.09834959
181	0xbddb9bb5	-0.10723058
182	0x3e1c4a78	0.15262783
183	0xbcb9f23d	-0.022698516
184	0x3e5466c4	0.20742327
185	0x3e237d81	0.15965845
186	0x3e0e02a5	0.13868196
187	0x3c943741	0.018092753
188	0x3e68b856	0.22726569
189	0x3e11517b	0.14191239
190	0x3d1a4dc6	0.037671827
191	0xbe2771ed	-0.16352053
192	0xbd63b2e4	-0.055590525
193	0x3e7f3b51	0.24924971
194	0xbe2ac417	-0.16676365
195	0x3e10840b	0.1411287
196	0x3de21181	0.11038495
197	0xbc1a144c	-0.009404253
198	0x3cd981c8	0.026551142
199	0x3dfcb46a	0.12339099
200	0xbbe65c82	-0.0070300708
201	0x3d2c3e23	0.042051446
202	0xbe23fe8d	-0.16015072
203	0xbdb7c2e0	-0.08972716
204	0xbdb28369	-0.08716471
205	0x3d4faa76	0.050699674
206	0x3c32c639	0.010911518
207	0xbd91dbf2	-0.07122029
208	0xbf0e3a5b	-0.55557793
209	0xbf126125	-0.5717948
210	0x3e938f5e	0.28820318
211	0x3d711a0a	0.058862723
212	0x3b88d699	0.0041759727
213	0xbe072e0e	-0.13201162
214	0xbd91ac1a	-0.07112904
215	0xbd65a67e	-0.056066982
216	0xbe35f3ce	-0.17768785
217	0x3e95dade	0.29268545
218	0xbdd0c4cd	-0.10193787
219	0xbc484456	-0.012223324
220	0x3c558f4b	0.013034652
221	0xbc9ddc98	-0.019270226
222	0x3d45545e	0.048176162
223	0xbc75504c	-0.014972758
224	0xbf125187	-0.5715565
225	0xbf0ed7ef	-0.5579824
226	0x3ea1c3b2	0.31594616
227	0x3e3a66ff	0.18203352
228	0xbd942ecc	-0.07235488
229	0xbe7ab5b7	-0.24483381
230	0x3d90b20c	0.0706521
231	0x3dcc7153	0.099825524
232	0xbd32d13c	-0.043656573
233	0x3e9b9ec4	0.30394566
234	0x3da86c37	0.08223765
235	0x3bb34e32	0.005471968
236	0xbb897408	-0.00419474
237	0xbc453640	-0.01203686
238	0xbd1a18ca	-0.037621297
239	0xbd53f6ca	-0.05174903
240	0x3e6b6355	0.22987111
241	0x3b2ace85	0.0026063037
242	0x3e885c6d	0.26633015
243	0x3d91c8f1	0.07118405
244	0x3dcfd976	0.10148899
245	0x3db4df49	0.08831651
246	0x3e0c0df2	0.13677195
247	0xba6ae891	-0.00089610467
248	0x3e34f575	0.1767176
249	0x3dddd92f	0.1083244
250	0xbc1bef56	-0.009517511
251	0x3dbcc6d4	0.09217611
252	0x3ca062c0	0.019578338
253	0x3b4dd041	0.0031404647
254	0xbddb590d	-0.107103445
255	0xbdcddc71	-0.100518115

_mlp.0.bias f4 [32]
0	0xbe8e4fb2	-0.27795178
1	0xbf50a0da	-0.8149544
2	0xbea3f157	-0.32020065
3	0x3ec423fe	0.3830871
4	0xbf1b49f2	-0.60659707
5	0xbf2e4d64	-0.6808684
6	0xbea7c40b	-0.32766756
7	0xbeed6020	-0.463624
8	0xbec90309	-0.39260128
9	0x3db90e18	0.09035891
10	0xbf0926a4	-0.53574586
11	0xbf41c47c	-0.75690436
12	0xbec6e483	-0.38846216
13	0xbe8e1978	-0.27753806
14	0xbe9957e8	-0.2994988
15	0xbf99248b	-1.1964277
16	0xbf8d75f7	-1.1051625
17	0xbe820243	-0.2539235
18	0xbe649e1c	-0.22325939
19	0xbe69cfb4	-0.22833139
20	0x3e7de796	0.24795374
21	0x3ea12e99	0.31480864
22	0xbebe1157	-0.37122604
23	0xbea22b1e	-0.3167352
24	0xbe7bebb5	-0.24601634
25	0xbec66c47	-0.38754484
26	0xbf9938d3	-1.1970466
27	0xbe766706	-0.24062738
28	0xbea7fd99	-0.32810667
29	0xbea706d4	-0.32622397
30	0xbf0fc1c1	-0.5615502
31	0xbf3c41c5	-0.73537856

_mlp.2.weight f4 [32, 32]
0	0x3df77a38	0.12083858
1	0x3d863b8d	0.06554327
2	0x3d6a45d4	0.0571955
3	0xbe8db695	-0.27678362
4	0x3e0f4e1a	0.13994637
5	0xbeb8154f	-0.35953757
6	0x3df847d0	0.12123072
7	0x3daf27b1	0.085524924
8	0x3d7cc36a	0.0617098
9	0x3d6d782c	0.057975933
10	0xbb784c69	-0.003788734
11	0x3cf95a38	0.030438527
12	0x3ce2b93b	0.027676215
13	0x3e003f15	0.12524064
14	0x3e18e07f	0.14929388
15	0x3cc8b562	0.024500553
16	0x3db93227	0.09042769
17	0xbd31696d	-0.043313432
18	0xbde4ce97	-0.111722164
19	0x3dee58b2	0.11638011
20	0x3e55605f	0.20837544
21	0x3d93ba6c	0.072132915
22	0xbd3f4092	-0.04669244
23	0x3da5592b	0.08073648
24	0x3d813d94	0.06310573
25	0x3cc39f8b	0.023879787
26	0xbe8919fb	-0.26777634
27	0x3e56366b	0.20919196
28	0xbcb923f7	-0.022600157
29	0x3e071b1c	0.13193935
30	0xbd10fb29	-0.035395775
31	0xbe4c9009	-0.1997682
32	0xbdfe5f6f	-0.12420546
33	0xbdea1cb4	-0.11431256
34	0xbe2c55dc	-0.16829628
35	0xbd946946	-0.07246642
36	0xbcb06deb	-0.021536788
37	0xbc9a633f	-0.018846152
38	0x3c8faaed	0.017537558
39	0x3df012a6	0.11722307
40	0xbb2123a9	-0.0024587906
41	0xbe87dc53	-0.26535282
42	0x3da31a67	0.0796402
43	0x3d46eaab	0.04856364
44	0x3de138ab	0.10997137
45	0xbe195188	-0.14972508
46	0xbe244983	-0.16043667
47	0x3c45a988	0.012064345
48	0xbd713d83	-0.058896553
49	0xbe0ebb08	-0.13938534
50	0xbe15eaa6	-0.14640293
51	0xbe1be3d6	-0.15223631
52	0xbe676fa8	-0.22601187
53	0xbdcf82dd	-0.10132382
54	0xbd5cd157	-0.05391058
55	0x3c8a9f1d	0.016921574
56	0xbe3a5002	-0.18194583
57	0x3d10cfc7	0.035354402
58	0xbbd53072	-0.0065060193
59	0x3d685a47	0.05672672
60	0x3da9dddf	0.08294272
61	0xbe6020a2	-0.21887448
62	0xbe578ebb	-0.21050541
63	0x3c348cd4	0.011019904
64	0x3d29a938	0.041421145
65	0x3d5fef88	0.054671794
66	0xbd576427	-0.052585747
67	0x3d06a434	0.03287144
68	0x3e4dd93d	0.20102401
69	0x3e47c6c9	0.19509424
70	0xbe81d68a	-0.25358993
71	0x3e2662db	0.16248648
72	0x3d930f4e	0.071806535
73	0x3dec4a58	0.115376174
74	0x3ed8e1a5	0.42359653
75	0x3dddd2fb	0.10831257
76	0x3e2d6d77	0.16936289
77	0xbd1ebf31	-0.038756553
78	0xbc20060b	-0.009767066
79	0x3d47f153	0.04881413
80	0xbe61fad5	-0.22068341
81	0xbd66d3f2	-0.05635447
82	0xbe11835a	-0.14210263
83	0x3f07ec76	0.53095186
84	0xbe590b81	-0.21195795
85	0xb9dedefd	-0.0004250928
86	0xbc00b9dd	-0.007856813
87	0xbdcd5865	-0.100266255
88	0xbdc77990	-0.09739983
89	0x3ec280ea	0.3798898
90	0x3ea7e611	0.32792714
91	0xbc6a22d7	-0.014290533
92	0x3dc863e8	0.097846806
93	0x3d897197	0.06711119
94	0x3e6c2f29	0.23064865
95	0x3e3ee7ff	0.18643187
96	0x3db0c0b1	0.08630503
97	0xbc9e1c04	-0.019300468
98	0xbe1576f5	-0.1459616
99	0xbe0bac1a	-0.1363987
100	0xbe2c0c15	-0.16801484
101	0xbeceb289	-0.40370587
102	0x3e9399f9	0.2882841
103	0x3c4b01ba	0.012390548
104	0x3d91da1b	0.071216784
105	0xbdcb862f	-0.09937703
106	0xbe8042bb	-0.2505091
107	0x3de65df4	0.11248389
108	0x3ea4e6d9	0.32207373
109	0xbdb3852c	-0.08765635
110	0xbcff8973	-0.03119347
111	0xbe43a062	-0.1910415
112	0x3f09ad9b	0.53780526
113	0x3d854c07	0.06508642
114	0x3dea8d11	0.114526875
115	0xbe4809bc	-0.19534963
116	0x3ea98a8a	0.3311351
117	0xbc4f1f1b	-0.012641693
118	0x3e1eb857	0.15500008
119	0x3e14ec37	0.14543234
120	0xbc47c243	-0.012192312
121	0x3ee340a1	0.44385245
122	0x3c740e65	0.01489601
123	0xbd644037	-0.055725303
124	0xbdc10afc	-0.09425923
125	0x3de31faa	0.11090024
126	0xbdb34013	-0.087524556
127	0xbe0f8d6d	-0.14018793
128	0x3e03fec3	0.12890153
129	0x3e71d32e	0.23615715
130	0xbe90cd66	-0.28281707
131	0x3ed6c16f	0.41944453
132	0x3e931f6e	0.28734916
133	0x3dff97c5	0.124801196
134	0xbea77dc8	-0.3271315
135	0x3dd68850	0.10475218
136	0x3d896e35	0.067104734
137	0x3e36298e	0.1778929
138	0x3edfaaaf	0.4368491
139	0x3e6c888e	0.23098966
140	0x3e80c984	0.25153744
141	0xbe52b997	-0.2057861
142	0x3ec193d0	0.37808084
143	0x3e1bb622	0.15206197
144	0xbe386cac	-0.18010205
145	0xbceac9ae	-0.028660621
146	0xbd3733cd	-0.044727135
147	0xbdfdeab5	-0.123982824
148	0xbe9b8a3b	-0.303789
149	0x3e98b801	0.29827884
150	0xbd5128d7	-0.05106434
151	0xbd529d86	-0.051419757
152	0xbe00ca35	-0.12577136
153	0x3e4bbd74	0.1989649
154	0x3e88d11d	0.2672204
155	0xbe8acf6c	-0.27111375
156	0xbd513b58	-0.051081985
157	0x3d780435	0.060550887
158	0x3d412f4b	0.047164243
159	0xbe2fb1cc	-0.17157668
160	0x3dfecff6	0.12442009
161	0x3e78bd8a	0.24291053
162	0xbe297944	-0.16550165
163	0xbca4f5b5	-0.020136693
164	0x3dfd2d1b	0.12362119
165	0xbe919ffd	-0.28442374
166	0x3cee3d41	0.029081943
167	0xbe6f40ba	-0.23364535
168	0xbc6060a8	-0.01369492
169	0xbcccf954	-0.025021233
170	0xbe7a2b1e	-0.2443051
171	0x3db69038	0.08914226
172	0xbeb5e6c9	-0.35527638
173	0x3e4816ba	0.1953992
174	0x3de883c9	0.11353261
175	0x3d877f71	0.066161044
176	0x3e5ea2d6	0.21741804
177	0xbe28aa70	-0.16471267
178	0x3c96a1be	0.018387672
179	0xbda91efc	-0.08257863
180	0x3d8a3abf	0.06749486
181	0xbe12563f	-0.14290713
182	0x3e07d8bb	0.1326627
183	0xbd2f6dc8	-0.042829305
184	0x3da8bf00	0.08239555
185	0xbd43f1ed	-0.04783814
186	0xbef323ed	-0.47488347
187	0x3e002efa	0.1251792
188	0xbc3200b1	-0.010864423
189	0xbdeee086	-0.11663918
190	0xbd691fe6	-0.056915186
191	0xbe831090	-0.25598574
192	0x3d7c30e8	0.061570078
193	0x3ce4b9ec	0.027920686
194	0xbdcc9769	-0.09989817
195	0xbde80383	-0.11328795
196	0xbe0b0713	-0.13576917
197	0x3cc51f29	0.02406271
198	0x3d3c2faf	0.045943912
199	0xbc11691b	-0.008875157
200	0x3cb1dece	0.021712687
201	0xbd999c08	-0.07500464
202	0x3d970cc1	0.073754795
203	0xbcd2c883	-0.025730377
204	0x3a9ab5c2	0.0011803436
205	0x3cdf73f7	0.027276976
206	0x3b9c3feb	0.004768362
207	0xbdc4f190	-0.09616387
208	0x3e230d30	0.15923
209	0x3d133be2	0.03594578
210	0x3dd183b3	0.10230198
211	0x3e277552	0.16353348
212	0xbe1e9066	-0.15484771
213	0xbe2e41b6	-0.17017254
214	0xbe244472	-0.16041735
215	0x3c442ba8	0.011973299
216	0xbde4e2b8	-0.11176056
217	0xbdf73519	-0.120706744
218	0xbd85f001	-0.06539918
219	0xbc8f081d	-0.017459923
220	0xbe6be62e	-0.23037025
221	0xbe159f43	-0.14611535
222	0x3c97f565	0.01854963
223	0xbd18bc82	-0.03728915
224	0xbd25806c	-0.040405676
225	0x3e23c0fc	0.15991586
226	0x3e454275	0.19263633
227	0xbd7d4707	-0.061835315
228	0xbde75448	-0.11295372
229	0xbe35dc45	-0.17759807
230	0x3e7e6749	0.24844088
231	0xbe08fd16	-0.13377795
232	0x3e5a969a	0.21346512
233	0xbd8b393e	-0.067980275
234	0xbcc38799	-0.023868369
235	0x3d68af52	0.056807823
236	0xbe849da0	-0.25901508
237	0x3d4affc4	0.049560323
238	0x3d83a320	0.06427598
239	0x3e9f47d3	0.31109485
240	0x3f0863db	0.5327737
241	0xbc3cfeb2	-0.0115353335
242	0x3cd0f7e0	0.025508821
243	0xbd1576f8	-0.03649041
244	0x3ed61bad	0.4181799
245	0xbdfce03f	-0.12347459
246	0xbb6c91b8	-0.0036097597
247	0x3dfae223	0.122501634
248	0x3d703993	0.058648657
249	0xbdab0ab2	-0.08351649
250	0x3ed62c80	0.41830826
251	0x3e319ca1	0.17344905
252	0xbd62f5ae	-0.05541008
253	0x3dcbe9e3	0.0995672
254	0xbd831427	-0.06400328
255	0xbe3b62ba	-0.1829938

_mlp.2.bias f4 [32]
0	0xbee1f689	-0.44133404
1	0xbef711af	-0.4825568
2	0xbe0e5a10	-0.13901544
3	0x3e4d340e	0.20039389
4	0xbe7b8b02	-0.24564746
5	0xbe6976e3	-0.22799258
6	0xbd3f207c	-0.04666184
7	0x3e28f4b0	0.16499591
8	0x3c9f11a9	0.0194176
9	0xbd56dab9	-0.052454684
10	0xbbaba493	-0.0052381246
11	0x3d1c8ec1	0.03822208
12	0xbf0fc465	-0.5615905
13	0xbecf8ca4	-0.40536988
14	0xbe789ef8	-0.24279392
15	0xbe06f89d	-0.13180776
16	0xbe9930f9	-0.29920176
17	0x3cb75d42	0.022383336
18	0xbb2a1df2	-0.002595779
19	0xbef58ac9	-0.47957447
20	0xbe032831	-0.128083
21	0xbd7fd2dc	-0.06245695
22	0xbd9a6901	-0.07539559
23	0xbf0b3240	-0.5437355
24	0x3e1af916	0.15134081
25	0xbe62c45d	-0.22145219
26	0xbc7c2d40	-0.015391648
27	0xbeaabc89	-0.33346966
28	0xbc472a56	-0.01215609
29	0xbe048a68	-0.12943423
30	0xbda278d5	-0.07933203
31	0xbe90a6e7	-0.28252336

_mlp.4.weight f4 [1, 32]
0	0x3d998efb	0.074979745
1	0x3d2bcd9e	0.04194414
2	0xbccc6b54	-0.024953522
3	0x3e2f62ef	0.17127584
4	0xbe9189a2	-0.28425318
5	0x3cbe5bb2	0.023237083
6	0xbdc96ce5	-0.09835223
7	0x3e8cba4f	0.27485892
8	0xbb5dfb2b	-0.0033871632
9	0xbcf547af	-0.029941408
10	0x3cdf47ce	0.027255919
11	0x3dddf732	0.108381644
12	0x3e0d4523	0.13795905
13	0xbe59b255	-0.21259435
14	0xbe264718	-0.16238058
15	0xbd185906	-0.037194274
16	0x3e327824	0.17428643
17	0x3cdead96	0.027182382
18	0xbd884e11	-0.06655515
19	0x3e5d221d	0.21595044
20	0xbd3d9ef6	-0.046294175
21	0x3de2915b	0.110628806
22	0xbdd248b7	-0.102677755
23	0xbe606f3e	-0.21917436
24	0x3e60ce13	0.21953611
25	0x3d6bb3e8	0.05754462
26	0xbdca392d	-0.09874187
27	0x3ddcacaf	0.10775124
28	0x3c9885b1	0.018618437
29	0x3d398fd7	0.045303192
30	0xbd2f41eb	-0.042787474
31	0xbb32ea9a	-0.0027300478

exp_avg f4 [2, 1, 3, 3]
0	0xba9a6bed	-0.0011781432
1	0xb9ec91c6	-0.00045122037
2	0x39cdd810	0.00039261626
3	0xba064b78	-0.000512294
4	0xb8ea37da	-0.00011168393
5	0x3a014dca	0.0004932551
6	0xb9a19998	-0.0003082275
7	0xb7b7db7f	-2.191751e-05
8	0x39c00ba7	0.00036629775
9	0x3859e5b7	5.195077e-05
10	0xb82d3a19	-4.1300522e-05
11	0x38b2de8e	8.5291555e-05
12	0xb75e7792	-1.3260071e-05
13	0x38da1fb3	0.000104009545
14	0xb8ac968e	-8.229642e-05
15	0x389c6888	7.45813e-05
16	0xb8c25671	-9.266742e-05
17	0x38af67ae	8.363962e-05

exp_avg_sq f4 [2, 1, 3, 3]
0	0x390b07e3	0.00013259011
1	0x38807aa0	6.126356e-05
2	0x38027958	3.1107425e-05
3	0x38f56204	0.00011700767
4	0x37e362c9	2.710651e-05
5	0x383b9053	4.4718687e-05
6	0x37f4bd32	2.9175168e-05
7	0x38f91f85	0.00011879116
8	0x39471190	0.00018984661
9	0x368438a5	3.940501e-06
10	0x368f43c8	4.269623e-06
11	0x36a985d2	5.052171e-06
12	0x36b3a735	5.354081e-06
13	0x36e55bff	6.8354416e-06
14	0x37017348	7.71584e-06
15	0x36df1315	6.6481393e-06
16	0x372b8dfc	1.0225453e-05
17	0x36fa3ea8	7.4578747e-06

exp_avg f4 [4, 1, 3, 3]
0	0x3a0f5721	0.00054680003
1	0x39102c84	0.00013749494
2	0xba15dd5d	-0.00057168846
3	0x3a23a8c3	0.0006243104
4	0xb9bf9eb4	-0.00036548602
5	0xba86d708	-0.0010287473
6	0xb88b75e2	-6.649994e-05
7	0xba2188d1	-0.000616205
8	0xba754775	-0.0009356656
9	0xb8b506d8	-8.632027e-05
10	0xb8790fd1	-5.9380956e-05
11	0xb861edc3	-5.3865613e-05
12	0x38c59656	9.421694e-05
13	0x38cbdf7e	9.721423e-05
14	0x388112d2	6.154705e-05
15	0x383cac4d	4.498316e-05
16	0x3731e530	1.0603384e-05
17	0xb7cf3a97	-2.4703606e-05
18	0x37dfcbe4	2.6678616e-05
19	0xb826aa0b	-3.973585e-05
20	0x38997823	7.317986e-05
21	0xb7d7069f	-2.563308e-05
22	0x38a13b44	7.688117e-05
23	0xb70c07fd	-8.34651e-06
24	0x38c8a282	9.5670126e-05
25	0xb7673af5	-1.37824e-05
26	0x383042f3	4.202402e-05
27	0x3814576b	3.5367364e-05
28	0x3815e16e	3.5734316e-05
29	0x38127059	3.4913744e-05
30	0x3815ead3	3.5743065e-05
31	0x3816fc69	3.5997862e-05
32	0x3813c0bd	3.5227033e-05
33	0x3814d7b7	3.548685e-05
34	0x3815555f	3.5603876e-05
35	0x3814bddd	3.5462774e-05

exp_avg_sq f4 [4, 1, 3, 3]
0	0x381931ca	3.6524412e-05
1	0x38db5bf7	0.000104598636
2	0x38c27c8e	9.273841e-05
3	0x3893e4e9	7.052144e-05
4	0x3845e83b	4.718474e-05
5	0x383bc6f4	4.4769564e-05
6	0x38cf7e7a	9.894087e-05
7	0x3833d431	4.2874544e-05
8	0x37f69895	2.9396537e-05
9	0x35e85dc7	1.731264e-06
10	0x3646b7a7	2.96112e-06
11	0x363b9d73	2.795682e-06
12	0x368f2506	4.266042e-06
13	0x36a022d2	4.772425e-06
14	0x36677b28	3.4493369e-06
15	0x3623264a	2.431118e-06
16	0x3603aa26	1.961956e-06
17	0x356c2d78	8.7983017e-07
18	0x35beb4cb	1.4208721e-06
19	0x360f6832	2.136931e-06
20	0x35ec7fe6	1.7620594e-06
21	0x3609c496	2.052902e-06
22	0x364258ad	2.8959869e-06
23	0x35f4d4b9	1.8241327e-06
24	0x35ef11ad	1.7812032e-06
25	0x35b609f8	1.3562958e-06
26	0x359fbc4a	1.1901222e-06
27	0x35872691	1.0069508e-06
28	0x35823bd7	9.70317e-07
29	0x358448e3	9.855979e-07
30	0x358a2392	1.0292154e-06
31	0x3589f6fa	1.0279175e-06
32	0x3595a4e6	1.1149357e-06
33	0x35918241	1.0841251e-06
34	0x35aa77a1	1.2700804e-06
35	0x359584c1	1.1140002e-06

exp_avg f4 [8, 1, 3, 3]
0	0x3914ec57	0.00014202423
1	0xb8816e87	-6.171787e-05
2	0xb99502b7	-0.00028421517
3	0x38f540ae	0.00011694558
4	0xb945a00b	-0.00018847005
5	0xb9ad7198	-0.00033081765
6	0x37969f80	1.7955666e-05
7	0xb99b24e8	-0.000295914
8	0xb9c3f7cd	-0.00037377924
9	0xb91f933f	-0.00015218275
10	0x389f4ec1	7.59638e-05
11	0x38926c7e	6.982031e-05
12	0x39164c4d	0.00014333539
13	0xb8c13006	-9.211902e-05
14	0xb910b794	-0.00013801298
15	0xb8cefebd	-9.870294e-05
16	0x38ba8778	8.894404e-05
17	0x39122304	0.0001393669
18	0x3825d662	3.9538725e-05
19	0x375dbf74	1.3217203e-05
20	0xb7cd82d5	-2.4498828e-05
21	0x383b5e83	4.4672295e-05
22	0xb610985c	-2.1546357e-06
23	0xb833f833	-4.290808e-05
24	0xb80ce929	-3.359575e-05
25	0xb8a1e699	-7.7200304e-05
26	0xb8d0979f	-9.9464545e-05
27	0x372e3988	1.0384603e-05
28	0x37473c78	1.1875403e-05
29	0x37377d46	1.09368175e-05
30	0x3748d1e1	1.1969795e-05
31	0x372c4732	1.0268575e-05
32	0x371641a4	8.95598e-06
33	0x370f13ff	8.52812e-06
34	0x3726545f	9.914015e-06
35	0x374b2eec	1.2110668e-05
36	0x37b6cdc9	2.1791917e-05
37	0xb86a1713	-5.5811437e-05
38	0x3858e029	5.170718e-05
39	0xb859477e	-5.1803414e-05
40	0x3828fdb3	4.0290597e-05
41	0xb8d960ff	-0.00010365433
42	0x37e2dcff	2.7044209e-05
43	0xb8e74c49	-0.000110291476
44	0xb7178c70	-9.0329995e-06
45	0xb7cbb2a3	-2.428267e-05
46	0xb7d8e992	-2.5857971e-05
47	0xb7cbaba9	-2.4279421e-05
48	0xb7dc755d	-2.6280695e-05
49	0xb7ce97ab	-2.462774e-05
50	0xb7d707d4	-2.5633643e-05
51	0xb7c76e58	-2.3774031e-05
52	0xb7d8eca0	-2.5859394e-05
53	0xb7cf268b	-2.469427e-05
54	0xb718b234	-9.101397e-06
55	0xb719c8f7	-9.166301e-06
56	0xb7179869	-9.035787e-06
57	0xb718d208	-9.108808e-06
58	0xb71839a5	-9.073327e-06
59	0xb719db8d	-9.170629e-06
60	0xb71745e6	-9.016576e-06
61	0xb719139e	-9.124078e-06
62	0xb7195d19	-9.141187e-06
63	0x37ee32da	2.839549e-05
64	0x37f1a546	2.88064e-05
65	0x37efec1d	2.8600969e-05
66	0x37f04ee1	2.864696e-05
67	0x37f28552	2.891073e-05
68	0x37f21563	2.8858607e-05
69	0x37ef0d78	2.8497292e-05
70	0x37f233f1	2.8872835e-05
71	0x37f2eb2c	2.8958159e-05

exp_avg_sq f4 [8, 1, 3, 3]
0	0x379df5b3	1.8830271e-05
1	0x37242382	9.783429e-06
2	0x37de9262	2.6532627e-05
3	0x382d51aa	4.132247e-05
4	0x3787ca10	1.6187347e-05
5	0x381730f5	3.60468e-05
6	0x3812685b	3.49063e-05
7	0x37ab2a93	2.0404614e-05
8	0x37a12a77	1.921247e-05
9	0x37be25a5	2.2667295e-05
10	0x3697c8da	4.523533e-06
11	0x376a2914	1.3957051e-05
12	0x37ffa3e3	3.0474685e-05
13	0x368f848b	4.277162e-06
14	0x379a938b	1.8426936e-05
15	0x37b6c270	2.1786633e-05
16	0x36235999	2.4341045e-06
17	0x3745395b	1.1755469e-05
18	0x376b9ddb	1.4043845e-05
19	0x3723924b	9.749619e-06
20	0x36c8e8b0	5.987553e-06
21	0x36cbb4b9	6.0709103e-06
22	0x36a3f42c	4.886204e-06
23	0x36e6ce52	6.878553e-06
24	0x36be58a9	5.6727627e-06
25	0x371dadc7	9.39839e-06
26	0x376e2036	1.4193405e-05
27	0x352808a6	6.259746e-07
28	0x354823b0	7.455774e-07
29	0x35325177	6.6428714e-07
30	0x35414d75	7.201082e-07
31	0x351bb685	5.80076e-07
32	0x3514fdc1	5.5503557e-07
33	0x350f00be	5.327273e-07
34	0x3514156a	5.516546e-07
35	0x3539067d	6.892731e-07
36	0x36172019	2.2519437e-06
37	0x3609547f	2.0463774e-06
38	0x368fa442	4.2808542e-06
39	0x364dc608	3.066265e-06
40	0x3678fe26	3.7102814e-06
41	0x363ef0f4	2.845246e-06
42	0x362790d0	2.4969231e-06
43	0x369ccc18	4.672922e-06
44	0x364f4ff8	3.0891952e-06
45	0x3500b208	4.7942785e-07
46	0x350c9ab5	5.237919e-07
47	0x34feb751	4.7444567e-07
48	0x3513dc61	5.508246e-07
49	0x3502e3f4	4.876049e-07
50	0x3510452d	5.3744844e-07
51	0x34f0adca	4.4829932e-07
52	0x350c4d47	5.226652e-07
53	0x3507dcbe	5.061264e-07
54	0x349955f2	2.8561004e-07
55	0x349f76cb	2.970249e-07
56	0x34a42876	3.057682e-07
57	0x349d1c36	2.9264055e-07
58	0x34a888c2	3.1391943e-07
59	0x34a4e341	3.071273e-07
60	0x34a290e4	3.0280273e-07
61	0x34ab6328	3.1923378e-07
62	0x34a9d6d2	3.1635005e-07
63	0x33b4479d	8.3949296e-08
64	0x33bb2f13	8.716429e-08
65	0x33c312c3	9.083808e-08
66	0x33bca972	8.785254e-08
67	0x33d04c12	9.699592e-08
68	0x33d42666	9.879004e-08
69	0x33c6aa6e	9.2510945e-08
70	0x33d52f26	9.927162e-08
71	0x33d1723a	9.7530986e-08

exp_avg f4 [16, 1, 3, 3]
0	0xb86c8346	-5.6389043e-05
1	0xb8f4e7da	-0.000116780124
2	0xb91e70ed	-0.00015110122
3	0xb922b396	-0.00015516425
4	0xb90ee010	-0.00013625645
5	0xb8a9928a	-8.085843e-05
6	0xb9444480	-0.00018717535
7	0xb8b0dec2	-8.433826e-05
8	0x37904f37	1.7203025e-05
9	0xb8138e94	-3.5180317e-05
10	0xb8c37e1d	-9.321815e-05
11	0xb907cab1	-0.00012950112
12	0xb90290d6	-0.00012451722
13	0xb8f4ab14	-0.000116666924
14	0xb8913072	-6.9231624e-05
15	0xb928ab30	-0.00016085501
16	0xb8a75a5f	-7.9800135e-05
17	0x37650a53	1.3651867e-05
18	0xb8442620	-4.6765548e-05
19	0x37c93e07	2.3989951e-05
20	0x375fb16b	1.3333144e-05
21	0x3866e599	5.5050103e-05
22	0xb7d45579	-2.531217e-05
23	0xb7dac506	-2.6079371e-05
24	0xb837cedb	-4.382325e-05
25	0x37a043b0	1.9105006e-05
26	0x37cc8d42	2.4384473e-05
27	0xb83d2d74	-4.5103443e-05
28	0x3807f963	3.2418768e-05
29	0x3778243a	1.4790387e-05
30	0x385cf6f8	5.2682095e-05
31	0xb8277c3e	-3.9931612e-05
32	0xb7df65be	-2.6631049e-05
33	0xb83f47e4	-4.5604902e-05
34	0x3814b3d0	3.5453413e-05
35	0x37e2b132	2.7023812e-05
36	0xb7484a24	-1.1938191e-05
37	0xb6b9491e	-5.5219416e-06
38	0x3780a831	1.533711e-05
39	0xb7845486	-1.5774986e-05
40	0x36e10dcd	6.707129e-06
41	0x37dc113e	2.6234073e-05
42	0x37e64c84	2.7453767e-05
43	0x3826768c	3.968789e-05
44	0x3826aa92	3.973634e-05
45	0xb75900ab	-1.2934363e-05
46	0xb77a6b5e	-1.492616e-05
47	0xb7a2ea5d	-1.9421039e-05
48	0xb7c79789	-2.3793213e-05
49	0xb7c65495	-2.3642826e-05
50	0xb7c26af3	-2.3176404e-05
51	0xb844bbc4	-4.6904912e-05
52	0xb82d40ba	-4.1306695e-05
53	0xb8179319	-3.61382e-05
54	0xb6b978ae	-5.5274786e-06
55	0xb6a402a2	-4.8878874e-06
56	0xb6ac1089	-5.1279244e-06
57	0xb69f3148	-4.7443064e-06
58	0xb6b71a67	-5.4568986e-06
59	0xb6c09a6d	-5.7400234e-06
60	0xb6c20727	-5.782483e-06
61	0xb6b8b012	-5.5041246e-06
62	0xb6a57eb9	-4.9321357e-06
63	0xb74aa21b	-1.2077881e-05
64	0xb748b043	-1.1961968e-05
65	0xb746727a	-1.1828373e-05
66	0xb73f249a	-1.1393009e-05
67	0xb741c050	-1.1548473e-05
68	0xb7482895	-1.1930378e-05
69	0xb744c950	-1.1729382e-05
70	0xb74b763d	-1.2127272e-05
71	0xb7452c1f	-1.1752388e-05
72	0xb70a077e	-8.227185e-06
73	0xb780861b	-1.5321237e-05
74	0xb77613b1	-1.4667327e-05
75	0xb7bb773b	-2.2347658e-05
76	0xb7524ae8	-1.2534416e-05
77	0xb7add588	-2.072264e-05
78	0xb7ae11f0	-2.075077e-05
79	0xb756997f	-1.2791133e-05
80	0xb782e21b	-1.5602496e-05
81	0xb7a9cd37	-2.024193e-05
82	0x3830ea32	4.217978e-05
83	0xb860da20	-5.3608906e-05
84	0x38498c56	4.8052832e-05
85	0xb838082b	-4.3876626e-05
86	0x381f1323	3.7926377e-05
87	0xb86025d5	-5.3440996e-05
88	0x3820391d	3.8200164e-05
89	0xb788b508	-1.6296763e-05
90	0x338ec94f	6.649008e-08
91	0x33a14b35	7.510827e-08
92	0x343db475	1.7667647e-07
93	0xb3a5d458	-7.722036e-08
94	0x34473f28	1.8556295e-07
95	0xb3328de4	-4.1572903e-08
96	0x33b1c069	8.277204e-08
97	0xb391a625	-6.78231e-08
98	0x33e9beb6	1.0884598e-07
99	0xb6a65816	-4.95744e-06
100	0xb6b4e99e	-5.3916146e-06
101	0xb6a6319e	-4.9529617e-06
102	0xb6b38b09	-5.3508015e-06
103	0xb6a55500	-4.9272785e-06
104	0xb6ac2a5e	-5.1309316e-06
105	0xb6a6c105	-4.969656e-06
106	0xb6a76df7	-4.9897894e-06
107	0xb6a3b375	-4.87867e-06
108	0xb68b2103	-4.146366e-06
109	0xb68d4b48	-4.2108913e-06
110	0xb68c6abc	-4.1847507e-06
111	0xb68abe2b	-4.134859e-06
112	0xb68cbeb7	-4.1945273e-06
113	0xb68c4f84	-4.181582e-06
114	0xb68957d4	-4.0931427e-06
115	0xb68bd2c5	-4.1670596e-06
116	0xb68b8537	-4.158031e-06
117	0xb6b6ba49	-5.445709e-06
118	0xb6b80bb1	-5.4849884e-06
119	0xb6b9cb24	-5.5370783e-06
120	0xb6b6e449	-5.4505986e-06
121	0xb6b979f4	-5.527627e-06
122	0xb6ba774e	-5.557121e-06
123	0xb6b5a0e2	-5.4129496e-06
124	0xb6b91570	-5.5159253e-06
125	0xb6b8f928	-5.512633e-06
126	0xb6de8856	-6.631987e-06
127	0xb6e265c0	-6.74717e-06
128	0xb6e18879	-6.72141e-06
129	0xb6dfc178	-6.6684406e-06
130	0xb6e35d6e	-6.776004e-06
131	0xb6e2de0c	-6.7611745e-06
132	0xb6dfbea0	-6.6681096e-06
133	0xb6e36f42	-6.7780793e-06
134	0xb6e40be2	-6.796313e-06
135	0xb794c513	-1.7734745e-05
136	0xb792c0a0	-1.7494254e-05
137	0xb78e7b02	-1.6985e-05
138	0xb796b35e	-1.7964918e-05
139	0xb794c664	-1.7735358e-05
140	0xb790836b	-1.7227334e-05
141	0xb79494fe	-1.7712355e-05
142	0xb792d6bf	-1.7504555e-05
143	0xb78eaacd	-1.7007254e-05

exp_avg_sq f4 [16, 1, 3, 3]
0	0x367b50b5	3.7448892e-06
1	0x369d4996	4.687531e-06
2	0x3621803a	2.4065507e-06
3	0x36ce2d85	6.1445776e-06
4	0x3712f303	8.758859e-06
5	0x369192c9	4.338425e-06
6	0x36679bdc	3.4512404e-06
7	0x36aa4fac	5.07567e-06
8	0x36454714	2.939666e-06
9	0x3619a936	2.289727e-06
10	0x365f201d	3.3248282e-06
11	0x35fb251d	1.8711759e-06
12	0x367a709f	3.7318457e-06
13	0x36ce175a	6.141997e-06
14	0x3663c198	3.3938322e-06
15	0x361285fe	2.183369e-06
16	0x366742c4	3.4460545e-06
17	0x36125f6f	2.1811245e-06
18	0x36323c95	2.655933e-06
19	0x35a5be50	1.2348846e-06
20	0x35e7067c	1.7212728e-06
21	0x3673121f	3.622037e-06
22	0x35b1d2f0	1.3248919e-06
23	0x362cfa65	2.5775746e-06
24	0x36389615	2.7505496e-06
25	0x355c8715	8.2152957e-07
26	0x360e3efe	2.1196315e-06
27	0x3601f342	1.9364093e-06
28	0x3543f1c5	7.299498e-07
29	0x3573cea0	9.0825233e-07
30	0x36329f27	2.6616706e-06
31	0x3585ade1	9.959878e-07
32	0x35ad9a08	1.2934333e-06
33	0x360faef8	2.1410506e-06
34	0x3546cacf	7.4055873e-07
35	0x3591353a	1.0818833e-06
36	0x34e3f91b	4.2463293e-07
37	0x34a2545c	3.023623e-07
38	0x3427c886	1.5626037e-07
39	0x32c2ad3a	2.2663347e-08
40	0x33bb2f5e	8.716482e-08
41	0x3459715e	2.0250943e-07
42	0x3478ba92	2.3164674e-07
43	0x34d50308	3.9676547e-07
44	0x34db3763	4.0832228e-07
45	0x353aad47	6.954255e-07
46	0x35ab5d70	1.2767687e-06
47	0x35ad8ef1	1.2931106e-06
48	0x35b38e19	1.3377895e-06
49	0x35f40d96	1.8183371e-06
50	0x35c0e07d	1.437045e-06
51	0x356b3479	8.762068e-07
52	0x3581d75e	9.673929e-07
53	0x350fd383	5.357944e-07
54	0x339f8454	7.428085e-08
55	0x33ca1228	9.4096606e-08
56	0x33c5bd17	9.2079226e-08
57	0x34077e91	1.26189e-07
58	0x33a95e2c	7.8868055e-08
59	0x339d3ae5	7.321595e-08
60	0x33a57d22	7.706173e-08
61	0x339c7cec	7.287039e-08
62	0x33b881eb	8.5917996e-08
63	0x33112149	3.3790716e-08
64	0x32f75d58	2.8797032e-08
65	0x32ebc78b	2.7448342e-08
66	0x32dea600	2.591969e-08
67	0x32e8a55d	2.7083553e-08
68	0x3303f7c3	3.0726152e-08
69	0x32eed0be	2.7801772e-08
70	0x33351e71	4.2170033e-08
71	0x3305bb06	3.1136572e-08
72	0x34c0b21c	3.5892378e-07
73	0x34a405d9	3.0551635e-07
74	0x345e845a	2.072351e-07
75	0x35015b4e	4.818911e-07
76	0x34f81e14	4.6215484e-07
77	0x34c6c0d7	3.7020683e-07
78	0x34b1d3ea	3.3123007e-07
79	0x34d5b876	3.9808555e-07
80	0x34c4728e	3.6591194e-07
81	0x35b05215	1.3136911e-06
82	0x35b09b2a	1.315818e-06
83	0x35fd512b	1.8873592e-06
84	0x35ccd34c	1.526068e-06
85	0x36205c3a	2.389554e-06
86	0x35b4718c	1.3444092e-06
87	0x35e11bac	1.677186e-06
88	0x358a7160	1.0314798e-06
89	0x358687e7	1.0023331e-06
90	0x339f6bd1	7.423626e-08
91	0x33a1b9d1	7.5309465e-08
92	0x33ab10b7	7.9658484e-08
93	0x33a6af31	7.7618445e-08
94	0x33bc7660	8.7759645e-08
95	0x33a706e2	7.7777955e-08
96	0x33b6660c	8.493598e-08
97	0x33ae05bd	8.10355e-08
98	0x33b9a277	8.644286e-08
99	0x34910a9d	2.7016077e-07
100	0x3489cc99	2.5667103e-07
101	0x348e8aec	2.655064e-07
102	0x3485c706	2.491799e-07
103	0x348dc282	2.640482e-07
104	0x348746ae	2.5197136e-07
105	0x348109dc	2.4035296e-07
106	0x3481034f	2.403053e-07
107	0x347a6d59	2.3322845e-07
108	0x32f4ec86	2.8512897e-08
109	0x3301e577	3.024385e-08
110	0x32fdece8	2.9560809e-08
111	0x32ed0d26	2.759641e-08
112	0x32fe9610	2.9637732e-08
113	0x33011923	3.0058015e-08
114	0x32e0c556	2.616677e-08
115	0x32efe2fc	2.7926482e-08
116	0x3300849f	2.992294e-08
117	0x336d7c70	5.5294038e-08
118	0x334f72d5	4.8300382e-08
119	0x3365a237	5.346575e-08
120	0x3349ff59	4.7031197e-08
121	0x3356e606	5.0034963e-08
122	0x3355e377	4.9799805e-08
123	0x3341c327	4.5113804e-08
124	0x336ddbe4	5.5380852e-08
125	0x3347add0	4.649138e-08
126	0x32a33855	1.9001314e-08
127	0x32ab6494	1.9952758e-08
128	0x32a37b02	1.9031635e-08
129	0x32a9151b	1.9683787e-08
130	0x32ac2bde	2.0043384e-08
131	0x32aa2480	1.9807203e-08
132	0x32a36f74	1.902638e-08
133	0x32ac421c	2.0053498e-08
134	0x32a53cfb	1.9236259e-08
135	0x34799c0c	2.3246702e-07
136	0x3470c12f	2.2422022e-07
137	0x3460d79e	2.0940067e-07
138	0x3480cbe8	2.399022e-07
139	0x34774d6b	2.3031832e-07
140	0x34678a24	2.1563807e-07
141	0x347c7f45	2.3515629e-07
142	0x347234f5	2.2557272e-07
143	0x346303fc	2.1142472e-07

exp_avg f4 [32, 60]
0	0x2b768bdb	8.7590845e-13
1	0xab9e2981	-1.1238095e-12
2	0x2b768bdb	8.7590845e-13
3	0xab9e2981	-1.1238095e-12
4	0x2d320fce	1.0121638e-11
5	0x2cd4928f	6.0416737e-12
6	0x2ca55625	4.699146e-12
7	0xabe0bf01	-1.5969172e-12
8	0x2d320fce	1.0121638e-11
9	0x2cd4928f	6.0416737e-12
10	0x2ca55625	4.699146e-12
11	0xabe0bf01	-1.5969172e-12
12	0x2d8e2d04	1.6163522e-11
13	0x2dbf178f	2.1724648e-11
14	0x2d4bb866	1.1580159e-11
15	0x2cd24108	5.975779e-12
16	0x2d852f37	1.5141317e-11
17	0x2c08ef5d	1.9459636e-12
18	0xac1bf907	-2.2165063e-12
19	0xabe743b7	-1.6432332e-12
20	0x2d8e2d04	1.6163522e-11
21	0x2dbf178f	2.1724648e-11
22	0x2d4bb866	1.1580159e-11
23	0x2cd24108	5.975779e-12
24	0x2d852f37	1.5141317e-11
25	0x2c08ef5d	1.9459636e-12
26	0xac1bf907	-2.2165063e-12
27	0xabe743b7	-1.6432332e-12
28	0x2d8355c1	1.4931058e-11
29	0x2d99ae63	1.747153e-11
30	0x2e25fa6c	3.7739076e-11
31	0x2e1a321f	3.5060062e-11
32	0x2dbd8126	2.1544166e-11
33	0x2daf194a	1.9906427e-11
34	0x2d1889f0	8.670828e-12
35	0x2bdf3625	1.5860131e-12
36	0x2d316f7c	1.008604e-11
37	0x2e0e0826	3.22943e-11
38	0xab88f7d9	-9.732173e-13
39	0xac4bb0df	-2.8946218e-12
40	0xac532dd6	-3.0010348e-12
41	0xac4c8c48	-2.9068015e-12
42	0xab6b2c3e	-8.355017e-13
43	0xabf72516	-1.7560699e-12
44	0x2d8355c1	1.4931058e-11
45	0x2d99ae63	1.747153e-11
46	0x2e25fa6c	3.7739076e-11
47	0x2e1a321f	3.5060062e-11
48	0x2dbd8126	2.1544166e-11
49	0x2daf194a	1.9906427e-11
50	0x2d1889f0	8.670828e-12
51	0x2bdf3625	1.5860131e-12
52	0x2d316f7c	1.008604e-11
53	0x2e0e0826	3.22943e-11
54	0xab88f7d9	-9.732173e-13
55	0xac4bb0df	-2.8946218e-12
56	0xac532dd6	-3.0010348e-12
57	0xac4c8c48	-2.9068015e-12
58	0xab6b2c3e	-8.355017e-13
59	0xabf72516	-1.7560699e-12
60	0x80000004	-6e-45
61	0x80000004	-6e-45
62	0x80000004	-6e-45
63	0x80000004	-6e-45
64	0x00000004	6e-45
65	0x00000004	6e-45
66	0x00000004	6e-45
67	0x80000004	-6e-45
68	0x00000004	6e-45
69	0x00000004	6e-45
70	0x00000004	6e-45
71	0x80000004	-6e-45
72	0x00000004	6e-45
73	0x00000004	6e-45
74	0x00000004	6e-45
75	0x00000004	6e-45
76	0x00000004	6e-45
77	0x00000004	6e-45
78	0x80000004	-6e-45
79	0x80000004	-6e-45
80	0x00000004	6e-45
81	0x00000004	6e-45
82	0x00000004	6e-45
83	0x00000004	6e-45
84	0x00000004	6e-45
85	0x00000004	6e-45
86	0x80000004	-6e-45
87	0x80000004	-6e-45
88	0x00000004	6e-45
89	0x00000004	6e-45
90	0x00000004	6e-45
91	0x00000004	6e-45
92	0x00000004	6e-45
93	0x00000004	6e-45
94	0x00000004	6e-45
95	0x80000004	-6e-45
96	0x00000004	6e-45
97	0x00000004	6e-45
98	0x80000004	-6e-45
99	0x80000004	-6e-45
100	0x80000004	-6e-45
101	0x00000004	6e-45
102	0x80000004	-6e-45
103	0x80000004	-6e-45
104	0x00000004	6e-45
105	0x00000004	6e-45
106	0x00000004	6e-45
107	0x00000004	6e-45
108	0x00000004	6e-45
109	0x00000004	6e-45
110	0x00000004	6e-45
111	0x80000004	-6e-45
112	0x00000004	6e-45
113	0x00000004	6e-45
114	0x80000004	-6e-45
115	0x80000004	-6e-45
116	0x80000004	-6e-45
117	0x00000004	6e-45
118	0x80000004	-6e-45
119	0x80000004	-6e-45
120	0x2e9d3f14	7.150738e-11
121	0xaed78502	-9.800695e-11
122	0x2e9d3f14	7.150738e-11
123	0xaed78502	-9.800695e-11
124	0x303c2f51	6.846124e-10
125	0x2fdecd81	4.0527584e-10
126	0x2fbdfafe	3.455724e-10
127	0xaf944995	-2.6973326e-10
128	0x303c2f51	6.846124e-10
129	0x2fdecd81	4.0527584e-10
130	0x2fbdfafe	3.455724e-10
131	0xaf944995	-2.6973326e-10
132	0x30989f03	1.1104649e-09
133	0x30cee14b	1.5052505e-09
134	0x304c060b	7.4223355e-10
135	0x2fbfe0ff	3.4902567e-10
136	0x30998472	1.1169858e-09
137	0x2f02f193	1.1909256e-10
138	0xafc00de2	-3.493446e-10
139	0xafd1b967	-3.8148615e-10
140	0x30989f03	1.1104649e-09
141	0x30cee14b	1.5052505e-09
142	0x304c060b	7.4223355e-10
143	0x2fbfe0ff	3.4902567e-10
144	0x30998472	1.1169858e-09
145	0x2f02f193	1.1909256e-10
146	0xafc00de2	-3.493446e-10
147	0xafd1b967	-3.8148615e-10
148	0x3080d7cd	9.37456e-10
149	0x3098c288	1.1114745e-09
150	0x31322d72	2.5928242e-09
151	0x3125e4c2	2.4140694e-09
152	0x30be86eb	1.3862665e-09
153	0x30b15afb	1.2904303e-09
154	0x30164ad3	5.4676014e-10
155	0xadc83f94	-2.2765602e-11
156	0x3035295a	6.590618e-10
157	0x311d8802	2.2923818e-09
158	0xae8ad33b	-6.3130355e-11
159	0xaf80b447	-2.341116e-10
160	0xafebe86d	-4.29114e-10
161	0xafe4c82c	-4.161519e-10
162	0xafe0ce43	-4.089192e-10
163	0xafdd34d7	-4.023721e-10
164	0x3080d7cd	9.37456e-10
165	0x3098c288	1.1114745e-09
166	0x31322d72	2.5928242e-09
167	0x3125e4c2	2.4140694e-09
168	0x30be86eb	1.3862665e-09
169	0x30b15afb	1.2904303e-09
170	0x30164ad3	5.4676014e-10
171	0xadc83f94	-2.2765602e-11
172	0x3035295a	6.590618e-10
173	0x311d8802	2.2923818e-09
174	0xae8ad33b	-6.3130355e-11
175	0xaf80b447	-2.341116e-10
176	0xafebe86d	-4.29114e-10
177	0xafe4c82c	-4.161519e-10
178	0xafe0ce43	-4.089192e-10
179	0xafdd34d7	-4.023721e-10
180	0xb81bf400	-3.7182122e-05
181	0x373b4310	1.1161683e-05
182	0xb81bf400	-3.7182122e-05
183	0x373b4310	1.1161683e-05
184	0xb9188d80	-0.00014548562
185	0x35a6f649	1.2439642e-06
186	0x378a55d7	1.6490854e-05
187	0x378178f8	1.5434329e-05
188	0xb9188d80	-0.00014548562
189	0x35a6f649	1.2439642e-06
190	0x378a55d7	1.6490854e-05
191	0x378178f8	1.5434329e-05
192	0xb9614b83	-0.00021485802
193	0xb97a5238	-0.00023872487
194	0xb91ee128	-0.00015151931
195	0x374ea550	1.2317047e-05
196	0xb922f08f	-0.00015539139
197	0x380f6fe9	3.419808e-05
198	0x37b108ab	2.110408e-05
199	0x379605e9	1.7884146e-05
200	0xb9614b83	-0.00021485802
201	0xb97a5238	-0.00023872487
202	0xb91ee128	-0.00015151931
203	0x374ea550	1.2317047e-05
204	0xb922f08f	-0.00015539139
205	0x380f6fe9	3.419808e-05
206	0x37b108ab	2.110408e-05
207	0x379605e9	1.7884146e-05
208	0xb90ee39b	-0.00013626965
209	0xb907fa49	-0.00012967842
210	0xb939ebcc	-0.00017730816
211	0xb93ebd56	-0.00018190345
212	0xb9473987	-0.0001899955
213	0xb86c78dd	-5.6379347e-05
214	0xb6a1deba	-4.8241027e-06
215	0x37fee86b	3.0387388e-05
216	0xb8a9891b	-8.084086e-05
217	0xb941add2	-0.00018470667
218	0x383dba07	4.5234363e-05
219	0x3820a38d	3.829929e-05
220	0x37b53e76	2.1605967e-05
221	0x37bd8aad	2.2595132e-05
222	0x37980207	1.8120756e-05
223	0x37747e07	1.4572876e-05
224	0xb90ee39b	-0.00013626965
225	0xb907fa49	-0.00012967842
226	0xb939ebcc	-0.00017730816
227	0xb93ebd56	-0.00018190345
228	0xb9473987	-0.0001899955
229	0xb86c78dd	-5.6379347e-05
230	0xb6a1deba	-4.8241027e-06
231	0x37fee86b	3.0387388e-05
232	0xb8a9891b	-8.084086e-05
233	0xb941add2	-0.00018470667
234	0x383dba07	4.5234363e-05
235	0x3820a38d	3.829929e-05
236	0x37b53e76	2.1605967e-05
237	0x37bd8aad	2.2595132e-05
238	0x37980207	1.8120756e-05
239	0x37747e07	1.4572876e-05
240	0x80000004	-6e-45
241	0x00000004	6e-45
242	0x80000004	-6e-45
243	0x00000004	6e-45
244	0x80000004	-6e-45
245	0x00000004	6e-45
246	0x00000004	6e-45
247	0x00000004	6e-45
248	0x80000004	-6e-45
249	0x00000004	6e-45
250	0x00000004	6e-45
251	0x00000004	6e-45
252	0x80000004	-6e-45
253	0x80000004	-6e-45
254	0x80000004	-6e-45
255	0x00000004	6e-45
